DFA-PS/DFA-PS/Experiments/Full-GOP/US/backup/factor/DecisionModel_RatioModule.pt (torch, 78025 bytes, 83 tensors)

weight f4 [8, 4, 3]
00000000: d589 663d e6db d23c 37c2 87be 62ae 3f3d
00000010: df7f d43d fd28 81bd 040c 40be 4e04 a0bd
00000020: 0275 f53d 7a02 c83c 8abc 5fbd 1bf7 02be
00000030: 9bed 0d3e c375 463e 7557 683e e943 113e
00000040: e10e 90be e605 89be d794 05be 4abd 88bd
00000050: 2b77 6dbe f22d 81bd f0c7 82be dc28 8b3e
00000060: b5c3 3ebd f145 513d ccfa 89bd 7425 ecbd
00000070: 6a7b 333e 2fda 1e3e 3c5e 763d 0b41 923e
00000080: 5997 4b3d 500c 84be b099 ca3d aa14 ebbd
00000090: 66d0 e9bd 922a 83bd 81cd ad3d eae0 6fbe
000000a0: b692 78be ad57 e3bd ca02 4f3d 1d58 b9bd
000000b0: 0eb5 2e3e a70e 89be 4962 893e 0773 6dbe
000000c0: a348 5c3e edf5 253e 6914 09bd 301a 71be
000000d0: 2219 533e 4d64 acbd 3192 693d d651 f03c
000000e0: 83e7 253e b5a9 903e cf55 0f3e ce7b 73be
000000f0: a8c8 8abd 2913 2dbe 3cf4 7f3d 6b79 00be
00000100: b45b c73d e869 08be b7a6 703e e664 643e
00000110: 8b0a 763d 9ad0 69be d299 35bc 47d7 623e
00000120: 5bba 893e ce20 fb3d ae1b 85be 4a6f 263c
00000130: 06b7 2cbe 29b3 67be 1cde 9fbc 7e53 093e
00000140: 8f70 69be 2c39 633e 8d5b 3dbe aea6 673e
00000150: 865b 17bb 4e35 30be 8ebc 6c3c 36e6 23be
00000160: 780f f2bd afdc bc3d ec26 623e 8a31 67be
00000170: 3f30 e5bd 0b09 e9b9 b88b 3dbe 0294 e23c
0.05628379 0.025739621 -0.26515362 0.046797164 0.10375952 -0.06306646 -0.18754584 -0.07813321
0.11985208 0.024415243 -0.054623164 -0.12789576 0.1386017 0.1938086 0.22689612 0.14186062
-0.28136352 -0.26762313 -0.13045059 -0.06676729 -0.2318999 -0.063075915 -0.25543165 0.2717961
-0.04657336 0.051092092 -0.06737289 -0.11530581 0.17527547 0.15512918 0.060148463 0.2856525
0.049704883 -0.25790644 0.09892595 -0.11478551 -0.11416702 -0.06404604 0.084864624 -0.23425642
-0.24274716 -0.11100707 0.05053977 -0.090500094 0.17061254 -0.2676899 0.26832798 -0.2318841
0.21512084 0.16207094 -0.03346673 -0.23545146 0.20615056 -0.08417568 0.057024185 0.029335897
0.16201596 0.28254476 0.13997577 -0.23777696 -0.067765534 -0.1690184 0.06248878 -0.12546317
0.09734288 -0.1332165 0.23501097 0.22304115 0.06006865 -0.22833481 -0.011084037 0.22152434
0.2689999 0.122621164 -0.2599768 0.010158369 -0.16866693 -0.22626938 -0.01951509 0.13410756
-0.22796844 0.22189778 -0.18491955 0.22622177 -0.0023095324 -0.17207834 0.014449252 -0.16005787
-0.11819357 0.092217796 0.2208516 -0.22577491 -0.11190843 -0.0004444796 -0.1851033 0.027658466

bias f4 [8]
00000000: ac3b ea3d 78d5 44be 46ab 213e 4b2a 5abe
00000010: 0f36 13be 0428 473e 6cdd 873e 04e4 4ebd
0.11437163 -0.19222057 0.15787992 -0.21305196 -0.1437609 0.19448858 0.2653612 -0.05051042

weight f4 [8]
00000000: f7ff 7f3f 0300 803f f3ff 7f3f fcff 7f3f
00000010: f2ff 7f3f f7ff 7f3f 0700 803f 0200 803f
0.99999946 1.0000004 0.9999992 0.99999976 0.99999917 0.99999946 1.0000008 1.0000002

bias f4 [8]
00000000: 70a3 42b5 2ce1 b434 6594 3cb5 159a 5ab5
00000010: f114 55b5 e146 a4b4 5396 5235 3495 2ab5
-7.2508465e-07 3.3691447e-07 -7.02514e-07 -8.143555e-07 -7.9379157e-07 -3.0598952e-07 7.8449847e-07 -6.3547054e-07

running_mean f4 [8]
00000000: a7c4 39c5 c534 2ec5 1133 60c5 b6e5 c1c4
00000010: f09a 7f45 52a7 bbc3 6baf 2a45 30d9 7ac5
-2972.2908 -2787.298 -3587.1917 -1551.1785 4089.6836 -375.3072 2730.9636 -4013.5742

running_var f4 [8]
00000000: 5396 894a 453d 984b f12d 254b cefa 474b
00000010: 3c48 224c 193e ec4b 2148 224b 2a0d 6c49
4.5084575e+06 1.9954314e+07 1.0825201e+07 1.310587e+07 4.2541296e+07 3.0964786e+07 1.0635297e+07 966866.6

weight f4 [8, 8, 3]
00000000: b6bc 85bc 7a76 e1bc b759 2cbe 103f 59bd
00000010: 69e1 ba3d 8a33 4c3b eca5 ab3d 5a9b ae3c
00000020: 5451 dabd c8be 033e 11a0 133e 489a b13c
00000030: c3c8 80bd c932 63bd 8697 af3d 967b b5bd
00000040: e2eb 2b3d 1bba 35be 2d1d 9c3d cc6e b83d
00000050: 43f9 d3bd 49a8 4fbd 6e52 133e df7a 373c
00000060: c47a 8fbd 9cd0 02bd 5c1c d83d 18fa f9bd
00000070: e154 33bd 142f 20be 31e8 46ba a18f 36be
00000080: 6b04 0e3e da76 213e 34c4 eb3c c9f0 3f3e
00000090: 25d3 4cbe 04eb 34bd 4af7 8bbb c226 e83d
000000a0: 3168 423e 40b3 aa3c 6b62 20ba b8c0 a13c
000000b0: c611 4cbe 15e0 ec3c 9e97 9a3c 1cc2 783d
000000c0: ac4c 1cbe 85cc 14be c1a7 aabd 4be6 043e
000000d0: 5498 8a3d a870 bf3d 122a 433d df84 10be
000000e0: eebe 93bd 95e5 2a3e f39c 7b3d 8730 1cbe
000000f0: e0e5 f33d 9ea7 20be 293b ee3d 2361 ad3d
00000100: cc4f 923d a12a 62bc 1484 15be 0937 26be
00000110: 34c4 28be 7758 633d c8dc febd 3da9 453e
00000120: 6198 043e 59d9 50be 5241 323e cf35 133e
00000130: ff20 223e 5c46 d03c 9d87 27be 01af d0bd
00000140: 2f57 283e 62c1 413e 9a93 043c 0ef9 083e
00000150: 8e4b 7bbd d0b9 04be 5e77 0e3e e372 423e
00000160: 3b08 84bb 2b6d e9bd 214b c33d 189a f43d
00000170: 0604 103c 0151 873d 6fb5 c1bd b7f6 50be
00000180: 92f9 673c f0ea 10be 97ce 293d f593 173e
00000190: 9018 15be 7610 10be 64f2 ae3d 0669 043e
000001a0: 93ea b4bd 5f09 31be e45a 2c3e e298 3b3e
000001b0: 1bbf 3cbd cb80 09be 88ac 4d3b 8ea9 50be
000001c0: 67c4 0a3e decc 10be 0176 3e3e 258f d1bd
000001d0: 8f4b 94bc c2d5 913d 6e39 27bd d673 a8bd
000001e0: c14b a83d ce3a a0bc f122 adbc c566 f1bd
000001f0: 62ba 2c3d eeab 3c3e 8c27 adbb 9680 34be
00000200: ac35 06bd e2e5 d2bd 760c 18bd fc58 0a3e
00000210: ba33 c03d 067c 1dbe fc6e 773d bf55 143c
00000220: 024f 46be e8b5 00be 1784 103e 9049 6cbd
00000230: 5c56 c23d 0f22 b33d 39bf bcbd f389 da3d
00000240: cd3f 173e e550 c53d e07e 3cbd 639f fabd
00000250: 8628 343e 2a88 25be 6021 19be ee12 e13d
00000260: 465c 1c3e 5e85 2b3e db8e 893d a0a9 e43d
00000270: 00cc 4cbe 94f6 973d c8b3 5a3d 55cf d6bd
00000280: bbac 403e 59bb 423e 94cd 083d 0292 16be
00000290: 103d 28be 1944 89bd e47e c2bd 362f c13d
000002a0: 3c17 29be 53fa 8cbd e7b2 dfbd d7f9 2c3d
000002b0: 72c2 e0bc e307 3c3e f89a ebbd 1815 4abe
000002c0: 9041 973a fb1a 33be 2100 debd df93 9fbd
000002d0: 4ab8 49be 63ba 1b3e df4b f83d b78a 313d
000002e0: d055 f93d dff4 133d c2f1 183e 23a3 a73d
000002f0: 4742 be3c 0649 323e 2022 b83d baa1 3cbd
-0.016325336 -0.027522314 -0.16831098 -0.053038657 0.09125025 0.003115865 0.083812565 0.021314312
-0.10660043 0.12865746 0.14416529 0.021680012 -0.06288292 -0.055468354 0.08573823 -0.08861463
0.041973002 -0.17746775 0.07622752 0.09005508 -0.10350277 -0.0506976 0.14386913 0.011198728
-0.070058376 -0.031937227 0.10552284 -0.12205905 -0.04378212 -0.15642959 -0.00075877 -0.17828228
0.13868873 0.15767995 0.02878008 0.18744196 -0.2000242 -0.04416944 -0.0042714225 0.113355175
0.18985058 0.020837426 -0.0006118181 0.019745216 -0.19928655 0.028915444 0.018871125 0.060731992
-0.15263623 -0.14531143 -0.08332778 0.12978475 0.067673355 0.09347659 0.047647543 -0.14113186
-0.07214151 0.16689141 0.061428975 -0.15252887 0.119090796 -0.15688941 0.11632378 0.08465793
0.07144126 -0.013804109 -0.14601165 -0.16231932 -0.16481096 0.05550429 -0.124444544 0.1930284
0.12948753 -0.20395412 0.1740773 0.14375995 0.158329 0.025424175 -0.16360326 -0.10189629
0.16439508 0.18921426 0.008091832 0.13376257 -0.06135135 -0.12961507 0.13912722 0.18989138
-0.0040293015 -0.11397775 0.09535814 0.119434536 0.008790022 0.06607247 -0.09458434 -0.20406614
0.014158623 -0.14152122 0.041456785 0.14802535 -0.14560151 -0.1406878 0.08542326 0.12930688
-0.08833804 -0.17288731 0.16831547 0.18320039 -0.04608069 -0.13428037 0.0031383354 -0.2037718
0.13551484 -0.1414065 0.18599702 -0.10232381 -0.018102435 0.07120849 -0.040826254 -0.08225219
0.08217574 -0.01955929 -0.021134825 -0.1178718 0.042169936 0.18424961 -0.0052842554 -0.17627177
-0.03276603 -0.10297753 -0.03712126 0.13510507 0.09384866 -0.15379342 0.060408577 0.009053647
-0.19366077 -0.12569392 0.14112888 -0.057687342 0.09489128 0.087467305 -0.0921616 0.10670843
0.14770432 0.0963457 -0.046019435 -0.12237432 0.17593583 -0.16165224 -0.14954138 0.10989939
0.15269575 0.16750094 0.06716701 0.11165166 -0.19999695 0.07420078 0.05339411 -0.10488764
0.18815891 0.1901678 0.03339918 -0.14704135 -0.16429543 -0.06702442 -0.09496859 0.09432833
-0.1651277 -0.06883683 -0.10922795 0.042230453 -0.027436469 0.18362384 -0.11504167 -0.19734609
0.0011539925 -0.17490761 -0.10839868 -0.07791876 -0.19699207 0.1520782 0.12123846 0.04334518
0.121745706 0.0361222 0.14935973 0.08185413 0.023224963 0.17410669 0.08990884 -0.046052672

bias f4 [8]
00000000: 104f c23d 68de f63d 70c5 913d f8ae 17bd
00000010: 3d8e a3bd 7f00 aebd 3a40 acbd 3cf2 863d
0.09487736 0.120541394 0.07117736 -0.037032098 -0.07986114 -0.08496188 -0.08410688 0.06589171

weight f4 [8]
00000000: fcff 7f3f f4ff 7f3f f7ff 7f3f 0100 803f
00000010: 0300 803f 0900 803f 0500 803f 0a00 803f
0.99999976 0.9999993 0.99999946 1.0000001 1.0000004 1.0000011 1.0000006 1.0000012

bias f4 [8]
00000000: 6e5b 30b5 f0fb 45b5 9a4c e9b4 d1ac 9b33
00000010: dacc f934 3a3d 5c35 48ce 9734 b825 6235
-6.5698157e-07 -7.3754836e-07 -4.3455367e-07 7.249185e-08 4.6528913e-07 8.2045483e-07 2.827603e-07 8.424645e-07

running_mean f4 [8]
00000000: 3415 1c3e 4f54 9b3d cad6 4ebd 9031 f33d
00000010: ecfa 28bd 656c 13be fd6b 15bd 21d3 ca3d
0.15242463 0.0758444 -0.050497808 0.11874688 -0.041254923 -0.14396818 -0.03647994 0.09903551

running_var f4 [8]
00000000: c1a0 b53e 552a d73e df3e ca3e 11a1 0c3f
00000010: 2585 bf3e 4551 b43e 76b5 ce3e 883b bc3e
0.35474208 0.42024484 0.39501092 0.5493327 0.3740627 0.35218254 0.4037282 0.3676417

weight f4 [8, 4, 1]
00000000: 3bdf edbe f89c 1ebd ffeb 0e3e aed3 76bd
00000010: 6bb4 cfbe ea01 c33d 2d59 bc3e 87ae c8be
00000020: 8648 753e af21 a63e 7fb4 9bbe 2b18 e03e
00000030: 3fec 6abe 1f6f 9dbd 562e 9a3d ea94 0ebe
00000040: 091c c1be ea6e d43e e790 f2be 37ea e9be
00000050: 6657 ebbd 4349 a53e c2da 573e d60b 4a3e
00000060: 327a 163e aa4c e7be 8c69 adbe 13c5 3cbd
00000070: 4564 2d3e 7e65 953d 8122 bdbe 39b2 ba3e
-0.46459374 -0.038723916 0.13957213 -0.060260467 -0.40567335 0.095218495 0.36786786 -0.39195654
0.23953447 0.32447574 -0.30411145 0.4376844 -0.22941683 -0.0768721 0.07528369 -0.13923994
-0.37716702 0.4149087 -0.47376177 -0.45686504 -0.11491279 0.32282457 0.21079543 0.19731078
0.14695051 -0.45175678 -0.33869588 -0.046086382 0.16932781 0.07294749 -0.36940387 0.36464098

bias f4 [8]
00000000: 8cba b03e ec4c a3be 98bd 5e3e 24d4 2dbe
00000010: 306f de3e d8ae 94be a0f9 eb3e 5cfa 2bbe
0.34517324 -0.31894624 0.21752012 -0.16975456 0.43444204 -0.29039645 0.46088886 -0.16794723

weight f4 [8]
00000000: 0a00 803f f7ff 7f3f 0200 803f 0800 803f
00000010: f5ff 7f3f faff 7f3f f5ff 7f3f 0900 803f
1.0000012 0.99999946 1.0000002 1.000001 0.99999934 0.99999964 0.99999934 1.0000011

bias f4 [8]
00000000: c5c5 d833 6d91 72b4 ae57 22b4 5b07 4b35
00000010: 98d4 2d34 84af 3535 7102 85b4 7311 2335
1.0094258e-07 -2.2590912e-07 -1.5119323e-07 7.5634097e-07 1.6189222e-07 6.7683163e-07 -2.4774957e-07 6.0747624e-07

running_mean f4 [8]
00000000: d98c b6c4 e941 13c6 2559 2446 d66b 51c5
00000010: 399c 2bc6 92fd 9345 ebe7 89c4 a3e5 0846
-1460.4015 -9424.478 10518.286 -3350.7397 -10983.056 4735.6963 -1103.2474 8761.409

running_var f4 [8]
00000000: c5a9 b947 8f7b 764a b432 9a4a 8f9d fa48
00000010: 53a9 af4a 3f0f 8349 51ee a147 f0fe 544a
95059.54 4.0383718e+06 5.052762e+06 513260.47 5.7560735e+06 1.0736399e+06 82908.63 3.489724e+06

weight f4 [16, 8, 3]
00000000: 0750 d73d fae2 28be fd0a 0b3c 0918 21be
00000010: 60b8 42bd 8776 b1bd 717d 213e c867 a93b
00000020: aba3 e5ba cbb3 0b3e 4a8e 143e e75b 4ebe
00000030: d4fd ef3c 7edd 613d 0697 f63c fa85 413d
00000040: dbf3 20bd e68b 2bbd 4276 493e e592 b5bd
00000050: f914 d1bd 4b9d 27bd 7cb5 babd 1e24 07be
00000060: ea4f 22bd 9d5a 053e 42e3 683d 22de 92bc
00000070: b25b 713d 1f46 44be 70c5 0dbe 355d aebd
00000080: 833c 1c3e da4e 34be b80a 2e3e 27d0 563d
00000090: 13a4 10bd 204a 2abe 0331 ed3d 8094 39be
000000a0: 99d8 fa3d 1317 d53d 9b5c 01be 5b0e a63d
000000b0: b476 1b3d 3414 34be 5cbb 9e39 43e1 e93d
000000c0: 72d2 023d 6abd 1dbe 31aa d4bd 9f31 f63d
000000d0: 45a2 ffbc 9c83 743d 0c95 63bc 82a4 413d
000000e0: 44f0 fdbd d194 9dbd b9e0 33bd 0a60 db3d
000000f0: d42c 323e 4726 383e f1ae bcbd e58a 1a3d
00000100: 641e 063d 8310 023e 64d8 cd3d 0dea 863d
00000110: 3a4f 2b3e 6bfc 3d3e 41a7 123e 0e68 ff3d
00000120: 305c 37be f622 33be 7209 e93d 51c7 963c
00000130: 579a 0a3e 27d1 d63d c463 49bd 5ecc 3b3e
00000140: cc60 af3d 59a6 6d3c 96b9 3d3d 41d0 c23d
00000150: 73e3 6fbc bfdc 023e e804 04be a029 413e
00000160: 559f 31be 3c80 6ebd e8e7 463e 39e8 03be
00000170: d6e9 31be 9128 2fbe 6d1e 4ebe 5e2e 4ebe
00000180: 579a a43d d728 733d a3c6 463e 6ce3 e8bd
00000190: e0db a03d a6e3 463e e001 463d 671c a8bd
000001a0: d89d 07bd 78c9 f5bd 505e 4c3e f5f6 4ebe
000001b0: 8f21 3a3e 11c3 ccbc 4c2f a43d c774 e33d
000001c0: 21aa f03d 9e52 c13d ceae 283d 258e 003e
000001d0: 7bcc 9ebd b25d cfbd 1627 7e3d f27f 973d
000001e0: d2af 28be d1b1 c6bd 35b1 23be 76b5 283c
000001f0: d28a e93d b8e2 d5bd b897 283e 0f53 643d
00000200: b447 273e 4a6d e8bc 4b03 97bd b3b4 48be
00000210: e1ac 96bb be13 2bbe 2df9 0dbd ed51 4d3e
00000220: 7f93 9b3d ce55 aa3d 83b4 1abd 916c a13d
00000230: 528c 0f3e 4085 e73d 1ca4 233e e718 2b3e
00000240: 49dd 07be 0da5 0dbe b6b6 d1bd 6955 f93d
00000250: 15d1 be3d b86d 91bc 7766 3f3e da64 9fbd
00000260: b3f5 d53d 9dce 10be 2dad 2bbe 6ed3 0c3e
00000270: 1286 45be 3cd4 293e 45d1 19be c532 3cbe
00000280: 6b14 1fbe 1415 373e 98c2 49be 3b37 b6bd
00000290: e80c fb3d 4b17 9cbd a389 2cbd 3c0b 8ebc
000002a0: 2aed afbd e10e 173e f6ad 0f3d b510 243d
000002b0: a6e1 7abd 7cd7 bd3c 4a61 3ebd 7d8b 4d3d
000002c0: c77d 10bc 9c35 073d 1c0c 043d f39c 81bc
000002d0: 135a d83d 643f fd3d b3dd 89bc 2bbc 733d
000002e0: f862 49be 38c2 2bbe 5ba9 41be be0c 07be
000002f0: a0d3 36be c7b7 fbbd f45d ee3d f4f2 2cbe
00000300: 5210 3fbe d174 0ebd f754 62ba 8697 3d3e
00000310: 29cf 893c 8bb2 32bd 0fce a9bd dc0f aa3d
00000320: 259d 2dbe c93b 06be 5b5f fdbd 5b7d 243e
00000330: 51a8 d0bd e2dc 713c d93c 30be 04bf c33d
00000340: 4305 83bd bdb9 08be 795a c83c e6f9 48bd
00000350: 8b74 50bd f2d8 da3d 022f 423e 9f0b ca3c
00000360: c36e d9bd d308 dc3d d773 c83c c1da 3ebe
00000370: 0e25 ae3d c904 0cbe e185 9fbd 4f52 153d
00000380: fc3f c43d 9d2c 1b3e 4be0 133e bbe1 14bd
00000390: 60eb 4b3e 53d8 cdbd 6298 173e c6e9 3c3d
000003a0: f6e9 2cbe c291 0e3d bc6e 7bbd 8487 38bd
000003b0: cb2b 04bd ed75 b73d c1a9 9d3d 8570 0e3c
000003c0: 0fe0 a33c df21 1bbd 83c3 3fbe bc63 2f3e
000003d0: 7ff1 12be a608 c43d 84b0 44be e2fa f13d
000003e0: eb30 6fbd d523 6abd 573a 44be 9dc3 94bd
000003f0: be1a b3bc becf e6bd d354 cc3d eb31 e03d
0.10513311 -0.16492835 0.0084865065 -0.15731825 -0.047539115 -0.086651854 0.15770508 0.0051698424
-0.001752009 0.13642804 0.14507404 -0.20152245 0.02929584 0.055142872 0.03010131 0.04724691
-0.03929506 -0.041881464 0.19674018 -0.088659085 -0.10209078 -0.04092149 -0.09116647 -0.13197371
-0.039626993 0.13022847 0.056857355 -0.017928187 0.058925338 -0.19167374 -0.13844848 -0.085138716
0.15257458 -0.17608204 0.16996276 0.052444603 -0.035312723 -0.16629839 0.11581614 -0.18123055
0.12248344 0.10404792 -0.12632982 0.08108207 0.037955 -0.17585832 0.00030275702 0.114199184
0.031938978 -0.15404287 -0.10384024 0.12021183 -0.031205306 0.059695825 -0.013890516 0.047276028
-0.12399343 -0.076944 -0.043915484 0.10711677 0.17399913 0.17983352 -0.09213055 0.037730116
0.032743827 0.12701611 0.10051039 0.065876104 0.16729441 0.18553321 0.14321615 0.12471019
-0.1790626 -0.17493805 0.11378755 0.018405588 0.13535438 0.104891114 -0.04916741 0.18339679
0.085633844 0.014504992 0.046319567 0.095123775 -0.01464163 0.1277952 -0.12892497 0.18863535
-0.17345937 -0.058227763 0.19424403 -0.12881555 -0.17374358 -0.17105319 -0.20128794 -0.20134875
0.080372505 0.05936512 0.19411711 -0.11371502 0.07854438 0.19422778 0.048341632 -0.08208542
-0.033109516 -0.12001318 0.19957852 -0.20211394 0.18176864 -0.024995359 0.08016834 0.11106258
0.117511995 0.09439586 0.04118233 0.12554224 -0.07753845 -0.10125293 0.062048994 0.073974505
-0.1647332 -0.097018845 -0.15985568 0.01029717 0.11403431 -0.10443634 0.16464126 0.055743273
0.16335946 -0.028372426 -0.07373675 -0.19600181 -0.0045982455 -0.1670675 -0.03466146 0.20050783
0.07596492 0.08317147 -0.037769806 0.078820355 0.14018372 0.11304712 0.15980572 0.16708718
-0.13268007 -0.13832493 -0.102399275 0.12174494 0.09317223 -0.017752513 0.18691431 -0.07782908
0.10447254 -0.14141317 -0.1676528 0.13752529 -0.19289425 0.16584867 -0.15021236 -0.18378742
-0.15535133 0.17879134 -0.19703138 -0.08897253 0.12258321 -0.0762163 -0.042123448 -0.017339341
-0.08590157 0.1475177 0.03507801 0.040054996 -0.06125035 0.02317404 -0.0464795 0.050181855
-0.00881905 0.03301011 0.03223811 -0.01582191 0.10564055 0.123656064 -0.016829347 0.059505623
-0.1966666 -0.16773307 -0.1891226 -0.13188455 -0.17854166 -0.12290912 0.11639014 -0.16889554
-0.1865857 -0.034779374 -0.00086338766 0.18514833 0.016822414 -0.043627303 -0.08291256 0.08303806
-0.16954477 -0.13108744 -0.12371703 0.16063444 -0.10188354 0.014762135 -0.17210712 0.09557918
-0.06397488 -0.13352104 0.024457203 -0.049066447 -0.050892394 0.1068591 0.18963245 0.024663744
-0.10616829 0.107438706 0.0244693 -0.18638135 0.08503161 -0.136737 -0.07789207 0.03645545
0.095825166 0.15153737 0.1444103 -0.036348086 0.19914007 -0.10051026 0.14804223 0.04612138
-0.16886124 0.034806974 -0.0613849 -0.045051113 -0.032268327 0.089580394 0.076983936 0.008693819
0.0200043 -0.0378741 -0.18726926 0.1712789 -0.14349936 0.09571962 -0.1920796 0.1181543
-0.05839626 -0.05716308 -0.1916288 -0.07263873 -0.021863338 -0.112700924 0.099771164 0.10947021

bias f4 [16]
00000000: f43d 3e3e f05c f8bc 74ec cdbd 70f1 853c
00000010: 0068 5b3d 9ec2 1e3e 1c7e 25be fde2 ffbd
00000020: 17cd d3bd 2c9f 7bbd 5c23 373e 3ef8 fbbb
00000030: 288d f03d ff1f 10be 6a2f 4dbe c011 143e
0.1857832 -0.030317754 -0.100548655 0.016350478 0.05356598 0.15503928 -0.16161388 -0.124944665
-0.10341852 -0.061431095 0.17884582 -0.007689505 0.117456734 -0.14074706 -0.20037618 0.14459896

weight f4 [16]
00000000: ffff 7f3f 0700 803f f7ff 7f3f f8ff 7f3f
00000010: feff 7f3f f0ff 7f3f 0700 803f f3ff 7f3f
00000020: f9ff 7f3f f3ff 7f3f 0200 803f 0900 803f
00000030: 0a00 803f fdff 7f3f 0300 803f fdff 7f3f
0.99999994 1.0000008 0.99999946 0.9999995 0.9999999 0.99999905 1.0000008 0.9999992
0.9999996 0.9999992 1.0000002 1.0000011 1.0000012 0.9999998 1.0000004 0.9999998

bias f4 [16]
00000000: 99b8 59b3 8ecf 4135 6f88 0ab5 5eb1 35b5
00000010: 4504 2a35 5198 4eb5 769e 4d35 5a08 e7b4
00000020: cbe0 0fb5 4de1 46b5 8288 51b5 8cba 3335
00000030: 0ba4 4535 32fd d934 6453 1134 afe8 f5b4
-5.069214e-08 7.2200135e-07 -5.1607543e-07 -6.768586e-07 6.333615e-07 -7.696263e-07 7.659904e-07 -4.303318e-07
-5.359877e-07 -7.4088604e-07 -7.805721e-07 6.695416e-07 7.362693e-07 4.0603624e-07 1.3534515e-07 -4.5804106e-07

running_mean f4 [16]
00000000: 076e c6bd fb4c 2abd ba44 553e 77ac 11be
00000010: 703b 8b3e 3921 473e 23e3 79be 7c5e f9bd
00000020: a8a6 e2bd 7cb0 80bd 0b74 9abd 749d 62bd
00000030: db50 ad3e 3e6b d53c 6c2e 11be fb84 22bd
-0.09688955 -0.04157732 0.20826998 -0.14225946 0.27193785 0.19446267 -0.24403052 -0.121762246
-0.110669434 -0.06283662 -0.07541665 -0.05532594 0.3385075 0.026052114 -0.14177865 -0.0396776

running_var f4 [16]
00000000: c082 073f 521c f93e c6da c33e c5a5 da3e
00000010: 5c50 f93e 7624 4d3f 80d2 eb3e 0b66 c63e
00000020: 9400 d03e 7097 ba3e 8787 bf3e 57a4 fc3e
00000030: 69c3 e83e afb2 f33e 3d4b e13e 70dc cf3e
0.52933884 0.4865442 0.38252848 0.42704597 0.48694122 0.8013376 0.46059036 0.38749728
0.4062544 0.36443663 0.37408087 0.4934413 0.45461586 0.47597262 0.44002715 0.40597868

weight f4 [16, 16, 3]
00000000: 5c90 323d 7bc8 b23d 2b05 ad3d a25a 73bd
00000010: 0297 c73b 0614 47bd 5059 5b3c 5986 24bd
00000020: 7d75 873d 5ba6 8dbd dc79 a13c f382 06be
00000030: ed7a e2bd 5b95 c93d 358b bfbd 2ef4 3bbd
00000040: 2c6b e3bd f38e 713d 6b23 b23d 2b88 0abe
00000050: 0bd3 053e 6a27 d8bc 538b 02bd 40a5 a53c
00000060: 6d30 11be 00c5 6abd 3305 8b3c d723 913d
00000070: 1243 eb3d afd9 30bc 5f7a 09be fcb8 c73c
00000080: 97c7 f8bd e84e 073e 37ae ae3d 107f 9dbd
00000090: 1fe6 a43d 0f8f 103d d7c5 86bd 2544 663d
000000a0: 6a43 9abd 5cca 2cbd 450f 83bd 8414 2b3d
000000b0: c289 b93d 161c a0bd 804f 50bc c43c 2439
000000c0: 325b c1bd 5f40 fdbd 0b0a bdbb 3dd6 c73d
000000d0: 60bd 183d 847c b53d 99cf b7bd ae7a afbb
000000e0: 95db da3c 202b e3bd b635 4dbd c3c3 0bbe
000000f0: f868 313d 457e 923d a40c fcbd 409c d4bd
00000100: 4fc3 e7bc 8e86 debd 8d04 0b3e f38b ccbd
00000110: bc55 b4bd 2cc1 09be 4cf9 06be ef47 f63d
00000120: d654 023e a8a6 713d 15c1 343d 03c9 8abd
00000130: a5d4 ba3d c981 3d3d b136 f33d b090 253c
00000140: 8397 bb3d 64a2 1b3b d15f 13bd 0be3 093e
00000150: c76e 36bd f0de 66bd 7059 93bc 4f17 d63d
00000160: 7ede 693c 908f e43c 185a d63d e17c 0e3e
00000170: 5e00 833d e4ae 82bd 4e27 a83d 98bc 8c3d
00000180: e8d6 d43d 8be4 f9bd 4397 d03d 4d85 9a3c
00000190: 7209 d33b 76a2 8bbd 7867 e2bc c4e3 11be
000001a0: 95b6 56bd 10fb 1fbd 8eda 053e ea32 e7bd
000001b0: af85 6d3d 95ca df3c a6b7 0c3e 24e0 fd3d
000001c0: 4755 2abc 9def 7b3d 5e9f 4abb 97ef d43d
000001d0: 687a 9ebc d52e 94bd 9568 12bd 716d 94bd
000001e0: 3129 e83b 44ec 5cbd 906d 0a3e fdca 953c
000001f0: 0995 08be 7083 c63b e239 243c 787f d2bd
00000200: 69be 8b3c 1626 ac3b 0eb7 25bd 58f5 fcbd
00000210: 0092 71bd 9cd0 033d f83a ce3c 9bbc 023e
00000220: 3c89 d3bd d2f6 7ebd 6695 adbd ccb0 cd3d
00000230: a1dd 40bd 31d0 eebd 3b06 0abe 6e28 8e3d
00000240: 20fe ffbd 41cc 923d a64e 9abd d9b3 0c3e
00000250: 4a2b e6bd 50e0 0c3e 60db 80bd bdbd f0bd
00000260: 6d30 423d f5bf 79bd a8d3 1ebd 5a6a dabd
00000270: 9eb5 47bd 05b8 023e 795a 6d3d 0a04 a0bd
00000280: 4cc6 cb3c c22d 7fbc f650 eabd b6c6 883d
00000290: 7acd d23d 0a62 d7bd a29b 0c3e 5a80 dc3d
000002a0: bdd6 cabd 7dc9 0cbe 90cb 893c 5d68 ce3d
000002b0: 3b1b d63d 6f3e e8bc 0410 6d3b e686 d13d
000002c0: 730a be3d 7dee 023e fde8 3fbd 2127 d2bd
000002d0: 9e0c 763d 0475 af3d 70e2 e5bc 877c a13d
000002e0: f238 04be 402b 1b3b ee0e fbbd ff4f 25bd
000002f0: a818 e73d b297 c8bd 8280 37bd eeab 103e
00000300: eaea b8bd 9468 d1bd 354b a6ba cddd 41bc
00000310: 2a23 8f3d e8c9 313d 7245 7bbd 4db8 a4bd
00000320: 1126 02be 60b2 553d 20ed b6bd abcb b6bd
00000330: 371a aebd 8046 fcbd 22bb 143d 2cc9 3bbc
00000340: d34b 063e 5ae9 8e3b 9d58 bd3c 9f3f 463d
00000350: 6b66 ab3c 8a5d 783d 500a e8bd 4bf0 0bbd
00000360: eac8 d33d 76b9 583d c029 debb 930b 203d
00000370: bd2f 083e 4ac5 8f3d 7850 1abd d4bf 21bd
00000380: c2ca 13be 31c5 ddbc 62df 033e 39e4 5abd
00000390: 4bef 933d 6746 723d 3a01 09be 6bd0 1dbd
000003a0: 0ff0 0bbc cca8 ef3d bb0c e13d 9c55 f7bd
000003b0: 8444 f3bd a58a a1bd 97b3 8c3d 2556 983d
000003c0: 90d1 9f3d d555 78bb e396 b53d 49af b1bd
000003d0: 19bd 3abd ea08 32bd 80db a2ba f789 293d
000003e0: dc62 073e 6a5d 053d a165 be3d 4816 bfbd
000003f0: a738 08be 25b2 df3d ec85 10be 5bce cabd
0.043594703 0.08729645 0.08448251 -0.059412606 0.0060909996 -0.04860308 0.013387993 -0.040167186
0.06614206 -0.069164954 0.019711427 -0.1313589 -0.110586025 0.098429404 -0.093527235 -0.045887165
-0.11104426 0.058974218 0.08698162 -0.13528506 0.13068788 -0.026385982 -0.03187115 0.020220399
-0.14178629 -0.05731678 0.016970253 0.07086914 0.11487402 -0.010794087 -0.13425587 0.0243802
-0.12147444 0.13213694 0.085293226 -0.07690251 0.080517046 0.03529268 -0.06580704 0.05621733
-0.075323895 -0.042185172 -0.06399397 0.041767612 0.09059478 -0.07817857 -0.012714267 0.00015662896
-0.09441222 -0.123657934 -0.0057690195 0.097576596 0.037289977 0.0886164 -0.08975143 -0.0053552007
0.026716033 -0.1109221 -0.05010005 -0.13648896 0.043312997 0.0715299 -0.123070985 -0.10381365
-0.028291373 -0.10865508 0.13575955 -0.09987631 -0.08805415 -0.13452595 -0.13181037 0.12025439
0.12727675 0.058996826 0.04412945 -0.06776621 0.0912259 0.04626635 0.11875666 0.010105297
0.09159758 0.0023747915 -0.03598005 0.13465516 -0.04453924 -0.056364954 -0.017986983 0.104536645
0.014274238 0.027900487 0.10466403 0.13914825 0.063965544 -0.06381014 0.08210622 0.06871909
0.103925526 -0.12201794 0.10185101 0.01886239 0.006440335 -0.06818096 -0.027637228 -0.14247042
-0.052420218 -0.03905779 0.13071653 -0.11289008 0.05798882 0.027318278 0.13741931 0.12396267
-0.010396308 0.06150781 -0.0030917744 0.10397261 -0.019345477 -0.07235495 -0.03574427 -0.07247437
0.0070849885 -0.053936258 0.13518357 0.018285269 -0.13338102 0.006058149 0.010023566 -0.10278219
0.017058568 0.0052535636 -0.040457778 -0.12351483 -0.058977127 0.032181367 0.025174603 0.1276726
-0.1032891 -0.062247105 -0.08475761 0.10043487 -0.04708636 -0.11660803 -0.13478939 0.06941305
-0.12499642 0.071678646 -0.07534532 0.13740481 -0.112387255 0.13757443 -0.062918425 -0.1175494
0.047409464 -0.06097408 -0.03877607 -0.10664816 -0.048757188 0.1276551 0.05794761 -0.078132704
0.024874829 -0.015574874 -0.11441223 0.06678526 0.10293098 -0.10516746 0.13731244 0.107666686
-0.09904239 -0.13748737 0.016820699 0.100784995 0.104544125 -0.028350083 0.0036172876 0.10230808
0.09279337 0.12786289 -0.046853054 -0.102613695 0.060070626 0.08567241 -0.028062075 0.0788508
-0.12912348 0.0023676902 -0.12258707 -0.040359493 0.11284 -0.097945586 -0.04480029 0.14128086
-0.09029181 -0.10225025 -0.0012687208 -0.011832667 0.06989129 0.043405443 -0.061345525 -0.08042965
-0.12709834 0.052172065 -0.08931947 -0.08925565 -0.08501094 -0.12318134 0.036311276 -0.011461537
0.13114862 0.004361314 0.023113543 0.048400518 0.02092286 0.06063608 -0.11330092 -0.034164708
0.10341056 0.052911244 -0.0067798793 0.039073538 0.1329946 0.07020052 -0.037674397 -0.039489582
-0.14432815 -0.027071567 0.12878183 -0.053440306 0.07223376 0.059149172 -0.13379374 -0.03852884
-0.008541121 0.11702117 0.10988756 -0.120768756 -0.11878303 -0.078877725 0.068701915 0.07438306
0.07803643 -0.0037892957 0.0886667 -0.08676011 -0.045590494 -0.043465532 -0.0012425035 0.04139134
0.13221306 0.03255979 0.09296728 -0.09330422 -0.13302861 0.1092265 -0.14113587 -0.099026404

bias f4 [16]
00000000: e857 93bc fce6 d33d 2863 703d 0049 9b3b
00000010: b8e7 f2bc 2056 63bc 78f6 6f3d 38bf f63c
00000020: 30f6 8cbd cc03 8e3d 30b3 6fbc e69a 003e
00000030: a8f9 493d 9caa 36bd c817 dd3d c09a 47bc
-0.017986253 0.10346791 0.058688313 0.004738927 -0.029651508 -0.013875514 0.05858466 0.030120477
-0.06882894 0.06934318 -0.014630124 0.12559089 0.049310356 -0.0445963 0.107955515 -0.012182891

weight f4 [16]
00000000: 0a00 803f f4ff 7f3f f5ff 7f3f 0500 803f
00000010: 0100 803f faff 7f3f ffff 7f3f 0800 803f
00000020: 0500 803f 0500 803f 0700 803f 0200 803f
00000030: 0a00 803f f3ff 7f3f 0100 803f 0300 803f
1.0000012 0.9999993 0.99999934 1.0000006 1.0000001 0.99999964 0.99999994 1.000001
1.0000006 1.0000006 1.0000008 1.0000002 1.0000012 0.9999992 1.0000001 1.0000004

bias f4 [16]
00000000: 1114 4a35 9888 60b5 0137 3eb5 3e01 fcb3
00000010: 40ed 46b4 6ce4 c534 0fae 2bb5 24af 5535
00000020: 4ea6 7db4 660c 6435 fc4b 2035 5d2b ba34
00000030: 45ca 6035 ead1 42b5 9cbb 2835 0f37 df33
7.5280064e-07 -8.364527e-07 -7.0860557e-07 -1.17348904e-07 -1.8526498e-07 3.6860308e-07 -6.395575e-07 7.9603547e-07
-2.3622962e-07 8.495466e-07 5.9715217e-07 3.467675e-07 8.3740844e-07 -7.2576097e-07 6.2857885e-07 1.0394262e-07

running_mean f4 [16]
00000000: 0154 8b3d 7326 de3d 7c17 18bd b255 bc3d
00000010: 80ee 97bd 3775 1d3c 266c d5bd 63e2 a53d
00000020: e509 68bd 0369 83bd c2e5 edbd 6ecb d83b
00000030: 1ca2 e5bd e9cd 093d fef3 2bbd 6b61 e13a
0.06803132 0.10847177 -0.03713177 0.091960326 -0.07418537 0.009610466 -0.10421018 0.080998205
-0.05665006 -0.06416514 -0.116160884 0.0066160476 -0.112125605 0.033643637 -0.041980736 0.001719517

running_var f4 [16]
00000000: 5357 ba3e 707a c83e d820 ea3e 2f1c c83e
00000010: bc4a ca3e cfb4 ca3e 1376 c03e d7b6 ed3e
00000020: f7c1 e63e 7bee c33e 586d bc3e 7da2 043f
00000030: 1641 cd3e cf0b ba3e 7421 e13e 1e6a cd3e
0.36394748 0.39155912 0.45728183 0.39084002 0.39510143 0.3959107 0.37590083 0.46428558
0.45069858 0.38267884 0.36802173 0.5181044 0.4008872 0.36337134 0.43970835 0.40120023

weight f4 [16, 8, 1]
00000000: 90cf 93bd dcfa 223d 5259 9dbe 4c54 7fbe
00000010: cc0d 96be bcd7 2c3e f8f0 a6bc 8731 97be
00000020: c76b 4fbe ce71 af3d 190f 48be bca9 a0bb
00000030: b029 1d3e 7c8a d8bd 9089 6a3d 9940 adbe
00000040: 98bf 9ebe f6a9 aa3e eadb 8c3d 08ef a03e
00000050: 554a ab3d b361 b23d df1e 10bd 0f97 b93d
00000060: e70e 663e 21b3 753e c744 f43d e611 67bc
00000070: dbfe 76be 5c77 13be e110 94be 76a5 84bc
00000080: b2a2 59be 0c74 8ebe 5436 23be 3f18 0fbe
00000090: 8810 5a3e 18ae 54be 81fe 13be 9613 8ebe
000000a0: e3d0 6e3e 9c8e aabe 0f87 0fbe 9ebd 123c
000000b0: e6d3 41be 6625 9bbe 6902 203e 5397 953e
000000c0: ddd4 f7bd 6f78 22bd 6113 5e3e cdbe aabe
000000d0: 8ad3 1dbd f8a0 123e 1443 f5bd 6ff9 40be
000000e0: d286 93bc 4646 1a3e b427 533c 818d 713e
000000f0: ce2f 58be 75cf 50bc 8cde 93bd 20bd 8ebd
00000100: 8966 413d 67cb 18be 0c97 8bbd 8eec 7abc
00000110: 17cb 52be 3c29 a0be 640e 253d a5cd 6ebe
00000120: 761e 9f3d 1e88 8dbd 5b86 053e 5a29 5c3e
00000130: 5ac6 703e 13b4 b4be 8364 4e3d a843 5f3e
00000140: 790d f03d 8bd3 79be 3b45 2fbe e974 c0bd
00000150: 3bfc 183e e221 053e 50f4 4fbe 7f1b cebb
00000160: 6124 dbbd b1a2 87bd b887 8fbd 857b 2a3c
00000170: b3cc 40be 0add 0a3d fba6 f93c 502b 253e
00000180: a83b e03d f10c 8e3e e91e af3e 9816 93be
00000190: 1438 a0be 7eb2 8f3e 187f 86be 506a d43d
000001a0: 3b0d 0f3e 4e7f 263e 70c3 a6be b5f0 88be
000001b0: 021f b9bd 4b1d 1dbe 2cf4 abbe 8132 adbe
000001c0: 816b 23bd 5c9f 803e 2a0a c1bd d3bb 533e
000001d0: ba6d 4f3e cec9 4a3e fc6f 8abe 64a5 173e
000001e0: 08dd b9bd ebfe d13c 7dc4 26be efaf 053e
000001f0: 25a5 15be 00ae a23e d27b 8d3e 4fcd a7be
-0.07217324 0.03979002 -0.30732208 -0.249345 -0.293074 0.16879171 -0.020378575 -0.29529974
-0.20255958 0.085666284 -0.1953701 -0.0049030464 0.15347934 -0.10573289 0.057260096 -0.33838347
-0.3100555 0.33332795 0.06877883 0.31432366 0.08363787 0.08710041 -0.03518569 0.09062015
0.22466622 0.23994114 0.11927181 -0.014103388 -0.24120657 -0.14401 -0.28919128 -0.01619218
-0.2125347 -0.27822912 -0.15938693 -0.13974093 0.21295369 -0.20769536 -0.14452554 -0.27749318
0.23321871 -0.33311927 -0.14016365 0.008956341 -0.18928489 -0.3030197 0.1562592 0.29217014
-0.12101147 -0.039665636 0.2168708 -0.33348694 -0.038531817 0.14319217 -0.11975685 -0.18845151
-0.018008623 0.1506587 0.012887884 0.23589136 -0.21111986 -0.012744774 -0.07220182 -0.069696665
0.047216926 -0.14921342 -0.06815919 -0.015315188 -0.20585285 -0.3128146 0.040296927 -0.23320635
0.07769482 -0.06910728 0.13039534 0.2150015 0.23513165 -0.35293636 0.050388824 0.21803153
0.1172132 -0.24397103 -0.17116253 -0.09397299 0.14939968 0.13001207 -0.20308042 -0.006289899
-0.10700298 -0.06622828 -0.07008308 0.010405426 -0.18828087 0.033902206 0.03047513 0.16129804
0.109488785 0.27744249 0.3420327 -0.28728175 -0.31292784 0.28065866 -0.2626884 0.1037184
0.13969891 0.162595 -0.32570982 -0.26746145 -0.090391174 -0.15343206 -0.33584726 -0.33827594
-0.039897446 0.25121582 -0.09425767 0.20677118 0.20256701 0.19803545 -0.27038562 0.14809185
-0.090753615 0.02563425 -0.16285892 0.13055395 -0.14613779 0.31773376 0.2763353 -0.32773826

bias f4 [16]
00000000: 30c7 de3c b057 9bbd d2aa 713e d623 6fbe
00000010: 6041 8ebe b08d 933d cda8 893e bb3e aa3e
00000020: aab7 fabd 00f4 67bd 6434 94be a8b3 7f3d
00000030: f06f adbe 854f adbe 6c3f 0c3e c2d1 213e
0.02719459 -0.075850844 0.23600319 -0.23353514 -0.27784252 0.07204759 0.26886597 0.33250985
-0.122420624 -0.05662918 -0.2894622 0.062427193 -0.33874464 -0.3384973 0.13696069 0.15802673

weight f4 [16]
00000000: f5ff 7f3f 0100 803f f0ff 7f3f 0100 803f
00000010: 0100 803f 0000 803f fbff 7f3f 0400 803f
00000020: 0600 803f feff 7f3f f8ff 7f3f f6ff 7f3f
00000030: f6ff 7f3f f9ff 7f3f f6ff 7f3f 0300 803f
0.99999934 1.0000001 0.99999905 1.0000001 1.0000001 1.0 0.9999997 1.0000005
1.0000007 0.9999999 0.9999995 0.9999994 0.9999994 0.9999996 0.9999994 1.0000004

bias f4 [16]
00000000: 4db9 1835 e409 1132 736d 33b5 1562 f8b4
00000010: b8bb e734 d3f2 cd34 4544 07b5 13a8 0435
00000020: ca30 a233 055d 4135 7283 0535 83b0 eab4
00000030: ed95 5135 5b05 7534 19b8 ba34 3ece 7a33
5.689406e-07 8.44236e-09 -6.6841966e-07 -4.6264964e-07 4.3163686e-07 3.8360903e-07 -5.0390764e-07 4.941841e-07
7.5525875e-08 7.2033464e-07 4.973764e-07 -4.3714326e-07 7.807674e-07 2.2819351e-07 3.4779148e-07 5.8395237e-08

running_mean f4 [16]
00000000: 5aa5 cfbe ee48 b1be f9b5 9c3e 39bc 92be
00000010: 0f32 34bf 4bce 263d 482f 45bd 620a 033e
00000020: 3cf9 01bf d2d2 263e 9ea8 69be 4f30 8ebc
00000030: b37a 11be 747a 43bf 89ab a63e 49cc c63d
-0.4055584 -0.34625953 0.30607584 -0.28659227 -0.70388883 0.04072408 -0.048140794 0.1279693
-0.50770926 0.16291359 -0.22818229 -0.01735702 -0.14206962 -0.76358724 0.32552746 0.09706933

running_var f4 [16]
00000000: 3b92 d53e 541d f43e 0d46 cd3e 956f be3e
00000010: 085f fa3e b1e0 ca3e 8111 103f ef94 b53e
00000020: 0c0a de3e 3002 f53e 2b69 ba3e 6009 e83e
00000030: 2ddc 2f3f 725c e03e d891 cd3e bfde bf3e
0.41713127 0.47678626 0.40092507 0.37194505 0.48900628 0.3962455 0.5627671 0.3546519
0.4336704 0.4785323 0.36408362 0.45319653 0.68695337 0.4382053 0.40150332 0.3747463

weight f4 [16, 16, 3]
00000000: 0023 043e 7ca2 84bd 6fb3 febb cca6 30bd
00000010: 5e74 0bbd a3c5 813d 9ccf 963d 82c5 d5bb
00000020: 68d8 713d 2e6f cf3d e1ed b73d 948a 133e
00000030: 4427 8f3d e195 1bbd ada5 54bd f62b 0abe
00000040: 9f69 103d b37a 0abe 1c27 d63d e4ed ac3c
00000050: 444d 783d e513 03be 2180 01bd b8f6 b6bd
00000060: 9818 a9bd fcfa d8bc 0365 803d 33b9 10be
00000070: 3441 5abd 2298 783c de3e 42bd 35ec 513d
00000080: 34b5 fabd bcd0 683d 3f61 223d 9d7d d8bd
00000090: b56c 02be 5df6 80bd 4b59 fe3d f47f a3bd
000000a0: e96f f73d 7552 83bd 08d9 333d 65d2 d13d
000000b0: f46e bfbd 9c98 41bd 020b 0cbe 7012 793d
000000c0: bca0 ff3d 83ce e3bd 16c5 ffbd 168b acbd
000000d0: faa8 703d 9f5c 803d 43fb a2bd 7351 a23d
000000e0: 0dcb 08bd d08a a43d 3418 c63d 4647 d3bc
000000f0: f4cf 873d bb6b d9bd da76 0a3e 8487 f3bc
00000100: 29bf 04bb 3e2a e6bd 4e92 d53d f1c9 7c3d
00000110: 0a6b afbd 96b5 a63d a84f 7dbc 10e6 a1bd
00000120: 20c9 023c b7cc 653d 68d0 e6bd 6805 613d
00000130: ca20 99bd 3b97 01bd 4412 38bd 7533 e9bd
00000140: 342c 003d d87f ab3d 9c31 c53d 1b17 3f3c
00000150: 7441 babd 6c8f 023e 2d86 8b3d 207a 013e
00000160: 6cfe 8c3c 6d84 743d c219 bfbd 35dc d4bd
00000170: cca6 cd3c a073 93bb e19f 4bbd b7f3 9abd
00000180: 941f fe3d eba4 dfbd bb48 03be de8b 85bd
00000190: 753c a2bd baea c6bc ac49 f23d 0d6e 6abd
000001a0: 5118 f53c f850 db3d f5d6 483d 1340 463d
000001b0: 00d9 42ba 1b79 c33d 52b9 ba3d d578 9ebd
000001c0: ea31 603d 08f4 fdbc 3046 cabc 9c19 2cbc
000001d0: b6d4 72bd 4f82 a5bd 93b6 06bd fe46 20bc
000001e0: f8ee db3c 66e6 b6bc 9fae b43c 4866 773d
000001f0: 3a7c 02be eeba afbd 04f3 a3bc 6bc2 dcbd
00000200: b0c0 e7bd 7c4f e33d 99d3 da3d 07a7 113e
00000210: d4a6 143d 5725 2abc 15b5 7c3d aba2 80bd
00000220: 9c92 5dbc c327 9abd 08eb 013e 19c7 723c
00000230: 2d35 8a3b c0cb 093b 94cc 103e e78e 3d3b
00000240: 12d1 c43d c95c f73d 052d 003e c500 f4bd
00000250: 36fd 50bd 0a7b a43d e6f4 873d 567d 30bd
00000260: 70c0 8ebd c0c9 dfbc 9957 2b3d 5c85 1ebd
00000270: 3234 b13d 9c0e a43d c653 86bd 34f2 eb3d
00000280: d8cb cb3d d6f1 093c 528b 47bd d7b7 ed3d
00000290: 10a1 893d f6d4 ae3d ed6a a3bb 36b5 0fbe
000002a0: 187b 25bd 9891 cbbb 3c3c f93d 78e1 85bc
000002b0: ae28 d33d 2407 2a3d 6220 dfbd 11d7 993d
000002c0: 726c dfbd 040b 363d ff86 b73d 7d5e bd3d
000002d0: f880 f53c a4f7 75bd 65a1 30bc d802 a73d
000002e0: 916f b8bb 31e8 c83d 94a3 183d cac3 b53d
000002f0: 032e 46bd ac03 723d 1c6e c7bc 64d6 c6bd
00000300: bc7c e13d a770 ddbd 7bbf bfbd 20fe 50bd
00000310: cacf 3f3d 5e59 d9bd 7dd3 9fbd cdc3 14bd
00000320: 734d 6b3d 5801 1f3d 5c31 d93d ea15 dfbd
00000330: 0091 3ebb d78f 663d e46b febc 34f7 c0bc
00000340: 5252 08be b842 e33d 0436 ca3d 6a23 ccba
00000350: 8c70 883d 2032 28bc 8efe 9abd 611b 5cbd
00000360: ce94 02be 44e2 96bd ff1e 88bd c4ad 9fbc
00000370: 2bd3 c03d c68a a53d e0fe 483d 5ec6 a8bd
00000380: 5366 b63d 5cd0 f9bd a2a8 f6bd da30 c53d
00000390: d85b f9bc e9a0 103e 6ac1 fd3d e5aa 09be
000003a0: 2200 753c 6bb7 f2bd 632c 8fbd ec52 8a3d
000003b0: 4de4 0cbd fca7 df3d 8dc8 0e3d 95e6 293c
000003c0: 6c29 1e3d fca9 1fbd 536e 7dbd 4ac1 ad3d
000003d0: b465 363d 0960 0abe 0449 aebc 0ef8 9c3d
000003e0: bc34 853d d8cf c23c 885b 01be 0748 703d
000003f0: 9c8c 943d ed6d e53d 139a eabb 8041 1cbd
0.12903976 -0.06476304 -0.007772855 -0.04312782 -0.034046523 0.06336524 0.07363817 -0.006523789
0.05904427 0.10128628 0.08980919 0.14408332 0.06989911 -0.037984733 -0.051915813 -0.13493332
0.035256978 -0.13523369 0.10456678 0.021109529 0.06062056 -0.12800558 -0.031616334 -0.089337766
-0.08256644 -0.026486866 0.062692665 -0.14133148 -0.05328484 0.01517299 -0.047423236 0.051250655
-0.12241593 0.05683969 0.039643522 -0.10570834 -0.12736781 -0.0629699 0.12419375 -0.079833895
0.12081892 -0.06412212 0.04390815 0.10245208 -0.093473345 -0.04726468 -0.13676074 0.0608086
0.124818295 -0.11123373 -0.12488763 -0.08424966 0.0587549 0.06267666 -0.079580806 0.079256915
-0.03339677 0.08034289 0.09672585 -0.025790822 0.06631461 -0.10616251 0.13521901 -0.029727705
-0.0020255542 -0.11238526 0.10428296 0.061716024 -0.08565338 0.081401035 -0.015460886 -0.07905209
0.007982522 0.056103434 -0.11270219 0.054936796 -0.07476957 -0.031638365 -0.044939294 -0.11386768
0.031292155 0.08373994 0.09628603 0.011663224 -0.090945154 0.12750024 0.068127014 0.12644243
0.017211162 0.059696604 -0.09331085 -0.10393564 0.025103949 -0.0044998676 -0.04971302 -0.07566016
0.12408367 -0.109201275 -0.12820713 -0.06520818 -0.079216875 -0.024281848 0.11830458 -0.05723386
0.029918822 0.10708803 0.049033124 0.04840095 -0.0007432848 0.095445834 0.09117378 -0.07737891
0.0547351 -0.031000152 -0.024691671 -0.010504153 -0.05928489 -0.08081495 -0.03288896 -0.009782551
0.026847348 -0.02232666 0.022055922 0.060400277 -0.12742701 -0.08580576 -0.02001334 -0.1077927
-0.11316049 0.11099145 0.1068489 0.14223872 0.036291912 -0.010384879 0.06169613 -0.062810265
-0.013523724 -0.07527115 0.12687314 0.014817976 0.004217765 0.0021025985 0.1414054 0.0028924288
0.096101895 0.12078244 0.12517174 -0.11914209 -0.05102273 0.0803128 0.066385075 -0.04308828
-0.06970298 -0.027317882 0.041831587 -0.0387014 0.086525336 0.08010599 -0.06558947 0.11520806
0.099509895 0.008419475 -0.04871685 0.1160733 0.06720173 0.08536713 -0.004987112 -0.1403397
-0.040400594 -0.0062124245 0.12169692 -0.016342863 0.103104934 0.041510716 -0.108948484 0.07511724
-0.10909356 0.0444441 0.08961295 0.09246538 0.029968724 -0.06005062 -0.010780667 0.08154839
-0.005628534 0.09809912 0.037265375 0.088752344 -0.048383724 0.059085533 -0.024344496 -0.097088605
0.11010119 -0.10812502 -0.09362694 -0.051023602 0.046829022 -0.106127486 -0.0780401 -0.036319543
0.05744691 0.03881964 0.10605118 -0.10892852 -0.0029078126 0.05628952 -0.031057306 -0.023555376
-0.13312653 0.1109671 0.09873584 -0.0015574519 0.066620916 -0.010265857 -0.07568084 -0.053737048
-0.12752077 -0.073673755 -0.06646537 -0.019492038 0.09415277 0.080831096 0.049071193 -0.082409605
0.089062355 -0.121979445 -0.12043883 0.09628458 -0.030439302 0.14123882 0.123904064 -0.13444097
0.014953645 -0.118513905 -0.06990888 0.06754097 -0.034397412 0.10920712 0.03485923 0.010369916
0.03861372 -0.03898047 -0.06187279 0.084841326 0.044530585 -0.13513197 -0.021275051 0.076645
0.06504199 0.023780748 -0.12632573 0.05866244 0.072533816 0.11202607 -0.0071594804 -0.038148403

bias f4 [16]
00000000: 2445 febc a0f2 ae3c 38d9 cc3c 8227 07bb
00000010: bce9 9fbd 208e f93b cc93 b7bd 1c29 073e
00000020: b0f4 04bc ce95 903d 46f7 84bd 7c13 723d
00000030: d272 b4bd 5431 cf3d c43c b53d 7b49 92bd
-0.031038828 0.021355927 0.025005922 -0.0020622914 -0.07808253 0.0076158196 -0.08963737 0.13199276
-0.008114979 0.07059823 -0.06492476 0.059100613 -0.08810963 0.101168305 0.08849481 -0.071429215

weight f4 [16]
00000000: 0100 803f 0800 803f faff 7f3f f6ff 7f3f
00000010: 0700 803f 0300 803f 0a00 803f 0100 803f
00000020: 0100 803f 0300 803f f7ff 7f3f faff 7f3f
00000030: efff 7f3f f5ff 7f3f fcff 7f3f f8ff 7f3f
1.0000001 1.000001 0.99999964 0.9999994 1.0000008 1.0000004 1.0000012 1.0000001
1.0000001 1.0000004 0.99999946 0.99999964 0.999999 0.99999934 0.99999976 0.9999995

bias f4 [16]
00000000: f0aa 4f35 93be 4535 448d f834 ba2b cf34
00000010: c7ec 1d35 a3fe cfb3 67f7 5a35 1cfc a634
00000020: 5a33 a034 a487 fb34 43b0 35b5 006d ffb3
00000030: 8d2b 5fb5 cebd 61b5 b0e2 8034 a79a 31b4
7.7362256e-07 7.366554e-07 4.6296384e-07 3.858857e-07 5.8831614e-07 -9.685507e-08 8.1571346e-07 3.1103343e-07
2.9839686e-07 4.6851085e-07 -6.768425e-07 -1.189419e-07 -8.313735e-07 -8.4095234e-07 2.4006795e-07 -1.6540672e-07

running_mean f4 [16]
00000000: 5f55 3cbe 9579 debc c939 aebd c739 623e
00000010: 2569 173d edc5 353e dee4 b93d fd32 05bd
00000020: 7f4e 8dbd 3ed9 b83c 9713 8bbd 83b0 f93e
00000030: e35f fbbe 0b5c 9e3e 6188 a6be ebe2 143f
-0.18391941 -0.027157584 -0.085071154 0.22092353 0.036965508 0.17751284 0.09076856 -0.03251933
-0.068997376 0.022564527 -0.06790846 0.4876748 -0.49096593 0.30929598 -0.32525924 0.5815875

running_var f4 [16]
00000000: a691 c73e 3034 c13e 784b c43e 7f71 b83e
00000010: 0056 043f 28e8 d53e ed29 c73e b0cd c13e
00000020: 3604 df3e 3539 bc3e fb72 ce3e 1d95 cd3e
00000030: 02f2 eb3e ec3c cd3e 116e ce3e 96f9 d83e
0.38978308 0.37735128 0.38338828 0.3602409 0.51693726 0.41778684 0.38899174 0.3785224
0.435579 0.36762396 0.40322098 0.40152827 0.46083075 0.40085542 0.4031835 0.4237792

weight f4 [16, 16, 3]
00000000: 6051 e53d 7156 eabd e04e f53b 5e44 07bd
00000010: 9823 9c3d 8c2c dd3d a433 b6bd 4662 9f3c
00000020: 0cb8 033d d76a 9cbd fb2b 1c3d 60a6 05be
00000030: b817 043e e75c 023d 4836 99bc 788e 983c
00000040: 2104 f93d 22a1 d7bd d932 86bd 62c4 d9bb
00000050: 0eb9 26bd 4091 47bc 0d05 eabd c8be b3bd
00000060: 6c7c 8d3d 7298 753d acc3 dcbd 50a0 a4bd
00000070: ed1e efbd d848 f93d 628e 013e ed19 ec3d
00000080: 0058 1abc 9c10 f93d b166 99bd 805f 8eba
00000090: e8cb 9b3d 1da8 473d 74cc 03be 3c57 b23d
000000a0: 7622 0f3e 1abc 8dbd 9419 59bd 17d0 fabd
000000b0: 00e3 37bb 74fb bdbd 5302 e83d b2db c6bd
000000c0: 6294 0f3e cf33 88bc e229 3bbd 4c11 0d3d
000000d0: 2e9a 9c3d 80ba f53c b4ca f13d 1c5d e1bd
000000e0: d8ae e13d d020 8b3c c4d5 a3bd 3474 123e
000000f0: fcb8 c7bc 39d2 733d 9e6b 72bd c8fd dc3d
00000100: 9b3e 09bd e6e4 933d 0e68 983d 0924 2bbd
00000110: cefc 033e 458f 11be 1fee 183d 597e 03be
00000120: 1942 a5bd 4c7d 103e 3434 f83d 98d1 883d
00000130: 7d6f b4bd a508 00be 1651 a23d c9c6 e13d
00000140: 408d 273b ead1 043e 45dd bdbd 7726 05be
00000150: e0d4 013e 4d42 673d 0e38 a3bd b88e a73d
00000160: 2e8c 91bd b0fc 58bc a192 9abd ebd2 21bd
00000170: 6f70 eabd e09a 22bc d484 963c 0801 dd3d
00000180: 68fd 923c 2c94 c8bd 02cb 4abd 8eba 2cbd
00000190: e54d 91bd aabf 03bd 60de 8abc e0af 803d
000001a0: e4d7 fc3d ee76 033e 721b 96bd 2053 1fbd
000001b0: e5b1 0fbe ec1c 053e c7a6 0abe 207d acbc
000001c0: 06f1 11be ca1a c8bd aed3 e2bd 5ca7 f4bd
000001d0: d474 033d ac6d c0bd 10eb b13b 0670 c93d
000001e0: 8634 b8bd 2eef e3bd 5b8c a0bd 4228 92bd
000001f0: 7712 aa3d eed1 06bd 6e1b 70bd 6900 bd3c
00000200: 8889 ebbd 5123 fbbd 41cc 1e3b d251 0e3e
00000210: b489 08be 54ff 0fbe 90b9 d83d eca2 4ebd
00000220: 7f33 083e 48f3 f43d a8c9 793d ff97 863d
00000230: 5865 0a3e 1a24 d5bd 6740 503d ee47 f5bd
00000240: 90c1 c73d d3c4 84bd 66be c8bd aaa8 70bd
00000250: 0ccd 573d 50b1 6b3c 809f 203d ab20 bebd
00000260: 88a2 8c3d 0af2 dbbd 3b25 94bd f09a 6ebd
00000270: 92cb d8bd f3e4 8ebd a02e 933d ce43 033e
00000280: 2979 44bd 709a d13c bc28 083e 63bd 5a3c
00000290: 5b98 eebd 6d44 0abe 5312 6fbd f024 943c
000002a0: 4070 c53c e406 0fbd 9843 07be 08f1 b0bd
000002b0: ef6d b03c 8266 a8bd 1428 6e3d abcb 60bc
000002c0: b470 5ebd 30bc b5bc fdf1 7f3d a064 493d
000002d0: 00e6 58ba 27d8 83bd 6227 0e3e eaab 39bd
000002e0: 4acb 023e 9689 78bd 24fd 5d3d d948 aabc
000002f0: f8c1 9e3c ba0d 823d 3fe3 0c3e 6051 b13c
00000300: 8c35 ecbd 7664 7ebc 3ebb 16bd 7fd2 fbbd
00000310: 90bd a7bb 62eb dcbd 78c9 883d 3b3a febb
00000320: ccf4 ef3d 9372 d3bd cd8c 5bbd 7caa 803d
00000330: 9011 59bd 10b5 fcbd e8d8 04be 3c0f 0ebe
00000340: a3b3 dc3d 98a1 f13d f818 513d df95 c9bd
00000350: a4a9 e93d d0d6 5c3c 1560 99bd 3ccc 223d
00000360: 806c 0fbd f0b5 053d 9689 d4bd 58f2 ae3c
00000370: aa86 763d 80ff e5ba 2207 3dbd 2e3e 50bb
00000380: ccbf 093d 4e18 c0bd 5d27 b2bd c0b4 183b
00000390: 239b ccbd 1e95 3dbd e06f 8c3d 61ef dcbd
000003a0: 8768 c73d 0416 00bd 7088 9dbd 66de 7c3d
000003b0: ca82 103e 1669 8e3d e455 58bd 7031 333d
000003c0: a43b 09be 2a73 023e bc32 d93d 901f 683d
000003d0: 3a77 7a3d 9440 bebc 79cc 08be bbc5 fa3d
000003e0: 708f 8e3c 24bf 973d 828f b43d d08b 54bc
000003f0: 5ee6 06bd 7b01 24bd 4241 e1bd 9a7e 09be
0.11197162 -0.11442269 0.0074862093 -0.033024184 0.076239765 0.10799512 -0.088965684 0.01945604
0.032157943 -0.076375656 0.03812788 -0.13051748 0.12899673 0.03182688 -0.018702641 0.018622622
0.12158991 -0.105287805 -0.06552667 -0.006645725 -0.040703826 -0.012180626 -0.114267446 -0.08776623
0.06908497 0.059959836 -0.10779509 -0.0803839 -0.116758205 0.12172097 0.12651971 0.115283825
-0.009420395 0.12161371 -0.0749029 -0.0010862201 0.076072514 0.04874431 -0.12870961 0.08708045
0.1397799 -0.06920643 -0.05300291 -0.12246721 -0.0028058887 -0.092764765 0.11328568 -0.09709872
0.14021447 -0.016626267 -0.04569424 0.034440324 0.07646595 0.029996157 0.11806241 -0.11004087
0.11019677 0.01698342 -0.07999757 0.1430214 -0.0243802 0.059526656 -0.059184663 0.107905924
-0.03350697 0.07221393 0.07441722 -0.041782413 0.12889406 -0.14214809 0.037336465 -0.12841167
-0.08069248 0.14110297 0.12119332 0.06680602 -0.08810327 -0.12503298 0.07925622 0.110242434
0.002556637 0.12970701 -0.092707194 -0.13002954 0.12678862 0.056459714 -0.07969676 0.08181518
-0.07106815 -0.013243839 -0.075474985 -0.039507788 -0.11447226 -0.00992462 0.018373884 0.10791212
0.0179431 -0.097938865 -0.04951001 -0.0421701 -0.07094935 -0.032165207 -0.01695174 0.062835455
0.12345865 0.12838337 -0.073294535 -0.038897634 -0.14032705 0.12999314 -0.13540183 -0.021055758
-0.142521 -0.097707346 -0.11075531 -0.11945984 0.032093838 -0.09395918 0.005429633 0.0983582
-0.08994393 -0.11129604 -0.07839271 -0.07136585 0.08304303 -0.03291505 -0.05861991 0.023071485
-0.115008414 -0.122625954 0.0024230632 0.138984 -0.1333378 -0.14062244 0.10582268 -0.050448343
0.13300894 0.11960465 0.06098333 0.0657196 0.13515222 -0.104072765 0.05084267 -0.1197661
0.09753716 -0.06482854 -0.098019406 -0.0587546 0.052685782 0.014385536 0.03921461 -0.09283575
0.06866938 -0.10739525 -0.07233664 -0.05825323 -0.10585703 -0.06977262 0.071866274 0.12818834
-0.04796711 0.025586337 0.13296789 0.013350817 -0.11650153 -0.13502665 -0.058367085 0.01808402
0.024101377 -0.03491868 -0.13209379 -0.08639723 0.021536795 -0.08222677 0.05814369 -0.013720433
-0.0543067 -0.022184461 0.062486637 0.04916823 -0.0008274019 -0.06437712 0.13882211 -0.045329966
0.12772861 -0.060678087 0.05419649 -0.02078669 0.0193796 0.063502744 0.13758563 0.021645248
-0.11533651 -0.015526881 -0.03679966 -0.12296008 -0.005119033 -0.10787083 0.06679052 -0.0077584065
0.11716613 -0.10324588 -0.053601075 0.06282517 -0.052995265 -0.123392224 -0.12973368 -0.13872999
0.107764505 0.117984 0.051049203 -0.09843039 0.114093095 0.01347895 -0.07489029 0.039745554
-0.035015583 0.032644212 -0.10377805 0.021355793 0.06018702 -0.0017547458 -0.04614938 -0.0031775343
0.033630177 -0.09379636 -0.08698914 0.0023301095 -0.099905275 -0.046284787 0.06857276 -0.107878454
0.09736734 -0.031270996 -0.07692039 0.061735533 0.14112392 0.06953637 -0.052816287 0.04374832
-0.13401657 0.12739244 0.1060538 0.056670725 0.06114886 -0.023224153 -0.1335925 0.12244745
0.01740238 0.07409504 0.088164344 -0.012972787 -0.03293454 -0.040040474 -0.10998775 -0.13427201

bias f4 [16]
00000000: f83e 663d 564c 63bd 58c5 f43d 68a4 af3d
00000010: 0eb2 0ebe bc78 10bd 1c25 c5bd bc63 c83d
00000020: 4c1a 083e d2a8 33bd a080 063e 1890 3cbd
00000030: a601 d4bd a097 a6bb 4d91 86bd 72a8 acbd
0.056212395 -0.05549272 0.11951703 0.0857628 -0.1393511 -0.03527139 -0.09626219 0.09784648
0.13291281 -0.04386217 0.13135004 -0.046035856 -0.10351877 -0.005083993 -0.06570683 -0.08430566

weight f4 [16]
00000000: f4ff 7f3f 0100 803f 0400 803f 0000 803f
00000010: 0000 803f fcff 7f3f f8ff 7f3f 0200 803f
00000020: 0300 803f 0300 803f f4ff 7f3f 0500 803f
00000030: 0a00 803f f7ff 7f3f 0900 803f 0400 803f
0.9999993 1.0000001 1.0000005 1.0 1.0 0.99999976 0.9999995 1.0000002
1.0000004 1.0000004 0.9999993 1.0000006 1.0000012 0.99999946 1.0000011 1.0000005

bias f4 [16]
00000000: a9cb 59b5 3e07 25b5 2b34 41b4 59e1 b534
00000010: 4a25 3eb5 aca0 2534 dcfd 2ab5 012f 0335
00000020: 22ec 4535 9694 35b5 1c11 78b5 edc0 1a35
00000030: 2066 5e35 27ad 3fb5 a795 1c35 f5dc 3135
-8.1135164e-07 -6.147783e-07 -1.7993504e-07 3.387784e-07 -7.083478e-07 1.5425275e-07 -6.369935e-07 4.88697e-07
7.373184e-07 -6.7643975e-07 -9.2412097e-07 5.7650215e-07 8.2850056e-07 -7.1405015e-07 5.83323e-07 6.6259173e-07

running_mean f4 [16]
00000000: 3a0f b73d f878 38bd ff11 903c 5e9d 493c
00000010: ed17 20be 44aa d53d 6ad0 cd3d 51a0 a33d
00000020: 9446 283e 1851 14be 168c ed3d a87b d1bd
00000030: 62e8 5cbd ed25 53be 1b0f 87bd 1697 c9bc
0.08938451 -0.04503724 0.017586706 0.012305586 -0.15634127 0.10432866 0.100495175 0.07989562
0.16433173 -0.1448406 0.11598985 -0.10228664 -0.053932555 -0.20619936 -0.06594678 -0.024608176

running_var f4 [16]
00000000: 7783 cb3e 60e2 bb3e 8941 be3e 091e ba3e
00000010: a743 bb3e 1026 c73e 45fc bd3e 24bb b83e
00000020: b23b c73e cbb3 c33e f388 c33e ebc5 b73e
00000030: 48eb ba3e 501e c73e 1f52 b63e 042f b83e
0.39748737 0.36696148 0.37159374 0.3635104 0.36575052 0.38896227 0.3710653 0.36080277
0.3891273 0.3822311 0.3819042 0.35893187 0.3650763 0.38890314 0.35609528 0.3597337
