DFA-PS/DFA-PS/Experiments/Full-GOP/US/backup/best/DecisionModel_RatioModule.pt (torch, 78025 bytes, 83 tensors)

weight f4 [8, 4, 3]
00000000: c390 663d 6ed6 d23c 10c3 87be 52af 3f3d
00000010: 2f7e d43d d527 81bd 400d 40be 9b06 a0bd
00000020: d473 f53d d80e c83c a5b7 5fbd eef6 02be
00000030: a9ec 0d3e 6076 463e 1056 683e 1142 113e
00000040: 7c0e 90be b705 89be f896 05be 3cbd 88bd
00000050: 7f75 6dbe 2d31 81bd acc8 82be 1d28 8b3e
00000060: 8dc2 3ebd ea41 513d aefb 89bd d324 ecbd
00000070: b07a 333e dbd9 1e3e 9b5b 763d 4f40 923e
00000080: 6792 4b3d 760c 84be 8598 ca3d ef15 ebbd
00000090: 6ad2 e9bd 7e2c 83bd 18cf ad3d 12e1 6fbe
000000a0: 8392 78be 6f56 e3bd cbff 4e3d 4759 b9bd
000000b0: 44b6 2e3e 460f 89be d161 893e 5c73 6dbe
000000c0: c749 5c3e b2f5 253e a611 09bd 151a 71be
000000d0: 1a18 533e 6164 acbd da92 693d 954b f03c
000000e0: 69e8 253e 4caa 903e 0656 0f3e d57a 73be
000000f0: bdcb 8abd 3813 2dbe 8ef0 7f3d 6d79 00be
00000100: f45a c73d a469 08be 88a6 703e b763 643e
00000110: bb07 763d 47d0 69be c28d 35bc cad7 623e
00000120: 4eba 893e 1f23 fb3d c51b 85be 6369 263c
00000130: 7db6 2cbe eab4 67be 0fe5 9fbc 8153 093e
00000140: a971 69be c039 633e fc5a 3dbe 1ba7 673e
00000150: 7e46 17bb c034 30be d9b7 6c3c 18e7 23be
00000160: 960e f2bd c7dc bc3d 7d26 623e f030 67be
00000170: 6c2e e5bd 417d e7b9 058d 3dbe 148b e23c
0.0562904 0.025737014 -0.26516008 0.046798058 0.1037563 -0.063064255 -0.18755054 -0.0781376
0.11984983 0.02442114 -0.054618496 -0.12789509 0.1385981 0.19381094 0.2268908 0.14185359
-0.2813605 -0.26762173 -0.13045871 -0.066767186 -0.23189352 -0.06308208 -0.25543725 0.27179042
-0.046572257 0.05108825 -0.06737457 -0.11530461 0.1752727 0.15512793 0.060145956 0.2856469
0.049700167 -0.25790757 0.09892372 -0.11478793 -0.114170864 -0.064049706 0.084867656 -0.23425701
-0.2427464 -0.1110047 0.050536912 -0.090502314 0.17061716 -0.26769465 0.2683244 -0.23188537
0.21512519 0.16207007 -0.033464096 -0.23545106 0.20614663 -0.08417583 0.057024814 0.029332915
0.16201939 0.28254926 0.13997659 -0.23777325 -0.06777141 -0.16901863 0.06248527 -0.1254632
0.09734145 -0.13321549 0.23501027 0.22303663 0.060065966 -0.22833358 -0.011081161 0.2215263
0.26899952 0.12262558 -0.2599775 0.010156962 -0.16866489 -0.22627607 -0.019518403 0.1341076
-0.22797264 0.22189999 -0.18491739 0.2262234 -0.0023082788 -0.17207623 0.01444813 -0.16006124
-0.11819188 0.092217974 0.22084995 -0.22577262 -0.11190495 -0.00044153075 -0.18510826 0.027654208

bias f4 [8]
00000000: ac3b ea3d 78d5 44be 46ab 213e 4b2a 5abe
00000010: 0f36 13be 0428 473e 6cdd 873e 04e4 4ebd
0.11437163 -0.19222057 0.15787992 -0.21305196 -0.1437609 0.19448858 0.2653612 -0.05051042

weight f4 [8]
00000000: 2800 803f 0700 803f bfff 7f3f a2ff 7f3f
00000010: 80ff 7f3f 0100 803f 2300 803f 0700 803f
1.0000048 1.0000008 0.9999961 0.9999944 0.9999924 1.0000001 1.0000042 1.0000008

bias f4 [8]
00000000: 59df dd34 fb6b 2a36 b47b 9434 b225 d6b6
00000010: 1845 26b6 1eb8 76b6 8db2 9335 3385 c7b5
4.1326965e-07 2.5394827e-06 2.7657154e-07 -6.3820853e-06 -2.4776145e-06 -3.6764027e-06 1.1004319e-06 -1.4865421e-06

running_mean f4 [8]
00000000: 24f1 31c5 33ac 26c5 aac5 54c5 f4c8 b9c4
00000010: 21bd 7445 9b17 abc3 6788 2345 8dd2 70c5
-2847.0713 -2666.7625 -3404.354 -1486.2798 3915.8206 -342.18442 2616.5251 -3853.1594

running_var f4 [8]
00000000: 9fa6 c14a a593 8b4b f5e1 414b 287e 294b
00000010: fbbc 144c cee6 bc4b 12e1 234b 8ed5 af4a
6.3455515e+06 1.8294602e+07 1.2706293e+07 1.110788e+07 3.8990828e+07 2.4759708e+07 1.0739986e+07 5.761735e+06

weight f4 [8, 8, 3]
00000000: eab4 85bc fc6b e1bc e45a 2cbe c941 59bd
00000010: f8df ba3d d360 4c3b 79a4 ab3d aea9 ae3c
00000020: 994e dabd 97bd 033e eea0 133e 318f b13c
00000030: 29cb 80bd 4e37 63bd b595 af3d 7b7d b5bd
00000040: bee9 2b3d 94b7 35be c91a 9c3d 1a6d b83d
00000050: 6dfb d3bd b2a4 4fbd 8353 133e 6e7d 373c
00000060: 487d 8fbd e6ce 02bd c31c d83d 46fd f9bd
00000070: 9d4f 33bd a62d 20be ddad 48ba 808e 36be
00000080: dd04 0e3e bc75 213e e3d1 eb3c 90ee 3f3e
00000090: 9dd4 4cbe fcee 34bd b100 8cbb a425 e83d
000000a0: c569 423e 0fc1 aa3c 18e2 21ba eebf a13c
000000b0: de12 4cbe 0fd6 ec3c fe9f 9a3c d1c6 783d
000000c0: c44b 1cbe d3cb 14be afa6 aabd 87e5 043e
000000d0: ce9a 8a3d b671 bf3d e528 433d 2d84 10be
000000e0: ffbb 93bd 4de4 2a3e 1aa0 7b3d 3131 1cbe
000000f0: 4ce4 f33d 28a9 20be 1e38 ee3d fe5d ad3d
00000100: 5651 923d 3242 62bc e084 15be a638 26be
00000110: 60c3 28be 6e5d 633d 81da febd 6baa 453e
00000120: 3e99 043e 27d7 50be 4542 323e b336 133e
00000130: bd20 223e 3543 d03c 3787 27be 8bb0 d0bd
00000140: 3d58 283e 2bc2 413e c386 043c a6f9 083e
00000150: 584c 7bbd ddb9 04be 8e76 0e3e 0573 423e
00000160: ac44 84bb f46c e9bd c64a c33d b399 f43d
00000170: 25e8 0f3c 7852 873d f4b2 c1bd 2ff6 50be
00000180: 07fb 673c 89eb 10be eccd 293d 2093 173e
00000190: 0618 15be ee0e 10be dcee ae3d 9a69 043e
000001a0: 57eb b4bd 1a0a 31be 2a5b 2c3e 2a98 3b3e
000001b0: 82bf 3cbd 1381 09be 8885 4d3b fbaa 50be
000001c0: 99c4 0a3e 6bcc 10be f375 3e3e 3990 d1bd
000001d0: 4b4d 94bc 07d5 913d 5338 27bd 5b71 a8bd
000001e0: 7749 a83d 723b a0bc a930 adbc 596a f1bd
000001f0: ceb3 2c3d 1dac 3c3e e15a adbb 9480 34be
00000200: d83c 06bd 6ee9 d2bd 9d05 18bd 5357 0a3e
00000210: 1238 c03d 047a 1dbe c26e 773d ab3f 143c
00000220: 624e 46be a3b5 00be 1c86 103e 504a 6cbd
00000230: b856 c23d 031e b33d bec2 bcbd 2a87 da3d
00000240: ae3f 173e 9d50 c53d 3b84 3cbd e69f fabd
00000250: 2a27 343e f488 25be a222 19be 5c11 e13d
00000260: dc5a 1c3e 4484 2b3e 7490 893d b1a7 e43d
00000270: 77ca 4cbe 89f9 973d fcaf 5a3d f5d1 d6bd
00000280: 0aad 403e c3b9 423e 86d3 083d e692 16be
00000290: a13c 28be 2544 89bd 2f81 c2bd 3e2d c13d
000002a0: 2e17 29be 16f9 8cbd 0fb4 dfbd 86fb 2c3d
000002b0: 1ac7 e0bc de07 3c3e e69b ebbd 6915 4abe
000002c0: ee46 973a 661b 33be c8ff ddbd 9694 9fbd
000002d0: bcb9 49be 23ba 1b3e 3f4b f83d 2689 313d
000002e0: 0055 f93d 72f4 133d 46f1 183e 45a2 a73d
000002f0: 473f be3c 8549 323e f421 b83d 59a2 3cbd
-0.016321618 -0.027517311 -0.16831547 -0.053041253 0.0912475 0.0031185641 0.0838098 0.021321144
-0.106595226 0.12865292 0.14416859 0.021674724 -0.0628875 -0.055472665 0.08573476 -0.08861824
0.04197096 -0.17745811 0.07622296 0.090051845 -0.1035069 -0.050694175 0.14387326 0.011199338
-0.070063174 -0.031935595 0.10552361 -0.12206511 -0.043777097 -0.15642413 -0.0007655302 -0.17827797
0.13869043 0.15767568 0.028786605 0.18743348 -0.2000298 -0.044173226 -0.0042725434 0.113353044
0.1898566 0.02084401 -0.0006175353 0.01974484 -0.19929072 0.028910665 0.018875118 0.06073648
-0.15263277 -0.14530878 -0.083325736 0.12978183 0.06767808 0.093478605 0.047646422 -0.14112921
-0.07213592 0.16688652 0.06143198 -0.1525314 0.119087785 -0.15689528 0.11631797 0.08465193
0.0714442 -0.0138097275 -0.14601469 -0.16232547 -0.1648078 0.055509023 -0.1244402 0.1930329
0.12949082 -0.20394574 0.17408092 0.14376335 0.15832801 0.025422672 -0.16360174 -0.10189923
0.1643991 0.18921725 0.00808877 0.13376483 -0.061352104 -0.12961526 0.13912413 0.18989189
-0.0040365066 -0.11397734 0.09535746 0.11943378 0.008783375 0.066075265 -0.09457961 -0.20406412
0.014158971 -0.1415235 0.041456148 0.14802217 -0.14559945 -0.14068195 0.085416526 0.12930909
-0.0883395 -0.1728901 0.16831651 0.18319765 -0.046081074 -0.13428144 0.0031360108 -0.20377724
0.13551559 -0.1414048 0.18599682 -0.102325864 -0.018103262 0.0712071 -0.0408252 -0.08224746
0.08217137 -0.019559596 -0.021141367 -0.11787862 0.042163663 0.18425031 -0.0052903746 -0.17627174
-0.03277287 -0.102984294 -0.03711473 0.13509874 0.093856946 -0.15378577 0.06040836 0.009048383
-0.19365838 -0.12569289 0.14113659 -0.057688057 0.094891965 0.08745959 -0.092168316 0.10670312
0.14770386 0.096345164 -0.046024542 -0.122375295 0.17593065 -0.16165525 -0.14954618 0.10989639
0.15269035 0.16749674 0.06717005 0.11164797 -0.19999109 0.07420642 0.053390488 -0.10489265
0.18816009 0.19016175 0.03340485 -0.14704475 -0.16429378 -0.06702451 -0.09497296 0.094324574
-0.16512749 -0.06883447 -0.10923015 0.04223206 -0.027438689 0.18362376 -0.11504345 -0.1973473
0.0011541524 -0.1749092 -0.10839802 -0.077920124 -0.19699758 0.15207724 0.12123727 0.043343686
0.121744156 0.036121793 0.14935789 0.08185247 0.023223532 0.17410858 0.08990851 -0.046053264

bias f4 [8]
00000000: 114f c23d 68de f63d 70c5 913d f8ae 17bd
00000010: 3d8e a3bd 7f00 aebd 3a40 acbd 3cf2 863d
0.09487737 0.120541394 0.07117736 -0.037032098 -0.07986114 -0.08496188 -0.08410688 0.06589171

weight f4 [8]
00000000: ccff 7f3f fcff 7f3f ccff 7f3f 5600 803f
00000010: e6ff 7f3f cbff 7f3f bcff 7f3f fdff 7f3f
0.9999969 0.99999976 0.9999969 1.0000103 0.99999845 0.99999684 0.99999595 0.9999998

bias f4 [8]
00000000: 3c61 3436 be0e bc36 b528 e1b5 9353 f636
00000010: 1b98 8235 5b0d 88b6 b8f3 3db6 e04f f934
2.6878688e-06 5.604553e-06 -1.6775654e-06 7.3411006e-06 9.730023e-07 -4.0546706e-06 -2.8305058e-06 4.643798e-07

running_mean f4 [8]
00000000: 4d2d 593e 455c f33d 12de a2bd c9cf 083e
00000010: c6c8 c7bd 6183 4dbe a5dd 2bbc cb27 f43d
0.21208687 0.118828334 -0.07952513 0.13360514 -0.09755091 -0.20069648 -0.010489856 0.119216524

running_var f4 [8]
00000000: 1e6f fc3b 20cb 913d d739 6b3d d3d4 603e
00000010: 9668 843d 97cc d93b 677e 4f3d 6dbe 5b3d
0.007703676 0.07118821 0.057428207 0.21956186 0.06465261 0.0066467035 0.050657656 0.0536484

weight f4 [8, 4, 1]
00000000: 9dde edbe 8599 1ebd 32ee 0e3e 12cb 76bd
00000010: 45b4 cfbe 3b01 c33d b258 bc3e 02af c8be
00000020: d546 753e 7421 a63e 2db4 9bbe 7f18 e03e
00000030: 6eeb 6abe fd6d 9dbd 4b31 9a3d 7793 0ebe
00000040: e01b c1be 0d6f d43e d390 f2be 4bea e9be
00000050: b957 ebbd ad49 a53e 5ddb 573e 3b0b 4a3e
00000060: c378 163e 6c4c e7be 9d69 adbe 70c4 3cbd
00000070: 1e65 2d3e 3b65 953d 7b22 bdbe 3fb2 ba3e
-0.46458903 -0.038720626 0.13958052 -0.060252257 -0.40567222 0.09521719 0.3678642 -0.3919602
0.23952802 0.32447398 -0.304109 0.4376869 -0.22941372 -0.07686994 0.07528933 -0.13923441
-0.3771658 0.41490975 -0.47376117 -0.45686564 -0.11491341 0.32282773 0.21079774 0.19730847
0.14694504 -0.45175493 -0.3386964 -0.046085775 0.16933104 0.07294699 -0.3694037 0.36464116

bias f4 [8]
00000000: 8cba b03e ec4c a3be 98bd 5e3e 24d4 2dbe
00000010: 306f de3e d8ae 94be a0f9 eb3e 5cfa 2bbe
0.34517324 -0.31894624 0.21752012 -0.16975456 0.43444204 -0.29039645 0.46088886 -0.16794723

weight f4 [8]
00000000: 5900 803f faff 7f3f bdff 7f3f f2ff 7f3f
00000010: d7ff 7f3f 5000 803f c1ff 7f3f e1ff 7f3f
1.0000106 0.99999964 0.999996 0.99999917 0.99999756 1.0000095 0.99999624 0.99999815

bias f4 [8]
00000000: 57ff dc36 a4a1 3ab5 d1f3 84b6 cfa5 7c36
00000010: 891c 95b6 7ad6 30b5 d616 aeb6 10e5 4736
6.5862364e-06 -6.952562e-07 -3.9622905e-06 3.764744e-06 -4.443868e-06 -6.5877214e-07 -5.1882625e-06 2.9786643e-06

running_mean f4 [8]
00000000: 8bf9 adc4 2762 0cc6 1ac1 1c46 08f9 47c5
00000010: e695 24c6 e9d5 8d45 e299 86c4 666d 0246
-1391.7982 -8984.538 10032.275 -3199.5645 -10533.475 4538.739 -1076.8088 8347.35

running_var f4 [8]
00000000: a6fe 3249 a462 eb4b feb7 124c dfac 6d4a
00000010: eaa3 204c 5f97 ef4a a4a5 e348 a1ad cb4b
733162.4 3.0852424e+07 3.846143e+07 3.8940718e+06 4.211089e+07 7.8509275e+06 466221.12 2.6696514e+07

weight f4 [16, 8, 3]
00000000: a452 d73d c2e2 28be a9f9 0a3c d718 21be
00000010: 34b8 42bd 9278 b1bd 1c7e 213e 8897 a93b
00000020: a278 e5ba 1fb2 0b3e 548e 143e 585c 4ebe
00000030: 0fff ef3c 40dc 613d 118d f63c 3c8b 413d
00000040: 94ee 20bd 2e8c 2bbd bc76 493e 8e93 b5bd
00000050: 5617 d1bd 0098 27bd bdb2 babd e023 07be
00000060: 8355 22bd f659 053e d7e0 683d d0e8 92bc
00000070: 4c5b 713d 7a46 44be 3cc6 0dbe ab5c aebd
00000080: 123d 1c3e 0b50 34be 930a 2e3e 32d1 563d
00000090: 2ea9 10bd 784a 2abe e82f ed3d 7295 39be
000000a0: c7d8 fa3d 0a16 d53d d85d 01be 200d a63d
000000b0: 1773 1b3d f814 34be 49dc 9e39 22e2 e93d
000000c0: 40d6 023d 6ebd 1dbe b6a6 d4bd 1f31 f63d
000000d0: bda2 ffbc ec83 743d 4594 63bc 1fa7 413d
000000e0: 90ef fdbd 4a95 9dbd 1ae1 33bd a260 db3d
000000f0: 8b2c 323e c825 383e 9cad bcbd 328a 1a3d
00000100: 7b1e 063d d210 023e 62d8 cd3d 1eeb 863d
00000110: e14f 2b3e ccfb 3d3e b4a7 123e 4069 ff3d
00000120: 1e5e 37be a523 33be d508 e93d e4ba 963c
00000130: 3599 0a3e 0fd2 d63d 3761 49bd 87cd 3b3e
00000140: 5362 af3d fa91 6d3c 31b5 3d3d f1d1 c23d
00000150: bdfa 6fbc 61db 023e af04 04be 4b2a 413e
00000160: 599e 31be 407a 6ebd 2ce8 463e f0e8 03be
00000170: 1ae9 31be e927 2fbe 781d 4ebe 3b2d 4ebe
00000180: 1f9b a43d 0223 733d 4bc7 463e b6e1 e8bd
00000190: 56e0 a03d 88e2 463e 4100 463d 221d a8bd
000001a0: 3b9d 07bd 42c8 f5bd f55f 4c3e adf7 4ebe
000001b0: 4022 3a3e f6b8 ccbc c72d a43d 8a75 e33d
000001c0: 53a9 f03d 4e51 c13d 3bb2 283d 358e 003e
000001d0: 2ace 9ebd 565e cfbd 6125 7e3d af7e 973d
000001e0: b0ae 28be 02b2 c6bd b6b2 23be 1dc9 283c
000001f0: bb8a e93d ace4 d5bd f398 283e a34d 643d
00000200: 8f46 273e 8463 e8bc 5603 97bd d7b5 48be
00000210: 52ad 96bb 5c13 2bbe 09fa 0dbd 6052 4d3e
00000220: 2c93 9b3d a654 aa3d d8b4 1abd 606d a13d
00000230: 0c8c 0f3e 1386 e73d e3a4 233e 1a18 2b3e
00000240: c3dc 07be 37a5 0dbe 5cbc d1bd a058 f93d
00000250: f2d0 be3d 0371 91bc 9167 3f3e d165 9fbd
00000260: 2bf4 d53d 43cd 10be 21ad 2bbe 80d2 0c3e
00000270: c584 45be 71d4 293e 0ed2 19be 9f32 3cbe
00000280: 1515 1fbe 5814 373e eec0 49be 5336 b6bd
00000290: 9e0a fb3d 0019 9cbd 258b 2cbd 6410 8ebc
000002a0: a7ea afbd 1c0f 173e e3a9 0f3d b712 243d
000002b0: 48e5 7abd 18d1 bd3c c85c 3ebd 6a8f 4d3d
000002c0: 117d 10bc ba38 073d 0709 043d 0fa5 81bc
000002d0: 9c5a d83d 1e3e fd3d afe2 89bc fdb8 733d
000002e0: d661 49be e3c0 2bbe dea9 41be 550d 07be
000002f0: c7d3 36be 28b6 fbbd 6360 ee3d c6f1 2cbe
00000300: 0f11 3fbe 6c7c 0ebd fdd5 63ba 9b97 3d3e
00000310: aabf 893c 4aba 32bd f3ce a9bd ad11 aa3d
00000320: d49b 2dbe 6d3b 06be 4263 fdbd 8c7c 243e
00000330: 4aab d0bd 61be 713c 8c3e 30be 28bb c33d
00000340: a104 83bd 39b8 08be 8351 c83c 9501 49bd
00000350: a87a 50bd a8d5 da3d a42f 423e 3e18 ca3c
00000360: 266c d9bd d109 dc3d bb7a c83c 5ad9 3ebe
00000370: 1d29 ae3d 3c05 0cbe 3184 9fbd b64b 153d
00000380: f23b c43d 492e 1b3e 3be2 133e a4e6 14bd
00000390: 91ec 4b3e 25d5 cdbd 3398 173e b1ea 3c3d
000003a0: d8ea 2cbe 4c88 0e3d 0f6a 7bbd a986 38bd
000003b0: 742f 04bd 2277 b73d 5ba8 9d3d d94f 0e3c
000003c0: 7fee a33c a11d 1bbd 55c4 3fbe cc64 2f3e
000003d0: 0df0 12be f606 c43d 2cb2 44be 48fa f13d
000003e0: a230 6fbd 8a22 6abd e638 44be 85c4 94bd
000003f0: 640f b3bc f5cc e6bd 0b53 cc3d 8b2f e03d
0.10513809 -0.16492751 0.008482375 -0.15732132 -0.04753895 -0.08665575 0.15770763 0.0051755346
-0.0017507265 0.13642167 0.14507419 -0.20152414 0.029296426 0.055141687 0.030096563 0.047251925
-0.039290026 -0.041881733 0.196742 -0.088660344 -0.10209529 -0.040916443 -0.09116123 -0.13197279
-0.03963233 0.13022599 0.05685505 -0.01793328 0.058924958 -0.1916751 -0.13845152 -0.08513769
0.15257671 -0.17608659 0.16996221 0.052445598 -0.035317592 -0.1662997 0.11581403 -0.18123415
0.12248378 0.10404594 -0.12633455 0.08107972 0.037951555 -0.17586124 0.00030300234 0.114200845
0.031942606 -0.15404293 -0.1038336 0.12021088 -0.03120553 0.059696123 -0.013890331 0.04727852
-0.123992085 -0.0769449 -0.043915845 0.107117906 0.17399804 0.17983162 -0.09212801 0.03772945
0.032743912 0.12701729 0.10051037 0.06587814 0.1672969 0.18553084 0.14321786 0.12471247
-0.17906997 -0.17494066 0.11378638 0.018399663 0.13535006 0.10489284 -0.049164977 0.18340121
0.08563676 0.014500136 0.046315376 0.095126994 -0.014647183 0.12778999 -0.12892412 0.1886379
-0.17345561 -0.058222055 0.19424504 -0.12881827 -0.17374077 -0.17105068 -0.20128429 -0.20134442
0.080373995 0.059359558 0.19411962 -0.11371176 0.07855289 0.19422352 0.048340086 -0.08208682
-0.03310893 -0.12001087 0.1995848 -0.20211668 0.18177128 -0.02499054 0.08016544 0.11106403
0.11751046 0.09439336 0.0411856 0.12554248 -0.077541664 -0.10125415 0.062047366 0.0739721
-0.16472888 -0.09701921 -0.15986142 0.010301855 0.11403414 -0.10444006 0.16464595 0.055738103
0.1633551 -0.028367765 -0.07373683 -0.19600616 -0.004598298 -0.16706604 -0.03466228 0.20050955
0.0759643 0.08316927 -0.037770122 0.0788219 0.14018267 0.113048695 0.15980868 0.16708413
-0.13267808 -0.13832556 -0.10241005 0.12175107 0.09317197 -0.017754083 0.18691851 -0.07783092
0.10446962 -0.14140801 -0.16765262 0.13752174 -0.19288929 0.16584946 -0.15021536 -0.18378685
-0.15535386 0.17878854 -0.19702503 -0.0889708 0.122578844 -0.07621956 -0.042124886 -0.0173418
-0.08589678 0.14751858 0.035074126 0.04005691 -0.061253816 0.023170993 -0.0464752 0.0501856
-0.008818881 0.033013083 0.03223517 -0.015825776 0.10564157 0.123653635 -0.016831724 0.05950259
-0.19666228 -0.16772799 -0.18912455 -0.1318868 -0.17854224 -0.12290603 0.11639478 -0.16889104
-0.18658851 -0.034786627 -0.00086912495 0.18514864 0.016815025 -0.04363469 -0.082914256 0.08304153
-0.16953975 -0.13108607 -0.123724476 0.16063136 -0.10188921 0.0147548625 -0.1721136 0.095571816
-0.06397367 -0.13351525 0.02445293 -0.049073774 -0.050898224 0.10685283 0.18963486 0.024669763
-0.10616331 0.1074406 0.024472585 -0.186376 0.085039355 -0.13673872 -0.077888854 0.036449157
0.09581746 0.15154375 0.14441769 -0.03635277 0.19914462 -0.1005042 0.14804153 0.046122257
-0.16886461 0.03479795 -0.061380442 -0.045050297 -0.032271817 0.0895827 0.07698127 0.008686029
0.020011185 -0.037870053 -0.18727238 0.17128295 -0.14349385 0.0957164 -0.19208592 0.118153155
-0.05839599 -0.057161845 -0.1916233 -0.072640456 -0.021857925 -0.11269561 0.09976777 0.10946568

bias f4 [16]
00000000: f43d 3e3e f05c f8bc 74ec cdbd 70f1 853c
00000010: 0068 5b3d 9ec2 1e3e 1c7e 25be fde2 ffbd
00000020: 17cd d3bd 2c9f 7bbd 5c23 373e 40f8 fbbb
00000030: 288d f03d ff1f 10be 6a2f 4dbe c011 143e
0.1857832 -0.030317754 -0.100548655 0.016350478 0.05356598 0.15503928 -0.16161388 -0.124944665
-0.10341852 -0.061431095 0.17884582 -0.007689506 0.117456734 -0.14074706 -0.20037618 0.14459896

weight f4 [16]
00000000: a5ff 7f3f f5ff 7f3f 0600 803f 0600 803f
00000010: 0500 803f ccff 7f3f 85ff 7f3f 1900 803f
00000020: d1ff 7f3f 4100 803f feff 7f3f 0600 803f
00000030: f4ff 7f3f c4ff 7f3f 1e00 803f dcff 7f3f
0.9999946 0.99999934 1.0000007 1.0000007 1.0000006 0.9999969 0.99999267 1.000003
0.9999972 1.0000077 0.9999999 1.0000007 0.9999993 0.9999964 1.0000036 0.99999785

bias f4 [16]
00000000: ebb3 77b6 8531 0736 d996 d835 6e37 1db6
00000010: 2f83 8136 346c 0bb6 c5d4 d9b6 d25c 4736
00000020: 3402 1336 5ec0 c835 197e ad35 47d9 8c36
00000030: 4239 d736 84f4 0fb5 167a d735 e906 7cb6
-3.6910594e-06 2.0145392e-06 1.6137157e-06 -2.3427087e-06 3.8597714e-06 -2.0775597e-06 -6.4918736e-06 2.970734e-06
2.190599e-06 1.4957147e-06 1.2926204e-06 4.1976195e-06 6.414165e-06 -5.362747e-07 1.605428e-06 -3.7554948e-06

running_mean f4 [16]
00000000: afa6 14be 9697 8dbd 7099 cd3e 7445 8bbe
00000010: cff3 f33e 4405 be3e 8ddc e3be 8176 98be
00000020: 3266 27be 9659 8cbd 8915 b6bd e326 38bc
00000030: f9f3 f63e 7406 363c bac8 8dbe b077 91bd
-0.1451671 -0.06913678 0.40156126 -0.27201426 0.4764695 0.37113392 -0.44504204 -0.2977791
-0.16347578 -0.06853025 -0.08890826 -0.01123974 0.4823301 0.011109937 -0.27692205 -0.07102907

running_var f4 [16]
00000000: cd9f 463e 13a2 a73e 2e65 b03d ecc3 873e
00000010: 6c11 f13d 2362 323f 96fd 2a3e 8e3c bf3d
00000020: 5585 cb3d f3bb 623c 7fdb 033d 6d51 783e
00000030: de0f 403e c16d b83d 2d27 843d a340 b23d
0.19396897 0.3274084 0.086130485 0.26516664 0.11770901 0.69680995 0.16698298 0.09337722
0.099375404 0.013838756 0.03219175 0.24249811 0.18756053 0.09005309 0.06452785 0.08703735

weight f4 [16, 16, 3]
00000000: 5c90 323d 42c4 b23d 070a ad3d 8a60 73bd
00000010: 4fbd c73b 0614 47bd a551 5b3c 8a8b 24bd
00000020: d776 873d b9aa 8dbd 4a77 a13c d382 06be
00000030: 837a e2bd e794 c93d 088c bfbd 35f5 3bbd
00000040: ca6b e3bd b795 713d 7320 b23d 5c86 0abe
00000050: 1fd3 053e dd34 d8bc bf90 02bd bda3 a53c
00000060: a231 11be 1bc6 6abd 3010 8b3c 8320 913d
00000070: 2043 eb3d c0dd 30bc 007b 09be 62ae c73c
00000080: 6ac7 f8bd 694d 073e c0b1 ae3d cc7e 9dbd
00000090: 9fe2 a43d dd95 103d d7c5 86bd 323e 663d
000000a0: 7843 9abd 74ca 2cbd 4d0f 83bd 3012 2b3d
000000b0: de8d b93d 8f1e a0bd 2251 50bc 375c 1e39
000000c0: 325b c1bd 3d3f fdbd bf2e bdbb b2d6 c73d
000000d0: 22bd 183d 847c b53d c0cf b7bd bb6a afbb
000000e0: 5fd2 da3c d129 e3bd bc2e 4dbd 6fc5 0bbe
000000f0: f367 313d f97f 923d 560c fcbd d59b d4bd
00000100: 04c0 e7bc 4785 debd 0705 0b3e bd89 ccbd
00000110: 2a55 b4bd a8c0 09be 4df8 06be 7d49 f63d
00000120: ef53 023e 0aa8 713d a2c3 343d fcc8 8abd
00000130: 5ad8 ba3d b987 3d3d f336 f33d 318c 253c
00000140: 9a94 bb3d dacb 1b3b 495e 13bd c1e2 093e
00000150: 8b6c 36bd 35dd 66bd 7059 93bc d716 d63d
00000160: 65c7 693c 1194 e43c 7459 d63d 427d 0e3e
00000170: 9201 833d 14af 82bd 0a25 a83d 1cbb 8c3d
00000180: e8d6 d43d 3fe6 f9bd 1699 d03d 4980 9a3c
00000190: 44f6 d23b 76a2 8bbd dd58 e2bc 6be4 11be
000001a0: 96b9 56bd 8ff5 1fbd 87d9 053e 0931 e7bd
000001b0: bf81 6d3d 0bcf df3c 9db7 0c3e cee2 fd3d
000001c0: 3151 2abc eeec 7b3d 9252 4abb b8f1 d43d
000001d0: bc74 9ebc e22f 94bd 496b 12bd cd6b 94bd
000001e0: de6a e83b 07e7 5cbd e86c 0a3e c2ca 953c
000001f0: ad95 08be 947f c63b cd44 243c 4882 d2bd
00000200: 11c2 8b3c dc41 ac3b 1db9 25bd 10f5 fcbd
00000210: 2d91 71bd 71d1 033d f83a ce3c 4abb 023e
00000220: c087 d3bd a1f8 7ebd 0e93 adbd 68b3 cd3d
00000230: 49de 40bd 53d2 eebd 9005 0abe ff24 8e3d
00000240: 20fe ffbd 38cb 923d 634e 9abd 8ab3 0c3e
00000250: 342b e6bd 50e0 0c3e 0bdc 80bd 46c0 f0bd
00000260: d32e 423d 51b9 79bd b6d7 1ebd f068 dabd
00000270: b4b5 47bd e3b8 023e 945d 6d3d 2404 a0bd
00000280: f0be cb3c f938 7fbc 5f51 eabd 32c5 883d
00000290: c4cc d23d 7e5f d7bd 6a9c 0c3e d781 dc3d
000002a0: 61d7 cabd 76c9 0cbe c8c5 893c 006a ce3d
000002b0: 401b d63d c139 e8bc 7dbc 6c3b 5085 d13d
000002c0: de0b be3d dbee 023e dbea 3fbd ad27 d2bd
000002d0: 530b 763d 9974 af3d 70e2 e5bc 2c7b a13d
000002e0: 1a38 04be f555 1b3b 940e fbbd b651 25bd
000002f0: ff16 e73d ca97 c8bd 4f7e 37bd efab 103e
00000300: eaea b8bd 8466 d1bd bde7 a6ba bec4 41bc
00000310: f424 8f3d e8c9 313d ab42 7bbd eab4 a4bd
00000320: b424 02be c8b2 553d 59f0 b6bd 68ca b6bd
00000330: 3118 aebd e043 fcbd bdbb 143d 23c3 3bbc
00000340: 2f4e 063e fcf8 8e3b a95b bd3c e236 463d
00000350: fe61 ab3c 0f5c 783d 5d09 e8bd dcee 0bbd
00000360: d6c9 d33d 74bc 583d e71c debb e211 203d
00000370: 6031 083e 87c4 8f3d a44f 1abd edc1 21bd
00000380: f4c9 13be 5ebd ddbc a1df 033e e5e0 5abd
00000390: 65f0 933d 7047 723d 3a01 09be 0ece 1dbd
000003a0: b7e4 0bbc 04a7 ef3d ba0c e13d 7453 f7bd
000003b0: 0446 f3bd ef88 a1bd 86b5 8c3d 5959 983d
000003c0: 90d1 9f3d 1608 78bb ad94 b53d 53ad b1bd
000003d0: e6bc 3abd ea08 32bd 8322 a2ba 8a8b 293d
000003e0: 7b62 073e d85f 053d e865 be3d b118 bfbd
000003f0: 5b38 08be d5b1 df3d 8885 10be 8ecb cabd
0.043594703 0.087288395 0.08449178 -0.05941824 0.0060955654 -0.04860308 0.013386165 -0.040172137
0.06614464 -0.069173284 0.019710202 -0.13135843 -0.110585235 0.09842854 -0.09352881 -0.045888145
-0.111045435 0.05898067 0.086975954 -0.13527817 0.13068818 -0.026392395 -0.031876322 0.020219678
-0.1417909 -0.057317834 0.016975492 0.07086279 0.114874125 -0.010795057 -0.13425827 0.024375144
-0.1214741 0.13213123 0.08529997 -0.076902 0.08051037 0.03529917 -0.06580704 0.056211658
-0.075324 -0.04218526 -0.06399403 0.04176539 0.09060262 -0.078183286 -0.012714656 0.00015102407
-0.09441222 -0.12365577 -0.005773395 0.09757747 0.037289746 0.0886164 -0.08975172 -0.0053532994
0.02671164 -0.1109196 -0.050093397 -0.13649534 0.043312024 0.07153315 -0.123070404 -0.10381285
-0.028289802 -0.108652644 0.13576137 -0.09987209 -0.08805306 -0.13452399 -0.13180657 0.120257355
0.1272733 0.058998145 0.044131882 -0.06776616 0.09123297 0.046272013 0.11875715 0.010104225
0.09159203 0.0023772628 -0.03597859 0.13465406 -0.04453711 -0.056363303 -0.017986983 0.10453575
0.014268731 0.027902635 0.104662806 0.1391497 0.06396784 -0.0638105 0.0821019 0.06871626
0.103925526 -0.12202119 0.10185449 0.01886 0.0064380486 -0.06818096 -0.027630264 -0.14247291
-0.052423082 -0.039052542 0.13071261 -0.112886496 0.057985064 0.027320405 0.13741918 0.12396775
-0.010395334 0.06150525 -0.003087197 0.10397667 -0.019342773 -0.072356954 -0.035746846 -0.07247124
0.0070928177 -0.053931262 0.13518107 0.018285159 -0.13338347 0.006057689 0.010026169 -0.102787554
0.017060312 0.0052568745 -0.04045974 -0.123514295 -0.05897634 0.03218216 0.025174603 0.12766758
-0.10328627 -0.06224883 -0.08475314 0.10043985 -0.047086988 -0.1166121 -0.13478684 0.0694065
-0.12499642 0.07167667 -0.07534482 0.13740364 -0.11238709 0.13757443 -0.0629197 -0.11755423
0.047407936 -0.060967747 -0.038779937 -0.106645465 -0.04875727 0.12765841 0.05795057 -0.0781329
0.02487132 -0.015577548 -0.114413016 0.06678237 0.10292962 -0.105162606 0.13731542 0.107669525
-0.099043615 -0.13748726 0.016817942 0.10078812 0.10454416 -0.028347852 0.003612309 0.102305055
0.09279607 0.12786429 -0.046854835 -0.10261474 0.060069393 0.08567161 -0.028062075 0.07884821
-0.12912026 0.0023702357 -0.1225864 -0.04036113 0.11283683 -0.097945765 -0.04479819 0.14128087
-0.09029181 -0.102246314 -0.0012733858 -0.011826692 0.0698947 0.043405443 -0.061342876 -0.08042319
-0.12709314 0.052172452 -0.089325614 -0.08925325 -0.08500708 -0.12317634 0.036311854 -0.011460098
0.13115762 0.0043631773 0.023114996 0.048392184 0.02092075 0.06063467 -0.11329911 -0.03416334
0.103412315 0.052914098 -0.006778348 0.039079554 0.13300085 0.070199065 -0.037673607 -0.039491583
-0.14432508 -0.027067836 0.12878276 -0.053437132 0.07223586 0.05915016 -0.13379374 -0.038526587
-0.008538417 0.117017776 0.109887555 -0.12076464 -0.11878589 -0.07887446 0.0687056 0.07438917
0.07803643 -0.0037846616 0.08866248 -0.08675637 -0.045590304 -0.043465532 -0.0012369904 0.04139284
0.13221161 0.032562107 0.09296781 -0.093308814 -0.13302748 0.10922591 -0.14113438 -0.09902106

bias f4 [16]
00000000: e857 93bc fce6 d33d 2863 703d f648 9b3b
00000010: b8e7 f2bc 1b56 63bc 78f6 6f3d 38bf f63c
00000020: 30f6 8cbd cc03 8e3d 30b3 6fbc e69a 003e
00000030: a8f9 493d 9caa 36bd c817 dd3d c29a 47bc
-0.017986253 0.10346791 0.058688313 0.004738922 -0.029651508 -0.01387551 0.05858466 0.030120477
-0.06882894 0.06934318 -0.014630124 0.12559089 0.049310356 -0.0445963 0.107955515 -0.012182893

weight f4 [16]
00000000: 2000 803f edff 7f3f ddff 7f3f 1e00 803f
00000010: feff 7f3f 4e00 803f 2f00 803f 1f00 803f
00000020: b2ff 7f3f 2000 803f ecff 7f3f 2000 803f
00000030: c3ff 7f3f d9ff 7f3f 3c00 803f 2600 803f
1.0000038 0.99999887 0.9999979 1.0000036 0.9999999 1.0000093 1.0000056 1.0000037
0.99999535 1.0000038 0.9999988 1.0000038 0.99999636 0.9999977 1.0000072 1.0000045

bias f4 [16]
00000000: 6ee2 ee35 d528 41b6 ac42 b3b6 7749 be36
00000010: dd31 58b6 bc41 b436 a691 1135 4943 8736
00000020: f061 b9b5 6f10 d736 7e3d 3fb5 4405 bf34
00000030: 73c9 08b6 9d5e ceb6 ced4 9936 b71e 3736
1.7798282e-06 -2.8783008e-06 -5.3423773e-06 5.6709937e-06 -3.2215532e-06 5.3720705e-06 5.4228656e-07 4.0311465e-06
-1.3812078e-06 6.4094124e-06 -7.124253e-07 3.5580354e-07 -2.0382838e-06 -6.150293e-06 4.584529e-06 2.7287003e-06

running_mean f4 [16]
00000000: 4463 d23d 760a 333e 3a2a 82bd 047a 423e
00000010: dc91 4abe 0fb6 90bc fd3d 0ebe 081f 193e
00000020: 53ed 9abd 6787 f3bd 29f3 1bbe 093a 923c
00000030: 678f febd ff20 353d b07d 7bbd 90fe 77bb
0.1027284 0.1748446 -0.0635571 0.18991858 -0.19782203 -0.017664937 -0.13890834 0.14953244
-0.07564797 -0.1189106 -0.15229477 0.017849939 -0.124296956 0.04422092 -0.06139916 -0.003784094

running_var f4 [16]
00000000: 81d1 623d 6643 783d 6184 613d aa56 273d
00000010: 989e 9c3d 227a 6e3d 7b91 503d a5fe f93d
00000020: 7b79 7b3d 0b8f 383d 6af8 9e3c 14a8 a13e
00000030: bdc7 623d 9913 d73d cb06 2e3e a700 ee3c
0.05537558 0.06061115 0.055057887 0.040854134 0.07647437 0.058221944 0.05091999 0.12206773
0.06139515 0.04505829 0.019405562 0.31573546 0.055366267 0.10501785 0.16994779 0.029053045

weight f4 [16, 8, 1]
00000000: e5d1 93bd f4f8 223d f858 9dbe d554 7fbe
00000010: f00d 96be 79d8 2c3e 41fb a6bc 3631 97be
00000020: 276d 4fbe d272 af3d 520d 48be 5ca6 a0bb
00000030: 9729 1d3e 3a87 d8bd 9787 6a3d c63f adbe
00000040: 8abf 9ebe cca9 aa3e ccdc 8c3d e5ee a03e
00000050: d749 ab3d 5663 b23d e81f 10bd b198 b93d
00000060: cd0f 663e 46b4 753e a242 f43d 71ff 66bc
00000070: d8fd 76be c878 13be 6010 94be 43b0 84bc
00000080: a6a1 59be 9073 8ebe 8736 23be 4717 0fbe
00000090: 5e11 5a3e 41af 54be a7fd 13be 2614 8ebe
000000a0: 43d1 6e3e 558e aabe 0987 0fbe cfc4 123c
000000b0: 62d4 41be 4e25 9bbe 5d02 203e 5a97 953e
000000c0: 26d1 f7bd 3276 22bd 9315 5e3e 71be aabe
000000d0: 66dd 1dbd b6a2 123e dc3f f5bd a1f7 40be
000000e0: 7784 93bc dc46 1a3e 7a18 533c 178e 713e
000000f0: f72f 58be d8c7 50bc 4add 93bd 37bc 8ebd
00000100: 226a 413d edca 18be ac96 8bbd 96e4 7abc
00000110: daca 52be 6029 a0be ce10 253d 30cd 6ebe
00000120: 001b 9f3d 5e87 8dbd d185 053e 7729 5c3e
00000130: aac7 703e cfb4 b4be 4663 4e3d 1042 5f3e
00000140: e80e f03d 6fd3 79be 0e47 2fbe c174 c0bd
00000150: d5fc 183e cb20 053e 30f3 4fbe 033d cebb
00000160: 7c22 dbbd d2a1 87bd e983 8fbd 1283 2a3c
00000170: 70cd 40be 55de 0a3d 0ba7 f93c ff2b 253e
00000180: 5f3d e03d 660d 8e3e f21e af3e 2716 93be
00000190: f037 a0be adb2 8f3e b57e 86be c86a d43d
000001a0: 390f 0f3e ed80 263e 42c4 a6be dfef 88be
000001b0: 241c b9bd 101f 1dbe 41f3 abbe 5233 adbe
000001c0: e46c 23bd 589f 803e 2809 c1bd bbbb 533e
000001d0: 266d 4f3e 0fca 4a3e 0870 8abe 84a5 173e
000001e0: a0da b9bd def6 d13c 72c4 26be 01af 053e
000001f0: 07a6 15be 18ae a23e 207c 8d3e 3dcd a7be
-0.072177686 0.0397882 -0.3073194 -0.24934705 -0.29307508 0.16879453 -0.02038348 -0.29529732
-0.20256482 0.08566822 -0.19536331 -0.004902644 0.15347897 -0.105726674 0.057258215 -0.33837718
-0.31005508 0.3333267 0.06878051 0.31432262 0.08363693 0.08710353 -0.03518668 0.09062327
0.22466965 0.2399455 0.11926772 -0.014098988 -0.24120271 -0.14401543 -0.28918743 -0.01619733
-0.2125307 -0.27822542 -0.1593877 -0.13973723 0.21295688 -0.20769979 -0.1445223 -0.27749747
0.23322015 -0.33311716 -0.14016356 0.008958056 -0.18928674 -0.303019 0.15625902 0.29217035
-0.12100439 -0.0396635 0.21687917 -0.3334842 -0.03854122 0.14319882 -0.11975071 -0.18844463
-0.0180075 0.15066093 0.012884254 0.23589359 -0.21112047 -0.012742959 -0.07219942 -0.06969493
0.047220357 -0.1492116 -0.06815848 -0.015313288 -0.20585194 -0.31281567 0.04029923 -0.2332046
0.07768822 -0.06910585 0.13039328 0.21500193 0.23513666 -0.35294196 0.050387643 0.21802545
0.11721593 -0.24397062 -0.17116949 -0.09397269 0.14940198 0.13000791 -0.20307612 -0.0062938943
-0.10699937 -0.06622662 -0.07007582 0.010407226 -0.18828368 0.03390344 0.03047516 0.16130064
0.109492056 0.27744597 0.34203297 -0.28727838 -0.31292677 0.28066006 -0.26268545 0.103719294
0.1397065 0.16260119 -0.32571608 -0.26745507 -0.090385705 -0.1534388 -0.33584026 -0.33828217
-0.039898768 0.2512157 -0.094255745 0.20677082 0.2025648 0.19803642 -0.27038598 0.14809233
-0.090749025 0.02563041 -0.16285875 0.1305504 -0.14614116 0.31773448 0.27633762 -0.32773772

bias f4 [16]
00000000: 30c7 de3c b057 9bbd d2aa 713e d623 6fbe
00000010: 6041 8ebe b08d 933d cda8 893e bb3e aa3e
00000020: aab7 fabd 00f4 67bd 6434 94be a8b3 7f3d
00000030: f06f adbe 854f adbe 6c3f 0c3e c2d1 213e
0.02719459 -0.075850844 0.23600319 -0.23353514 -0.27784252 0.07204759 0.26886597 0.33250985
-0.122420624 -0.05662918 -0.2894622 0.062427193 -0.33874464 -0.3384973 0.13696069 0.15802673

weight f4 [16]
00000000: 2f00 803f 0a00 803f cdff 7f3f d0ff 7f3f
00000010: 90ff 7f3f a5ff 7f3f c8ff 7f3f 0b00 803f
00000020: 0100 803f a9ff 7f3f 0700 803f f0ff 7f3f
00000030: f8ff 7f3f caff 7f3f 1000 803f f0ff 7f3f
1.0000056 1.0000012 0.99999696 0.99999714 0.9999933 0.9999946 0.99999666 1.0000013
1.0000001 0.9999948 1.0000008 0.99999905 0.9999995 0.9999968 1.0000019 0.99999905

bias f4 [16]
00000000: 508b 8536 146c bbb5 9729 8fb6 e5ab aa36
00000010: aa5a 8735 b715 9a36 d3fd 3136 81a1 0ab6
00000020: 0c46 e6b5 4a7b eb35 3fc5 beb5 664d 0c36
00000030: 8089 23b6 a0ca 0d36 1dd3 e036 62fa 4735
3.979927e-06 -1.3964041e-06 -4.266574e-06 5.086406e-06 1.008467e-06 4.5920856e-06 2.65228e-06 -2.065761e-06
-1.7156722e-06 1.7544746e-06 -1.4213509e-06 2.0906677e-06 -2.4368928e-06 2.112858e-06 6.700297e-06 7.449763e-07

running_mean f4 [16]
00000000: ddef 1cbf 8dad 05bf 1e36 043f d472 d3be
00000010: 8ea0 8bbf 804d f73c 7f28 7bbd 7285 6e3e
00000020: f2d0 44bf 6939 743e c954 c8be dc0d 87bc
00000030: 6ea5 3fbe b028 96bf 5ce1 003f 19f7 223e
-0.613035 -0.5221794 0.51645076 -0.41298544 -1.0908372 0.030188322 -0.061317917 0.23293093
-0.76881325 0.23850025 -0.39127186 -0.0164861 -0.1871545 -1.1731167 0.5034387 0.15914573

running_var f4 [16]
00000000: 2098 233d 251b d63e a86e 763d bedc 8f3c
00000010: 86af 793e 228a 103d 5608 493e ce7f 073c
00000020: d9cb 9f3e 760d f33d 55ba 2e3d 2e61 0c3e
00000030: e1fd 403f 0359 af3e 0927 d23d 901e 9d3d
0.03994 0.41817585 0.060164124 0.017561313 0.24383363 0.035287984 0.19632086 0.008270217
0.3121021 0.11867802 0.04265817 0.13708946 0.7538739 0.34247598 0.102613516 0.07671845

weight f4 [16, 16, 3]
00000000: 0023 043e e8a2 84bd b3d9 febb cca6 30bd
00000010: 6b72 0bbd b5c5 813d 9ccf 963d 8ab7 d5bb
00000020: 92dc 713d 2e6f cf3d c2ef b73d 088a 133e
00000030: 4427 8f3d 3297 1bbd ccac 54bd f62b 0abe
00000040: 616b 103d 657b 0abe 1c27 d63d 41ef ac3c
00000050: 724b 783d e513 03be a27d 01bd 5cf7 b6bd
00000060: 9818 a9bd db03 d9bc 3063 803d 33b9 10be
00000070: cd39 5abd a8a5 783c de3e 42bd 2cea 513d
00000080: 75b4 fabd bcd0 683d 5c63 223d ec7c d8bd
00000090: b56c 02be faf5 80bd 4e5a fe3d f47f a3bd
000000a0: 286d f73d f254 83bd 08d9 333d 2fd6 d13d
000000b0: 146e bfbd 9c98 41bd 810a 0cbe 8412 793d
000000c0: bca0 ff3d 74d0 e3bd 2ec8 ffbd 168b acbd
000000d0: 57ad 703d af5e 803d 43fb a2bd e54f a23d
000000e0: 38c7 08bd d08a a43d 6c1a c63d ba43 d3bc
000000f0: f4cf 873d 0d6d d9bd 3a77 0a3e 8487 f3bc
00000100: da7c 04bb 722c e6bd 4e92 d53d 2dc7 7c3d
00000110: f56c afbd 96b5 a63d 1d3e 7dbc 18e4 a1bd
00000120: 20c9 023c 11cf 653d 19cf e6bd 6805 613d
00000130: 341d 99bd b292 01bd 4412 38bd 1b35 e9bd
00000140: 5e29 003d d87f ab3d 712f c53d c908 3f3c
00000150: 7441 babd 728e 023e 6f84 8b3d 207a 013e
00000160: 0ef5 8c3c df86 743d c219 bfbd 57dc d4bd
00000170: 73a3 cd3c a073 93bb a19b 4bbd 2ef2 9abd
00000180: 941f fe3d dba7 dfbd 364a 03be de8b 85bd
00000190: f038 a2bd afde c6bc ac49 f23d 0374 6abd
000001a0: ad1a f53c f850 db3d 93cf 483d dc43 463d
000001b0: 00d9 42ba e775 c33d edb6 ba3d d578 9ebd
000001c0: 6437 603d f0fa fdbc 3046 cabc 0c30 2cbc
000001d0: 58da 72bd 4f82 a5bd 37ae 06bd 8b2a 20bc
000001e0: f8ee db3c 35e4 b6bc 7da8 b43c 4866 773d
000001f0: 327a 02be 77b7 afbd 04f3 a3bc a4c5 dcbd
00000200: 8ac2 e7bd 7c4f e33d ffd0 da3d 59a5 113e
00000210: d4a6 143d b33c 2abc a8af 7c3d aba2 80bd
00000220: 0ab4 5dbc 4a27 9abd 08eb 013e badd 723c
00000230: c13d 8a3b c0cb 093b 74ce 103e da98 3d3b
00000240: 12d1 c43d b75f f73d ce2b 003e c500 f4bd
00000250: c1fb 50bd 4f79 a43d e6f4 873d 7b7a 30bd
00000260: dbbc 8ebd c0c9 dfbc 6a57 2b3d 5d83 1ebd
00000270: 3234 b13d 3c0e a43d b455 86bd 34f2 eb3d
00000280: 37cc cb3d 9ef8 093c 528b 47bd adb8 ed3d
00000290: a9a2 893d f6d4 ae3d c470 a3bb 37b5 0fbe
000002a0: 187b 25bd a3ad cbbb fd39 f93d 78e1 85bc
000002b0: f327 d33d 2306 2a3d 6220 dfbd 7cd5 993d
000002c0: da6a dfbd 040b 363d 338a b73d e760 bd3d
000002d0: f880 f53c 8df6 75bd a090 30bc d802 a73d
000002e0: 17a5 b8bb 87e6 c83d 94a3 183d 0bc8 b53d
000002f0: 7328 46bd ac03 723d de6e c7bc dbd6 c6bd
00000300: bc7c e13d 3572 ddbd 63c0 bfbd 20fe 50bd
00000310: f6d2 3f3d bf57 d9bd 7dd3 9fbd 47c5 14bd
00000320: f84e 6b3d 5801 1f3d 5c32 d93d 6513 dfbd
00000330: 0091 3ebb df88 663d 755f febc 34f7 c0bc
00000340: b451 08be f840 e33d 0436 ca3d 3201 cdba
00000350: 9670 883d 2032 28bc b5fc 9abd 7e16 5cbd
00000360: ce94 02be 45e3 96bd 761d 88bd c4ad 9fbc
00000370: f6d4 c03d f88b a53d e0fe 483d 05c8 a8bd
00000380: e669 b63d 5cd0 f9bd 77a7 f6bd 6831 c53d
00000390: d85b f9bc 3ba0 103e f4c1 fd3d e5aa 09be
000003a0: 4ff5 743c 60b5 f2bd 632c 8fbd cd54 8a3d
000003b0: 50e2 0cbd fca7 df3d edcb 0e3d cfdf 293c
000003c0: 6c29 1e3d 1aa3 1fbd 5576 7dbd 4ac1 ad3d
000003d0: 3864 363d d45f 0abe 0449 aebc 94f6 9c3d
000003e0: 9a39 853d d8cf c23c 5c59 01be ea47 703d
000003f0: 9c8c 943d 5768 e53d e6cf eabb 8041 1cbd
0.12903976 -0.064763844 -0.0077774166 -0.04312782 -0.034044664 0.06336538 0.07363817 -0.0065221237
0.059048243 0.10128628 0.08981277 0.14408123 0.06989911 -0.037985988 -0.051922604 -0.13493332
0.035258655 -0.13523634 0.10456678 0.021110179 0.060618825 -0.12800558 -0.031613953 -0.08933899
-0.08256644 -0.026491096 0.062689185 -0.14133148 -0.05327778 0.015176214 -0.047423236 0.051248714
-0.12241451 0.05683969 0.039645538 -0.10570702 -0.12736781 -0.06296916 0.12419568 -0.079833895
0.12081367 -0.064126864 0.04390815 0.102459304 -0.093471676 -0.04726468 -0.13675882 0.060808674
0.124818295 -0.11123744 -0.12489353 -0.08424966 0.05875906 0.062680595 -0.079580806 0.07925395
-0.033393115 0.08034289 0.09673008 -0.02578913 0.06631461 -0.10616503 0.13522044 -0.029727705
-0.002021602 -0.11238946 0.10428296 0.061713386 -0.08565704 0.081401035 -0.0154567035 -0.079048336
0.007982522 0.056105677 -0.112699695 0.054936796 -0.07476273 -0.03163404 -0.044939294 -0.11387082
0.03128945 0.08373994 0.09628189 0.011659809 -0.090945154 0.12749651 0.06812369 0.12644243
0.017206695 0.059698936 -0.09331085 -0.10393589 0.025102353 -0.0044998676 -0.049708966 -0.07565723
0.12408367 -0.10920688 -0.12821278 -0.06520818 -0.07921016 -0.024276106 0.11830458 -0.057239544
0.029919947 0.10708803 0.049026083 0.04840456 -0.0007432848 0.095439725 0.091169216 -0.07737891
0.054740325 -0.031003445 -0.024691671 -0.010509502 -0.05929026 -0.08081495 -0.032880988 -0.009775768
0.026847348 -0.022325614 0.022052998 0.060400277 -0.12741926 -0.08579915 -0.02001334 -0.107798845
-0.11316402 0.11099145 0.10684394 0.14223231 0.036291912 -0.010390448 0.061690956 -0.062810265
-0.013531694 -0.07527025 0.12687314 0.014823372 0.0042187874 0.0021025985 0.14141256 0.0028930218
0.096101895 0.12078803 0.1251671 -0.11914209 -0.05102134 0.0803095 0.066385075 -0.043085556
-0.06969615 -0.027317882 0.04183141 -0.038699497 0.086525336 0.080105275 -0.06559315 0.11520806
0.0995106 0.008421091 -0.04871685 0.1160749 0.06720478 0.08536713 -0.004987808 -0.14033972
-0.040400594 -0.0062157675 0.121692635 -0.016342863 0.10310354 0.04150976 -0.108948484 0.07511422
-0.10909052 0.0444441 0.08961906 0.09246998 0.029968724 -0.060049582 -0.010776669 0.08154839
-0.0056349146 0.098095946 0.037265375 0.08876046 -0.04837842 0.059085533 -0.024344858 -0.09708949
0.11010119 -0.10812799 -0.09362867 -0.051023602 0.046832047 -0.10612439 -0.0780401 -0.03632095
0.057448357 0.03881964 0.106053084 -0.10892371 -0.0029078126 0.056282874 -0.031051377 -0.023555376
-0.13312417 0.11096376 0.09873584 -0.0015640615 0.06662099 -0.010265857 -0.07567731 -0.053732388
-0.12752077 -0.07367567 -0.06646244 -0.019492038 0.09415619 0.080833375 0.049071193 -0.08241276
0.08906917 -0.121979445 -0.1204366 0.09628564 -0.030439302 0.14123623 0.12390509 -0.13444097
0.014951064 -0.11851001 -0.06990888 0.06754456 -0.034395516 0.10920712 0.034862448 0.0103683015
0.03861372 -0.038973905 -0.06188043 0.084841326 0.04452917 -0.13513118 -0.021275051 0.076642185
0.06505127 0.023780748 -0.12631744 0.058662333 0.072533816 0.11201542 -0.0071658967 -0.038148403

bias f4 [16]
00000000: 2445 febc a0f2 ae3c 38d9 cc3c 8327 07bb
00000010: bce9 9fbd 208e f93b cc93 b7bd 1c29 073e
00000020: b0f4 04bc ce95 903d 46f7 84bd 7c13 723d
00000030: d272 b4bd 5431 cf3d c43c b53d 7b49 92bd
-0.031038828 0.021355927 0.025005922 -0.0020622916 -0.07808253 0.0076158196 -0.08963737 0.13199276
-0.008114979 0.07059823 -0.06492476 0.059100613 -0.08810963 0.101168305 0.08849481 -0.071429215

weight f4 [16]
00000000: 0a00 803f 0700 803f 0300 803f e7ff 7f3f
00000010: 2d00 803f 0800 803f e6ff 7f3f d6ff 7f3f
00000020: c7ff 7f3f b2ff 7f3f 2e00 803f 0000 803f
00000030: 1200 803f ffff 7f3f efff 7f3f d9ff 7f3f
1.0000012 1.0000008 1.0000004 0.9999985 1.0000054 1.000001 0.99999845 0.9999975
0.9999966 0.99999535 1.0000055 1.0 1.0000021 0.99999994 0.999999 0.9999977

bias f4 [16]
00000000: 45d5 6135 b2e3 a336 7531 7b36 de69 58b6
00000010: 5ddb 6a36 444a a3b5 f0d1 97b4 4428 4736
00000020: b62c a535 0c29 95b6 ce08 7536 7ce0 ad36
00000030: 95c3 4f36 8a30 0d36 d631 e6b5 f365 f635
8.412938e-07 4.8842858e-06 3.7430702e-06 -3.224813e-06 3.4996403e-06 -1.216606e-06 -2.827869e-07 2.9676748e-06
1.2306471e-06 -4.4453245e-06 3.651297e-06 5.181935e-06 3.0959247e-06 2.103889e-06 -1.715084e-06 1.8358099e-06

running_mean f4 [16]
00000000: 81a2 aabe b703 563d 070f a8bd ef18 b23e
00000010: ce04 53bd 69b8 2c3e 9357 133e e1ec aebd
00000020: 38de 74bd fe82 99bc 278e 9cbd 950b 473f
00000030: 60f1 2ebf b0af d63e 74be fcbe 7501 5c3f
-0.33327106 0.052249637 -0.08205991 0.34784648 -0.051518254 0.16867222 0.14388876 -0.08541275
-0.059782237 -0.01873922 -0.07644301 0.7775205 -0.6833706 0.41930914 -0.49364054 0.85939723

running_var f4 [16]
00000000: 37e6 133d 5ad7 273d 786c 7f3d 0842 8c3d
00000010: ba27 c93e b0cc f23d e75f 823d 089d 293d
00000020: 0f4d 923d c6ab cb3c 5dac 373d 17bc a73d
00000030: 1f28 6d3e c949 843d 93c9 773d bb7d 843d
0.03610822 0.04097686 0.062359303 0.06848532 0.3928812 0.11855447 0.06365948 0.041409522
0.07143604 0.024862181 0.044842113 0.08190172 0.23159836 0.06459386 0.06049497 0.06469294

weight f4 [16, 16, 3]
00000000: 6051 e53d 7257 eabd e04e f53b 5e44 07bd
00000010: 2722 9c3d 8c2c dd3d a433 b6bd e759 9f3c
00000020: 0cb8 033d d76a 9cbd 552d 1c3d 60a6 05be
00000030: b817 043e 535b 023d 4836 99bc 788e 983c
00000040: 3d03 f93d 22a1 d7bd d932 86bd 92c7 d9bb
00000050: 0eb9 26bd 4091 47bc 4805 eabd c8be b3bd
00000060: 6c7c 8d3d a69e 753d acc3 dcbd 50a0 a4bd
00000070: 3a1d efbd d848 f93d 628e 013e 5e1c ec3d
00000080: 0058 1abc 9c10 f93d c266 99bd 805f 8eba
00000090: e8cb 9b3d f4a7 473d 74cc 03be 3c57 b23d
000000a0: 4722 0f3e 1abc 8dbd 9419 59bd 4ad0 fabd
000000b0: 00e3 37bb 74fb bdbd ee01 e83d b2db c6bd
000000c0: 6294 0f3e f52c 88bc e229 3bbd 4c11 0d3d
000000d0: f59a 9c3d 80ba f53c b4ca f13d 7a60 e1bd
000000e0: d8ae e13d d020 8b3c 9ad3 a3bd 3474 123e
000000f0: fcb8 c7bc 58d4 733d 9e6b 72bd c8fd dc3d
00000100: b93b 09bd e6e4 933d 0e68 983d c522 2bbd
00000110: cefc 033e 458f 11be e4f1 183d 597e 03be
00000120: 1942 a5bd 2f7c 103e 3434 f83d 98d1 883d
00000130: f973 b4bd a508 00be 1651 a23d 30c8 e13d
00000140: 408d 273b ead1 043e a1dc bdbd 7726 05be
00000150: e0d4 013e cd3e 673d 0e38 a3bd b88e a73d
00000160: 4a8d 91bd b0fc 58bc a192 9abd f7d0 21bd
00000170: 6f70 eabd e09a 22bc 1c88 963c 0801 dd3d
00000180: 68fd 923c ef95 c8bd 02cb 4abd 8eba 2cbd
00000190: 3650 91bd aabf 03bd 60de 8abc b1af 803d
000001a0: e4d7 fc3d ee76 033e d518 96bd 2053 1fbd
000001b0: e5b1 0fbe 651d 053e c7a6 0abe 207d acbc
000001c0: 90f0 11be ca1a c8bd aed3 e2bd 1aa6 f4bd
000001d0: d474 033d ac6d c0bd a605 b23b 0670 c93d
000001e0: 8634 b8bd 5fee e3bd 5b8c a0bd 4228 92bd
000001f0: ff15 aa3d eed1 06bd 6e1b 70bd b310 bd3c
00000200: 8889 ebbd 5123 fbbd b9e6 1e3b d251 0e3e
00000210: b489 08be d2fe 0fbe 90b9 d83d eca2 4ebd
00000220: 8c33 083e 48f3 f43d a8c9 793d cd94 863d
00000230: 5865 0a3e 1a24 d5bd bb41 503d ee47 f5bd
00000240: 90c1 c73d 6ec6 84bd 66be c8bd aaa8 70bd
00000250: 7bce 573d 50b1 6b3c 809f 203d a124 bebd
00000260: 88a2 8c3d 0af2 dbbd 8523 94bd f09a 6ebd
00000270: 92cb d8bd 68e3 8ebd a02e 933d ce43 033e
00000280: 0a75 44bd 709a d13c bc28 083e 44bf 5a3c
00000290: 5b98 eebd 6d44 0abe 4b11 6fbd f024 943c
000002a0: 4070 c53c 7808 0fbd 9843 07be 08f1 b0bd
000002b0: 8166 b03c 8266 a8bd 1428 6e3d a3de 60bc
000002c0: b470 5ebd 30bc b5bc 44f5 7f3d a064 493d
000002d0: 00e6 58ba 17d7 83bd 6227 0e3e eaab 39bd
000002e0: 20ca 023e 9689 78bd 24fd 5d3d 694a aabc
000002f0: f8c1 9e3c ba0d 823d bee3 0c3e 6051 b13c
00000300: 8c35 ecbd 9880 7ebc 3ebb 16bd 7fd2 fbbd
00000310: 67bf a7bb 62eb dcbd 78c9 883d 855a febb
00000320: ccf4 ef3d 9372 d3bd fc87 5bbd 7caa 803d
00000330: 9011 59bd 43b2 fcbd e8d8 04be 3c0f 0ebe
00000340: 99b6 dc3d 98a1 f13d f818 513d 5096 c9bd
00000350: a4a9 e93d d0d6 5c3c 3f61 99bd 3ccc 223d
00000360: 806c 0fbd 25ba 053d 9689 d4bd 58f2 ae3c
00000370: 2487 763d 80ff e5ba 2207 3dbd 2342 50bb
00000380: ccbf 093d 4e18 c0bd a125 b2bd c0b4 183b
00000390: 239b ccbd d18f 3dbd e06f 8c3d 61ef dcbd
000003a0: d069 c73d 0416 00bd 7088 9dbd 85dc 7c3d
000003b0: ca82 103e 1669 8e3d f652 58bd 7031 333d
000003c0: a43b 09be 2473 023e bc32 d93d 901f 683d
000003d0: b075 7a3d 9440 bebc 79cc 08be fac2 fa3d
000003e0: 708f 8e3c 24bf 973d e492 b43d d08b 54bc
000003f0: 5ee6 06bd 7e01 24bd 4241 e1bd 9a7e 09be
0.11197162 -0.1144246 0.0074862093 -0.033024184 0.076237015 0.10799512 -0.088965684 0.019452048
0.032157943 -0.076375656 0.03812917 -0.13051748 0.12899673 0.031825375 -0.018702641 0.018622622
0.12158821 -0.105287805 -0.06552667 -0.006646105 -0.040703826 -0.012180626 -0.114267886 -0.08776623
0.06908497 0.059965752 -0.10779509 -0.0803839 -0.116754964 0.12172097 0.12651971 0.11528848
-0.009420395 0.12161371 -0.074903026 -0.0010862201 0.076072514 0.048744157 -0.12870961 0.08708045
0.1397792 -0.06920643 -0.05300291 -0.12246759 -0.0028058887 -0.092764765 0.11328493 -0.09709872
0.14021447 -0.016623 -0.04569424 0.034440324 0.07646743 0.029996157 0.11806241 -0.110047296
0.11019677 0.01698342 -0.07999344 0.1430214 -0.0243802 0.05952868 -0.059184663 0.107905924
-0.03350422 0.07221393 0.07441722 -0.041781206 0.12889406 -0.14214809 0.03734006 -0.12841167
-0.08069248 0.14109872 0.12119332 0.06680602 -0.088111825 -0.12503298 0.07925622 0.11024511
0.002556637 0.12970701 -0.09270597 -0.13002954 0.12678862 0.056456376 -0.07969676 0.08181518
-0.07107027 -0.013243839 -0.075474985 -0.039505925 -0.11447226 -0.00992462 0.018375449 0.10791212
0.0179431 -0.097942226 -0.04951001 -0.0421701 -0.07095377 -0.032165207 -0.01695174 0.062835105
0.12345865 0.12838337 -0.07328955 -0.038897634 -0.14032705 0.12999494 -0.13540183 -0.021055758
-0.14251924 -0.097707346 -0.11075531 -0.11945744 0.032093838 -0.09395918 0.0054328023 0.0983582
-0.08994393 -0.1112945 -0.07839271 -0.07136585 0.08304977 -0.03291505 -0.05861991 0.023079252
-0.115008414 -0.122625954 0.0024246408 0.138984 -0.1333378 -0.1406205 0.10582268 -0.050448343
0.13300914 0.11960465 0.06098333 0.0657135 0.13515222 -0.104072765 0.050843935 -0.1197661
0.09753716 -0.0648316 -0.098019406 -0.0587546 0.05268715 0.014385536 0.03921461 -0.0928433
0.06866938 -0.10739525 -0.07233337 -0.05825323 -0.10585703 -0.06976968 0.071866274 0.12818834
-0.04796318 0.025586337 0.13296789 0.013351265 -0.11650153 -0.13502665 -0.0583661 0.01808402
0.024101377 -0.034920186 -0.13209379 -0.08639723 0.021533253 -0.08222677 0.05814369 -0.013724956
-0.0543067 -0.022184461 0.062489763 0.04916823 -0.0008274019 -0.064375095 0.13882211 -0.045329966
0.12772417 -0.060678087 0.05419649 -0.020787435 0.0193796 0.063502744 0.13758752 0.021645248
-0.11533651 -0.015533589 -0.03679966 -0.12296008 -0.0051192525 -0.10787083 0.06679052 -0.0077622556
0.11716613 -0.10324588 -0.05359648 0.06282517 -0.052995265 -0.12338688 -0.12973368 -0.13872999
0.10777015 0.117984 0.051049203 -0.09843123 0.114093095 0.01347895 -0.07489251 0.039745554
-0.035015583 0.032648224 -0.10377805 0.021355793 0.060187474 -0.0017547458 -0.04614938 -0.0031777702
0.033630177 -0.09379636 -0.086985834 0.0023301095 -0.099905275 -0.046279732 0.06857276 -0.107878454
0.09736979 -0.031270996 -0.07692039 0.06173374 0.14112392 0.06953637 -0.052813493 0.04374832
-0.13401657 0.12739235 0.1060538 0.056670725 0.06114739 -0.023224153 -0.1335925 0.1224422
0.01740238 0.07409504 0.0881708 -0.012972787 -0.03293454 -0.040040486 -0.10998775 -0.13427201

bias f4 [16]
00000000: f83e 663d 564c 63bd 58c5 f43d 68a4 af3d
00000010: 0eb2 0ebe bc78 10bd 1c25 c5bd bc63 c83d
00000020: 4c1a 083e d2a8 33bd a080 063e 1890 3cbd
00000030: a601 d4bd a097 a6bb 4d91 86bd 72a8 acbd
0.056212395 -0.05549272 0.11951703 0.0857628 -0.1393511 -0.03527139 -0.09626219 0.09784648
0.13291281 -0.04386217 0.13135004 -0.046035856 -0.10351877 -0.005083993 -0.06570683 -0.08430566

weight f4 [16]
00000000: 0000 803f 0900 803f 2700 803f 0100 803f
00000010: e3ff 7f3f 2000 803f 84ff 7f3f b6ff 7f3f
00000020: 98ff 7f3f daff 7f3f 4f00 803f 0f00 803f
00000030: 0500 803f f1ff 7f3f b6ff 7f3f 1c00 803f
1.0 1.0000011 1.0000046 1.0000001 0.9999983 1.0000038 0.9999926 0.9999956
0.9999938 0.99999774 1.0000094 1.0000018 1.0000006 0.9999991 0.9999956 1.0000033

bias f4 [16]
00000000: b6b7 b835 996f 0937 41f4 a236 5b13 e8b4
00000010: bfcf ecb6 dd31 f336 08fe 03b7 636e 8cb6
00000020: 1e57 ddb5 3183 26b6 d56d b236 0cf3 a836
00000030: 4be1 a834 3d96 c4b6 b04c aa35 4c3c dc35
1.3762535e-06 8.19182e-06 4.856411e-06 -4.322745e-07 -7.057533e-06 7.247769e-06 -7.867355e-06 -4.185176e-06
-1.6491138e-06 -2.481229e-06 5.3175995e-06 5.0350845e-06 3.145636e-07 -5.858745e-06 1.2688306e-06 1.6408826e-06

running_mean f4 [16]
00000000: acf1 163e a6f8 b9bd 613c 473d 853c 013d
00000010: 9063 69be 3447 1b3e d509 173e 2470 233e
00000020: f871 8a3e aa13 7dbe 3ef2 393e 2d87 26be
00000030: a285 e9bd 60bd adbe 335d d8bd f327 61bc
0.14740628 -0.09080629 0.048641566 0.031551857 -0.22791886 0.1516388 0.14749844 0.15960747
0.27040076 -0.24714532 0.18158814 -0.16262503 -0.114024416 -0.33933544 -0.10564651 -0.013742435

running_var f4 [16]
00000000: 5c99 d13d e82c 5e3c e2b3 043d 956f a33c
00000010: f233 de3c adbc 813d ab9a bc3c 2d20 7d3c
00000020: d589 c13c cda4 bc3d fde6 883c cdc0 8f3d
00000030: aa58 d03b dbcc db3c ea90 af3c 028b 673c
0.10234329 0.013560511 0.032398112 0.019950667 0.027124379 0.06334815 0.02302297 0.015449566
0.023625294 0.09211121 0.016711706 0.07019196 0.006358226 0.026831081 0.021431405 0.014132263
