DFA-PS/DFA-PS/Experiments/Full-GOP/DJIA/backup/best/DecisionModel_RatioModule.pt (torch, 71689 bytes, 83 tensors)

weight f4 [8, 4, 3]
00000000: 6790 65be 97b7 3a3e 3c62 0cbe 729a 18bc
00000010: 59ae d03d a61b 163e 524d 0cbe e724 87be
00000020: 579f 2cbe 20d6 61be 20a8 5fbe 7949 0b3e
00000030: 9b6f fa3d d006 2a3e f445 41bd d655 6d3e
00000040: 1fe2 923e 2daa 173e b339 23be e7ad e9bd
00000050: 0d1a 3ebe 1f78 3f3e 22cc 033d e800 8d3e
00000060: 2671 04bd a761 843e f18f 103e a7ef ccbb
00000070: 6c36 18be 6bf8 ec3d 19c6 823c fb7b 15be
00000080: 0b01 2c3e eb03 35bd 87cf 8ebe 82fc 24be
00000090: f80e 863e 9f02 f43d dd50 47be 14af 663e
000000a0: 2cdc 193c e52f 89be 2289 ae3d 7199 b9bd
000000b0: f4e5 d6bd 55aa 763c 1b9a 86be 4fb3 e83b
000000c0: 8d7d 6f3e 70b9 693d 5913 02bd c7b2 063e
000000d0: 5603 cfbc 4f86 bebd 4542 8f3d 1c9b fa3c
000000e0: 3235 e03d 3f2b 9bbd 4299 6f3e 7366 463e
000000f0: 4de2 e7bd d41a cc3d 54e9 2e3d 7942 7a3e
00000100: 6609 773e 442b 193e ac13 243e cb68 8b3d
00000110: 15ab bfbd 7d4c 27be f3a4 833e 6429 fa3d
00000120: 2a31 63be f713 ba3d da0f b7bd 6f63 86be
00000130: a3d1 8d3e 7e88 013d 80e8 dc3d 9138 96bb
00000140: f35f 7bbe 461d 883e f176 ccbd 0dc6 90be
00000150: 5983 853e 938c fdbd d138 1ebe 7cd1 743e
00000160: c3bf 1d3e fb7d 45be a87b 0fbd 66fa 22be
00000170: f9a8 683e dd14 85be 6759 3ebe 3d3c ebbd
-0.22418366 0.18234096 -0.13709348 -0.009314166 0.10189504 0.14658985 -0.1370137 -0.26395342
-0.16857658 -0.22054338 -0.21841478 0.13602246 0.12228318 0.16604161 -0.047185853 0.23177275
0.28688142 0.1481101 -0.1593998 -0.11410122 -0.18564625 0.18698166 0.032177098 0.27539754
-0.03233447 0.25855753 0.1411741 -0.0062541547 -0.1486451 0.115708195 0.015963601 -0.14598076
0.16797273 -0.04419319 -0.27892706 -0.16111949 0.26183295 0.119145624 -0.1946444 0.22527725
0.009390872 -0.26794353 0.0852225 -0.0906247 -0.10493079 0.015055259 -0.26289448 0.0071014534
0.23387738 0.057061613 -0.031756733 0.13154136 -0.025270145 -0.09302961 0.06995062 0.03059154
0.10947646 -0.07576608 0.23398307 0.19375019 -0.1132246 0.099660546 0.042702988 0.2443942
0.24124679 0.14957911 0.16023129 0.06807097 -0.09358803 -0.16337772 0.25711784 0.12214926
-0.22186723 0.09085839 -0.0893857 -0.26247737 0.27699003 0.03162431 0.10786533 -0.00458438
-0.2454832 0.26584834 -0.09983624 -0.282761 0.26076773 -0.12380328 -0.15451361 0.23908037
0.15405183 -0.19286339 -0.035030037 -0.15915832 0.22720708 -0.2599248 -0.18588792 -0.11486099

bias f4 [8]
00000000: 7eb0 37be c17a 773e 8f97 29be 36bc 76bd
00000010: a569 703d 1f1d 35bd fd4a 543c bf16 43bd
-0.1793842 0.2416792 -0.16561721 -0.060238086 0.0586945 -0.044217225 0.012957332 -0.047629114

weight f4 [8]
00000000: c7ff 7f3f 8101 803f 5e00 803f 5500 803f
00000010: fefd 7f3f beff 7f3f 5c00 803f fffe 7f3f
0.9999966 1.0000459 1.0000112 1.0000101 0.99996936 0.99999607 1.000011 0.9999847

bias f4 [8]
00000000: b4ac ea35 f5b1 dc37 3ebe 98b7 2c93 0937
00000010: a508 1c37 fb97 8db6 e1ea d236 b19d 08b8
1.7484622e-06 2.6308911e-05 -1.82084e-05 8.2001025e-06 9.300337e-06 -4.2198203e-06 6.285831e-06 -3.257179e-05

running_mean f4 [8]
00000000: 5be5 1cc4 8b28 7644 e72c adc3 751c 7fc3
00000010: 7787 5f44 e7b0 0444 6392 c1c3 6f67 6ac4
-627.5837 984.6335 -346.3508 -255.11116 894.11664 530.7641 -387.14365 -937.61615

running_var f4 [8]
00000000: 99fa 0e48 755e 8b47 8ff4 d645 7ad7 9d47
00000010: d1fd e346 ad73 d447 0a7c 1248 e007 2647
146410.39 71356.914 6878.57 80814.95 29182.908 108775.35 150000.16 42503.875

weight f4 [8, 8, 3]
00000000: ffcf 42be 0bd0 2d3e 879c a0bd e763 543d
00000010: c7fa 083e fd40 853d d4f0 2bbe fbfa 93bb
00000020: 8d4f 143d 3db0 c33d 7735 123e 72e1 2b3e
00000030: 0a3c cbbb fc6b 393e c627 37bd 9d11 d1bd
00000040: 7af3 95bd 99ad 463e 24e2 d73d 1225 8d3d
00000050: 6366 c4bd 3cb8 debd d90e 173b f81f e63c
00000060: 0586 36be 09ee 263e 178b bdbd f805 86bd
00000070: af7c 02be a466 b23c 88dd c1bd fb71 3e3e
00000080: 9713 473e ce0b 1c3d 39e8 9cbd 8942 393e
00000090: 9910 133e 0e41 493e 03ba 21be 726e 11bc
000000a0: c492 bcbc 9eb3 40bd 1d4a a0bc 2d18 be3c
000000b0: a707 4f3e b167 50be 5d0d 2fbe 3897 76bb
000000c0: 61ee efbd d37b 84bc 4a0f 17be 0d7a 45be
000000d0: 8990 dd3c 3a3e 7abd ef06 823d 1100 df3d
000000e0: 2d52 e4bd e298 d53d 0bba 733d aebb 5dbd
000000f0: 450d 07be 5a0c aabd 94e3 4d3e 902e f2bd
00000100: 1efd 1abe 262c 09be 088a 2c3e 21eb 973d
00000110: 65b5 febd d5a6 503e 68a5 21be 6259 4bbe
00000120: 9a64 14be d1cc eb3d 670d 9cbd 0fab a8bd
00000130: 79c7 82bd 5c78 f8bd 0853 483e e5ed 0dbb
00000140: 3d4e 67bd 7fea 433e 2506 42be c6c1 a3bd
00000150: 8269 4b3e 4d12 1bbe afc6 9d3d 4399 0cbe
00000160: d967 2bbe 599b 9bbd 470c 1ebe 2641 78bd
00000170: 255d e0bd 7bfa b3bd 0c90 77bd c9a6 b5bd
00000180: bcb4 d7bd cb59 40bb f10b 013d 4a7f 4dbd
00000190: 3009 d6bd 1bf3 263e 0783 25be 7245 2f3e
000001a0: a9f8 483d 0f5b 60bd db00 37be 4ab9 213d
000001b0: 9a62 2ebe fd26 053e 66c3 c1ba ed6f 38be
000001c0: 9e57 4a3e 55b6 0b3d 5a40 913d ac5e 2fbc
000001d0: 8e3e 353e 8738 ccbd de12 12be 71c6 ee3d
000001e0: 1cc2 0dbd a912 073d 428b 23be 249d ac3d
000001f0: 3aa4 4cbe c93a 85bc 26dc abbd 012d 3dbe
00000200: b452 6a3d 546f 4bbd bf53 143d c7e0 32be
00000210: cb11 2d3e 8f75 4dbe da4c ecbd bcfe 01be
00000220: e9f5 2abe 9dc8 603d 0862 9bbd cc9b ab3d
00000230: d716 723d 21d5 3c3e e837 6dbd 3fcb 84bd
00000240: 1cec 3ebe e475 d1bc 0fd7 4e3e 33f6 07be
00000250: 3b9b 17be b341 fb3d fd8b a73d b600 1f3e
00000260: 7e3f 0fbe 6c9a 8abd 3376 423e 332a 03be
00000270: 5704 12be dee5 97bd d594 43be 750b 8fbd
00000280: 25e1 493c 8850 6a3d 4101 f73d e0b1 a1bd
00000290: f09e d9bd 15b1 20be 5a27 d7bb a870 30bd
000002a0: 0085 2fbe 2a9a e83d 11eb 8c3d 54c1 e0bd
000002b0: 865c 20be 01b9 00be 43fa dabd a957 0cbe
000002c0: c8f4 08be bcba 103e 9f2d 24be 2eb7 b03d
000002d0: f941 16be 8871 abbd fb38 91bd 213c 43bc
000002e0: baeb 2abd 18cb ab3d 39f7 2d3e e2da ff3d
000002f0: 0f89 bd3d 5359 ff3d ed1b 0abe ade0 f8bd
-0.19024657 0.16973893 -0.07842355 0.051853087 0.13376914 0.06506536 -0.16791087 -0.004516003
0.036208678 0.09555099 0.14278208 0.1678522 -0.0062022256 0.18107599 -0.044715665 -0.102084376
-0.0732183 0.1940216 0.1054118 0.06891836 -0.09589841 -0.10874984 0.0023049621 0.028091416
-0.17824562 0.1630174 -0.09255045 -0.06544107 -0.12742876 0.021777458 -0.09466082 0.18598168
0.19441067 0.038097195 -0.076614805 0.18091787 0.143618 0.19653723 -0.15793614 -0.00887643
-0.023019202 -0.047046296 -0.01956659 0.023204887 0.20217763 -0.20352055 -0.17094941 -0.0037626754
-0.11715389 -0.016172325 -0.14751926 -0.1928484 0.027046459 -0.0610945 0.06348979 0.108886845
-0.11148486 0.10429551 0.059503596 -0.054134063 -0.13188656 -0.08303137 0.20106345 -0.11825287
-0.15135619 -0.13395748 0.1684953 0.07417894 -0.12436942 0.20376141 -0.15785754 -0.19858316
-0.14491501 0.11513675 -0.07619744 -0.08235752 -0.06385703 -0.12132332 0.19562924 -0.0021656689
-0.0564711 0.19132422 -0.18947656 -0.07995944 0.19864467 -0.151437 0.077039115 -0.1373034
-0.16738833 -0.075979896 -0.15434371 -0.060609005 -0.10955266 -0.0878801 -0.06044011 -0.08869702
-0.10532519 -0.0029350396 0.03150553 -0.05017022 -0.10450971 0.16303675 -0.16163264 0.17116335
0.049065266 -0.05477434 -0.1787142 0.039483346 -0.17029801 0.13003154 -0.0014782965 -0.18011446
0.19759986 0.034109432 0.07092352 -0.010703724 0.17699644 -0.09971719 -0.1426501 0.116589434
-0.034608945 0.03297678 -0.15971091 0.0842841 -0.19984522 -0.016263383 -0.08391599 -0.18474199
0.057207778 -0.049666718 0.03621268 -0.17468558 0.16901319 -0.20064376 -0.11538096 -0.1269483
-0.1669537 0.05487882 -0.07587057 0.08379325 0.059103813 0.18440677 -0.057914644 -0.064840786
-0.18644756 -0.02556891 0.20199226 -0.13277511 -0.1480531 0.122683905 0.081809975 0.15527615
-0.13989064 -0.06767735 0.18990402 -0.12809066 -0.14259468 -0.074168906 -0.19099744 -0.06984607
0.012321745 0.057205707 0.12060786 -0.07895255 -0.10626018 -0.15692551 -0.0065659704 -0.043076187
-0.17140579 0.113575295 0.06880773 -0.109743744 -0.15660295 -0.12570573 -0.10692265 -0.13705315
-0.13374627 0.14133734 -0.16033028 0.08628689 -0.14673604 -0.08371264 -0.07090946 -0.011916191
-0.041728713 0.083883464 0.16988839 0.124929205 0.092546575 0.12468209 -0.13487215 -0.121522285

bias f4 [8]
00000000: b756 2f3e e1b6 4abe 6a77 43be c0ba 3d3e
00000010: 13b4 bc3c b1a9 d63d 9544 0fbe 205a 2cbd
0.17122923 -0.19796325 -0.19088522 0.1852827 0.023035085 0.10481585 -0.13991006 -0.042078137

weight f4 [8]
00000000: 1bff 7f3f 0dff 7f3f 73ff 7f3f e1fe 7f3f
00000010: f7fe 7f3f 0801 803f f6ff 7f3f 3600 803f
0.99998635 0.9999855 0.9999916 0.9999829 0.9999842 1.0000315 0.9999994 1.0000064

bias f4 [8]
00000000: 99ae 0db7 9af3 a0b7 ae23 86b7 3181 86b7
00000010: a0a9 7636 e95e f636 f02c e137 574c bc37
-8.444907e-06 -1.9186922e-05 -1.599066e-05 -1.6034204e-05 3.6755591e-06 7.3424203e-06 2.6843016e-05 2.2446895e-05

running_mean f4 [8]
00000000: 1aa7 af3e 99ec 96bd a59e 17bf 7ff7 75be
00000010: b6d8 3a3a f873 89be 710e 02bf f5bc 02bf
0.34307176 -0.07369346 -0.5922645 -0.24020194 0.00071276294 -0.2684629 -0.50803286 -0.51069576

running_var f4 [8]
00000000: e334 1d3d 3cc6 303d 58e7 f33d f584 d23d
00000010: ace5 883e b872 993e 65dd 453e 7da4 c33d
0.038380515 0.0431578 0.1190936 0.10279266 0.26737726 0.29970336 0.19322737 0.09552858

weight f4 [8, 4, 1]
00000000: b11e 86be 6f12 bfbe 430f 5dbd 3902 edbe
00000010: ebb1 133e ff18 9f3e 8ceb 7abe 10b4 b83e
00000020: 0c63 a63e 948a 8dbe 787c d8be 0860 95bc
00000030: fd48 d8be d0cf e4be 14c3 74be 774e c9be
00000040: 65b5 4bbe ce58 29bd 1de5 b53c 8409 ddbe
00000050: 16d7 d23e ff3a a83e b347 acbe 0c19 a5be
00000060: 217d 5d3e bcf0 de3e 9ecd b6be 3b8a dabd
00000070: 2569 c6be 3dde 43be 58a4 fe3e 5722 98bd
-0.2619529 -0.3731875 -0.053969633 -0.46290758 0.14423339 0.31073758 -0.24503917 0.36074877
0.32497442 -0.2764479 -0.42282462 -0.018234268 -0.42243186 -0.44689798 -0.23902541 -0.39317676
-0.19893415 -0.041344456 0.022203976 -0.43171322 0.41179723 0.3285751 -0.33648452 -0.32245672
0.21629764 0.4354304 -0.35703748 -0.106708966 -0.38752094 -0.19127746 0.4973476 -0.07428425

bias f4 [8]
00000000: f48c 413e ba70 ee3e 1cd4 f2be e0e6 a2bd
00000010: 0a67 debe 605d 49bd e6a9 e3be 407b 3ebe
0.18901426 0.4657038 -0.47427452 -0.07954192 -0.43437988 -0.049161315 -0.4446556 -0.18601704

weight f4 [8]
00000000: e3ff 7f3f 5fff 7f3f 8500 803f 8700 803f
00000010: 6cff 7f3f e1fe 7f3f 4000 803f d7ff 7f3f
0.9999983 0.9999904 1.0000159 1.0000161 0.9999912 0.9999829 1.0000076 0.99999756

bias f4 [8]
00000000: 0850 9a36 90af 9937 e311 dbb6 fea6 67b7
00000010: 270f 3bb8 035b e036 f891 4038 3f0c 6e37
4.5988745e-06 1.8320774e-05 -6.528791e-06 -1.3807554e-05 -4.4598386e-05 6.6863154e-06 4.591231e-05 1.4188757e-05

running_mean f4 [8]
00000000: 6093 a1c4 b65c 6644 3ded d643 5e45 adc4
00000010: f687 8ec4 6119 35c2 42d4 c742 c806 30c4
-1292.6055 921.4486 429.85342 -1386.1677 -1140.2488 -45.274784 99.914566 -704.10596

running_var f4 [8]
00000000: 851b 9346 1878 f645 9dea 1646 f149 f646
00000010: 0d23 4c46 7076 fb45 8b5b 3745 5cb5 8046
18829.76 7887.0117 9658.653 31524.97 13064.763 8046.8047 2933.7214 16474.68

weight f4 [8, 8, 3]
00000000: bbae cd3d c31e 363e 8e08 243e ffba 17be
00000010: 6aa5 05be 3e67 23bd 0076 ebbc 23be 5abd
00000020: b9a9 0dbe a2d9 383e d7da 1d3e 85ab 553c
00000030: 2005 833c 67fd 0ebe bf45 6d3d 9c6e a13d
00000040: 58bc 4fbe 3f52 923d 86c1 10be ac63 3b3c
00000050: 2578 20be a64a bebc db8f efbd 0811 f1bd
00000060: e5a1 823d bc8b 55bd b241 61bd b6ae ab3d
00000070: d4fb 2dbe 1e2a 07be c7d9 f93d 5809 463e
00000080: e333 c3bd 9710 16be 0d04 dc3d aa23 443e
00000090: 4cdb 57bd 3ce4 36be 7116 113d 2dbe b53d
000000a0: e3d3 1fbe 4abe 953d 6e4c 08be 3cdc 0dbe
000000b0: f1b3 e23c a05f e3bb 93b0 0e3e 583a ddbd
000000c0: b36e 753d 35e2 963d 72f8 49be 1774 2cbd
000000d0: 8ff3 6a3c 94df f8bd d088 293e ecfb 4dbe
000000e0: bf1a e63d 4a31 57bd 7b2f 33be c73a d6bd
000000f0: 372d da3d faed 6bbc 0936 943d 422a 4b3e
00000100: 7594 033e d49e c93d a3e5 443e f886 e33c
00000110: 722d d2bd fc79 e3bd b232 ed3d d66a acbd
00000120: 12a3 1ebe 1f53 27bd 1815 3bbe b230 fcbd
00000130: bafc 003e 830d b4bd 318f 3a3b e1aa 40be
00000140: 7521 7dbd 4c99 973d 9efc 623d 54ca 143c
00000150: 8a0d 46bd d55e 29be e084 803d ec71 c23c
00000160: 575b fb3d 301d 42be 3fbc 093e bc87 203e
00000170: 2159 08be 473b c33d aae8 c23d 0f35 883d
00000180: a40c 03bd 9d86 ac3d 7663 073e b24a 1bbe
00000190: a213 38be 1158 bebd 847c ba3d 27ae a43d
000001a0: 24b7 1e3e ed06 a2bd 0370 0dbd 53d8 25be
000001b0: 727e c5bd 1026 cc3d 74bc 4fbe d4b8 a2bd
000001c0: 4e98 c3bd 5b75 49be 50d0 31bc 49f5 eebc
000001d0: 541d 25be 7e42 44be de5d 45bd 53e2 6bbc
000001e0: f68d 73bd 69e6 3c3e 0f76 bdbd 1b18 edbd
000001f0: 512b 843c 8e61 f63d 4087 bbbc 34a4 2ebd
00000200: de21 14be d1e1 1dbd 22ff 063e 362b 8d3d
00000210: b179 103d 873a 273d cc98 053c 0e5b 25bb
00000220: a5d2 8bbd d6e1 b23d c2ec 9c3d 21ef 0d3e
00000230: 9aef e2bd 8df4 0cbe a6bf b03d 672f e93d
00000240: 004f 3dbd 5fb7 1cbe ff53 803d 8b31 cfbd
00000250: 220c d4bd b4d0 06be 21f2 ba3d 2db2 013e
00000260: 0e92 1fbe 140e 0abe f6cb 8cbd 3be4 203e
00000270: 78d8 2a3e 246a c23d 3e4b 0ebe 94a4 3d3e
00000280: 97e2 c7bd 6b76 343e 8f7e 8ebc b73f 413e
00000290: d488 7cb9 16d5 3f3d 0217 15be 7aa7 50be
000002a0: 28ed 803d 0e0f 67bd ae56 32bd a464 113d
000002b0: 2681 d13d 2450 bc3c 246d 633d 0e4d 2d3d
000002c0: a100 143e 1ff6 cabd 8481 c93d a10e 30bd
000002d0: c887 2a3d 9cb7 283e 2b8f 373e 2bf7 c0bd
000002e0: 5b8b 443e 1ea9 2fbd 6445 99bc 2792 103e
000002f0: d096 283e b302 d5bd 0511 c4bd 1dfa 8ebd
0.10043093 0.17785172 0.16018888 -0.14817427 -0.13051382 -0.03989338 -0.02874279 -0.053403985
-0.13834275 0.1805177 0.15415512 0.013041382 0.015993655 -0.13963853 0.057927843 0.07882425
-0.20286691 0.071445934 -0.14136323 0.011437338 -0.15670832 -0.023228955 -0.1169736 -0.117708266
0.06378535 -0.052135214 -0.054994293 0.08382933 -0.16990596 -0.1319966 0.12199741 0.19339502
-0.09531381 -0.14654766 0.1074296 0.1915423 -0.052699372 -0.17860502 0.035421792 0.08874164
-0.15608172 0.073116854 -0.13310406 -0.13853544 0.027673693 -0.0069388896 0.13934545 -0.10802144
0.059920024 0.07367364 -0.1972368 -0.0421029 0.014340295 -0.12152019 0.16556096 -0.20115632
0.1123557 -0.05253724 -0.17498581 -0.1046043 0.10653155 -0.0144 0.07236869 0.19840339
0.128496 0.09844747 0.19228224 0.027774319 -0.10262574 -0.11107251 0.11581935 -0.08418815
-0.15491894 -0.040850755 -0.18269765 -0.123139754 0.12596408 -0.0879164 0.0028466696 -0.18815185
-0.061799485 0.07402286 0.055416696 0.009081442 -0.048352756 -0.16540082 0.06275344 0.023735963
0.12273281 -0.18956447 0.13450716 0.15676779 -0.1331525 0.09532791 0.095170334 0.06650745
-0.031994477 0.08424113 0.13221535 -0.15165213 -0.1797624 -0.09294141 0.09105781 0.080410294
0.1549955 -0.07911477 -0.03453065 -0.16195802 -0.09643258 0.09968197 -0.20286733 -0.079454094
-0.09550534 -0.19673674 -0.010852888 -0.029169695 -0.16124469 -0.1916599 -0.04818522 -0.014397222
-0.059461556 0.1844727 -0.092510335 -0.115768634 0.016133936 0.12030326 -0.02289164 -0.042637065
-0.14466044 -0.038545433 0.13183263 0.068930075 0.035272304 0.0408273 0.008154105 -0.0025231275
-0.06827287 0.08734481 0.076623455 0.13860752 -0.110808566 -0.13765164 0.08630304 0.113859944
-0.04621792 -0.15304326 0.06266021 -0.101168714 -0.10353877 -0.13165551 0.09128214 0.12665625
-0.15583059 -0.13481933 -0.0687484 0.15712063 0.16684139 0.09492901 -0.1389589 0.18519813
-0.097600155 0.17623298 -0.017394332 0.18871962 -0.00024083565 0.046834074 -0.14559558 -0.20376387
0.06295234 -0.05641084 -0.043539695 0.03549637 0.10229711 0.022987433 0.055524006 0.042309813
0.14453365 -0.09910225 0.09839156 -0.0429827 0.041633397 0.16476291 0.17925708 -0.094221435
0.19193785 -0.042885892 -0.018709846 0.14118253 0.1646378 -0.104009055 -0.09573559 -0.06981299

bias f4 [8]
00000000: acc5 f5bd 3528 813d 416b 2e3e acf3 d23d
00000010: 8cd8 cfbd 12d6 163e 2895 553d 9779 2a3e
-0.120005935 0.06306497 0.17033102 0.10300383 -0.10148725 0.14730099 0.0521442 0.16647945

weight f4 [8]
00000000: 4200 803f 28ff 7f3f 28ff 7f3f 43fe 7f3f
00000010: 3300 803f 7a00 803f 1801 803f 27ff 7f3f
1.0000079 0.9999871 0.9999871 0.9999735 1.0000061 1.0000145 1.0000334 0.99998707

bias f4 [8]
00000000: d463 8e37 b42b 7db7 5fe7 08b8 0104 4fb8
00000010: d321 8bb6 09a0 0838 6bbf 03b6 360e 3ab7
1.6974205e-05 -1.5090151e-05 -3.2640408e-05 -4.9356375e-05 -4.1464605e-06 3.257397e-05 -1.963194e-06 -1.1089773e-05

running_mean f4 [8]
00000000: 0ed3 e3be 5de4 e1bd 2492 c33d 7104 a93d
00000010: db1e f4be c7d0 f93e cabe 02be f568 2d3f
-0.4449696 -0.11029885 0.095493585 0.082528 -0.4767979 0.48792097 -0.12768093 0.67738277

running_var f4 [8]
00000000: 951a c33e 6a7b d23d 32b8 273e d0dc 8f3d
00000010: eb37 113e e269 fc3d f938 f63d dd85 823e
0.38106218 0.102774456 0.16378859 0.070245385 0.14181487 0.12324883 0.120225854 0.25492755

weight f4 [8, 8, 3]
00000000: cb71 c0bd 2dd6 28be 633c 49be fbb4 8ebd
00000010: 4bbe 1d3e 8a8d b7bd 3339 a5bd 5c94 febd
00000020: d16c ffbd 768c 32bd 3b18 403e a1a0 1a3e
00000030: e89a fdbd dfd7 4f3c 3920 973d 1f50 1dbd
00000040: 12b2 50be e42d 2b3e 7d3b 11be 4fa1 27bd
00000050: 1498 f53d 9ba2 9abd 94d6 2b3e 4db8 4bbe
00000060: 63fe 1abe 5b47 34be c37b ff3d 6813 9abc
00000070: c26c 3b3e 737c b1bd dd67 32be 9d03 0d3e
00000080: a7d2 403d e000 bbbd 9f0f 853b f579 073e
00000090: 8099 d13c 7eff 41be f972 843d 1b41 4ebe
000000a0: 7fee 253d 6e5e 233e 16f1 333e 6702 d33d
000000b0: c2ff 313e 6085 d8bd 2471 4abe c1a2 f5bd
000000c0: 319c e03b 8488 8a3d 984c 383e 6efc 483d
000000d0: 3974 353e a314 d83d cbd0 4dbe a0e2 b63d
000000e0: 44f0 8f3c bb1e d23c 93c0 05be ad6c 4cbe
000000f0: 35f4 04bc 8459 3ebe 27e6 c93d 406c 70bd
00000100: c97c 193e 3b81 65bd e126 a23d f6c6 20bc
00000110: 1152 b3bd 2151 523d 8f85 88bd 2f34 9c3d
00000120: 7155 1dbe db93 88bc 8beb dfbd a8f5 da3d
00000130: 0309 ee3c 21c2 ffbd 5695 253e 070a bcbd
00000140: 433e 073e ed34 f3bd 0f67 36be 5fa4 0f3d
00000150: 6b33 fc3d fc79 2cbe c6d5 1ebe e3dc 9c3c
00000160: 9383 43be 6706 cb3b f6be c3bd 2f6a 59ba
00000170: e29a c0bd 9e25 443e e589 c53d cdeb a93b
00000180: ab2b 3abc cceb 973d 6cf8 b4bd e5a6 b2bd
00000190: 8e1c e43d 4437 48be e4a8 c1bd 14d0 ed3d
000001a0: d9d0 cebd 97db cf3d f982 3f3e 919d bdbd
000001b0: 99e7 a63d 9f07 9f3d c584 59bc 0908 003e
000001c0: 0030 38be b893 c73c ca5e b9bd 98cc 24be
000001d0: f5ca 783d ff37 47be 7e19 6f3d cdb1 b33c
000001e0: cbce c63d c82a 243d 3f09 163e 17e9 53bd
000001f0: 5330 493d ec5d 21be 8037 413e 60e4 22be
00000200: ae22 0ebe ed5e 443e c5e2 b6bd 1f73 293e
00000210: 884f 563c 66cb 1d3e a00c 1bbe f8a2 0dbd
00000220: b799 733d 7112 2e3d a7f4 86bd f57d f1bd
00000230: 56d5 f8bc 5ae2 b33d 9f07 1fbe 125d 0fbe
00000240: edd8 cb3c 75eb c93d 9760 103d c3fd 593c
00000250: 9826 eb3d b891 0b3e be73 82bc ce7d 393d
00000260: 71a5 93bd 305b 2a3c 35a3 0dbc 1d0e 953d
00000270: 1bff 093d ba27 86bd a78f 1b3e 1d45 893d
00000280: b872 23be f91d 70bd 5159 b2bd 32e3 4ebe
00000290: 4f6b aabc befe 8b3b 5d07 52bd 83dc 1dbe
000002a0: edde e1bd 0993 b8bd 4f11 2dbe 2bd1 463e
000002b0: b728 3d3e 73bc 103e 4771 ffbd b3e1 28be
000002c0: 9501 bfbc 4b98 abbd cbd3 06be 6e5d 363e
000002d0: d9df 163e dd4e c6ba e6e3 11bd ad9c 2c3e
000002e0: b165 89bd 9f2e 3fbe 3e71 6e3d 3cc7 fe3d
000002f0: aa74 2e3e 39ca 173e 9ef9 023c b836 d23d
-0.09396704 -0.16487952 -0.19651942 -0.06968113 0.15404622 -0.08962543 -0.080675505 -0.12430641
-0.12471927 -0.043590985 0.18759243 0.15100338 -0.12383062 0.012685745 0.07379193 -0.038406488
-0.20380428 0.16716725 -0.14182849 -0.04092532 0.11991897 -0.07550546 0.16781074 -0.19894524
-0.15136103 -0.17605345 0.124747775 -0.018808082 0.18303207 -0.08666315 -0.17422433 0.1377091
0.047075894 -0.09131026 0.0040607 0.13230117 0.02558589 -0.18945119 0.06467242 -0.20142023
0.04051065 0.15953991 0.17572436 0.103031926 0.1738272 -0.10572314 -0.19769722 -0.119939335
0.006854557 0.067643195 0.17997968 0.04906886 0.17720117 0.10550811 -0.2009918 0.08929944
0.017570622 0.025649419 -0.13061742 -0.19963332 -0.008114864 -0.18588835 0.09858351 -0.058696985
0.14989008 -0.056031447 0.07917572 -0.009813061 -0.08755887 0.0513469 -0.06666099 0.07627141
-0.15364625 -0.016672065 -0.10933598 0.106913865 0.029057031 -0.12488199 0.16170248 -0.091816
0.13207345 -0.11875329 -0.17812751 0.035068866 0.12314495 -0.16843408 -0.15511236 0.019148296
-0.1909316 0.0061958316 -0.09557907 -0.00082937157 -0.094045416 0.19154975 0.09645442 0.0051855803
-0.01136295 0.074180216 -0.08836445 -0.08723239 0.11138259 -0.19552332 -0.094560415 0.116119534
-0.10098428 0.10149305 0.18702306 -0.09258569 0.081496425 0.077651255 -0.013276284 0.12503065
-0.1798706 0.02436243 -0.09051283 -0.16093671 0.06074043 -0.19454955 0.05837392 0.021935368
0.097074114 0.040079862 0.14651965 -0.051735964 0.04911835 -0.15758485 0.18868828 -0.1590743
-0.13880417 0.19176836 -0.089299716 0.16547821 0.013080485 0.15409622 -0.15141535 -0.034579247
0.059472766 0.042498056 -0.065896325 -0.117916025 -0.030375164 0.087834075 -0.15530251 -0.14000347
0.024883712 0.09859363 0.035248365 0.01330513 0.114819705 0.13629806 -0.01592433 0.045285992
-0.0720929 0.010397717 -0.008644869 0.072780825 0.033690553 -0.06550546 0.15191518 0.067026354
-0.1596173 -0.058622334 -0.08708442 -0.20203856 -0.020803122 0.004272311 -0.051276553 -0.1541615
-0.11028848 -0.0901242 -0.16901134 0.19415729 0.18472563 0.14134388 -0.12472778 -0.16492347
-0.023316184 -0.08378657 -0.1316673 0.17809078 0.14733829 -0.0015129704 -0.03561773 0.16856642
-0.06708849 -0.18670128 0.058213465 0.12440345 0.17036691 0.14823236 0.007994084 0.10264343

bias f4 [8]
00000000: 4581 9c3b 3442 883d 8c73 f73d 3948 edbd
00000010: c58c ff3d 8a59 c23d cfd6 dd3c e929 413b
0.0047761523 0.06653252 0.12082586 -0.11586041 0.124780215 0.094897345 0.027079968 0.0029474443

weight f4 [8]
00000000: 4200 803f 0700 803f 95ff 7f3f effe 7f3f
00000010: 1601 803f 29fe 7f3f 2c00 803f e6fe 7f3f
1.0000079 1.0000008 0.9999936 0.9999837 1.0000331 0.9999719 1.0000052 0.9999832

bias f4 [8]
00000000: 7c51 81b7 b954 cbb7 189b bbb6 93f1 e2b6
00000010: 979a 0737 3838 ddb7 e70c 35b7 c9f6 66b7
-1.5415942e-05 -2.4238938e-05 -5.5910896e-06 -6.763448e-06 8.08262e-06 -2.6371432e-05 -1.0791445e-05 -1.3766527e-05

running_mean f4 [8]
00000000: a538 35be 9401 973d 42f8 2a3e ba88 79be
00000010: b848 c43d f77b e1bb b0ec f4bc f152 2b3e
-0.1769739 0.07373348 0.16696265 -0.24368563 0.095841825 -0.006881233 -0.029898018 0.16730858

running_var f4 [8]
00000000: fd7b 423d 170a c43d 4049 b33d 07c9 af3d
00000010: d2e0 8d3d b265 d03d ef45 543d 1eeb 4c3d
0.047481526 0.09572237 0.08754206 0.08583265 0.06927647 0.10175647 0.051824506 0.050028913

weight f4 [8, 8, 1]
00000000: e530 9dbe 1e7e e53d 8d54 15be 0874 90bc
00000010: ca7d a13e 9369 8ebc 7231 fd3d 6170 9f3e
00000020: 95ff 56bc 5481 83be 5a14 b73d ac0e 813e
00000030: 49e6 b4be ad2d 2d3e dfba 3a3e 90f4 96be
00000040: 0674 12bd 620a 7dbe a4d7 423e 49c6 883e
00000050: af6f a3be b110 f0bd 47b0 7e3e e854 6cbc
00000060: 8d57 febd e468 63be a77d dbbd bf7d 4c3e
00000070: 7fe3 813d 7466 0abe efe8 e8bd ffd6 23be
00000080: 7eee 4ebe cb89 5abe b16d 113e e1a2 123d
00000090: f744 cebd 8936 ac3e 4dad d4bd 1fdb e33c
000000a0: 0397 a0be bc8e 20be df35 733e 2454 f73c
000000b0: 0b4e f13d bbf7 b13e 3952 903e a7ea 32be
000000c0: 59c2 e0bd 9115 603e c3e9 87be e71f 4cbe
000000d0: bac1 cebc cac0 eb3c 974f 28bd acd4 1b3e
000000e0: d23c b63c abf9 393b d775 77be 59e6 0ebd
000000f0: 2d56 653e dc9e 01be bf2b a9be 31fd 0a3e
-0.30701366 0.112056956 -0.14583035 -0.017633453 0.31541282 -0.017384326 0.123629466 0.31140426
-0.013122459 -0.25684607 0.08939429 0.25206506 -0.35331944 0.16911955 0.18235348 -0.2948346
-0.03575518 -0.24710992 0.19027573 0.2671378 -0.31921145 -0.11721934 0.24871932 -0.01442454
-0.12419043 -0.22207981 -0.10717326 0.19969843 0.063422196 -0.13515645 -0.113725536 -0.15999983
-0.20208165 -0.21341626 0.14202 0.035799865 -0.10071748 0.33635357 -0.10384617 0.027814446
-0.31365213 -0.15679449 0.23751019 0.030191489 0.11782464 0.34759316 0.2818773 -0.17472325
-0.10974569 0.21883227 -0.26545534 -0.19934045 -0.02523886 0.028778452 -0.041091528 0.15217847
0.022245798 0.0028377573 -0.24166046 -0.034887645 0.22396155 -0.12658256 -0.33041188 0.13573147

bias f4 [8]
00000000: 82a8 adbc b0b6 4c3e 2539 15be dd03 8f3e
00000010: d99a d4bd c678 d43b 457e 4b3e b582 973e
-0.021198515 0.19991565 -0.1457258 0.27932635 -0.10381097 0.006484124 0.19872387 0.2959191

weight f4 [8]
00000000: 2400 803f e8ff 7f3f 1500 803f 3500 803f
00000010: 70fe 7f3f 9900 803f a4ff 7f3f 1101 803f
1.0000043 0.99999857 1.0000025 1.0000063 0.99997616 1.0000182 0.9999945 1.0000325

bias f4 [8]
00000000: d368 efb6 d02b 6736 0d9f 22b7 2814 d536
00000010: c990 c135 1677 52b7 6418 3eb7 0d9d f3b7
-7.134958e-06 3.4447185e-06 -9.692984e-06 6.350241e-06 1.4421759e-06 -1.2544702e-05 -1.1330561e-05 -2.904099e-05

running_mean f4 [8]
00000000: d512 9a3e 5f9e d23d 6a37 8fbd 1fa5 12be
00000010: 51c6 a3bd fd5f c93e 1449 31bd c8cd 56bc
0.30092493 0.10284113 -0.06992991 -0.14320801 -0.0799681 0.39331046 -0.043282583 -0.0131105855

running_var f4 [8]
00000000: 2f75 183e 5e96 693e fa8c 173c 7226 613e
00000010: d393 9e3d 269c 123f 564d 363c f616 083f
0.14888452 0.22811267 0.00924992 0.21987322 0.07743039 0.57269514 0.011126837 0.53160036

weight f4 [16, 8, 3]
00000000: 10bd d6bc 6756 193e 982f c9bd 09d4 afbd
00000010: 493f 3d3e 37a4 a4bd bbe1 0d3e 3cbf 803d
00000020: 9d1f ed3c c015 f7bd c0cd 3ebe 445d 973b
00000030: f1cb 343e 4b60 fa3d 4093 3dbd 2289 f4bd
00000040: 179e ae3c 9a4b 783d ca2e 8d3d bde4 0abe
00000050: ce1d 0d3e 7beb 1cbd e9b8 fa3c 7e63 4e3e
00000060: 251d 853d 8949 12be 6511 35bd 849b 133d
00000070: 8ecc fabc 487d cf3b eb80 3bbd 2385 45be
00000080: 9198 0dbd 78f6 1ebd 95cf 273e 0582 ad3d
00000090: 9192 62bd 989b f0bd b2d3 953c a30f e2bd
000000a0: b847 a4bd fb6d 443d d94e 47be 5ff1 d6bd
000000b0: 3b3f 9fbb 4c61 563d e235 153e a25e 433e
000000c0: 494d bfbc 2bf4 2fbe 20b6 803d 5ad9 81bd
000000d0: d9df e83d f031 653d a46d f0bd a586 493e
000000e0: 54d9 dbbc 9bde dabd 6d02 a43d c961 87bb
000000f0: 98fa 35be 0391 a03c fe09 223e 31fb 0f3d
00000100: 9e93 7d3c 5514 63bd 33dc 193e d757 38be
00000110: 3538 a33d ea25 48bc 1ae5 45be 0339 2e3d
00000120: 94c2 8b3c 2dcf 133d 937b 12be ce52 0bbe
00000130: 72da 17bd 89bc dbbc 9545 313e fe5b 7bbd
00000140: 0a23 023e 1513 95bd 2017 93bd 78ed d3bd
00000150: 894f 7dbd d599 f8bd 5747 333e 1dbc 3a3e
00000160: 2063 2c3d b0bf 06be fcf1 133e c9aa 8cbd
00000170: 8c2a dfbd 871f a8bd ba86 4cbe d44c aebd
00000180: 3b61 9ebd fa25 afbc e904 d03d da48 773d
00000190: 1682 e9bd f69e 3abd 86ab 0abe bd7c 463d
000001a0: 5024 1fbe d119 b5bd db9d 0dbe fdd5 493e
000001b0: c9ed f83d 9ae3 0dbd ff3f 243c c548 2a3d
000001c0: 4f07 fcbc 07e1 be3d 827f 21bd 283c 0d3e
000001d0: 457f 86bd 3028 babd 8eeb da3d cbe6 d53d
000001e0: bcd9 623d 7741 a83d 317e bd3d 6cbd 023d
000001f0: 032b 2cbe 3101 16be b648 10be 4a7b 3e3e
00000200: 795b 17be d799 c8bc 779d b03d d4fc 1d3e
00000210: 5788 c23d e2ea b33b 585c 08be edce 163e
00000220: 68bd f03d 5a1d 40be cf1d 18be d905 903d
00000230: e32c a63d e494 3c3e 3d0a 143e 6289 313d
00000240: b4d6 4cbe ddea 46bc 881c 32be 8db9 2abd
00000250: 1442 4c3e 9aa4 603d 4628 6a3d 95c4 49be
00000260: f6d8 01be 4e66 813d 7bc7 143c 650a f83d
00000270: c9e5 2f3d c0f9 863d 2997 6abc 5b54 52bc
00000280: c34b ba3d 8140 d1bd f4a8 0b3e 7406 413e
00000290: 41fe 0a3e 15cb 7a3d bfae 853d d6b0 d5bd
000002a0: 9326 dcbd 38d5 4c3e f23a 25be f47d 26be
000002b0: 2c5e 3c3e ec9a bebd 6a71 243e 8fbc d3bd
000002c0: 85fd 733d dcd7 9a3d 66d0 30bd cccd 1d3e
000002d0: e6c4 5b3d 720b 0b3d 4986 683d cf33 bf3d
000002e0: 2672 afbc d1fb 073e 523f d2bd 9d7b ea3d
000002f0: 7b48 a23c 50b1 973d 2357 84bd d427 293e
00000300: b785 723d 7c7d 363e a19a 03be 0c5f 2abc
00000310: 1bba 91bd 5439 abbd b48b cc3c 36fb 34be
00000320: ad84 1d3e 2587 7ebd e287 95bb a26b 1abd
00000330: 9f1d 4d3e 0f52 24be 57aa 663d 9870 9b3d
00000340: d364 be3d 9843 dbbd 5dc9 3d3c 7299 47bd
00000350: 17af 4b3d a010 ab3d d08f 003e c6c2 fb3d
00000360: 70b5 0ebe 2e62 10be 63c9 a6bd 0729 af3c
00000370: 4cab a0bd 7e03 e0bd e953 4d3e 923d 0d3d
00000380: 30d0 9bbd ba56 243c c2c0 bebd 04db e43d
00000390: 3f7a b13d f35e 083e 48fd 333d 5f2b f4bd
000003a0: d7f9 c53d e608 0c3d b671 29be f58e 8fbd
000003b0: 3293 d13d a52e 32be 2901 0d3e ef44 cc3d
000003c0: ab3d df3b 9e7c 813c 3357 46be cf01 50be
000003d0: ab0c 1ebe 8334 36be 1b45 01be c966 c2bd
000003e0: 54ab 14be c05a 31be 75bc 00bd 4e32 6f3c
000003f0: 2c70 3b3d a2a5 523c 3978 23be 26de 1e3e
-0.026213199 0.14974366 -0.09823531 -0.08585364 0.18481173 -0.08039134 0.1385564 0.06286475
0.028945738 -0.12064695 -0.18633175 0.0046192724 0.17655922 0.12225398 -0.046283007 -0.119402185
0.021315617 0.060618974 0.0689369 -0.13563819 0.13780901 -0.03831051 0.03060575 0.20155141
0.064996995 -0.14285864 -0.04420604 0.036036983 -0.030615117 0.0063320734 -0.045777243 -0.19289069
-0.034569327 -0.03880927 0.1638778 0.08472065 -0.055315558 -0.11748427 0.01828942 -0.11038139
-0.08021492 0.047956448 -0.19463672 -0.10495257 -0.0048598326 0.052338883 0.14571336 0.19079068
-0.023352282 -0.17182986 0.062847376 -0.06340285 0.113708206 0.055955827 -0.11739662 0.19680269
-0.026837029 -0.1068699 0.08008275 -0.00413153 -0.17771375 0.019600397 0.15824124 0.035151664
0.015477089 -0.055439312 0.15025406 -0.18002258 0.07969705 -0.012216071 -0.19325677 0.04253484
0.017060556 0.03608625 -0.14304952 -0.13605806 -0.03707356 -0.026823299 0.173117 -0.061367027
0.12708679 -0.0727903 -0.07182145 -0.10348028 -0.06184343 -0.12138716 0.17507683 0.18235822
0.04208672 -0.1315906 0.14447778 -0.06868512 -0.10896787 -0.08209138 -0.19973269 -0.085107476
-0.07733389 -0.021380413 0.101571865 0.06037221 -0.11401765 -0.045561753 -0.13541993 0.048458803
-0.15541196 -0.08842815 -0.13829748 0.19710536 0.12154729 -0.034640886 0.0100250235 0.041573305
-0.030765204 0.09320264 -0.03942824 0.13792479 -0.065672435 -0.090896964 0.1068946 0.10444411
0.05538343 0.082156114 0.09252585 0.031918928 -0.16813283 -0.14648892 -0.14090237 0.18601719
-0.14780988 -0.024487419 0.08623784 0.15428478 0.09498661 0.0054906467 -0.13316476 0.14727373
0.117548764 -0.18761197 -0.14855121 0.07032365 0.0811403 0.18416172 0.1445703 0.04334391
-0.20003778 -0.012140957 -0.17393696 -0.04168086 0.19947082 0.054844476 0.057167314 -0.19703896
-0.1268042 0.06318341 0.009080763 0.121113576 0.04294375 0.06590605 -0.014318266 -0.012837495
0.09096482 -0.10217381 0.13638669 0.18850118 0.13573553 0.06122883 0.06527471 -0.104341194
-0.10749545 0.20003211 -0.16135767 -0.16258985 0.18395299 -0.09306893 0.16058889 -0.10338699
0.059567947 0.07560703 -0.043167494 0.15410537 0.053654574 0.033946462 0.05676869 0.093360536
-0.021416735 0.13279654 -0.10265984 0.114493586 0.019809952 0.074068666 -0.064619325 0.165191
0.05920955 0.17821306 -0.12851955 -0.0103986375 -0.07115575 -0.08360544 0.02496896 -0.17673954
0.15382643 -0.062140603 -0.0045633176 -0.037700303 0.20030831 -0.16046928 0.056314792 0.07589835
0.092965744 -0.10706252 0.011583653 -0.04873032 0.049727526 0.0835278 0.1255486 0.122930095
-0.139364 -0.14099953 -0.0814388 0.021381868 -0.07845172 -0.10938166 0.2005154 0.034482546
-0.07608068 0.010030443 -0.093141094 0.111745864 0.08665895 0.1331747 0.04394272 -0.11922335
0.09666794 0.034188174 -0.16547284 -0.07009689 0.102331534 -0.17400606 0.13769974 0.099740855
0.0068127713 0.015806492 -0.19369201 -0.2031319 -0.1543452 -0.17793469 -0.12624018 -0.09492261
-0.14518481 -0.17319775 -0.031429727 0.014599396 0.045761272 0.012856873 -0.1596383 0.1551443

bias f4 [16]
00000000: dede 2f3e ab5a 173d 1606 50be 32ec 333e
00000010: a72b ca3d 1f15 8bbd c376 373e 986f 2f3e
00000020: de8f 0e3c 0f35 27be a92d 20be 8f99 103d
00000030: 09a5 113d 099c c13d 61c3 093e fbc6 a03c
0.17174861 0.036951702 -0.20314822 0.1757057 0.09871607 -0.06791138 0.17916398 0.17132413
0.008701293 -0.16328834 -0.15642418 0.035302695 0.03555778 0.094535895 0.13453437 0.019626131

weight f4 [16]
00000000: d4ff 7f3f 6300 803f 3efe 7f3f 1400 803f
00000010: 39fe 7f3f c9fe 7f3f 7400 803f 1500 803f
00000020: f200 803f 8800 803f 5a00 803f 0600 803f
00000030: 0400 803f 5bfe 7f3f 6800 803f b6fe 7f3f
0.9999974 1.0000118 0.9999732 1.0000024 0.9999729 0.99998146 1.0000138 1.0000025
1.0000288 1.0000162 1.0000107 1.0000007 1.0000005 0.9999749 1.0000124 0.99998033

bias f4 [16]
00000000: d26a 9937 825f 2137 6a18 bdb7 9acb 28b4
00000010: a387 44b7 1faa f3b7 c0e3 7537 80c5 8bb6
00000020: 343b 8f36 e9ea b737 22aa 9537 c356 1635
00000030: e4d5 6836 c3d4 9537 ba09 cc37 ea6e cbb7
1.8288763e-05 9.618585e-06 -2.2541924e-05 -1.5720289e-07 -1.1714091e-05 -2.9047076e-05 1.4656165e-05 -4.165515e-06
4.2686243e-06 2.1924689e-05 1.7841408e-05 5.600561e-07 3.4695195e-06 1.7861259e-05 2.4323224e-05 -2.4251134e-05

running_mean f4 [16]
00000000: a4d7 d73e 6df7 36be 9528 66be 7b36 3cbd
00000010: 07f4 bfbc 0778 3d3e 84d4 d53e 3c1a 133f
00000020: a541 e93d 2d19 4fbe b9f5 78bf ddd5 c7bd
00000030: ce8b 913e 1e76 01be 3471 de3e 99e3 17bd
0.42156708 -0.17867823 -0.22476418 -0.045950394 -0.023431791 0.18502818 0.417637 0.57461905
0.11389474 -0.20224448 -0.97249943 -0.09757588 0.28426975 -0.12642714 0.43445742 -0.03708229

running_var f4 [16]
00000000: e889 f73d a4b1 d83d ddb1 773e 4800 0c3e
00000010: 646f b43d e9f3 653e 3114 d83d cc38 283d
00000020: 5d5b f03d 88f4 a13d b9a7 aa3d f2e0 b53d
00000030: ce32 143e 63a9 ba3d 2554 e43d 3ea3 373d
0.120868504 0.10580757 0.24188943 0.13671982 0.088103086 0.22456326 0.10550726 0.04106979
0.11736176 0.07907969 0.08332772 0.088807955 0.14472505 0.09114339 0.11148862 0.044833414

weight f4 [16, 16, 3]
00000000: 8291 88bd 01b1 98bd 2c72 b23c dbf5 853d
00000010: 4a6b fdbd fde0 803d 48f3 be3d fa55 b4bc
00000020: cb00 f7bd a0d9 fa3c 7b8f c4bc 1d54 a43c
00000030: d0dd 003e d152 063e 99f6 73ba 39ad 06bd
00000040: 8a56 a53d 3f69 8dbd 7c2a abbd 25a9 093e
00000050: efa1 debd 18b9 023e 5d7b cdbd 2716 44ba
00000060: e2c5 ec3d 3bf1 593d 5160 ad3d 27fb 993d
00000070: f648 8fbd 73a9 3a3d a60b 6dbd 960c ad3d
00000080: 588a 18bd ae0f 143d ad35 bebd add6 fe3c
00000090: e4e7 75bd d552 e6bd 4f90 883d 84ca 7d3c
000000a0: 2dcb 84bd 8ea4 c1bd baba d43d 946f 4a3d
000000b0: 1917 de3d a077 8c3d 9105 88bd 6c83 fb3d
000000c0: c6dc b3bd 9dcf 03be 7891 b23b 56e7 c53c
000000d0: cff6 c4bd 6a02 d0bd b52a d8bd a69c c6bd
000000e0: 6ba3 3d3d 6840 aabd 8f64 da3d 028f a2bd
000000f0: d912 07bc 8f8b 86bd a049 5c3c 35a9 943d
00000100: ac68 4b3c 25d1 a93d 85c8 4c3d 5848 b03d
00000110: 5af8 d53d 3b34 e03d bdac 04bc 8d25 0d3d
00000120: 8ae5 e63c 929f 303c 33c1 07be 31d1 c6bd
00000130: d62a 973d 4965 11bb 784f 9a3d d816 e63c
00000140: ec91 12bd 1def cebd ea17 97bd cf57 02be
00000150: 636c 9f3d 43ca cd3c 6206 77bd ed6a e3bd
00000160: 0553 343d 7073 113d ffce 03be 6700 b0bd
00000170: ef8b 063d 5034 47bd 347c 92bc 60ff 7a3a
00000180: 6aeb 973d 5eb8 74bc 6785 a53c 6c5a a9bd
00000190: dadb 373d 851a 24bc a7bc db3c fafc 073e
000001a0: 523f bcbd c7c1 babc 01e7 a0bd d211 133e
000001b0: 0841 e03d fe55 fb3c 2752 b93d a246 a5bd
000001c0: 8fa0 ecbb e9d1 963d 7344 08be c084 263d
000001d0: 42a0 f1bd b8e7 9bbc 579b 013d ac3e 123e
000001e0: efa1 80bc cc03 073e 65cf c4bd 22bc 793d
000001f0: 3fe1 083e 56fe 01be 5504 edbd fabf 0bbe
00000200: be09 653d 3d18 c33b 6d13 063e 65df a4b9
00000210: 925d a2bd 0f44 b0bd 370f c9bd dcfd 6fbd
00000220: 3737 dbbd 1cdc 44bd dee5 9a3d 362c e6bd
00000230: 7d15 05bc 96e7 e8bc 09b0 d13c 2223 ecbd
00000240: 5570 c5bd b85d e23d b1df 29bc 96f2 b2bd
00000250: 1ce3 09be 7be1 06be 2c97 923d 93f2 3d3b
00000260: 8880 dcbc 206f a2bc 156b 493d de8b 113c
00000270: db2e 8a3d ee24 13be 16f7 a7bb b2dd 67bd
00000280: 94a5 dd3d 447e febd 01d2 903d ca5f 24bd
00000290: 12fc 293c 8984 bc3d 3918 80bd 66d0 6d3d
000002a0: 73c7 113c 45ef d9bd 3713 05bd 3357 99bd
000002b0: 9f99 92bd 77fb b33d ea7b afbd 89cc 1cbd
000002c0: aff4 d6bd 066f 6cbb d7ca fc3d 1d35 93bd
000002d0: c95d 723d 8052 e8bc f282 b73d 7b6a 073e
000002e0: 3560 5e3d 330d edbc 2cc8 7a3d 6744 f2bd
000002f0: c85c 5c3d b80e bb3d d597 9abc 005a 0c3d
00000300: 64ad ae3d 5ecf dbbd bd8c acbc 544b 91bd
00000310: 7d04 0e3d 658c c5bd ad67 7c3d 2e6d 13be
00000320: e409 b9bb b3ea 39bd a011 68bd 05da 093e
00000330: 1474 0f3e 44e6 0c3e 649e 053e 63fe 90bd
00000340: 1915 123e 5798 85bc 9a52 a7bd 8d66 023e
00000350: 6242 c3bd 0a37 cd3c 1d00 52bd 89b2 88bc
00000360: 5e5a 6cbd 2e79 e23d 925c 103e b41e 583d
00000370: 8e25 94bd 05c4 0ebe 453b 723d 56b3 cebb
00000380: 9eab 76bd c552 013d c373 2a3d 7283 8ebb
00000390: e8c8 1e3c 865f 843d 452c 63bd 17b7 f23d
000003a0: c7c8 9d3d 9c8e 0e3e e7b6 a23d f0c3 603d
000003b0: 6513 18bd aa91 c7bd db62 403c 6e33 66bd
000003c0: ed57 aebd 8230 103d 5d31 103e c334 9e3d
000003d0: 4845 e6bd e3f1 0d3e 1225 4a3d f9fa e6bc
000003e0: c65c 243d 8a7e 4cbd f2da b63d 9db3 92bd
000003f0: 63a4 0f3e 7c74 9dbd 1a9b 323d f2fd 06bb
-0.066683784 -0.07455636 0.021782957 0.06541034 -0.123739794 0.06292913 0.09323746 -0.022013653
-0.12060698 0.03062135 -0.023994198 0.02005964 0.12584615 0.1311753 -0.000930646 -0.03288004
0.08073147 -0.0690484 -0.083577126 0.1344343 -0.1087073 0.1276592 -0.10033295 -0.00074801076
0.11561181 0.05320857 0.084656365 0.07518607 -0.06996338 0.045571756 -0.057872437 0.08449666
-0.03724131 0.036147766 -0.092875816 0.031108225 -0.0600356 -0.11246268 0.0666815 0.015490178
-0.06484065 -0.094552144 0.10387178 0.049422815 0.10844249 0.06858754 -0.06641687 0.12280926
-0.087823436 -0.12872167 0.00544947 0.024158161 -0.096173875 -0.101567104 -0.10555021 -0.09697847
0.046298426 -0.08313066 0.10663711 -0.07937433 -0.00824424 -0.065695874 0.013445288 0.07258836
0.012415092 0.08291844 0.049995918 0.086075485 0.1044776 0.10947462 -0.008097825 0.03445964
0.028185625 0.010780232 -0.13257293 -0.09707869 0.07381217 -0.0022185615 0.07534689 0.028087065
-0.035783693 -0.10104201 -0.07377608 -0.12728809 0.07784345 0.02512086 -0.06030882 -0.11104379
0.044024486 0.03551048 -0.12871931 -0.08593827 0.032848295 -0.048633873 -0.01788149 0.0009574797
0.074179485 -0.014936535 0.020205213 -0.082692 0.0448874 -0.010016088 0.026823355 0.13280097
-0.09191765 -0.022797478 -0.078565605 0.14362267 0.10949904 0.030680653 0.090488724 -0.08070113
-0.0072212885 0.07364256 -0.13307361 0.040653944 -0.11798145 -0.01903139 0.031642284 0.1428172
-0.015702216 0.13185042 -0.0960987 0.060970433 0.13367175 -0.12694678 -0.11573092 -0.13647452
0.055917494 0.005953817 0.13093348 -0.0003144696 -0.07928003 -0.08606731 -0.09817355 -0.05859171
-0.10703891 -0.048061475 0.07563375 -0.11238901 -0.008122799 -0.028430741 0.025596635 -0.115301386
-0.09640566 0.11053032 -0.010368274 -0.08737676 -0.13465542 -0.13171951 0.0715774 0.0028983697
-0.026916757 -0.01982838 0.049174387 0.008883445 0.06747218 -0.14369556 -0.0051258905 -0.05660791
0.10822597 -0.12426427 0.07071305 -0.040130414 0.01037504 0.092049666 -0.0625462 0.058060072
0.00889765 -0.1064134 -0.032489028 -0.07487335 -0.07158207 0.087881975 -0.085685566 -0.038280997
-0.104958884 -0.0036076917 0.12343376 -0.07187865 0.05917147 -0.028359652 0.08960523 0.13224213
0.05429097 -0.028936958 0.061226055 -0.11829453 0.05379942 0.09133667 -0.018871227 0.03426552
0.085291654 -0.107329115 -0.021063203 -0.07094446 0.03467225 -0.09645919 0.06162231 -0.14397117
-0.005646931 -0.045389842 -0.056657434 0.13462074 0.14009124 0.13759714 0.13048702 -0.070797704
0.1426586 -0.016307993 -0.08170052 0.12734433 -0.09534146 0.025050659 -0.05126964 -0.016686695
-0.05770337 0.110582694 0.14097813 0.052763656 -0.072337255 -0.13941963 0.059138555 -0.0063079996
-0.06022226 0.031573076 0.041614305 -0.0043491656 0.0096914545 0.06463532 -0.05546214 0.11851328
0.07704311 0.13921589 0.07945042 0.05487436 -0.03712787 -0.0974458 0.011742319 -0.05620139
-0.08512864 0.03520251 0.1408133 0.07724907 -0.11243683 0.13861804 0.04935176 -0.028195845
0.04012754 -0.049925365 0.08928479 -0.07163165 0.14027552 -0.07688233 0.043604948 -0.002059814

bias f4 [16]
00000000: 63f9 02be b178 8bbd b4dc 00be 2f8b 013e
00000010: cd2f a3bc 80f7 c53d 7837 08be 678f 8dbd
00000020: 113c 053d ee8e 983d ecde 103d 0c61 63bd
00000030: 5ab0 56bc 76b5 0fbe b210 f9bd b963 9bbd
-0.12790446 -0.068101294 -0.12584192 0.1265075 -0.019920254 0.096663475 -0.1330241 -0.069121175
0.032527987 0.07449137 0.035368845 -0.055512473 -0.013103569 -0.14034066 -0.121613875 -0.0758738

weight f4 [16]
00000000: 54ff 7f3f 8800 803f 8fff 7f3f 1d00 803f
00000010: 89ff 7f3f 43fe 7f3f c5fe 7f3f 7fff 7f3f
00000020: 9000 803f 7e00 803f 7cff 7f3f 5700 803f
00000030: 8c00 803f b2ff 7f3f a000 803f d6ff 7f3f
0.99998975 1.0000162 0.99999326 1.0000035 0.9999929 0.9999735 0.9999812 0.9999923
1.0000172 1.000015 0.99999213 1.0000104 1.0000167 0.99999535 1.0000191 0.9999975

bias f4 [16]
00000000: e666 2db6 1c1f f735 5e19 99b7 e728 bcb6
00000010: aed8 2c37 c9bb 51b8 9476 c5b7 0b7d 85b7
00000020: 5e21 7236 440e 8837 f16a 02b8 c66c 2436
00000030: 3943 0038 b6e5 5e37 7551 2437 dd9f 1036
-2.5838904e-06 1.8411988e-06 -1.8250834e-05 -5.6075983e-06 1.0302449e-05 -5.000437e-05 -2.3539447e-05 -1.5913063e-05
3.6080232e-06 1.6219106e-05 -3.1094012e-05 2.4501219e-06 3.0580184e-05 1.3285715e-05 9.794127e-06 2.1550725e-06

running_mean f4 [16]
00000000: 82a6 c4bc 027f 99be ba9b d6bd 6b35 553b
00000010: c8bd 423e a6cf 8e3e 6bae 9fbe 554f 95be
00000020: dd14 733e ae8d a5bd 3f95 9dbd 601e c53d
00000030: ebfd 963e b12e 03bf d25a 35be dad6 3e3e
-0.024005178 -0.29979712 -0.10478921 0.003253306 0.19017708 0.27892798 -0.31187758 -0.29162088
0.23738427 -0.08083664 -0.07694482 0.09624934 0.294906 -0.5124312 -0.17710426 0.18636647

running_var f4 [16]
00000000: 34d4 103e b1ed 923d bd6a 973d de7d 423e
00000010: 594f c53d 4a0a 7a3d bcdb 433d 6b03 b83d
00000020: 5c26 b03d 3964 2b3d 57e5 733d cc30 9b3d
00000030: 7006 1f3d 149b 0f3e 0025 4f3d 8928 043d
0.14143449 0.07174242 0.073934056 0.18993327 0.09634275 0.06104497 0.047816977 0.08985027
0.086010665 0.041843627 0.059544887 0.07577667 0.0388245 0.14024001 0.050572395 0.03226522

weight f4 [16, 8, 1]
00000000: fe03 91be c86e 84be a36c 7f3e 667f edbd
00000010: 6356 a9be 40df eb3d 7998 8a3e b931 11be
00000020: da58 8cbe cf03 5ebd 230a 323e 39cd b13d
00000030: 5310 95be 2f62 b0bd 4bac 9bbe 8e2a b33e
00000040: b3f4 ffbd faae ad3e 258a 933e 617f 113d
00000050: 499a 88be d681 b1be 677e 4dbe a68f 1cbe
00000060: ee76 76be 4fad 43bd 697c 2e3e d585 6d3e
00000070: ea0d 8cbe 853d 9bbd da37 233e da40 5d3e
00000080: 4bc5 89bd ff18 043e 5b98 a9bd 88aa a23e
00000090: 62db 14bc 86c8 95be 8748 7a3e c7af 5bbe
000000a0: 1304 b93d 2321 8e3d d426 413e e3f6 3e3e
000000b0: c87b 56bd d5d0 203e b74e a1be aab1 093a
000000c0: fe71 5f3e 0416 5fbe ecf7 5dbe 45ab 793e
000000d0: 4d21 87bd 7581 b33e 561c dfbd fe51 34be
000000e0: 3944 5fbe c997 3e3d 35ae 26ba 6a64 9a3e
000000f0: 4176 65bd e410 7b3d d90b ae3e 6fc5 8b3e
00000100: e2c4 a93e 986d 9d3e ff61 c0bd 2df7 81be
00000110: 192b 2dbd eef0 7dbe f9f9 0e3e 6666 6ebd
00000120: c894 3fbe 3162 4fbe a5c5 b13e d187 133d
00000130: 2c46 a3be 3070 16be da87 afbd c717 433d
00000140: f32a ab3e 90d1 50be f4ec 17be 0383 283d
00000150: b7d2 cdbd 7065 8cbe 5ce3 a63d c1cb 65bd
00000160: 14f1 37be 4657 4abd c0b0 6c3d fed6 abbe
00000170: 2c2b fa3d bd8d a53e 8787 a7be 2498 44be
00000180: 72a1 6b3e 1550 d5bd 6b55 87be d71f 913e
00000190: 65a9 ae3e 9902 5f3e d445 0c3e 0631 213d
000001a0: 85d8 633e a63d 90be d973 a9be ab3d 88be
000001b0: 1dc5 943d ab30 853e ca44 c5bd 2f3b 3ebe
000001c0: 2a9e a53c 72d1 0e3e fcf8 41be efc4 a53d
000001d0: 10fb dfbc 1acb 9fbe dac4 8f3e be68 133e
000001e0: e09b 53bd 9fca 053e 5cdc 7ebe a5b4 a13e
000001f0: 6bd5 26be efc7 8c3e 7df1 8cbd 7a3b 6b3e
-0.28323358 -0.2586577 0.24943785 -0.11596565 -0.3307372 0.11517191 0.27069452 -0.14179124
-0.27411538 -0.05420285 0.1738668 0.08681721 -0.29114017 -0.08612477 -0.30404887 0.34993404
-0.124978445 0.3392256 0.28816333 0.03552187 -0.2668021 -0.3466937 -0.2006775 -0.15289173
-0.24068806 -0.0477727 0.17039646 0.23195584 -0.27354366 -0.07580093 0.15939274 0.2160677
-0.06727084 0.1290016 -0.082810126 0.3177073 -0.009085508 -0.2925455 0.2444173 -0.21453772
0.0903398 0.06939914 0.18862468 0.18648867 -0.05236414 0.15704663 -0.31505367 0.0005252609
0.21820828 -0.21785742 -0.21676606 0.2438174 -0.065981485 0.35059705 -0.108940765 -0.17609403
-0.21803369 0.046531472 -0.00063583563 0.30154735 -0.05602098 0.061295405 0.33993414 0.27299067
0.33158022 0.30747676 -0.09393691 -0.25383893 -0.04227743 -0.24798939 0.13962545 -0.058203124
-0.187091 -0.20252301 0.34721103 0.036018196 -0.31889474 -0.14691234 -0.085708335 0.047630098
0.33431205 -0.20392442 -0.14836484 0.041140568 -0.10049956 -0.2742114 0.08148834 -0.056102518
-0.17963058 -0.049399637 0.05778575 -0.33562464 0.12215266 0.323347 -0.32720587 -0.19198662
0.23010805 -0.10415665 -0.26432356 0.28344604 0.34113613 0.21778335 0.13698512 0.039353393
0.22250564 -0.28172034 -0.33096197 -0.2660955 0.07264159 0.26013693 -0.09632261 -0.18577264
0.02021702 0.13947085 -0.18942636 0.08094203 -0.027341396 -0.31209642 0.28079873 0.14395425
-0.051662326 0.13065575 -0.24888748 0.31583133 -0.1629235 0.27496287 -0.06881998 0.22971907

bias f4 [16]
00000000: 777e 863d d1a0 a73e 3701 b3be 4105 1d3e
00000010: 5a17 b23d a14d 0fbd 41ef 513e b510 a43e
00000020: 3db7 683e 8a9b 98bd 320c 073e 0153 adbe
00000030: 4587 7cbe 7fd9 36be 21e7 a33e b670 193d
0.0656709 0.3273988 -0.34961864 0.15334035 0.0869586 -0.034986142 0.20501424 0.32043996
0.2272615 -0.07451542 0.13188246 -0.3385239 -0.24660976 -0.17856406 0.32012275 0.037461005

weight f4 [16]
00000000: 6300 803f 0d00 803f 7afd 7f3f 5300 803f
00000010: c8ff 7f3f 8100 803f 62ff 7f3f f9ff 7f3f
00000020: 5600 803f 97ff 7f3f d3fe 7f3f 6400 803f
00000030: 6500 803f 0000 803f 0c00 803f 6600 803f
1.0000118 1.0000015 0.9999615 1.0000099 0.99999666 1.0000154 0.9999906 0.9999996
1.0000103 0.99999374 0.99998206 1.0000119 1.000012 1.0 1.0000014 1.0000122

bias f4 [16]
00000000: 12a4 c1b4 752d d137 8277 6cb7 227c 9037
00000010: 48ac ce35 0cc2 5bb7 bbfe ddb7 3456 1ab7
00000020: 2d31 50b7 3aa7 9e37 ec91 d2b7 3e76 a9b7
00000030: da73 bf37 73ef 85b6 bbde c837 0b4b 8f37
-3.6068428e-07 2.493591e-05 -1.4094521e-05 1.7223942e-05 1.5398336e-06 -1.3098597e-05 -2.6463871e-05 -9.199186e-06
-1.2409216e-05 1.8912939e-05 -2.5101901e-05 -2.020143e-05 2.2822922e-05 -3.9915844e-06 2.3945575e-05 1.7081873e-05

running_mean f4 [16]
00000000: 91a4 91be 004f 3dbd f648 29bf c636 293e
00000010: 7c01 e53d eaa7 bc3d f24b 343e 338f 3c3f
00000020: 4021 d53e 6252 ecbe 742d 7f3c d525 40bf
00000030: 4c71 aa3e 994c 01bf 5faf ee3e fd53 483e
-0.28445867 -0.04621792 -0.66126955 0.165248 0.11181924 0.092117146 0.17607096 0.73656005
0.4162693 -0.46156603 0.015574802 -0.7505773 0.33289564 -0.50507504 0.46618173 0.19563289

running_var f4 [16]
00000000: 2b8d 853d 6017 683e 38e8 823e c2fd 2f3e
00000010: cb60 de3d 4b58 3b3e 4a1d 2d3e 53e6 9c3e
00000020: 1416 103d 4178 593e 08b1 323e 3b49 ad3e
00000030: a663 143e 10d9 103e 1663 623e 4a8b 6e3d
0.06521066 0.22665167 0.25567794 0.17186645 0.108583055 0.182954 0.16905704 0.30644473
0.035177305 0.2123728 0.17450345 0.33844933 0.14491138 0.14145303 0.22108111 0.058238305
