DFA-PS/DFA-PS/Experiments/Full-GOP/DJIA/backup/best/DecisionModel_CalibrationModule.pt (torch, 303584 bytes, 104 tensors)

weight f4 [7]
000000 34 41 80 3f 6c 4f 80 3f 15 71 80 3f 78 1b 7f 3f
       1.0019898 1.0024238 1.003451 0.9965129
000010 7a 89 80 3f ac a8 80 3f c3 ab 7d 3f
       1.0041955 1.0051475 0.9909021

bias f4 [7]
000000 27 06 ba b7 7a c4 23 38 7f 62 ba 37 8d a9 85 b8
       -2.2175793e-05 3.904521e-05 2.2218794e-05 -6.3735155e-05
000010 d3 d9 61 b8 ee 33 21 b7 29 88 cf 38
       -5.3847045e-05 -9.608439e-06 9.895891e-05

running_mean f4 [7]
000000 1b 67 57 42 43 8c 59 42 72 02 55 42 8a 2a 86 49
       53.85069 54.386974 53.252388 1.0990892e+06
000010 4c 82 a3 4b c7 54 9a 41 83 e7 a6 3e
       2.1431448e+07 19.291395 0.32598504

running_var f4 [7]
000000 51 56 2a 44 a8 37 2d 44 33 38 27 44 a2 fe c9 53
       681.3487 692.8696 668.8781 1.7351209e+12
000010 4f 64 b2 57 b0 93 4a 44 17 48 23 3e
       3.922878e+14 810.3076 0.15945469

weight f4 [16, 7, 5, 1]
000000 f6 6c 27 3e 17 1e 29 be 2d 93 d6 bd fa 2a d5 3d
       0.16350159 -0.16515385 -0.1047729 0.10408588
000010 00 43 bb 3d 6d 91 f4 3d a8 8d d5 bd d6 1e 79 bd
       0.091436386 0.119418 -0.104274094 -0.060820423
000020 39 c5 e6 bc 0b 47 b1 bd 5a de a2 bd 43 ee b0 3d
       -0.028170215 -0.086561285 -0.079525664 0.08639195
000030 8f 63 fe bb 06 5c 18 3e d1 6c a9 bd 1e 94 1b 3c
       -0.007763333 0.14878854 -0.08272708 0.009495763
000040 99 e7 d2 3c 6d 81 11 bd d3 e6 e1 bd da 0a 00 be
       0.0257452 -0.03552382 -0.11030354 -0.1250414
000050 a5 8e 49 3b 7a 5e a6 bc 46 48 a9 bd fc 3a 94 bd
       0.0030755189 -0.020308722 -0.08265738 -0.07237813
000060 c8 bf d0 3d 3e c8 2e 3e ba 58 dc bd 0e f3 14 3e
       0.10192829 0.17068574 -0.10759111 0.14545843
000070 a9 7e cc bc 59 b2 c6 3d c1 75 14 3e 6c 20 93 3d
       -0.02496274 0.09701986 0.14498045 0.07183918
000080 b7 50 ec 3d a8 d2 cb 3c 6c da 27 be 10 ff 11 3d
       0.11538833 0.024880722 -0.16391915 0.035643637
000090 8f 32 02 3d 86 a4 c1 bc be ed 37 3d ca 73 00 be
       0.031786498 -0.023638021 0.044904463 -0.1254417
0000a0 d8 f2 d0 bd 64 ff 51 bc 55 9b 13 3e ec 6e f7 bd
       -0.10202569 -0.0128172375 0.14414723 -0.120817035
0000b0 d8 ab cf bc 68 b5 41 bd 98 f3 21 3d ec 68 8b 3d
       -0.025350496 -0.047292143 0.03953895 0.06807122
0000c0 fc 87 27 3d 87 4f 34 bd 4a 2e 83 3d 91 88 58 bd
       0.04090117 -0.044021156 0.06405313 -0.052864615
0000d0 33 5a 10 3e 5d c1 1a 3e 8f 46 e3 bc 65 c1 9f bd
       0.14096908 0.15112825 -0.027743606 -0.07800559
0000e0 a0 1c 2a be e2 2a a8 3c 64 ff f6 bd 16 6c da 3d
       -0.16612482 0.02052826 -0.12060431 0.10665147
0000f0 2d 20 98 3d da 15 97 bd de c4 b3 3d 35 a2 6e bc
       0.07428012 -0.07377215 0.08777784 -0.01456504
000100 65 86 c2 bb dd 4c 0a bd 28 d7 0f be d1 16 bb 3d
       -0.0059364312 -0.03376471 -0.1404692 0.09135211
000110 10 8b 25 3e 3d 4a 00 3e 16 e1 9a 3d c3 7b eb 3d
       0.1616633 0.1252832 0.07562463 0.11498215
000120 89 bc 95 bd 89 05 17 be c7 03 08 be 70 b1 00 3e
       -0.07311351 -0.14748205 -0.13282691 0.12567687
000130 76 30 a2 bd f3 62 04 be 54 50 08 3e cf fc d1 3d
       -0.079193994 -0.12928371 0.13311893 0.102532975
000140 47 cd 1f 3e 19 ab 0b 3e 9c 95 be 3d 8c 23 c9 3d
       0.15605651 0.13639487 0.093058795 0.09821233
000150 94 13 c1 bd 51 6b 1d be f2 0d 09 3c a2 a8 4e bc
       -0.09427562 -0.15372969 0.008365141 -0.012613447
000160 29 5e 19 3e 72 9b 01 be 36 1d 0a bd e1 cb b4 bd
       0.14977325 -0.12656954 -0.033719264 -0.08827949
000170 38 57 d6 bd a8 90 8f 3d d6 cb e4 3c 64 31 7a 3d
       -0.104658544 0.07010013 0.027929228 0.06108226
000180 21 18 f5 3d 6b fc 9f bd 4c 43 51 3c fd 08 ff 3d
       0.11967493 -0.07811817 0.0127723925 0.12452886
000190 eb 54 02 3e 02 56 08 be db ab 11 bc 4a aa 8d bd
       0.12727706 -0.1331406 -0.008891071 -0.06917246
0001a0 ca c7 8b bb b6 c3 f7 3d f8 3e e8 3d 13 29 77 bc
       -0.00426576 0.12097876 0.11340135 -0.015085476
0001b0 06 f2 92 3d 5f 46 94 bd 75 b5 7a bd 9f 3e 09 3e
       0.071750686 -0.07239985 -0.061208207 0.13402794
0001c0 96 e2 11 be 5f c2 db bd 00 86 0b bd df 26 6b 3d
       -0.14246592 -0.10730433 -0.03406334 0.057410117
0001d0 3b c8 25 3e b0 ca bf 3d ee 60 aa bd f4 3c dc bd
       0.16189663 0.093648314 -0.08319269 -0.107538134
0001e0 45 d6 02 3e 2f db 48 bd e7 1b f5 bd 55 c5 c6 bd
       0.1277705 -0.049037155 -0.119682126 -0.09705607
0001f0 cd 45 83 bd 3f 51 6b bc c4 76 18 3e 81 b9 93 bd
       -0.06409798 -0.014362632 0.14889055 -0.072131164
000200 71 62 9f bd 83 85 08 be 13 c8 70 bd 61 a1 a5 bd
       -0.07782448 -0.1333218 -0.058784556 -0.08087421
000210 86 15 ec bd 5b 94 0e be 26 46 1b be 1c c7 2f 3d
       -0.11527543 -0.1392378 -0.15163478 0.042914495
000220 a5 9f c3 bd 02 53 ee bd 5b 03 9d bd c0 d9 99 bd
       -0.09551934 -0.11636926 -0.07666656 -0.07512236
000230 8b b6 eb 3c 08 05 2e 3b 95 c1 75 bd 23 0f 14 3e
       0.028773567 0.0026553292 -0.059999067 0.14458899
000240 3e 0d 61 bd 60 2d cc bd f5 e1 02 3c c3 44 0d 3d
       -0.05494427 -0.09969592 0.007988443 0.034489404
000250 44 84 0b 3d 78 a3 97 bd c1 21 4f 3d 07 45 b9 3d
       0.034061685 -0.07404226 0.0505693 0.09046369
000260 f2 38 a7 3d 3a 93 25 3d a9 f3 f1 bb ac 8f 1e 3e
       0.08165158 0.04042361 -0.007383783 0.15484494
000270 48 8c 0a 3e 9a 27 82 3b 39 cd ce 3d 16 63 2f be
       0.13530076 0.003972006 0.10097737 -0.17127642
000280 a7 2b b9 bd 12 33 19 3e d7 dc 03 3e 9b 37 0d bd
       -0.09041529 0.14960888 0.12877212 -0.034476858
000290 8b b2 03 be 55 fa e4 3d 74 d9 0c be 19 41 29 be
       -0.12861077 0.111805595 -0.13754827 -0.16528739
0002a0 4c 46 95 3d 02 5c 8f 3d 5b b7 2b bd c7 eb 1d be
       0.07288799 0.06999971 -0.04192291 -0.15421973
0002b0 1b 32 ac bc aa 91 61 3d e9 5b d9 3d 0d 4c 3a bd
       -0.021019986 0.055070557 0.106132336 -0.045482684
0002c0 04 43 ba bd 23 b6 6e 3d 08 83 1e be 31 71 ef bd
       -0.090948135 0.058279168 -0.15479672 -0.116915114
0002d0 c2 85 8d bd 24 6f ec bb 1a 47 ec bd 9c 4d 15 be
       -0.06910278 -0.0072153974 -0.11536999 -0.14580387
0002e0 d7 ce c8 bd 0e d0 c9 bd b8 bb 99 3d 9f d8 34 bc
       -0.098050766 -0.098541364 0.07506508 -0.011037975
0002f0 9a 8f 12 3e 5e 73 23 3d b3 a4 f0 3d ac d2 26 be
       0.14312592 0.039904945 0.11750164 -0.16291302
000300 89 b9 da 3d 11 b4 05 be b1 aa 1d be 7e 5d 62 3d
       0.10679919 -0.13056971 -0.15397145 0.055264942
000310 6c b6 46 3d bc 6d 66 3d 11 09 13 be 53 d7 16 3d
       0.048513815 0.056256995 -0.14358927 0.036826443
000320 33 cd 0e 3e f6 70 25 be 25 4b ec bd 2b ab cf bd
       0.13945465 -0.16156372 -0.1153777 -0.101400696
000330 25 f0 26 3e 64 aa 01 be 0c 62 ef 3d 9d 77 11 bc
       0.16302545 -0.12662655 0.11688623 -0.008878616
000340 84 05 f7 bc f7 b9 bd 3d d1 99 52 bd 89 10 f6 bd
       -0.030153997 0.092639856 -0.051416222 -0.120148726
000350 32 f1 20 be 9d e8 0a 3e 9a 9f 89 3c 6f f7 a5 3c
       -0.15717009 0.13565297 0.016799737 0.020259587
000360 17 d3 0d 3e 57 4b 17 3e e8 88 03 3e b3 c8 a0 3c
       0.13850056 0.14774834 0.12845194 0.01962695
000370 bb c2 93 3d 3a dd 20 bb fc ef e8 3c f6 b2 47 3d
       0.07214876 -0.0024545924 0.028434746 0.048754655
000380 d0 41 19 bd 51 52 29 be 92 f8 84 bd 6d 09 b3 bd
       -0.03741628 -0.16535307 -0.064927235 -0.08742032
000390 d0 be 26 be 81 b8 e7 bc 36 49 09 3e ad c6 a8 3d
       -0.16283727 -0.02828622 0.13406834 0.082410194
0003a0 68 4f 9b 3d 44 7c 40 bd 75 f5 8c 3c 24 e8 8a bd
       0.07583505 -0.04699351 0.017206887 -0.067825586
0003b0 f6 93 05 3d e7 58 99 bd 13 e3 ea bd ab ec f1 bc
       0.03261181 -0.0748766 -0.11469092 -0.029531797
0003c0 a1 0e 25 3e cd 0c 4c bd 30 4f 88 bd 76 ab 38 bd
       0.16118862 -0.049816895 -0.06655729 -0.045085393
0003d0 60 27 34 3d 2a dc 07 3e d0 1d ec bd 5f a1 1b be
       0.043982863 0.1326758 -0.11529124 -0.15198277
0003e0 fb c6 6e bd 4f 48 ae bc d3 6c 84 bd 6b 12 01 3e
       -0.05829523 -0.021274714 -0.06466069 0.12604682
0003f0 fd de 82 bd 9f 6c 11 be d6 0b b4 3d 70 e0 12 3e
       -0.06390188 -0.14201592 0.0879132 0.14343429

bias f4 [16]
000000 3e 61 fa 3d fe c6 5b bd b0 8e 29 3e 7c 89 0b 3e
       0.12225579 -0.05365657 0.16558337 0.13626665
000010 41 69 68 3d 8c f1 c2 3d fd 39 bf bd b5 16 21 3d
       0.056741003 0.09518728 -0.09337232 0.039328296
000020 d6 9c be 3d 92 e9 0a 3e 61 b4 12 bd 65 ac cc 3d
       0.09307258 0.13565663 -0.035816554 0.09993819
000030 f1 f4 2a be 72 ba e2 3d 4b d9 0d be 49 db 04 bd
       -0.16695 0.11070718 -0.13852422 -0.03243569

weight f4 [16]
000000 a8 7d 7f 3f cf 57 7f 3f 27 47 80 3f d3 12 80 3f
       0.9980111 0.9974336 1.0021714 1.0005745
000010 15 14 7f 3f 25 b5 7f 3f eb 14 80 3f 8b 24 80 3f
       0.9964002 0.9988578 1.0006384 1.0011152
000020 d6 f7 7f 3f d1 08 7f 3f 6e 09 80 3f 00 42 7f 3f
       0.9998754 0.9962283 1.0002878 0.99710083
000030 d9 28 80 3f b8 6c 80 3f 87 4f 80 3f f9 19 80 3f
       1.0012466 1.0033178 1.002427 1.0007926

bias f4 [16]
000000 e4 d9 bb ba 3a 18 fe b8 bb ad 92 3a 73 be 1c bb
       -0.0014331904 -0.000121161764 0.0011190692 -0.0023917228
000010 3f 58 d5 39 a5 24 ee 3a 79 9a 01 3b 30 0a 23 39
       0.00040692274 0.001816888 0.001977591 0.00015548686
000020 a3 8e a3 ba f7 9f ad b9 fe 53 4d 3b 1b 6a 65 3a
       -0.0012478422 -0.00033116314 0.003133058 0.00087514677
000030 ed 2c d1 39 fc 86 59 3b 59 b3 85 3b b4 8c 75 3b
       0.0003989706 0.003319203 0.004080218 0.0037467899

running_mean f4 [16]
000000 65 aa 16 3e c2 e7 65 bd 68 22 4d 3e d1 3b 83 3e
       0.14713438 -0.056129225 0.20032656 0.25631574
000010 b9 bc e5 3d 17 21 08 3e 23 09 87 bd 1f db 03 3e
       0.112176366 0.13293873 -0.065935396 0.12876557
000020 f3 81 03 3e 8c 33 38 3e 57 0b b4 bd d3 5f b6 3d
       0.1284254 0.17988414 -0.087912254 0.08904996
000030 80 40 5f be b4 b2 55 3e d4 60 8e bd 99 22 16 be
       -0.21801949 0.20868951 -0.06952062 -0.14661635

running_var f4 [16]
000000 1e ac 8e 3e 9c cb 6f 3e 1d e3 ac 3e 50 1f cb 3e
       0.2786569 0.23417515 0.33767024 0.39672327
000010 1e 7c bd 3e e0 33 c9 3e e5 be 7b 3e b5 2a 2f 3f
       0.37008756 0.3929739 0.24584539 0.6842454
000020 96 d3 84 3e b5 0e 80 3e 4b ac 9a 3e fc 48 96 3e
       0.25942677 0.2501122 0.30209574 0.29352558
000030 42 5c 83 3e d5 43 7c 3e 33 85 9e 3e 91 ae bd 3e
       0.25656325 0.24635251 0.30960998 0.37047246

weight f4 [16, 16, 2]
000000 55 8f 25 3e f4 69 65 3d d9 7b 3b 3c c5 c0 ff 3d
       0.16167958 0.056009248 0.011443102 0.1248794
000010 69 40 17 3d 04 d1 1b 3e d4 77 18 bd d9 87 b4 bd
       0.03692666 0.15216452 -0.037223652 -0.088149734
000020 5e a0 08 bd 17 96 1c be 16 ff 4d ba c9 8b cd 3d
       -0.033356063 -0.1529163 -0.000785814 0.100364275
000030 82 30 91 bc dd 43 50 3c 4a f4 f0 3d 84 c0 95 3c
       -0.017723326 0.012711492 0.117653444 0.018280275
000040 55 41 b7 3d ae 97 9e bd 20 9e e4 3d 3b 0f 18 bd
       0.08948008 -0.07743774 0.111629725 -0.0371239
000050 3d a5 05 be b0 68 fc 3d fd db 98 3d 2e 8e 10 bd
       -0.13051315 0.12324655 0.074638344 -0.035291843
000060 eb 13 de 3d bc df 4a 3d 7d 34 12 3e 32 6f 84 bc
       0.10843643 0.049529776 0.14277835 -0.016166303
000070 4d fd 70 bb c4 e0 a3 3d 8c d2 83 bd b1 86 e1 bd
       -0.0036772073 0.08001855 -0.06436643 -0.110120185
000080 f0 03 7c bd 3d 4a 04 3d f7 11 01 3e c0 c5 23 3d
       -0.061527193 0.03229736 0.1260451 0.03998351
000090 94 1e 0e be d8 ed 06 3e aa c1 ba 3a ae 3d 0b be
       -0.13878852 0.13176668 0.001424839 -0.13597748
0000a0 95 b6 0c 3e 55 f9 88 3d 65 f5 bc 3d 8d 53 4d bd
       0.13741525 0.06688181 0.09226493 -0.05012851
0000b0 76 01 92 bd 11 77 23 3d e9 25 a7 bd 36 c8 d7 3b
       -0.07129185 0.039908472 -0.08161528 0.0065851463
0000c0 ae 5a f0 bb eb d8 1d be 5a c0 23 be fa 90 72 ba
       -0.0073350286 -0.15414779 -0.15991345 -0.00092531706
0000d0 42 da 1a be 01 db cf bd 33 e4 da bc 94 36 21 3d
       -0.15122321 -0.101491936 -0.026720142 0.03935869
0000e0 02 2c 36 be 57 0c 20 bd 75 60 62 bd c4 8a 2f be
       -0.17790225 -0.03907427 -0.05526777 -0.17142779
0000f0 30 42 89 3d 44 a1 17 3e 78 87 44 3d d3 cf 29 3e
       0.067020774 0.14807612 0.047980756 0.16583185
000100 17 83 db 3d f4 41 fe bd ba 78 8e 3d fe c0 f3 3d
       0.10718363 -0.12414923 0.069566205 0.11902045
000110 0e df f2 bb c6 be 08 3e 4a e0 fe bc 78 fd 1c 3e
       -0.007411844 0.13354024 -0.031112809 0.15331066
000120 eb d7 94 bd 14 09 c1 ba c3 a3 15 be 8c 4e bf 3d
       -0.072677456 -0.0014727437 -0.14613251 0.093411535
000130 ef 7f 0c 3d 71 77 91 3d 95 b3 2e be af dc 71 3a
       0.034301694 0.0710286 -0.17060693 0.0009226305
000140 25 49 ab 3d 8f 97 65 bd 4b e9 14 3e b3 64 1d be
       0.083635606 -0.05605274 0.14542119 -0.15370445
000150 e2 27 e3 3d 7e 5d bc 3d b3 de 1c be 10 47 74 3d
       0.110915914 0.0919752 -0.15319328 0.059638083
000160 33 4f 1b 3d 67 73 23 be dd 27 54 bd a1 05 03 3d
       0.037917327 -0.15961991 -0.05179583 0.03198779
000170 0c 6b c5 3d 62 78 1d 3e 19 a0 5e bd 6c 1c ff bd
       0.09639558 0.15377954 -0.0543519 -0.12456593
000180 f4 d0 1c 3e e5 97 26 3e 4f bd 10 be d9 be d8 3d
       0.15314084 0.1626888 -0.14134715 0.10583276
000190 24 23 a1 bd be 69 a0 3d 51 84 00 3e a5 24 d6 3d
       -0.07868031 0.07832669 0.12550475 0.10456208
0001a0 42 7e d3 bd d6 b1 08 3e a4 50 ba bd 68 65 0e bd
       -0.10326816 0.13349089 -0.09097412 -0.034764677
0001b0 a0 33 2b be 1a 61 d1 3c 7f 37 8d bc 2f 4f c4 bd
       -0.16718912 0.025558997 -0.017238377 -0.095854156
0001c0 bc a8 29 3e ab d6 d4 3d b6 de 25 3e 30 0a 9b 3d
       0.16568273 0.10392507 0.16198239 0.075703025
0001d0 56 ab 53 3d 74 b4 2a 3e 0d 13 a0 bd a9 31 20 be
       0.05167707 0.166704 -0.07816134 -0.15643944
0001e0 cf f4 28 be c5 86 15 be 1a c4 d0 3c 22 7d 33 bc
       -0.16499637 -0.14602192 0.025484134 -0.010955127
0001f0 ec 80 fa bd f0 3b 1a 3e 88 2c a8 3d e9 d2 31 bd
       -0.12231621 0.15061927 0.08211619 -0.04341403
000200 2c cb 1a 3e 46 db 46 3d 6e df a2 3d 58 8b 2b 3e
       0.15116566 0.04854896 0.07952772 0.16752374
000210 b8 e1 0e 3e 75 87 0d 3e 3e 81 dd bd 4e 57 74 3d
       0.13953292 0.13821204 -0.108156666 0.059653573
000220 8a 5a 1b 3e ee fb 2d 3e 46 6b e3 3a 9b c8 03 be
       0.15171257 0.16990635 0.0017350696 -0.12869494
000230 3c 1a e0 3d 28 79 1d be 70 e8 05 be 0e 58 1b be
       0.10942504 -0.15378249 -0.13076949 -0.15170309
000240 60 86 96 3b bc 66 76 bd 28 6d 89 bc ec ac 2f bd
       0.0045936555 -0.06015657 -0.016775683 -0.04288952
000250 de 65 88 bd 4f 30 29 bd 2e db ee 3d 8b b4 d9 bc
       -0.066600546 -0.041305836 0.11662899 -0.026575347
000260 11 bc 0e be 6c 1f ca 3d ec 26 f8 bc 18 bf f0 bd
       -0.13938929 0.098692745 -0.030291997 -0.11755198
000270 03 51 c4 3c b8 05 00 be be 3a 0e be 68 e0 31 be
       0.02396441 -0.12502182 -0.13889596 -0.1737076
000280 d3 c7 0e 3e 8c e6 81 bd 52 35 86 bd 4f d3 06 3e
       0.13943414 -0.063428015 -0.06553139 0.13166545
000290 c4 a9 09 3e 9e 9e 80 bd 76 5b 04 bd ce 03 fa 3d
       0.13443667 -0.06280254 -0.032313786 0.12207757
0002a0 26 b0 fa bd b3 47 68 bd d9 df eb bd ae 2c 8f 3d
       -0.12240629 -0.056709003 -0.11517305 0.06990944
0002b0 fb f1 13 3e 13 d3 d0 bd c7 b1 23 3e 67 ae 86 bb
       0.14447777 -0.10196509 0.15985785 -0.004110146
0002c0 c7 db e9 3c cc 10 8e 3b eb 61 86 bd d3 87 c4 bc
       0.02854718 0.0043354984 -0.06561645 -0.023990547
0002d0 c9 28 17 be 58 7e 9c bd 54 5d 8a bc 13 da 45 3d
       -0.14761652 -0.07641286 -0.016890205 0.048303675
0002e0 2a 53 5c bd 40 e5 0b be fe 29 53 3d 3e e1 b3 3b
       -0.05379025 -0.1366167 0.05155372 0.0054894974
0002f0 6c 9a 02 3e 12 e3 8d 3d d1 38 2a 3e 91 60 2e 3e
       0.1275422 0.06928076 0.16623236 0.17029025
000300 ab 19 a6 bd 3e 32 a7 bd 3d 21 77 3d 8f c2 f7 bd
       -0.081103645 -0.0816388 0.060334433 -0.12097656
000310 ea a5 fd 3c 69 9a cb 3d d8 2d 81 bd 59 b5 6d 3d
       0.030962903 0.09941561 -0.06307572 0.058034275
000320 8e 50 6b bd 8e 3c 12 be af a6 72 3d 3c 2d 27 be
       -0.05744987 -0.14280912 0.059240993 -0.1632585
000330 0f a9 d5 bd ba f7 e2 3d be 61 c8 3c 1d 22 25 3d
       -0.10432636 0.11082406 0.02446067 0.040315736
000340 01 a6 84 bd 29 d7 20 be 3f e6 ac bc c6 df 8b 3d
       -0.06476975 -0.15707077 -0.021105884 0.06829791
000350 c6 99 f5 bc 15 76 e3 bb ab 99 26 be 61 26 e7 3c
       -0.029980551 -0.0069415667 -0.16269557 0.028216543
000360 2f 96 32 3c b4 f7 eb 3d fc 5b e3 3c 55 34 70 bd
       0.010900064 0.11521855 0.027753823 -0.058643658
000370 ad 58 9d bd fc 41 ff bd 1c a2 5f bd 15 bd 31 bd
       -0.07682929 -0.124637574 -0.05459796 -0.043393213
000380 c9 4b 35 3a 9a 01 58 bd 13 48 1f be 5c 7b d7 bd
       0.0006915895 -0.052735902 -0.15554838 -0.10521576
000390 ab e7 93 bd 4a d9 21 3e f7 75 c9 bd 71 2c ab bd
       -0.072219215 0.15805545 -0.09836953 -0.08358086
0003a0 3e 98 4e bd 5e b9 80 3d 0b 62 22 bd 35 7d 2b be
       -0.05043816 0.06285356 -0.039644282 -0.16746981
0003b0 00 e5 ff 3b 29 13 8e 3d 25 a7 3e 3d e9 3b e5 3d
       0.0078092813 0.06937248 0.04654612 0.111930676
0003c0 1e 81 85 3d 26 dd ca bd f8 2c 31 bd d6 ba 27 3e
       0.06518768 -0.09905462 -0.043255776 0.16379866
0003d0 f4 9c a4 bd 73 f3 1a 3d 8b 53 96 3c a9 78 10 be
       -0.08037749 0.037829828 0.018350383 -0.14108528
0003e0 ab 2a 35 3e 3e c3 92 bd 52 d5 65 3c e4 a6 c6 bd
       0.17692058 -0.07166146 0.01402791 -0.096998006
0003f0 6c 50 47 bd 33 68 13 bd 83 96 b6 3d 79 da c0 bd
       -0.04866068 -0.035988044 0.089154266 -0.0941667

bias f4 [16]
000000 78 d3 71 bc 65 47 a8 3d 41 8d bb bc d9 04 96 3d
       -0.014759891 0.082167424 -0.022894504 0.07325143
000010 c6 40 30 be ea ba 13 be e1 48 fb 3d 8a 19 10 3e
       -0.17212209 -0.14426771 0.1226976 0.14072242
000020 0d 3b 5a bd ed a8 38 bd 2b ab e9 3d b4 41 1a be
       -0.05327897 -0.045082975 0.11409601 -0.15064126
000030 89 91 09 be cc 4d 4d bd e8 1e b3 bd 5f 74 a9 3d
       -0.13434424 -0.05012302 -0.08746129 0.08274149

weight f4 [8, 16]
000000 67 b5 9a bd b8 3b d3 3d 11 ab 3c be 51 51 81 bd
       -0.07554131 0.10314125 -0.18424632 -0.06314338
000010 1b c1 25 be 47 9a e2 bd a5 84 22 be a1 16 3b be
       -0.16186945 -0.11064582 -0.15870912 -0.18270351
000020 c5 7f 7d 3e 9d fd 16 be d2 d5 78 be 64 dd d3 bd
       0.24755771 -0.14745183 -0.24300316 -0.10344961
000030 d8 86 37 be a1 aa 10 3e 63 b0 6c 3e df 00 9b bd
       -0.17922533 0.1412759 0.23114161 -0.075685255
000040 9e 8f ec 3d c6 bc 64 3d e0 37 63 be e8 1f e4 3d
       0.1155083 0.05584409 -0.22189283 0.11138898
000050 67 5e 2b be 2b 21 ce bd c0 d2 f3 bd df 27 47 3e
       -0.1673523 -0.1006492 -0.11905432 0.19448803
000060 e6 fa 56 be 7b 98 10 be 0f be a3 bd da 79 6f be
       -0.20994148 -0.14120667 -0.07995235 -0.23386326
000070 b8 8a 7d be aa e3 28 be 57 cb df 3d cc 52 33 3e
       -0.24759948 -0.16493097 0.10927456 0.17512053
000080 6a 67 0a be 2a 3e 36 be 6e d1 40 3e 46 49 08 be
       -0.13516012 -0.17797151 0.18829891 -0.13309202
000090 9c b2 23 3e 59 a4 3d be fc c8 27 3e c5 71 65 3d
       0.15986103 -0.18519725 0.16385263 0.056016702
0000a0 03 0b 0d be c7 70 42 bd 18 29 79 3d c0 e1 f4 bd
       -0.13773732 -0.047470834 0.060830206 -0.11957121
0000b0 9d 17 e2 bd 60 24 b0 3d 24 f4 db 3d dd 6e 5a 3e
       -0.1103966 0.08600688 0.107399255 0.21331353
0000c0 49 b6 3e be 1e 31 0d 3e 60 49 61 bd 17 b6 13 be
       -0.18624224 0.13788268 -0.055001616 -0.1442493
0000d0 0a f6 ba 3d f4 78 34 be 60 84 e3 bd 5e b8 46 3d
       0.091289595 -0.17624265 -0.11109233 0.04851567
0000e0 7f 55 03 3e d2 9f f8 3d 97 a7 ef bd 4c 20 26 be
       0.12825583 0.12139858 -0.11701887 -0.16223258
0000f0 a5 f3 26 be 32 8e 09 be 0c 43 09 be e0 39 58 3e
       -0.1630388 -0.1343315 -0.13404483 0.21115828
000100 6c 5f 14 be f2 02 8e 3d bf 0d 33 be 8b 99 60 3d
       -0.14489526 0.069341555 -0.17485712 0.05483393
000110 61 15 6b bd ba df 8f bd 50 24 0e 3e f4 2b 3c 3e
       -0.057393435 -0.07025094 0.1388104 0.18376142
000120 79 a5 65 bd 81 a1 31 3e 6b 1c 68 be 08 57 68 bd
       -0.05606601 0.17346765 -0.2266709 -0.056723624
000130 03 c0 19 bc b5 6c 13 3e 86 b4 8a bd 04 7c 6b be
       -0.009384158 0.14396937 -0.06772713 -0.22996527
000140 5f 1e 40 bd 43 82 5b 3e e8 de 58 be 74 e5 d4 3d
       -0.046903964 0.2143641 -0.21178782 0.10395327
000150 a7 8b 57 3e bc 20 4f 3c 62 cd 17 3e 5b 9f 73 be
       0.21049367 0.012642082 0.14824441 -0.23791258
000160 0f 1a 62 be ae 42 5b be e3 20 97 bd d8 1a ce bd
       -0.22080253 -0.21412155 -0.073793195 -0.10063714
000170 df 30 dd bb 9a ed 11 be 56 e9 44 3d 2d 4e 08 3d
       -0.0067502107 -0.14250794 0.04807409 0.03327768
000180 61 51 32 be 74 9c 37 3e 9f cf 64 bd 75 33 44 3e
       -0.17413856 0.17930776 -0.055862065 0.19160254
000190 04 e5 b3 bd 32 5c 6d be c1 12 5f 3d c3 ba e7 bd
       -0.08783916 -0.23179701 0.054461244 -0.11314919
0001a0 c3 2f 35 be 78 5f 6b be 9e 0f 50 be 14 f1 09 3e
       -0.17694001 -0.22985637 -0.20318457 0.1347087
0001b0 98 25 75 3d 59 8d e1 3d 8f c5 1d be 2b 48 76 3e
       0.059850305 0.11013288 -0.15407394 0.24050967
0001c0 7d f5 bc 3d 8b e7 58 be b6 9e 12 3d c3 02 a0 3d
       0.09226511 -0.21182077 0.03579589 0.07813027
0001d0 0b c0 a3 bc 66 5f 31 bd 70 f5 95 bd 80 36 a1 3d
       -0.019989034 -0.04330387 -0.07322204 0.07871723
0001e0 85 91 0f 3e 0d 64 f4 bd 7d a8 72 3e c8 2f 1a 3d
       0.14020355 -0.11933146 0.23697086 0.037643224
0001f0 f2 14 11 3e 98 d4 7c bd 5d 32 16 3e 35 34 e9 bd
       0.14168146 -0.061726183 0.1466765 -0.11386911

bias f4 [8]
000000 5e 7f 2d 3e 5a 28 5a bb 80 b1 5c 3e fb 11 07 be
       0.16943118 -0.0033288212 0.21552086 -0.13190453
000010 c2 7c 69 be b7 1e 1a 3e 7f 72 40 3e ec b6 5a 3e
       -0.22801498 0.1505078 0.18793677 0.21358842

weight f4 [16, 8]
000000 c7 4d a3 be f1 47 a2 3e d2 10 0c 3e 75 98 5d 3c
       -0.31895277 0.31695512 0.13678291 0.013525118
000010 38 42 02 3e 68 29 09 be d6 36 23 3b 4f 71 85 be
       0.12720573 -0.13394701 0.002490451 -0.2606301
000020 44 1f 71 3e 39 8b 85 be 47 bb 8b be d2 17 b3 3e
       0.23547083 -0.2608278 -0.2729132 0.3497911
000030 9c 8f 8b be 0e 8f a0 3e 76 ec 11 bd 98 fb 0a be
       -0.27258003 0.31359142 -0.035625897 -0.13572538
000040 1b 9d a4 bd 53 97 8d 3e 56 ff a9 be c9 7f 28 3e
       -0.08037778 0.27654514 -0.33202618 0.16454996
000050 ac 22 8d be cf 41 cc 3d fc 3a 80 be 4c 73 b0 be
       -0.27565515 0.099734895 -0.25045002 -0.34462965
000060 55 ac 0b be e0 b4 b3 be e5 4e 91 bc 24 a0 b0 be
       -0.13639958 -0.35098934 -0.017737815 -0.34497178
000070 7e e9 85 be b7 bf 8b be b0 c7 a5 be 76 42 7c be
       -0.26154703 -0.27294704 -0.32378912 -0.24634728
000080 b6 33 39 be ed 74 9f be f5 dc 35 3e 05 cf 8f 3e
       -0.18086132 -0.31143895 0.1776007 0.2808763
000090 64 1f 92 3d 57 c9 82 be bc ea 46 be d2 fe a9 be
       0.071348935 -0.25544235 -0.19425482 -0.33202225
0000a0 54 38 31 be 0f 01 f8 3c 90 e3 5b 3e d4 a9 52 bd
       -0.17306644 0.030273942 0.21473527 -0.051431492
0000b0 99 fb 92 3e ad 89 ac be aa 47 97 bd 94 b3 a9 3c
       0.2870758 -0.33698788 -0.07386716 0.020715512
0000c0 f2 a7 ea bd 14 23 7b 3e b4 5d a0 be 89 1d a9 be
       -0.11457814 0.245251 -0.3132149 -0.33030346
0000d0 71 40 bc bd ea 25 ff 3d 74 af 21 3e 2f fc a9 be
       -0.09191979 0.124584034 0.15789586 -0.33200213
0000e0 72 37 27 be 20 fc 75 3e e3 1c 71 3e c9 62 67 3e
       -0.16329744 0.2402196 0.23546176 0.22596277
0000f0 50 dc 1a 3e db 60 80 be 4b 3b 62 be 2a 23 24 3e
       0.15123105 -0.25073895 -0.22092931 0.16029039
000100 57 8f 50 bd c2 9a a9 3e c7 98 94 be 5d fd 25 3c
       -0.05091795 0.33125883 -0.2902281 0.010131207
000110 29 a2 58 be 82 f2 05 3c 05 eb f5 bd f3 ef c1 bd
       -0.21155609 0.008175494 -0.12007717 -0.09469595
000120 99 bb 84 be 13 b7 8c be f2 3c 75 be c4 6e 17 be
       -0.25924376 -0.27483425 -0.2394903 -0.14788347
000130 fa 38 29 be e0 c3 80 3d ee 69 c4 3d de 88 a9 be
       -0.16525641 0.0628736 0.09590517 -0.33112234
000140 b4 54 80 3e 55 e0 72 bc 53 db 91 3e b0 7d cf 3d
       0.25064623 -0.014823993 0.28487644 0.10131395
000150 c3 ad 87 3e cd 72 80 3e 64 bc 6c 3e 58 ce aa be
       0.26499757 0.25087586 0.2311874 -0.33360553
000160 92 29 09 3e ae 98 11 be 68 44 09 be 41 be 1c be
       0.13394764 -0.14218399 -0.13405001 -0.15306951
000170 32 bd 9d be 44 ff b1 3d 5e 80 e8 bd f2 16 0d 3e
       -0.30808407 0.08691266 -0.11352609 0.13778284
000180 4e aa 59 3e 7e 56 d1 bd 7c 73 10 be eb e0 31 be
       0.21256372 -0.10221575 -0.14106554 -0.17370956
000190 00 f9 63 3e ec 6c 25 3c 3f 8d a1 be 4c e0 b1 be
       0.22262955 0.01009677 -0.31553075 -0.34741437
0001a0 9c 13 5b be 83 6b 77 bc 95 89 a7 be 37 d4 a7 3d
       -0.21394199 -0.015101316 -0.32722154 0.08194774
0001b0 29 5d 12 be cc 90 ac be 90 c3 81 be c4 cf aa 3e
       -0.1429335 -0.3370422 -0.25344515 0.33361638
0001c0 ff 5a 01 bd 5f 9c 9e be 84 fb 11 3e 5e 9b 2e 3e
       -0.03158092 -0.30978677 0.14256102 0.17051455
0001d0 31 f2 68 be 82 8b 29 3e 7f b2 a3 3e 90 d1 84 be
       -0.22748639 0.16557124 0.3197212 -0.25941133
0001e0 28 b4 b1 3e 61 96 21 3e 44 df 97 bd e3 80 a7 be
       0.3470776 0.15780021 -0.074156314 -0.3271552
0001f0 e0 42 08 be ed c4 92 bd 02 e6 ae bd e7 e1 8d 3e
       -0.13306761 -0.07166467 -0.08539964 0.27711412

bias f4 [16]
000000 84 30 31 3e a6 83 11 3d 2c 78 86 be da b5 f5 3c
       0.17303663 0.03552594 -0.2626356 0.02999394
000010 39 6e 88 3e 12 b7 e1 3d 85 eb 06 be b6 52 94 3e
       0.26646593 0.11021246 -0.13175781 0.28969353
000020 61 25 7f be 87 e7 6e be 28 6f 99 3d 96 1f 05 be
       -0.24916603 -0.23330508 0.074919045 -0.1300033
000030 fe d0 80 be 4a 87 14 3e 09 33 8a 3e 40 e5 f9 bd
       -0.25159448 0.14504734 0.26992062 -0.12201929

weight f4 [1, 2, 7, 3]
000000 a8 58 b8 3a fc 0a 6c bd 9d da f4 bc a5 3b fd bd
       0.0014064508 -0.057627663 -0.0298894 -0.12364892
000010 e8 b7 5f 3d 5c b5 64 bc ec 34 88 bd f6 6b 8e bd
       0.054618746 -0.013959255 -0.06650719 -0.06954186
000020 cc ab 09 3e c7 60 38 3d 70 d0 69 3d c4 b6 ca bd
       0.13444442 0.04501417 0.057083547 -0.09898141
000030 4c 73 19 3a 6d aa d9 3d 75 9c f9 bd 69 52 fd bc
       0.00058536674 0.10628209 -0.12188045 -0.030923085
000040 60 21 22 bd ab 09 35 3c af fa 03 3e 93 a9 f9 bc
       -0.03958261 0.011049668 0.12888597 -0.030476367
000050 29 3d 20 bd 36 ba 0b be eb 3b 0f bd ba 7b e7 3b
       -0.039120827 -0.13645253 -0.03496925 0.00706431
000060 8d 66 d9 bd f7 5c 33 bd 6d cd d4 bc fb 9d 0e 3c
       -0.10615263 -0.04378983 -0.02597686 0.008704658
000070 a1 4e e8 bd 64 c9 4b 3d 1a 02 fb bd 42 61 8f bd
       -0.11343122 0.049752608 -0.1225626 -0.07000972
000080 45 71 05 be 98 7f 2f bc d1 17 8b 3d dc 0b 55 bd
       -0.1303149 -0.010711573 0.06791652 -0.052013263
000090 57 75 03 be ee 17 b8 bd dd b9 eb bd 92 c0 bb bd
       -0.1283773 -0.08988939 -0.1151006 -0.09167589
0000a0 d3 5c 1d be 3e c7 75 bd
       -0.15367441 -0.060004465

weight f4 [16]
000000 7e 44 80 3f 55 94 7f 3f b9 1b 80 3f 42 47 80 3f
       1.0020902 0.9983571 1.000846 1.0021746
000010 70 ac 7f 3f e4 33 80 3f e5 e3 7f 3f 9e 19 80 3f
       0.99872494 1.0015836 0.99957114 1.0007818
000020 71 1d 80 3f 7b a1 7f 3f e3 83 7f 3f 58 0a 80 3f
       1.0008985 0.99855775 0.9981062 1.0003157
000030 d7 26 80 3f a0 37 7f 3f 8f e5 7f 3f 58 a1 7f 3f
       1.0011853 0.9969425 0.99959654 0.99855566

bias f4 [16]
000000 cb f5 1e 3b 70 04 8e 3a 23 d6 b0 3a ce aa 62 3a
       0.002425539 0.0010835063 0.0013491552 0.00086466677
000010 a2 12 37 b8 4e b1 f7 3a 5a 1b 98 3a 38 39 51 3b
       -4.3647953e-05 0.0018897445 0.0011604831 0.0031924974
000020 c6 bf 70 ba 7b 6d 10 3a 8a 61 2f 3a 8d 38 89 39
       -0.000918385 0.0005509478 0.00066902547 0.0002617281
000030 5d ad c4 3a 4d 70 f0 b9 3e 1e 63 39 bf 3b 80 3a
       0.001500528 -0.00045860038 0.00021659673 0.0009783431

running_mean f4 [16]
000000 f1 d9 e1 3c de 02 cb 3c 9d 9b 99 3c 83 5e df 3c
       0.027569743 0.02478164 0.01875096 0.027266746
000010 e5 20 c4 3c 23 b7 f5 3c 8a 25 a2 3c 03 86 1a 3d
       0.023941467 0.029994553 0.01979329 0.03772546
000020 6a 78 b1 3c d4 76 99 3c 40 3a db 3c 9f df e0 3c
       0.021663863 0.01873342 0.026761174 0.02745038
000030 96 1b b7 3c a7 01 f2 3c 82 c1 fd 3c 71 5d e7 3c
       0.022352021 0.029541804 0.03097606 0.028242799

running_var f4 [16]
000000 b3 33 ed 3a 7d 52 c6 3a 42 d2 74 3a 00 f3 15 3b
       0.0018097073 0.0015130785 0.0009339192 0.0022880435
000010 37 1c e6 3a 2e 35 12 3b 25 42 8b 3a 1b 05 85 3b
       0.0017556016 0.002230953 0.0010624571 0.0040594465
000020 83 f7 ae 3a f4 b1 7a 3a ed c4 00 3b ec bf 17 3b
       0.0013348911 0.000956326 0.0019648627 0.0023155166
000030 c4 e5 b5 3a ad 81 0b 3b 76 d8 42 3b 03 92 dc 3a
       0.001387768 0.002128701 0.0029731072 0.0016828183

weight f4 [32, 16, 3, 3]
000000 1c 83 5d bd 27 96 34 bc 67 54 1c bb 43 ca 15 3d
       -0.054080114 -0.011022127 -0.0023854019 0.036569845
000010 3f 9f d5 3c 8d 4b 7f 3d 15 3f f7 ba ad 72 11 bd
       0.026076911 0.06232791 -0.0018863404 -0.035509754
000020 e9 42 e8 3b 1d 59 b6 bb 58 1c a2 3d ca 44 93 3d
       0.0070880544 -0.0055648223 0.079155624 0.07190855
000030 53 87 48 bd 41 68 8c 3d 0a f9 08 3d c0 61 80 bd
       -0.04895718 0.06855822 0.033440627 -0.06268644
000040 94 2b 80 3d b0 27 30 bd 85 fc 9f 3c 1d aa 9c 3d
       0.06258312 -0.0430066 0.01952959 0.07649634
000050 61 7e 11 3d e3 90 2f 3d 4a 83 29 3d 28 71 04 3d
       0.035520915 0.042862784 0.041384973 0.032334477
000060 6e 27 09 3d b7 b4 2b 3d 45 9b 39 bd 3f c1 75 3d
       0.03348487 0.04192039 -0.045314092 0.059998747
000070 00 6f 0a bb f9 e1 e8 39 9f c8 88 3d 1e b6 9c bd
       -0.002112329 0.0004441885 0.066788904 -0.076519236
000080 0d 41 41 3d ee db 3e 3d 62 9b 40 bb 5d c7 62 3d
       0.047181178 0.04659646 -0.002938949 0.05536591
000090 12 25 51 3d c7 17 9c 3c 53 96 11 bd 46 0b 6e bc
       0.051060744 0.019054307 -0.03554375 -0.014529055
0000a0 12 00 23 3b 11 54 30 3d c3 b8 4a 3c 0c e6 32 bd
       0.0024871868 0.043048922 0.012373152 -0.04367642
0000b0 f3 74 86 3d eb d2 96 3d 8d 68 a2 3d e0 ce 78 3c
       0.06565275 0.07364448 0.07930098 0.015186042
0000c0 f2 7f 87 bd c4 0f 71 bd a5 12 0d 3d 88 44 54 bd
       -0.066162005 -0.058852926 0.03444161 -0.05182317
0000d0 1d 7a 4c 3b c1 af c1 3c 5f 2c f0 3c 3b 14 2f bc
       0.0031200715 0.023643376 0.029318033 -0.010685976
0000e0 84 97 20 bd 12 f3 84 bd b7 7b 2c 3d 11 11 45 bd
       -0.039206997 -0.064916745 0.04211017 -0.04811198
0000f0 4c 1b 24 bd cc c4 05 bd b4 cd dc 3c 3a 83 51 bd
       -0.040065095 -0.032658383 0.026953556 -0.051150538
000100 c2 78 a6 bd f0 b6 2a 3d ca 0a 27 bd 01 bd 92 3d
       -0.081285015 0.04167837 -0.040781774 0.07164956
000110 6c 9e 87 bd a4 b4 9a bd 60 e2 31 3d bc 6e 1e bd
       -0.066220134 -0.07553986 0.04342878 -0.038679823
000120 7e d6 10 bd cb 20 22 3d a8 09 f8 bc 75 4c 92 bd
       -0.035360806 0.039582055 -0.030278042 -0.07143489
000130 51 5a 9c bb b8 78 22 3d b1 b0 82 3c fe 39 b2 bc
       -0.0047715087 0.039665908 0.015953394 -0.021756168
000140 a5 6f 0a 3d 6e 91 ae 3c 50 15 0a bd dc b3 98 3d
       0.03379788 0.02130958 -0.03371173 0.074561805
000150 fd 9e 7b 3d 9b 63 04 bd 20 56 a8 bd 86 1e 69 ba
       0.06143092 -0.032321554 -0.08219552 -0.0008892793
000160 df 8a a9 bd cb 5f 47 3d 1e cf 27 3d 9b 7a 8f 3d
       -0.08278441 0.04867534 0.040969007 0.07005807
000170 ee 1f 8e bd 30 bc ce 3c ef 63 09 bd e2 da 89 3d
       -0.06939684 0.02523622 -0.03354257 0.06731202
000180 84 3e a0 3d 2b 34 52 bd db 6e 9b bd 4b 28 ba bb
       0.07824424 -0.051319283 -0.075895034 -0.005681073
000190 6c 47 9b bc fc 4f aa 3c be 2a 13 bd 7d ee 92 3c
       -0.018954955 0.020790093 -0.035929434 0.017935986
0001a0 77 16 0b 3d 19 a5 2c 3d 35 0f ef bc c5 ac 8b 3d
       0.03395697 0.042149637 -0.029182056 0.068200625
0001b0 27 83 95 bb 49 3a 58 bb 1e c6 5e bd a5 48 f8 3b
       -0.0045627537 -0.0032993725 -0.054388158 0.0075770193
0001c0 bd fd 3a 3d 99 93 a9 bd 29 39 4b bd d2 59 0e bd
       0.04565214 -0.08280105 -0.04961506 -0.034753628
0001d0 df d0 83 3d a5 8a 80 bd 12 c6 c5 bb a8 eb f0 3c
       0.064363234 -0.06276444 -0.0060355747 0.029409245
0001e0 b3 fb 60 bd b4 f2 35 bd 40 f0 1d 3d 85 00 26 3d
       -0.05492754 -0.044420913 0.0385592 0.04052784
0001f0 7d dd e2 3c 02 cb 08 3d b9 45 9c bd a6 4e 9a 3d
       0.027693504 0.03339673 -0.07630486 0.07534532
000200 1e 42 b0 bc df 23 3a bd 36 6c 0c bd df e9 74 bc
       -0.021515902 -0.045444366 -0.034282885 -0.014948337
000210 d1 b1 22 3d ee c2 91 3c ba 19 d7 3c de fa 53 3d
       0.03972036 0.017793145 0.026257385 0.051752917
000220 e7 c5 90 3d 06 11 ea 3c c7 1c a0 ba f2 eb 0d bb
       0.07068997 0.02857257 -0.0012215608 -0.0021655527
000230 fc 24 95 bd 19 1b 07 3d 58 01 a3 3d d7 4e 52 bd
       -0.07282445 0.032984827 0.07959241 -0.05134472
000240 f0 62 1a 3d 86 57 92 3b a7 45 12 3c 69 6c dd 3c
       0.03769201 0.004466 0.008927739 0.027029233
000250 1c f6 8f bd 0a b7 05 bd 66 08 88 bd 85 a2 a9 bd
       -0.070293635 -0.032645263 -0.06642227 -0.08282951
000260 ca f8 22 bd bd 93 72 bd 3b e9 ba bc 94 54 48 bd
       -0.039788045 -0.059222925 -0.022816291 -0.048908785
000270 c8 75 b5 bb a7 ff 3c 3d dc c0 5c bd 92 b2 94 bd
       -0.0055377223 0.046142247 -0.053894863 -0.07260622
000280 c3 e2 6e 3c de d0 81 bd 7a f4 83 bd 2f 26 cb 3b
       0.014580431 -0.063386664 -0.064431146 0.00619962
000290 61 2f 3f 3d ef 22 07 3d c9 4f bf bb 4c c1 15 bc
       0.046676043 0.0329923 -0.0058383686 -0.009140324
0002a0 f1 a8 34 3d d8 58 00 3d 40 57 35 3d 9c 41 c3 3c
       0.044106428 0.031334728 0.04427266 0.023834996
0002b0 8f 2d 17 bc 0c fe 2b bd b6 26 7b bd 5f d0 77 3d
       -0.009227171 -0.041990325 -0.061316215 0.060501453
0002c0 56 c0 71 38 ab 12 06 bd ad 23 a9 3d 88 8f 19 3c
       5.7638004e-05 -0.032732647 0.08258758 0.009372599
0002d0 dc 8b 8c 3d b1 2a be 3b 6b 28 30 3d a4 15 c6 bc
       0.068626136 0.005803429 0.043007296 -0.02418024
0002e0 9b f4 dc bc 13 88 01 bd b7 95 a2 bd 5c 73 79 3d
       -0.026972106 -0.03162391 -0.07938712 0.06090103
0002f0 39 1b 88 3d 6a 6a 18 3d 1d 17 6b bd ea c5 c6 ba
       0.06645817 0.03721086 -0.05739509 -0.0015165184
000300 e8 c3 1f bd a2 c6 8f 3b 5f 12 69 bc d5 66 02 3c
       -0.03900519 0.0043876925 -0.014225571 0.007959087
000310 02 7a a7 3d 08 b1 9f bc d6 d7 3b 3d a8 31 ce bb
       0.08177568 -0.019493595 0.045860134 -0.0062925406
000320 ae e5 f4 3c 01 f0 b0 3b db a8 47 bd 3d b9 56 3d
       0.029894676 0.0053997044 -0.048745017 0.05242275
000330 8e b8 87 3d 4d 0d c6 3b 04 33 1e bd 5f 03 4b bd
       0.06626998 0.006044066 -0.03862287 -0.04956376
000340 77 34 16 3d 00 b2 e4 39 32 4c 87 bd d5 0e 34 bd
       0.036671128 0.0004362017 -0.0660633 -0.043959457
000350 69 5d 7f bd 00 23 85 bb 7f 02 5a 3d 37 3c 2c bc
       -0.062344942 -0.00406301 0.053225037 -0.010512403
000360 98 e3 67 bb 98 07 8e 3d e2 e7 3f 3d 31 48 b6 bc
       -0.003538346 0.06935042 0.046852 -0.02225122
000370 25 61 84 bd 9f ba 98 bd df 43 98 bd 38 a8 2e 3d
       -0.06463841 -0.0745747 -0.074348204 0.042640895
000380 3a 13 95 3d 38 7e 99 3d 05 a1 1a 3c 94 78 41 bb
       0.07279058 0.074947774 0.009437804 -0.0029521333
000390 08 d3 e5 3c 7d 16 d9 3c 55 bd da bc 2d c9 04 3d
       0.02805473 0.026499981 -0.026701609 0.03241842
0003a0 8b 69 ae bc 79 68 8d 3d fe 32 9a 3d 71 91 af 3c
       -0.021290561 0.06904692 0.07529257 0.021431657
0003b0 8a c0 5b 3c 0f fc 9c bd 0c de 84 3d e3 53 14 bd
       0.013412604 -0.07665264 0.064876646 -0.036212813
0003c0 2c c7 2a bc a7 72 2b 3b 2e 29 a6 3d d1 9a 95 3d
       -0.010423463 0.0026160867 0.08113323 0.073049195
0003d0 b9 76 63 3d e4 f2 15 bc 7a f7 07 3d a1 97 98 3c
       0.055533145 -0.009152148 0.033194996 0.01862699
0003e0 8e fd 11 3d 28 de 3d bd 15 ed 87 3c 33 a4 2e 3d
       0.0356422 -0.046354443 0.016592542 0.04263706
0003f0 20 60 ef 3b 9c d6 3f 3d ff 55 fd bc 4c 36 c9 3b
       0.00730516 0.046835527 -0.030924795 0.006140506

bias f4 [32]
000000 b6 c8 91 3d 41 c3 4e 3d d5 99 6e 3d 37 52 45 3c
       0.07118361 0.050479177 0.058252174 0.012043527
000010 5a fa 8f 3d 01 d9 87 3d e5 27 8e 3d 76 43 a2 bc
       0.07030173 0.06633187 0.06941203 -0.019807559
000020 c1 2c 79 bd 78 5f df 3b b0 85 29 3d f9 0a 1b 3d
       -0.060833696 0.0068168007 0.04138726 0.03785226
000030 48 09 9f bd 56 8a eb bc 08 3c 47 3c 2a 3b 84 bd
       -0.07765442 -0.028752487 0.012160309 -0.06456597
000040 f2 4b 01 bc 12 a9 9d 3d 7d 12 e8 bc 1c f9 a6 bd
       -0.007891642 0.07698263 -0.028329128 -0.081529826
000050 47 ad 1f 3d 25 de 3e bd 67 0d a8 bd 6b 4b 5e 3c
       0.03898361 -0.046598572 -0.08205681 0.013567786
000060 32 80 a4 bd 73 8f 49 3c f8 5f 9c 3d 3c 46 6a 3c
       -0.08032264 0.012302267 0.07635492 0.014298972
000070 66 21 2b 3d 51 be a6 bd 88 38 74 bc 62 f0 8b bc
       0.041779898 -0.08141769 -0.014906056 -0.017082397

weight f4 [32]
000000 46 c0 7f 3f c8 a0 7f 3f 02 d7 7f 3f 4a 3b 80 3f
       0.9990276 0.9985471 0.9993745 1.0018094
000010 f8 a6 7f 3f 05 5b 80 3f 46 51 80 3f bd 30 80 3f
       0.9986415 1.0027777 1.0024803 1.0014874
000020 b0 e8 7f 3f 3c cf 7f 3f 5e 55 7f 3f 99 30 80 3f
       0.9996443 0.9992559 0.99739635 1.0014831
000030 49 e1 7f 3f 89 0a 80 3f 8a 76 7f 3f 1f 04 80 3f
       0.9995313 1.0003215 0.9979025 1.0001258
000040 7f e6 7f 3f c5 e8 7f 3f 7c a0 7f 3f 32 95 7f 3f
       0.99961084 0.99964553 0.99854255 0.9983703
000050 07 ea 7f 3f 7a 48 7f 3f e4 26 80 3f a1 fe 7f 3f
       0.9996647 0.99719965 1.0011868 0.9999791
000060 8b 44 80 3f 2f 8d 7f 3f 8a 43 80 3f c1 2e 80 3f
       1.0020918 0.99824804 1.0020611 1.0014268
000070 66 81 7f 3f 1d c9 7f 3f 5e d8 7f 3f e0 3b 80 3f
       0.9980682 0.9991625 0.99939525 1.0018272

bias f4 [32]
000000 16 06 a9 ba a2 47 3f ba 46 30 6a b9 5f 7b 23 3b
       -0.001289549 -0.0007296746 -0.00022333962 0.002494536
000010 0c de 2a 3a ff 7d 13 3b 80 3a 46 3b cf c1 71 3a
       0.0006518073 0.002250552 0.003024727 0.00092223
000020 21 6d 62 3a 11 2f 7c b9 51 99 bc ba f7 e6 89 3a
       0.00086374773 -0.00024050126 -0.0014388954 0.0010521103
000030 2e 94 2d 3a 10 c9 71 b9 bf b3 1a bb 7e 1a 3a 3b
       0.0006621507 -0.00023058453 -0.0023605672 0.0028397138
000040 3c 99 ab ba ef f6 e1 39 ee 1d 4d ba 95 22 1c bb
       -0.0013091932 0.00043099324 -0.0007824589 -0.0023824323
000050 c3 c2 26 3a 36 f4 69 ba 19 d7 83 3a be 32 53 3a
       0.0006361419 -0.0008924635 0.0010058611 0.00080565724
000060 1e 63 35 3b 80 2c bb ba f2 4f 53 3b 93 e7 a4 3a
       0.0027677487 -0.001428023 0.0032243696 0.0012581222
000070 25 21 02 bb eb 94 31 b7 0f 90 4f 39 f7 f5 04 3b
       -0.0019856181 -1.0584695e-05 0.00019794724 0.0020288208

running_mean f4 [32]
000000 c5 b3 6e 3e 86 c4 b3 3d 77 c2 70 be 06 c7 46 3d
       0.23310764 0.08777718 -0.23511682 0.048529647
000010 9d 77 8b 3c ec 9a c5 3d b3 e5 4d 3e 26 27 1b 3e
       0.01702481 0.0964869 0.20107155 0.15151653
000020 04 19 04 3e 03 11 d6 3c 6b 2f c4 bd 1f 10 38 3e
       0.12900168 0.026131159 -0.09579357 0.179749
000030 a5 22 0b 3e 87 02 a2 3d 9e 79 df bd 42 74 84 3b
       0.13587435 0.07910638 -0.109118685 0.0040421793
000040 40 2b 68 bd b4 08 04 bd f6 a0 38 be d1 ef 34 be
       -0.05668187 -0.032234862 -0.18030152 -0.17669608
000050 aa 64 3a 3d e6 f9 36 be 2a 59 b3 3c c4 d9 64 3d
       0.045506157 -0.17868766 0.021893103 0.05587174
000060 51 6f 3c be fd f8 88 be 41 a8 43 3d 9e 87 18 3e
       -0.18401839 -0.26752463 0.04776788 0.14895484
000070 b0 68 89 3e 50 da 2e 3c 48 d3 96 be 1b 5e e9 bd
       0.26837683 0.010672167 -0.2945807 -0.11394902

running_var f4 [32]
000000 24 db c7 3d df 7e 2e 3e 3d 50 14 3e fb a9 0f 3e
       0.09758595 0.17040585 0.14483733 0.14029686
000010 48 66 c9 3d 83 cc 4f 3e ea 6a 0e 3e b1 a2 14 3e
       0.09833962 0.20292859 0.13907972 0.14515187
000020 a4 bc 17 3e d9 22 f5 3d 3b 25 42 3e d4 80 02 3e
       0.14818054 0.11969537 0.18959515 0.12744457
000030 8c a0 48 3e db 40 37 3e 7e 08 30 3e d2 06 e4 3d
       0.19592494 0.17895834 0.1719074 0.11134113
000040 0c 1c 1a 3e e1 7d 73 3e 66 27 0f 3e 16 2d 35 3e
       0.15049762 0.23778488 0.13979873 0.1769298
000050 ac 44 37 3e 7e 5c 0f 3e 8d af 50 3e bc 22 0e 3e
       0.1789729 0.14000127 0.20379467 0.13880438
000060 a4 95 ea 3d 6d dd e2 3d ae 26 09 3e d4 f3 27 3e
       0.11454323 0.1107739 0.13393661 0.16401607
000070 89 af ec 3d 92 2c 15 3e c8 80 25 3e c6 59 11 3e
       0.11556918 0.14567783 0.16162407 0.14194402

weight f4 [32, 32, 3, 3]
000000 2f 7c c1 bc ca 86 7f 3c c9 ef 58 3d d8 1b 33 3d
       -0.023618786 0.015596101 0.052963052 0.043727726
000010 cb d8 c2 3c 2a b3 64 bd 86 ba f9 bc 1f 17 bd 3c
       0.023785016 -0.055834927 -0.03048445 0.023082314
000020 e9 7f 28 bd a5 3e 48 3d 1d 0b 47 bc f8 ee 8a 3c
       -0.04113761 0.048887867 -0.012148646 0.016959652
000030 93 6d 0f bd 2c 14 6f 3d b9 33 36 bd b9 3f 4e bc
       -0.035016607 0.058368847 -0.04448292 -0.012588435
000040 56 18 41 3c b6 2f 17 3d 00 46 53 3d 05 c3 1c 3c
       0.011785587 0.036910735 0.05158043 0.009567981
000050 00 84 47 bd 4a 22 3d bd c4 66 a7 bc 25 be 20 3a
       -0.04870987 -0.04617528 -0.020434745 0.00061318494
000060 21 ba 22 3d 58 4e 17 bd 04 a5 45 bd ba c7 32 bd
       0.039728288 -0.03693995 -0.048253074 -0.043647505
000070 ab 54 6c 3c 83 c1 42 3d 6d 00 ac 3c 29 f6 ac 3b
       0.014424483 0.04754783 0.020996297 0.005278368
000080 9d 90 82 3b 4c ce 37 bc 23 d5 5f 3d 03 b6 23 bd
       0.0039845244 -0.011218619 0.054646622 -0.0399685
000090 70 8c 11 3d 2e 86 39 bd 10 92 79 39 16 1f 85 3c
       0.035534322 -0.04529398 0.00023800903 0.016250174
0000a0 c7 09 0a 3d 37 dc 15 bd 20 8a 3d bd 86 a4 ca bc
       0.03370073 -0.036586966 -0.046274304 -0.024736654
0000b0 c3 9e 1a bb e0 61 a2 3c f8 9b af bc 7c d1 56 3d
       -0.0023593165 0.019822061 -0.021436676 0.052445874
0000c0 04 1f 40 bd 5c 6e 91 bc 50 82 4d 3d be 1b 86 bb
       -0.04690458 -0.017752819 0.050173104 -0.0040926626
0000d0 29 76 f5 3c 03 0d 0f 3d e6 78 e8 bc 91 42 de bc
       0.02996357 0.03492452 -0.028377961 -0.02713135
0000e0 e7 8b 22 3d 94 f9 6c bb 34 08 8a 3b d0 48 5d 3d
       0.039684203 -0.0036159502 0.0042124037 0.054024518
0000f0 c5 d7 94 bc db 4f 05 3d a9 27 ed bc 76 ac b6 3a
       -0.018169293 0.03254686 -0.028949575 0.0013936895
000100 45 54 92 bb a8 c2 e4 bc 84 49 36 bd 1a 86 09 3d
       -0.004465612 -0.02792485 -0.044503704 0.033575155
000110 f2 9a 2a 3d 1b c3 01 bd de 3c 38 bd a1 31 0d 3c
       0.041651674 -0.031680208 -0.044979922 0.0086177895
000120 77 82 5f bd 41 54 68 bd 8f 57 30 3d cc 95 61 bc
       -0.05456778 -0.056720976 0.043052252 -0.0137686245
000130 e6 d4 5d 3d b5 6f 6c 3d 1c 0b 23 bd f4 28 a5 3c
       0.054158114 0.05772372 -0.039805517 0.02016113
000140 6a 51 43 3d 4a 8a f0 bc 8a 5a 3f 3d 84 70 cf bc
       0.047685064 -0.029362816 0.046717204 -0.025322206
000150 b3 c3 d1 bc d3 74 1c 3d 34 27 14 bd 24 95 55 3d
       -0.025606012 0.03819735 -0.0361702 0.052144185
000160 0b 39 6e 3c 15 b1 17 3d 99 23 49 bd 8a d1 bf bc
       0.014539967 0.037034113 -0.049106214 -0.023415346
000170 46 88 7f 3c ff b5 5d bc fa 2f 13 3d b1 e2 6a 3d
       0.015596455 -0.013532161 0.035934426 0.057345096
000180 e8 78 4c 3d a1 c1 1b bd c5 ba 60 bd 68 5e a5 bc
       0.049919993 -0.038026456 -0.054865617 -0.020186618
000190 18 20 d3 3c 9f e2 0b bd 41 c2 27 3d c5 50 95 3c
       0.02577214 -0.03415167 0.04095674 0.01822699
0001a0 00 69 0c 3c 67 e7 6d 3d f1 d9 f3 3c de a8 6c 3d
       0.008569956 0.05808201 0.029767008 0.05777823
0001b0 60 57 8b 3b a4 f6 0b 3d 31 e0 80 bc 26 2d 52 3a
       0.0042523593 0.03417076 -0.015731903 0.0008017592
0001c0 d7 6b f7 3c ed d8 18 bd 26 6a 36 bd 96 b1 5d 3d
       0.03020279 -0.03731625 -0.044534825 0.054124437
0001d0 c9 8d da bc bd ec df bc 0c cc 3e bd 5f ed aa bc
       -0.026678937 -0.027334565 -0.046581313 -0.02086514
0001e0 1e 27 4f 3d 2b ea 2e bd ae 84 54 bd a0 68 bd bb
       0.050574414 -0.04270379 -0.051884346 -0.0057802945
0001f0 ef ef 06 bc a6 80 ec bb 74 3f 4d 3c 3b e2 ae 3c
       -0.008235916 -0.0072174845 0.012527335 0.02134811
000200 4a 38 bc 3c 66 a7 5e bb 57 14 47 3d 3f 16 1f 3d
       0.02297606 -0.003397429 0.048603382 0.038839575
000210 e0 36 13 3c 78 22 67 bc ab be fe 3c f9 01 3e bd
       0.008985251 -0.014107339 0.031096777 -0.0463886
000220 09 31 fe bc fd 0b 0f bc c0 92 c2 3c 2f 79 01 3a
       -0.031029241 -0.008730886 0.023751616 0.0004939017
000230 26 21 9e 3c 53 30 a8 bb c9 6c 44 bc 1b b5 0b bc
       0.019302916 -0.005132714 -0.011988827 -0.008527066
000240 6e 84 0a bd e2 ca da 3c ac 11 13 3d 8b 19 00 bd
       -0.0338177 0.02670807 0.035905525 -0.03127436
000250 39 85 07 3d c3 0d 28 3d 77 4f 5c bc 3b 8e a9 bc
       0.033086035 0.04102875 -0.01344668 -0.020697704
000260 47 b3 0b bc a7 94 18 bd cb cd cd 3c db ec 34 bd
       -0.00852663 -0.03725114 0.025122544 -0.044171195
000270 dc 55 04 3c 55 f3 67 bd bc b8 4a bc df 2f f0 bb
       0.008077111 -0.056628544 -0.012373146 -0.0073299254
000280 44 a8 14 3d ec 54 ed bc 3d 7a c0 3a 3f cb 24 bd
       0.036293283 -0.028971158 0.0014684867 -0.040232893
000290 a3 7f 39 3d 26 af 70 ba 5c b5 d8 bc 2f 8e 5a bd
       0.04528774 -0.00091813726 -0.026453666 -0.053358253
0002a0 76 b1 14 bd ef 9c 25 3d 01 2f 2a 3d 88 b6 01 bd
       -0.036302052 0.040432867 0.041548733 -0.031668216
0002b0 0e d1 09 3d a5 31 3c 3c 7c 82 6c 3c 2a e5 ee bc
       0.033646636 0.011486446 0.014435407 -0.029162008
0002c0 8c 74 cd bc b9 5e bc 39 10 9c 38 3c b1 d4 24 3d
       -0.025079988 0.00035928728 0.011267677 0.0402419
0002d0 ab 7f 68 3c be 45 ed 3c 42 81 65 bd ab bc 3b 3c
       0.014190595 0.02896392 -0.056031473 0.011458556
0002e0 94 6e a3 bc 2a e1 ec 3a 37 c0 ef bc fd 73 f6 3c
       -0.019950189 0.0018072475 -0.02926646 0.030084604
0002f0 f1 ce be bc 43 e5 9e 3c d2 5a fa 3b 43 37 e6 3b
       -0.023292037 0.01939643 0.007640221 0.0070256307
000300 9b d3 2a 3d c5 8c 24 bd a5 95 67 bc 52 13 56 3d
       0.04170571 -0.04017331 -0.014134799 0.05226452
000310 e5 d9 01 bd a9 cb 2b bd ad d0 1c bd 15 f9 cb bc
       -0.03170194 -0.041942272 -0.038284946 -0.024899045
000320 28 e2 df bc 7e e1 06 bd 27 7a 01 3d be 72 1d bd
       -0.02732952 -0.03292989 0.031610634 -0.038439505
000330 94 3e a6 3c 69 be 83 3b 19 98 23 3c 54 70 47 3c
       0.020293511 0.0040205014 0.009984993 0.012172777
000340 b4 8a a8 bc b2 5a 4d 3d 7a da 7c 3c d8 34 68 3d
       -0.020573951 0.050135322 0.015432948 0.05669102
000350 61 47 df bc 49 83 23 bd 12 4a 28 bd 86 f8 89 bb
       -0.027255716 -0.039920125 -0.041086264 -0.0042105345
000360 93 70 68 bd 69 4a 21 bd 56 05 48 3d da e3 07 3d
       -0.056747984 -0.039377604 0.048833214 0.03317628
000370 e5 23 05 bd fe 41 e7 3c c1 b1 58 3d 6a bd 9c 3c
       -0.032504935 0.02822971 0.052903894 0.019133288
000380 ff 9f 08 3d 1b 1a 0c bd ac 42 82 bc 65 ee 30 3d
       0.03335571 -0.034204584 -0.015900932 0.0431961
000390 f4 d2 6f 3c 24 6b 26 bd 15 45 1d 3d a4 d8 42 3c
       0.0146376975 -0.04062952 0.03839596 0.011892471
0003a0 1c b0 4a bd 61 c8 f8 3c 47 43 1f bd 46 d5 17 bd
       -0.049484357 0.030368986 -0.03888252 -0.037068628
0003b0 24 af 97 3b 15 6b 49 bd 35 b3 2c 3c 60 dc b6 bc
       0.0046290327 -0.049174387 0.010540773 -0.02232188
0003c0 2a dd 2d 3c 4b f4 f7 3b 7b 46 cc bc fd 25 37 3d
       0.010611812 0.007566964 -0.024935951 0.044713963
0003d0 f6 9f d5 b9 a7 ec fb 3b 9f 30 2a bc c1 df 2a 3d
       -0.00040745706 0.0076881233 -0.010387569 0.041717295
0003e0 89 fd f9 bb fa f4 96 bc 9a fb fb 3c 3b 9f 70 bc
       -0.0076291007 -0.01842736 0.030759621 -0.014686401
0003f0 74 86 86 ba b8 b6 f7 bb 8a a8 1c bc 29 4d 4e bd
       -0.0010263459 -0.0075596236 -0.009561667 -0.050366554

bias f4 [32]
000000 fd 3d 0e bd 04 c6 f7 3c 29 48 53 3d 24 3d 1b 3d
       -0.034727085 0.030245788 0.05158249 0.037900105
000010 35 64 2d bd 32 7c e7 3c 92 e7 d7 3c 4f db 62 3b
       -0.042331893 0.028257463 0.026355539 0.0034615581
000020 34 0a 5d 3d f7 f7 1c bd 89 0e 57 3c 76 f3 43 3d
       0.05396481 -0.038322415 0.013126024 0.047839604
000030 b6 ca 31 bc 4b 01 95 bc 0f 75 a0 bc 59 62 26 bd
       -0.010851553 -0.018189093 -0.019587068 -0.040621135
000040 9e f8 40 bd 86 65 45 bd 12 49 8e bc fd 81 6e bd
       -0.0471121 -0.048192523 -0.017368827 -0.058229435
000050 e5 17 6d bd 31 59 d1 bc 41 ab 4b bd 5d 13 4b bd
       -0.057884116 -0.025555225 -0.049723867 -0.049579013
000060 c7 8b 44 3d 96 6d 03 3d c0 f3 9f bb e8 5e 2a 3d
       0.047984865 0.03208693 -0.004881352 0.041594416
000070 0c 0a 2a 3d 0b 2c bf 3c 09 3b fb 3c 06 84 4d 3d
       0.041513488 0.023336431 0.030667799 0.050174735

weight f4 [32]
000000 d9 3d 80 3f 04 37 80 3f 0f 06 80 3f 23 ff 7f 3f
       1.0018874 1.001679 1.0001849 0.9999868
000010 20 12 80 3f 9c 06 80 3f 21 20 7f 3f 67 4b 80 3f
       1.0005531 1.0002017 0.996584 1.0023011
000020 cd 42 80 3f c9 1e 80 3f 99 25 80 3f 0f 29 7f 3f
       1.0020386 1.0009395 1.0011474 0.99672025
000030 1e 33 80 3f 9e 99 7f 3f 65 0f 80 3f 4a 57 80 3f
       1.00156 0.99843776 1.0004698 1.0026639
000040 7e 51 7f 3f 20 7b 7f 3f 8b 0f 80 3f 34 2c 80 3f
       0.9973372 0.9979725 1.0004743 1.001349
000050 ea 86 7f 3f 4d 4b 80 3f 05 5c 80 3f a5 10 80 3f
       0.9981524 1.002298 1.0028082 1.000508
000060 53 08 80 3f 92 75 7f 3f e9 c3 7f 3f 6c 75 7f 3f
       1.000254 0.99788773 0.9990831 0.99788547
000070 f0 cc 7f 3f 9a ba 7f 3f 15 32 7f 3f da d7 7f 3f
       0.99922085 0.99894106 0.99685794 0.9993874

bias f4 [32]
000000 d1 9d 30 3b 6b 5d 8d 3a 02 fd 01 3b cc 55 dc 3a
       0.0026949535 0.0010785287 0.0019834642 0.0016810237
000010 8e c6 b4 b9 6a 2e 8c 36 5f ef ed ba 06 b2 42 3b
       -0.0003448021 4.1777284e-06 -0.0018153003 0.002970816
000020 c0 f4 fd 3a 39 2c 88 38 bc 9f 47 b8 a0 29 ed ba
       0.0019375309 6.4932225e-05 -4.759406e-05 -0.001809407
000030 8e 89 fa 3a 92 1b dd ba 7b b3 00 b9 7b 55 88 3b
       0.0019114481 -0.0016869179 -0.00012273893 0.0041605807
000040 6c c6 1d bb bb 4f a6 ba 2c ca 95 3a 31 0e 53 ba
       -0.0024074567 -0.0012688556 0.001142805 -0.0008051126
000050 a7 33 76 3a ca 46 24 3b 5b 1e f3 3a 0c 7b c9 b9
       0.0009391852 0.0025066608 0.0018548475 -0.00038429385
000060 32 02 19 39 88 40 cb 3a d5 f4 5a 3a a2 5b 9e ba
       0.00014592035 0.0015506903 0.0008352523 -0.0012081752
000070 14 aa 84 ba 9e f3 4d 39 c4 70 29 39 47 0f f6 3a
       -0.0010121488 0.00019641078 0.00016159104 0.0018772864

running_mean f4 [32]
000000 3e 8a 10 3d 6f 49 a0 3c 4e 80 29 be 6b 89 e9 3d
       0.035288088 0.019566266 -0.1655285 0.114031635
000010 73 b7 a8 bd 76 33 43 bd a8 2c ff 3d 07 a0 27 be
       -0.08238115 -0.0476565 0.124596894 -0.1636964
000020 70 9a 32 3e 53 e8 63 bd ed e8 93 3e 47 ab 17 3d
       0.17441726 -0.055641484 0.28888646 0.037028577
000030 21 b8 19 3d ce 81 10 3d 60 58 ca b9 4a 2e bf bc
       0.037529115 0.03528004 -0.00038594287 -0.023337502
000040 31 c2 cf bc e2 9c 0a 3e fe 18 da bc 6b 4c 3b bc
       -0.025361152 0.13536409 -0.026623245 -0.011431794
000050 86 6f 79 be a6 b7 85 bd 12 47 1d 3d 20 84 0b 3d
       -0.24358949 -0.06529169 0.038397856 0.03406155
000060 21 63 3e 3d 90 7c a8 bd 91 15 96 3e ea 1a a1 bc
       0.046481255 -0.082268834 0.2931333 -0.019666154
000070 bd 93 91 3e 7e f8 9d be 30 74 10 be ba d4 25 3e
       0.28433028 -0.30853647 -0.14106822 0.1619443
