DFA-PS/DFA-PS/Experiments/Full-GOP/HK/backup/factor/DecisionModel_RatioModule.pt (torch, 78025 bytes, 83 tensors)

weight f4 [8, 4, 3]
000000 17 89 66 3d bf d9 d2 3c 50 c2 87 be 1c af 3f 3d
       0.056283083 0.025738595 -0.26515436 0.046797857
000010 dc 7f d4 3d 51 29 81 bd c3 0b 40 be 02 04 a0 bd
       0.1037595 -0.063067086 -0.18754487 -0.078132644
000020 74 74 f5 3d 85 03 c8 3c 87 bc 5f bd 04 f7 02 be
       0.11985102 0.02441574 -0.054623153 -0.12789541
000030 82 ed 0d 3e ae 75 46 3e c6 57 68 3e 10 44 11 3e
       0.13860133 0.19380829 0.22689733 0.1418612
000040 db 0e 90 be e2 05 89 be ca 94 05 be 2f bd 88 bd
       -0.28136334 -0.267623 -0.1304504 -0.06676709
000050 76 77 6d be 3b 2e 81 bd 02 c8 82 be cd 28 8b 3e
       -0.23190102 -0.06307646 -0.2554322 0.27179566
000060 6c c2 3e bd b6 45 51 3d ae fa 89 bd d9 25 ec bd
       -0.046572134 0.051091872 -0.067372665 -0.11530656
000070 60 7b 33 3e 42 da 1e 3e ac 5c 76 3d f8 40 92 3e
       0.17527533 0.15512946 0.060146973 0.28565192
000080 a3 97 4b 3d 36 0c 84 be 6a 99 ca 3d 14 15 eb bd
       0.04970516 -0.25790566 0.09892543 -0.1147863
000090 ce cf e9 bd 85 2a 83 bd c1 cd ad 3d bd e0 6f be
       -0.11416589 -0.06404594 0.0848651 -0.23425575
0000a0 ae 92 78 be 7f 57 e3 bd eb 01 4f 3d 43 58 b9 bd
       -0.24274704 -0.11100673 0.05053894 -0.09050038
0000b0 67 b5 2e 3e 9b 0e 89 be 3b 62 89 3e ed 72 6d be
       0.17061387 -0.26768956 0.26832756 -0.23188372
0000c0 9a 48 5c 3e 86 f5 25 3e 1b 16 09 bd 2b 1a 71 be
       0.2151207 0.16206941 -0.033468347 -0.23545139
0000d0 38 19 53 3e 13 64 ac bd 64 92 69 3d 21 53 f0 3c
       0.20615089 -0.08417525 0.057024375 0.029336514
0000e0 ce e7 25 3e be a9 90 3e 70 55 0f 3e df 7b 73 be
       0.16201708 0.28254503 0.13997436 -0.23777722
0000f0 05 c9 8a bd 4b 13 2d be ef f4 7f 3d 91 79 00 be
       -0.06776623 -0.16901891 0.062489446 -0.12546374
000100 53 5c c7 3d 07 6a 08 be 5d a6 70 3e 2b 65 64 3e
       0.09734406 -0.13321696 0.23500963 0.22304218
000110 c4 09 76 3d e4 d0 69 be 5d 9d 35 bc f9 d6 62 3e
       0.060067907 -0.22833592 -0.011084882 0.22152318
000120 32 ba 89 3e a2 21 fb 3d ad 1b 85 be e1 70 26 3c
       0.26899868 0.12262274 -0.25997677 0.010158748
000130 41 b7 2c be 53 b3 67 be ef de 9f bc 42 53 09 3e
       -0.16866781 -0.22627 -0.019515483 0.13410667
000140 c0 70 69 be 4a 39 63 3e 21 5b 3d be 1a a7 67 3e
       -0.22796917 0.22189823 -0.18491794 0.22622338
000150 2c 76 17 bb b3 35 30 be 45 b7 6c 3c 3d e6 23 be
       -0.0023111207 -0.17207985 0.014447992 -0.16005798
000160 fa 0e f2 bd 71 dc bc 3d a4 26 62 3e 25 31 67 be
       -0.11819263 0.09221733 0.22085053 -0.22577341
000170 65 30 e5 bd d6 dc e9 b9 e6 8b 3d be d0 92 e2 3c
       -0.11190871 -0.0004460576 -0.18510398 0.027657896

bias f4 [8]
000000 ac 3b ea 3d 78 d5 44 be 46 ab 21 3e 4b 2a 5a be
       0.11437163 -0.19222057 0.15787992 -0.21305196
000010 0f 36 13 be 04 28 47 3e 6c dd 87 3e 04 e4 4e bd
       -0.1437609 0.19448858 0.2653612 -0.05051042

weight f4 [8]
000000 05 00 80 3f f8 ff 7f 3f 03 00 80 3f f0 ff 7f 3f
       1.0000006 0.9999995 1.0000004 0.99999905
000010 08 00 80 3f 04 00 80 3f 00 00 80 3f 01 00 80 3f
       1.000001 1.0000005 1.0 1.0000001

bias f4 [8]
000000 50 25 4a 35 f3 0d 47 b5 21 12 51 35 91 2e 58 b5
       7.530516e-07 -7.4153576e-07 7.788495e-07 -8.0534033e-07
000010 98 94 cf 34 a0 a5 8c 34 b3 aa 2f 34 71 df 23 35
       3.866487e-07 2.619754e-07 1.6360245e-07 6.104738e-07

running_mean f4 [8]
000000 17 8c 03 45 a0 ee 01 45 84 74 1f 45 a3 e1 88 44
       2104.7556 2078.914 2551.2822 1095.0511
000010 60 69 33 c5 98 25 5e 43 fe 23 f1 c4 44 32 31 45
       -2870.586 222.14685 -1929.1248 2835.1416

running_var f4 [8]
000000 88 56 28 4a a9 b9 26 4b 5c 9f c4 4a fa 78 d9 4a
       2.75805e+06 1.0926505e+07 6.442926e+06 7.126141e+06
000010 33 00 b4 4b 6b e4 7e 4b f3 1e b9 4a 5c 1b 97 49
       2.3593062e+07 1.6704619e+07 6.0660415e+06 1.2378675e+06

weight f4 [8, 8, 3]
000000 82 bb 85 bc fa 75 e1 bc c7 59 2c be d8 3f 59 bd
       -0.016324762 -0.027522076 -0.16831122 -0.0530394
000010 db e1 ba 3d a3 47 4c 3b b8 a5 ab 3d ad 9d ae 3c
       0.0912511 0.0031170628 0.08381218 0.02131542
000020 7b 51 da bd 98 be 03 3e 5f a0 13 3e 11 9a b1 3c
       -0.106600724 0.12865674 0.14416645 0.02167991
000030 93 c8 80 bd a2 32 63 bd 58 97 af 3d c6 7b b5 bd
       -0.062882565 -0.05546821 0.085737884 -0.088614985
000040 be eb 2b 3d c9 b9 35 be 52 1d 9c 3d 89 6e b8 3d
       0.04197287 -0.17746653 0.0762278 0.09005458
000050 cd f8 d3 bd 95 a7 4f bd 83 52 13 3e 78 7b 37 3c
       -0.10350189 -0.050696928 0.14386944 0.011198871
000060 61 7a 8f bd 41 d1 02 bd ae 1b d8 3d 7e fa f9 bd
       -0.07005764 -0.03193784 0.105521545 -0.12205981
000070 b2 53 33 bd 1a 2f 20 be 6c e0 46 ba 84 8f 36 be
       -0.04378099 -0.15642968 -0.0007586542 -0.17828184
000080 64 04 0e 3e d5 76 21 3e ef c3 eb 3c 91 f0 3f 3e
       0.13868862 0.15767987 0.028779952 0.18744113
000090 7d d3 4c be 0a ec 34 bd 54 fa 8b bb 61 26 e8 3d
       -0.20002551 -0.044170417 -0.004271785 0.11335445
0000a0 7c 68 42 3e ca b2 aa 3c e9 bf 20 ba af c0 a1 3c
       0.1898517 0.020837206 -0.00061321125 0.019745199
0000b0 cd 11 4c be e4 e0 ec 3c e7 97 9a 3c a8 c1 78 3d
       -0.19928665 0.02891583 0.01887126 0.06073156
0000c0 e9 4c 1c be 7b cc 14 be 56 a7 aa bd 66 e6 04 3e
       -0.15263714 -0.14531128 -0.08332698 0.12978515
0000d0 3a 98 8a 3d 05 70 bf 3d 46 2a 43 3d 2c 85 10 be
       0.06767316 0.09347538 0.047647737 -0.14113301
0000e0 b5 be 93 bd ba e5 2a 3e ac 9b 7b 3d 5a 30 1c be
       -0.07214109 0.16689196 0.061427757 -0.1525282
0000f0 c9 e5 f3 3d 5e a7 20 be bb 3b ee 3d ef 60 ad 3d
       0.119090624 -0.15688846 0.116324864 0.08465754
000100 b7 4f 92 3d fe 2f 62 bc 2c 84 15 be b9 36 26 be
       0.07144111 -0.013805388 -0.14601201 -0.16231813
000110 74 c4 28 be 3e 58 63 3d 1e dd fe bd 1d a9 45 3e
       -0.16481191 0.055504076 -0.124445185 0.19302793
000120 89 98 04 3e 87 d9 50 be 56 41 32 3e ce 35 13 3e
       0.12948813 -0.2039548 0.17407736 0.14375994
000130 24 21 22 3e 3d 46 d0 3c 67 87 27 be e4 ae d0 bd
       0.15832955 0.025424117 -0.16360246 -0.10189608
000140 e3 56 28 3e 90 c1 41 3e 73 93 04 3c e6 f8 08 3e
       0.16439395 0.18921494 0.008091795 0.13376197
000150 7c 4b 7b bd f7 b9 04 be 7e 77 0e 3e 32 73 42 3e
       -0.061351284 -0.12961565 0.1391277 0.18989256
000160 60 ff 83 bb 30 6d e9 bd 31 4b c3 3d e3 99 f4 3d
       -0.004028246 -0.11397779 0.09535826 0.11943414
000170 b9 03 10 3c d7 50 87 3d ee b4 c1 bd ab f6 50 be
       0.00878995 0.06607216 -0.09458338 -0.20406596
000180 09 f8 67 3c 46 eb 10 be 3d ce 29 3d cc 93 17 3e
       0.014158257 -0.1415225 0.04145645 0.14802474
000190 4a 18 15 be 7c 10 10 be b3 f2 ae 3d f5 68 04 3e
       -0.14560047 -0.14068788 0.08542385 0.12930663
0001a0 e4 ea b4 bd 37 09 31 be cd 5a 2c 3e c8 98 3b 3e
       -0.08833864 -0.17288671 0.16831513 0.1832
0001b0 32 bf 3c bd ed 80 09 be f6 b9 4d 3b 6d a9 50 be
       -0.046080776 -0.13428088 0.003139136 -0.20377131
0001c0 a9 c4 0a 3e fd cc 10 be e7 75 3e 3e 01 8f d1 bd
       0.13551582 -0.14140697 0.18599664 -0.10232354
0001d0 58 4a 94 bc fd d5 91 3d 07 38 27 bd bb 73 a8 bd
       -0.018101856 0.07120893 -0.040824916 -0.08225199
0001e0 d4 4b a8 3d bf 3d a0 bc 1a 21 ad bc 62 66 f1 bd
       0.08217588 -0.019560693 -0.021133948 -0.11787106
0001f0 6b ba 2c 3d 96 ab 3c 3e cf 26 ad bb ed 80 34 be
       0.04216997 0.1842483 -0.0052841674 -0.17627306
000200 29 35 06 bd d3 e5 d2 bd f9 0d 18 bd 36 59 0a 3e
       -0.03276554 -0.10297742 -0.0371227 0.13510594
000210 9c 33 c0 3d 03 7c 1d be 93 70 77 3d 2b 56 14 3c
       0.09384844 -0.15379338 0.060410094 0.009053747
000220 53 4f 46 be 43 b6 00 be 0a 84 10 3e fb 47 6c bd
       -0.19366197 -0.12569527 0.14112869 -0.057685833
000230 d0 55 c2 3d ad 21 b3 3d 64 bf bc bd fe 89 da 3d
       0.09489024 0.087466575 -0.09216192 0.10670851
000240 c2 3f 17 3e 78 51 c5 3d 3f 7e 3c bd 69 9f fa bd
       0.14770415 0.096346796 -0.046018835 -0.12237436
000250 42 28 34 3e 40 88 25 be a5 21 19 be a9 12 e1 3d
       0.17593482 -0.16165257 -0.1495424 0.10989887
000260 5a 5c 1c 3e 16 85 2b 3e 83 8e 89 3d c0 a9 e4 3d
       0.15269604 0.16749987 0.06716635 0.1116519
000270 2a cc 4c be 26 f7 97 3d ab b3 5a 3d c1 cf d6 bd
       -0.19999757 0.07420187 0.053394 -0.10488845
000280 60 ac 40 3e 39 bb 42 3e 7b cd 08 3d 36 92 16 be
       0.18815756 0.19016732 0.033399086 -0.14704213
000290 66 3d 28 be f0 43 89 bd 87 7e c2 bd a1 2f c1 3d
       -0.16429672 -0.06702411 -0.094967894 0.094329126
0002a0 dd 16 29 be 93 fa 8c bd 0c b3 df bd 98 fa 2c 3d
       -0.16512628 -0.06883731 -0.10922822 0.042231172
0002b0 a5 c2 e0 bc d8 07 3c 3e 3e 9a eb bd fe 14 4a be
       -0.027436564 0.18362367 -0.11504029 -0.1973457
0002c0 76 3f 97 3a bf 1a 33 be 22 00 de bd f5 93 9f bd
       0.0011539299 -0.17490672 -0.10839869 -0.077918924
0002d0 4c b8 49 be 1f ba 1b 3e 36 4c f8 3d a4 8b 31 3d
       -0.1969921 0.15207718 0.12123911 0.043346062
0002e0 8b 55 f9 3d de f4 13 3d cc f1 18 3e 2a a3 a7 3d
       0.12174519 0.036122195 0.14935988 0.08185418
0002f0 89 41 be 3c 3d 49 32 3e 70 22 b8 3d 1b a1 3c bd
       0.023224609 0.1741075 0.089909434 -0.04605208

bias f4 [8]
000000 10 4f c2 3d 68 de f6 3d 70 c5 91 3d f4 ae 17 bd
       0.09487736 0.120541394 0.07117736 -0.037032083
000010 3f 8e a3 bd 7f 00 ae bd 39 40 ac bd 3c f2 86 3d
       -0.07986116 -0.08496188 -0.08410687 0.06589171

weight f4 [8]
000000 02 00 80 3f f6 ff 7f 3f ff ff 7f 3f f2 ff 7f 3f
       1.0000002 0.9999994 0.99999994 0.99999917
000010 00 00 80 3f f5 ff 7f 3f 0a 00 80 3f 01 00 80 3f
       1.0 0.99999934 1.0000012 1.0000001

bias f4 [8]
000000 8d 6a aa 33 1c 7e e0 34 81 d4 2c b5 ef 03 f6 b4
       7.9356234e-08 4.1815008e-07 -6.4384227e-07 -4.5823933e-07
000010 da 3d 6e b5 09 69 af b3 f5 0a 8d 34 70 e9 14 b4
       -8.8751915e-07 -8.168178e-08 2.627127e-07 -1.3868498e-07

running_mean f4 [8]
000000 cd c0 fc 3d 95 b5 af 3d 4e 23 d7 bd 37 1d 32 3c
       0.12341461 0.08579556 -0.10504781 0.010871223
000010 3f 1c 25 be b5 1a e1 bd 69 4e 14 3e 7a c9 8f bd
       -0.16124056 -0.10991422 0.14483036 -0.070208505

running_var f4 [8]
000000 c3 94 e0 3e 50 d5 08 3f a0 95 e4 3e 48 93 d4 3e
       0.43863496 0.5345049 0.44645405 0.41518617
000010 32 2e b5 3e 87 a6 c8 3e 1c a2 c8 3e a2 c8 c1 3e
       0.35386807 0.3918955 0.3918618 0.37848383

weight f4 [8, 4, 1]
000000 2a df ed be 6a 9e 1e bd ac eb 0e 3e 1b d5 76 bd
       -0.46459323 -0.038725294 0.13957089 -0.060261827
000010 55 b4 cf be 68 02 c3 3d 42 59 bc 3e 6f ae c8 be
       -0.4056727 0.09521943 0.36786848 -0.39195582
000020 a1 48 75 3e b6 21 a6 3e 75 b4 9b be 2f 18 e0 3e
       0.23953487 0.32447594 -0.30411115 0.4376845
000030 ff eb 6a be 4b 6f 9d bd df 2d 9a 3d 3e 95 0e be
       -0.22941588 -0.07687243 0.075282805 -0.13924119
000040 0c 1c c1 be 09 6f d4 3e ec 90 f2 be 34 ea e9 be
       -0.3771671 0.41490963 -0.47376192 -0.45686495
000050 9d 57 eb bd 43 49 a5 3e ac da 57 3e ec 0b 4a 3e
       -0.1149132 0.32282457 0.2107951 0.1973111
000060 26 7a 16 3e af 4c e7 be 89 69 ad be 1b c5 3c bd
       0.14695033 -0.45175692 -0.3386958 -0.046086412
000070 40 64 2d 3e 8d 65 95 3d 6f 22 bd be 4b b2 ba 3e
       0.16932774 0.0729476 -0.36940333 0.36464152

bias f4 [8]
000000 8c ba b0 3e ec 4c a3 be 98 bd 5e 3e 24 d4 2d be
       0.34517324 -0.31894624 0.21752012 -0.16975456
000010 30 6f de 3e d8 ae 94 be a0 f9 eb 3e 5c fa 2b be
       0.43444204 -0.29039645 0.46088886 -0.16794723

weight f4 [8]
000000 01 00 80 3f f3 ff 7f 3f 02 00 80 3f fd ff 7f 3f
       1.0000001 0.9999992 1.0000002 0.9999998
000010 f7 ff 7f 3f 08 00 80 3f 0a 00 80 3f 04 00 80 3f
       0.99999946 1.000001 1.0000012 1.0000005

bias f4 [8]
000000 4e b3 08 34 fc 87 5d 34 1c 20 0b b5 6d db 52 b5
       1.2731218e-07 2.06317e-07 -5.182826e-07 -7.85504e-07
000010 6e c4 91 34 28 fe 3f 34 61 4b cf b4 b8 e1 77 b3
       2.7151276e-07 1.7880723e-07 -3.86116e-07 -5.771446e-08

running_mean f4 [8]
000000 ae 57 6d 44 0e 68 cf 45 06 d5 e8 c5 e7 88 12 45
       949.37 6637.007 -7450.628 2344.5564
000010 06 12 f3 45 e6 eb 54 c5 63 12 4e 44 a7 0c c2 c5
       7778.253 -3406.7437 824.2873 -6209.5815

running_var f4 [8]
000000 89 3f 48 48 c3 17 c6 4a 65 36 f1 4a ab 49 4c 49
       205054.14 6.4911055e+06 7.9040505e+06 836762.7
000010 9a cf 02 4b d8 a5 b7 49 c4 21 92 47 a6 7c a7 4a
       8.572826e+06 1.504443e+06 74819.53 5.488211e+06

weight f4 [16, 8, 3]
000000 42 4f d7 3d 56 e3 28 be 00 0c 0b 3c 62 18 21 be
       0.10513164 -0.16492972 0.008486748 -0.15731958
000010 23 ba 42 bd 7c 76 b1 bd d4 7d 21 3e c4 72 a9 3b
       -0.047540795 -0.08665177 0.15770656 0.005171152
000020 b5 a7 e5 ba 75 b3 0b 3e da 8d 14 3e d7 5b 4e be
       -0.0017521294 0.13642676 0.14507237 -0.20152222
000030 09 fb ef 3c 20 dc 61 3d 1f 95 f6 3c 46 87 41 3d
       0.029294508 0.05514157 0.030100403 0.047248147
000040 39 f2 20 bd ed 8c 2b bd 2c 76 49 3e 46 93 b5 bd
       -0.0392935 -0.041882444 0.19673985 -0.08865981
000050 d8 14 d1 bd 00 9c 27 bd aa b4 ba bd 21 24 07 be
       -0.10209054 -0.040920258 -0.0911649 -0.13197376
000060 f5 4e 22 bd b1 5a 05 3e 4f e2 68 3d e4 db 92 bc
       -0.03962608 0.13022877 0.05685645 -0.017927118
000070 d8 5b 71 3d 4b 46 44 be 45 c5 0d be 53 5d ae bd
       0.05892548 -0.1916744 -0.13844784 -0.08513894
000080 8b 3c 1c 3e 92 4e 34 be c5 0a 2e 3e 81 cf 56 3d
       0.1525747 -0.17608097 0.16996296 0.052443985
000090 f0 a3 10 bd 20 4a 2a be 7e 30 ed 3d b7 94 39 be
       -0.035312593 -0.16629839 0.11581515 -0.18123136
0000a0 ce d8 fa 3d 06 17 d5 3d 46 5c 01 be bf 0e a6 3d
       0.122483835 0.10404782 -0.12632856 0.08108281
0000b0 63 77 1b 3d 1c 14 34 be 61 d7 9e 39 78 e1 e9 3d
       0.037955653 -0.17585796 0.00030296578 0.11419958
0000c0 9f d2 02 3d 5d bd 1d be 60 aa d4 bd d8 31 f6 3d
       0.031939145 -0.15404268 -0.10384059 0.12021226
0000d0 b5 a2 ff bc d0 82 74 3d c6 92 63 bc e1 a4 41 3d
       -0.031205514 0.059695065 -0.013889974 0.04727638
0000e0 f5 f0 fd bd 90 94 9d bd 68 e0 33 bd 95 5f db 3d
       -0.123994745 -0.07694352 -0.043915182 0.1071159
0000f0 20 2d 32 3e 35 26 38 3e 35 af bc bd 7c 8b 1a 3d
       0.17400026 0.17983325 -0.092131056 0.03773068
000100 ac 1d 06 3d 28 10 02 3e be d8 cd 3d 0c ea 86 3d
       0.03274314 0.12701476 0.10051106 0.0658761
000110 06 4f 2b 3e 86 fc 3d 3e f0 a6 12 3e 5a 67 ff 3d
       0.16729364 0.18553361 0.14321494 0.124708846
000120 32 5c 37 be fc 22 33 be ec 08 e9 3d 76 c6 96 3c
       -0.17906263 -0.17493814 0.11378655 0.01840518
000130 36 9a 0a 3e ad d0 d6 3d 01 64 49 bd 8e cc 3b 3e
       0.1353539 0.104890205 -0.049167637 0.1833975
000140 02 61 af 3d ed a3 6d 3c 52 b9 3d 3d d8 cf c2 3d
       0.08563425 0.014504415 0.046319313 0.09512299
000150 29 e0 6f bc 88 dc 02 3e 19 05 04 be aa 29 41 3e
       -0.014640846 0.12779438 -0.1289257 0.1886355
000160 55 9f 31 be af 7f 6e bd cd e7 46 3e 79 e8 03 be
       -0.17345937 -0.058227237 0.19424362 -0.1288165
000170 f3 e9 31 be 98 28 2f be 72 1e 4e be 3a 2e 4e be
       -0.17374401 -0.17105329 -0.20128801 -0.20134822
000180 eb 99 a4 3d 25 28 73 3d cf c6 46 3e e8 e3 e8 bd
       0.0803717 0.059364457 0.19411777 -0.11371595
000190 8f db a0 3d c7 e3 46 3e a8 02 46 3d a5 1b a8 bd
       0.078543775 0.19422828 0.048342377 -0.08208398
0001a0 d4 9c 07 bd f9 c9 f5 bd 0f 5e 4c 3e ba f6 4e be
       -0.033108547 -0.12001414 0.19957756 -0.20211306
0001b0 71 21 3a 3e 3b c4 cc bc 12 2f a4 3d 3a 75 e3 3d
       0.1817682 -0.024995914 0.080167904 0.111063436
0001c0 ae aa f0 3d e7 52 c1 3d cb ad 28 3d 15 8e 00 3e
       0.117513046 0.094396405 0.041181367 0.125542
0001d0 6f cc 9e bd 4c 5d cf bd f9 27 7e 3d 65 80 97 3d
       -0.07753836 -0.10125217 0.06204984 0.07397536
0001e0 c2 af 28 be 01 b1 c6 bd cf b0 23 be f3 b6 28 3c
       -0.16473296 -0.097017296 -0.15985416 0.010297525
0001f0 82 8b e9 3d 03 e2 d5 bd dc 97 28 3e 85 53 64 3d
       0.11403562 -0.10443499 0.1646418 0.055743713
000200 8f 47 27 3e 68 6c e8 bc 6f 02 97 bd 82 b4 48 be
       0.16335891 -0.028372005 -0.07373511 -0.19600108
000210 1d a9 96 bb a5 13 2b be f3 f8 0d bd 0b 52 4d 3e
       -0.0045977966 -0.16706713 -0.034661245 0.20050828
000220 d8 93 9b 3d a9 55 aa 3d fb b3 1a bd 62 6d a1 3d
       0.07596558 0.0831712 -0.0377693 0.07882191
000230 b9 8c 0f 3e 93 85 e7 3d 54 a4 23 3e ea 18 2b 3e
       0.14018525 0.11304774 0.15980655 0.16708723
000240 a0 dd 07 be 26 a5 0d be cc b6 d1 bd 0c 55 f9 3d
       -0.13268137 -0.1383253 -0.10239944 0.121744245
000250 00 d1 be 3d 40 6e 91 bc 7a 66 3f 3e 3f 65 9f bd
       0.09317207 -0.017752767 0.18691435 -0.07782983
000260 30 f5 d5 3d b4 ce 10 be 34 ad 2b be 59 d3 0c 3e
       0.104471564 -0.14141351 -0.1676529 0.13752498
000270 5a 86 45 be 28 d4 29 3e 2e d1 19 be b8 32 3c be
       -0.19289532 0.16584837 -0.15021202 -0.18378723
000280 69 14 1f be f7 14 37 3e ef c2 49 be 62 37 b6 bd
       -0.1553513 0.17879091 -0.19703268 -0.08897282
000290 b6 0c fb 3d 2e 17 9c bd 74 89 2c bd ef 0c 8e bc
       0.12258284 -0.07621609 -0.042123273 -0.017340152
0002a0 98 ed af bd c8 0e 17 3e 69 ae 0f 3d 01 10 24 3d
       -0.08590239 0.14751732 0.03507844 0.040054325
0002b0 03 e2 7a bd eb d7 bd 3c 75 60 3e bd 39 8c 4d 3d
       -0.061250698 0.023174247 -0.046478707 0.050182555
0002c0 09 7f 10 bc 00 35 07 3d d0 0b 04 3d bc 9d 81 bc
       -0.00881935 0.03300953 0.032237828 -0.015822284
0002d0 ab 59 d8 3d 34 3f fd 3d 19 dc 89 bc d2 bc 73 3d
       0.10563978 0.12365571 -0.016828584 0.059506245
0002e0 03 63 49 be 64 c2 2b be 6a a9 41 be d4 0c 07 be
       -0.19666676 -0.16773373 -0.18912283 -0.13188487
0002f0 a1 d3 36 be 6e b7 fb bd bb 5d ee 3d f7 f2 2c be
       -0.17854168 -0.12290846 0.116389714 -0.16889559
000300 9c 10 3f be b7 75 0e bd e6 7c 62 ba 70 97 3d 3e
       -0.1865868 -0.03478023 -0.0008639827 0.185148
000310 eb cc 89 3c df b2 32 bd 7e ce a9 bd e1 0f aa 3d
       0.016821345 -0.043627616 -0.082913384 0.0830381
000320 f0 9c 2d be e2 3b 06 be 00 60 fd bd 43 7d 24 3e
       -0.16954398 -0.13108781 -0.12371826 0.16063409
000330 f9 a8 d0 bd 81 db 71 3c 03 3d 30 be 81 be c3 3d
       -0.10188479 0.0147618065 -0.17210774 0.0955782
000340 1d 05 83 bd a2 b9 08 be af 59 c8 3c 5c fa 48 bd
       -0.0639746 -0.13352063 0.024456827 -0.049066886
000350 ab 74 50 bd 91 d8 da 3d 12 2f 42 3e 95 0c ca 3c
       -0.050892513 0.10685838 0.18963268 0.024664203
000360 d6 6e d9 bd 14 09 dc 3d ab 73 c8 3c b9 da 3e be
       -0.106168434 0.10743919 0.024469217 -0.18638124
000370 1a 25 ae 3d d1 04 0c be 8f 86 9f bd da 50 15 3d
       0.0850317 -0.13673712 -0.07789337 0.03645406
000380 d6 3f c4 3d a7 2c 1b 3e 61 e0 13 3e df e1 14 bd
       0.09582488 0.15153752 0.14441063 -0.03634822
000390 23 eb 4b 3e 2c d8 cd bd bd 98 17 3e ec e7 3c 3d
       0.19913916 -0.10050997 0.14804359 0.046119615
0003a0 51 ea 2c be 6b 92 0e 3d fd 6d 7b bd 98 86 38 bd
       -0.1688626 0.034807604 -0.06138419 -0.045050234
0003b0 57 2d 04 bd 23 75 b7 3d ae a9 9d 3d 02 6e 0e 3c
       -0.032269802 0.08957889 0.076983795 0.00869322
0003c0 b5 df a3 3c 26 22 1b bd 70 c3 3f be b6 63 2f 3e
       0.020004133 -0.037874363 -0.18726897 0.1712788
0003d0 7d f1 12 be ba 08 c4 3d 84 b0 44 be f0 fa f1 3d
       -0.14349933 0.09571977 -0.1920796 0.11815441
0003e0 72 30 6f bd e0 23 6a bd 5d 3a 44 be 94 c3 94 bd
       -0.05839581 -0.05716312 -0.19162889 -0.07263866
0003f0 fc 1a b3 bc aa cf e6 bd fe 54 cc 3d 06 31 e0 3d
       -0.021863453 -0.112700775 0.099771485 0.109468505

bias f4 [16]
000000 f4 3d 3e 3e f0 5c f8 bc 74 ec cd bd 70 f1 85 3c
       0.1857832 -0.030317754 -0.100548655 0.016350478
000010 fd 67 5b 3d 9e c2 1e 3e 1c 7e 25 be fd e2 ff bd
       0.053565968 0.15503928 -0.16161388 -0.124944665
000020 17 cd d3 bd 2c 9f 7b bd 5c 23 37 3e 32 f8 fb bb
       -0.10341852 -0.061431095 0.17884582 -0.0076894993
000030 28 8d f0 3d ff 1f 10 be 6a 2f 4d be c0 11 14 3e
       0.117456734 -0.14074706 -0.20037618 0.14459896

weight f4 [16]
000000 fb ff 7f 3f 05 00 80 3f fa ff 7f 3f f3 ff 7f 3f
       0.9999997 1.0000006 0.99999964 0.9999992
000010 00 00 80 3f fd ff 7f 3f 03 00 80 3f f6 ff 7f 3f
       1.0 0.9999998 1.0000004 0.9999994
000020 fe ff 7f 3f f5 ff 7f 3f 03 00 80 3f 0a 00 80 3f
       0.9999999 0.99999934 1.0000004 1.0000012
000030 fd ff 7f 3f 0a 00 80 3f 05 00 80 3f 0a 00 80 3f
       0.9999998 1.0000012 1.0000006 1.0000012

bias f4 [16]
000000 28 ca ce b4 bf 18 b4 34 b0 5c 00 b5 89 21 23 b5
       -3.8517578e-07 3.3545618e-07 -4.7818594e-07 -6.077103e-07
000010 b7 ae 84 33 47 e8 ec b4 26 10 f9 34 e0 66 02 b5
       6.1785094e-08 -4.412743e-07 4.6391614e-07 -4.8578477e-07
000020 94 5d 82 34 96 46 14 b4 2a 8a 53 b5 ba f3 15 35
       2.4282474e-07 -1.3809253e-07 -7.880468e-07 5.5861494e-07
000030 61 39 1c b5 72 7f 5e 35 d7 5c 2e 31 d4 c0 5e 35
       -5.8198026e-07 8.28869e-07 2.5373106e-09 8.2982046e-07

running_mean f4 [16]
000000 20 56 f7 bc 7d d7 0c 3e 5a d1 35 3e 9d 66 1a be
       -0.030192435 0.13754077 0.17755643 -0.15078206
000010 0c 2f 03 3f 10 a2 ae 3e bd 81 ef be e7 bb 19 be
       0.5124366 0.3410802 -0.4677867 -0.15013085
000020 f7 97 3d be c2 24 7e 3e f9 b2 bd bd 3b 93 50 3d
       -0.18515001 0.2481871 -0.09262652 0.05092166
000030 11 2a ae 3d e0 14 39 bd 91 09 ed bd d5 65 89 3d
       0.08504117 -0.045185924 -0.1157409 0.06708876

running_var f4 [16]
000000 1c e4 d3 3e b5 dc 13 3f e5 5a e7 3e ca 79 ee 3e
       0.4138497 0.5775865 0.45186535 0.46577293
000010 29 06 ca 3e 2d 03 46 3f d8 f3 07 3f c7 58 d8 3e
       0.39457825 0.77348596 0.5310645 0.42255232
000020 0c 55 f2 3e 35 50 bb 3e 7c fb c8 3e 8e 5f d1 3e
       0.4733051 0.3658463 0.39254367 0.40893215
000030 60 bd e2 3e 7b f4 c5 3e db 2a bc 3e 94 dd f2 3e
       0.44285107 0.38663086 0.36751446 0.47434676

weight f4 [16, 16, 3]
000000 56 90 32 3d 41 c8 b2 3d a4 05 ad 3d 20 5a 73 bd
       0.04359468 0.08729602 0.084483415 -0.05941212
000010 e3 93 c7 3b b4 13 47 bd 88 58 5b 3c 54 86 24 bd
       0.0060906275 -0.048602775 0.013387807 -0.040167168
000020 d1 75 87 3d 30 a6 8d bd f4 79 a1 3c 02 83 06 be
       0.066142686 -0.069164634 0.019711472 -0.13135913
000030 67 7a e2 bd 05 95 c9 3d 9d 8a bf bd e7 f5 3b bd
       -0.11058503 0.09842876 -0.0935261 -0.045888808
000040 7b 6b e3 bd 9d 8f 71 3d 9b 22 b2 3d d1 87 0a be
       -0.11104485 0.05897485 0.08698007 -0.13528372
000050 1c d3 05 3e cc 25 d8 bc f5 8b 02 bd 47 a4 a5 3c
       0.13068813 -0.02638521 -0.031871755 0.020219935
000060 b3 30 11 be a6 c6 6a bd 8f 06 8b 3c e1 23 91 3d
       -0.14178734 -0.057318352 0.0169709 0.070869215
000070 66 43 eb 3d 69 db 30 bc a1 7a 09 be 38 b9 c7 3c
       0.114874646 -0.010794499 -0.13425685 0.024380311
000080 b5 c7 f8 bd 30 4f 07 3e 3c ae ae 3d b4 7e 9d bd
       -0.12147466 0.13213801 0.08529326 -0.07690182
000090 ff e5 a4 3d 10 8e 10 3d f0 c5 86 bd e7 44 66 3d
       0.08051681 0.03529173 -0.06580722 0.056218054
0000a0 f8 43 9a bd c8 c9 2c bd 25 10 83 bd 79 13 2b 3d
       -0.07532495 -0.04218462 -0.06399564 0.041766617
0000b0 64 8a b9 3d 8c 1b a0 bd 65 53 50 bc b7 65 25 39
       0.09059599 -0.07817754 -0.012715195 0.00015773518
0000c0 ff 5a c1 bd 86 40 fd bd 00 06 bd bb 14 d6 c7 3d
       -0.09441184 -0.123658225 -0.0057685375 0.09757629
0000d0 8c bd 18 3d c0 7c b5 3d 4b cf b7 bd d6 85 af bb
       0.03729014 0.08861685 -0.08975085 -0.0053565307
0000e0 f8 d8 da 3c 50 2b e3 bd 61 36 4d bd b3 c3 0b be
       0.026714787 -0.110922456 -0.050100688 -0.13648872
0000f0 d4 69 31 3d 0b 7f 92 3d dd 0c fc bd 5d 9c d4 bd
       0.043313816 0.07153138 -0.12307141 -0.103813864
000100 dc c5 e7 bc 77 87 de bd 78 04 0b 3e a1 8c cc bd
       -0.028292589 -0.108656816 0.13575923 -0.0998776
000110 04 56 b4 bd 16 c1 09 be 15 f9 06 be f1 47 f6 3d
       -0.08805469 -0.13452563 -0.13180955 0.120254405
000120 c9 54 02 3e 4c a6 71 3d 4b bf 34 3d a7 c9 8a bd
       0.12727655 0.058996484 0.044127744 -0.067767434
000130 b2 d4 ba 3d dd 81 3d 3d fa 35 f3 3d 5e 8f 25 3c
       0.091226 0.046266425 0.118755296 0.010104982
000140 64 97 bb 3d 2e 9e 1b 3b 66 5f 13 bd c4 e2 09 3e
       0.09159735 0.0023745405 -0.03597965 0.1346541
000150 13 6f 36 bd cf de 66 bd 4d 5b 93 bc 2b 17 d6 3d
       -0.044539522 -0.05636483 -0.017987872 0.10453638
000160 2f e5 69 3c 38 8f e4 3c fc 59 d6 3d c7 7c 0e 3e
       0.014275833 0.027900323 0.10466382 0.13914786
000170 dd ff 82 3d 97 ae 82 bd ee 27 a8 3d 0d bc 8c 3d
       0.06396458 -0.063809566 0.08210741 0.06871805
000180 94 d6 d4 3d 6d e4 f9 bd e0 97 d0 3d f1 85 9a 3c
       0.1039249 -0.12201772 0.10185218 0.018862696
000190 ea 18 d3 3b eb a2 8b bd 6f 65 e2 bc ae e3 11 be
       0.006442179 -0.068181835 -0.027636258 -0.14247009
0001a0 9c b4 56 bd f9 fa 1f bd 2f da 05 3e fd 32 e7 bd
       -0.052418336 -0.039057706 0.13071512 -0.11289022
0001b0 e4 85 6d 3d 6c ca df 3c 9e b7 0c 3e 44 e0 fd 3d
       0.057989016 0.027318202 0.1374192 0.12396291
0001c0 e7 50 2a bc 98 f1 7b 3d 3f 9b 4a bb f4 ef d4 3d
       -0.010395265 0.0615097 -0.0030915288 0.1039733
0001d0 d0 7b 9e bc 27 2f 94 bd ee 67 12 bd 96 6d 94 bd
       -0.019346148 -0.07235556 -0.035743646 -0.07247464
0001e0 80 2c e8 3b ff eb 5c bd 11 6e 0a 3e d0 c7 95 3c
       0.007085383 -0.053936 0.1351855 0.018283755
0001f0 aa 94 08 be f3 80 c6 3b cc 35 24 3c 66 7f d2 bd
       -0.13337961 0.0060578524 0.010022592 -0.102782056
000200 4e bf 8b 3c 81 28 ac 3b 13 b5 25 bd 7e f5 fc bd
       0.017058995 0.005253852 -0.04045589 -0.123515114
000210 95 91 71 bd 1b d2 03 3d 32 3c ce 3c a5 bc 02 3e
       -0.05897673 0.032182794 0.025175188 0.12767275
000220 91 89 d3 bd fa f6 7e bd 45 95 ad bd 1d b1 cd 3d
       -0.10328973 -0.062247254 -0.084757365 0.10043547
000230 f3 db 40 bd 47 d0 ee bd fc 05 0a be 52 28 8e 3d
       -0.04708476 -0.116608195 -0.13478845 0.06941284
000240 29 fe ff bd a2 cb 92 3d cb 4d 9a bd 6f b3 0c 3e
       -0.12499649 0.07167746 -0.07534369 0.13740323
000250 84 2a e6 bd 2d e0 0c 3e c2 db 80 bd 47 be f0 bd
       -0.11238578 0.13757391 -0.062919155 -0.117550425
000260 51 31 42 3d a5 bf 79 bd 8c d4 1e bd 7f 69 da bd
       0.047410313 -0.060973782 -0.03877692 -0.10664653
000270 2a b7 47 bd 02 b8 02 3e e8 59 6d 3d 88 04 a0 bd
       -0.048758663 0.12765506 0.05794707 -0.07813364
000280 e0 c5 cb 3c 3d 28 7f bc 6c 51 ea bd 6a c7 88 3d
       0.024874628 -0.015573558 -0.11441311 0.0667866
000290 74 cd d2 3d 14 62 d7 bd a8 9b 0c 3e 28 81 dc 3d
       0.10293093 -0.10516754 0.13731253 0.10766822
0002a0 52 d7 ca bd ba c9 0c be 4d ce 89 3c 0e 68 ce 3d
       -0.0990435 -0.13748828 0.016822005 0.100784406
0002b0 d0 1a d6 3d 83 3b e8 bc 23 0d 6d 3b f7 86 d1 3d
       0.10454333 -0.02834869 0.003617116 0.102308206
0002c0 df 0a be 3d 29 ee 02 3e 2c e9 3f bd bc 26 d2 bd
       0.09279417 0.12786163 -0.04685323 -0.10261294
0002d0 4a 0b 76 3d b1 75 af 3d e1 e1 e5 bc ce 7b a1 3d
       0.06006936 0.0856737 -0.028061809 0.07884942
0002e0 d4 38 04 be 41 24 1b 3b 88 0f fb bd 5f 50 25 bd
       -0.12912303 0.0023672732 -0.12258822 -0.04035985
0002f0 63 19 e7 3d 43 98 c8 bd 40 80 37 bd 24 ac 10 3e
       0.11284139 -0.097946666 -0.044800043 0.14128166
000300 b4 ea b8 bd b5 68 d1 bd 31 37 a6 ba ff de 41 bc
       -0.09029141 -0.102250494 -0.0012681243 -0.011832952
000310 30 23 8f 3d 38 ca 31 3d f2 45 7b bd 90 b8 a4 bd
       0.06989133 0.04340574 -0.061346002 -0.08043015
000320 1a 26 02 be 9d b2 55 3d ca ec b6 bd fb cb b6 bd
       -0.12709847 0.052172292 -0.08931883 -0.08925625
000330 52 1a ae bd 85 46 fc bd e2 ba 14 3d 5f ca 3b bc
       -0.08501114 -0.12318138 0.036311038 -0.011461823
000340 b4 4b 06 3e a7 ee 8e 3b 4d 58 bd 3c cb 3f 46 3d
       0.13114816 0.0043619457 0.023113394 0.04840068
000350 e8 65 ab 3c bc 5c 78 3d 29 0a e8 bd 1e f1 0b bd
       0.020922616 0.060635313 -0.11330063 -0.034165494
000360 bf c8 d3 3d 05 b9 58 3d 45 26 de bb a6 0a 20 3d
       0.10341024 0.052910823 -0.0067794644 0.039072655
000370 bf 2f 08 3e f4 c4 8f 3d 61 50 1a bd 65 bf 21 bd
       0.13299464 0.07019988 -0.03767431 -0.03948917
000380 d0 ca 13 be 6d c6 dd bc 86 df 03 3e 8a e4 5a bd
       -0.14432836 -0.027072156 0.12878236 -0.053440608
000390 c7 ee 93 3d 66 47 72 3d 18 01 09 be 9c d0 1d bd
       0.072232775 0.059150122 -0.13379323 -0.038529024
0003a0 90 f0 0b bc b5 a8 ef 3d 67 0c e1 3d bc 55 f7 bd
       -0.008541241 0.117021 0.10988694 -0.120768994
0003b0 83 44 f3 bd b9 8a a1 bd ca b3 8c 3d d1 55 98 3d
       -0.11878302 -0.07887787 0.068702295 0.07438243
0003c0 57 d1 9f 3d 9a 5f 78 bb 52 97 b5 3d bf af b1 bd
       0.078036 -0.003789878 0.08866753 -0.08676099
0003d0 50 bc 3a bd c1 09 32 bd 46 d9 a2 ba b1 8a 29 3d
       -0.045589745 -0.043466333 -0.0012424372 0.041392032
0003e0 0a 63 07 3e 80 5c 05 3d 78 65 be 3d f7 16 bf bd
       0.13221374 0.032558918 0.092966974 -0.09330552
0003f0 71 38 08 be 28 b2 df 3d 17 86 10 be 51 ce ca bd
       -0.1330278 0.109226525 -0.14113651 -0.09902633

bias f4 [16]
000000 e8 57 93 bc fa e6 d3 3d 28 63 70 3d 0d 49 9b 3b
       -0.017986253 0.1034679 0.058688313 0.004738933
000010 b9 e7 f2 bc 24 56 63 bc 78 f6 6f 3d 38 bf f6 3c
       -0.02965151 -0.013875518 0.05858466 0.030120477
000020 30 f6 8c bd cc 03 8e 3d 2f b3 6f bc e6 9a 00 3e
       -0.06882894 0.06934318 -0.014630123 0.12559089
000030 a8 f9 49 3d 9c aa 36 bd c8 17 dd 3d c0 9a 47 bc
       0.049310356 -0.0445963 0.107955515 -0.012182891

weight f4 [16]
000000 01 00 80 3f ee ff 7f 3f 0a 00 80 3f f5 ff 7f 3f
       1.0000001 0.9999989 1.0000012 0.99999934
000010 f8 ff 7f 3f 08 00 80 3f fb ff 7f 3f 08 00 80 3f
       0.9999995 1.000001 0.9999997 1.000001
000020 f5 ff 7f 3f 09 00 80 3f 00 00 80 3f 01 00 80 3f
       0.99999934 1.0000011 1.0 1.0000001
000030 06 00 80 3f 00 00 80 3f fc ff 7f 3f fb ff 7f 3f
       1.0000007 1.0 0.99999976 0.9999997

bias f4 [16]
000000 dc 35 2c 34 61 7d 21 b5 f5 0a 6e 35 2a 75 36 b4
       1.6038342e-07 -6.0159624e-07 8.8677854e-07 -1.6992695e-07
000010 87 db 0a b5 f7 6b 7d 35 a8 dd 78 b4 a5 5e 19 35
       -5.172846e-07 9.4406954e-07 -2.3177438e-07 5.713467e-07
000020 32 6d 1c b5 23 a3 56 35 3b c7 55 b4 72 a0 5a 34
       -5.827343e-07 7.995861e-07 -1.990965e-07 2.0361202e-07
000030 d5 df e8 34 a1 7f f0 34 59 bf 9a b4 d4 ad e7 b4
       4.3376227e-07 4.4796346e-07 -2.882396e-07 -4.315358e-07

running_mean f4 [16]
000000 ae f5 17 bc 82 fc 39 3e 37 77 5b bd 9b 4b ae 3d
       -0.009274883 0.1816273 -0.05358049 0.08510514
000010 0c 58 48 bd 24 eb 17 3d f6 92 90 bd 21 69 e9 3d
       -0.048912093 0.037089482 -0.070592806 0.11397005
000020 22 03 dc 3d 1e 95 35 bd 39 70 01 be 44 03 98 bd
       0.10742785 -0.044331662 -0.12640466 -0.07422498
000030 d4 99 b7 bd e7 8b 2a 3c ce 46 d0 3c 23 5f 20 3d
       -0.08964887 0.010409332 0.025424387 0.03915323

running_var f4 [16]
000000 72 c0 c9 3e 60 54 b5 3e 9f 59 d7 3e df 68 c3 3e
       0.39404637 0.35415936 0.42060563 0.38165948
000010 bd 8c be 3e c9 0d c1 3e 5c 6d c7 3e 12 35 bd 3e
       0.3721675 0.3770583 0.38950622 0.36954552
000020 c8 44 c0 3e 9b 87 b8 3e 3a 9a bb 3e 46 c4 04 3f
       0.37552476 0.3604096 0.36641103 0.5186199
000030 8f fe d2 3e c2 2f d1 3e 22 e6 c7 3e d1 55 c5 3e
       0.41209838 0.4085675 0.39042765 0.38542035

weight f4 [16, 8, 1]
000000 e8 cf 93 bd 42 fb 22 3d 5d 59 9d be 3f 54 7f be
       -0.07217389 0.0397904 -0.3073224 -0.24934481
000010 b7 0d 96 be d0 d7 2c 3e ee f2 a6 bc 81 31 97 be
       -0.2930734 0.16879201 -0.02037951 -0.29529956
000020 99 6b 4f be 61 72 af 3d 18 0f 48 be 82 a5 a0 bb
       -0.20255889 0.08566738 -0.19537008 -0.0049025426
000030 f8 29 1d 3e dd 8a d8 bd 0c 8b 6a 3d ae 40 ad be
       0.15348041 -0.10573361 0.05726151 -0.3383841
000040 98 bf 9e be f3 a9 aa 3e 60 dc 8c 3d 05 ef a0 3e
       -0.3100555 0.33332786 0.06877971 0.31432357
000050 35 4a ab 3d dc 61 b2 3d 95 1f 10 bd 37 97 b9 3d
       0.08363763 0.087100714 -0.03518637 0.09062045
000060 d1 0e 66 3e df b2 75 3e ea 44 f4 3d d3 14 67 bc
       0.2246659 0.23994015 0.11927207 -0.014104086
000070 2f ff 76 be 6b 77 13 be ee 10 94 be 24 a5 84 bc
       -0.24120782 -0.14401023 -0.28919166 -0.016192026
000080 9b a2 59 be 0d 74 8e be 3d 36 23 be 3b 18 0f be
       -0.21253435 -0.27822915 -0.15938659 -0.13974087
000090 94 10 5a 3e 2a ae 54 be 8a fe 13 be 87 13 8e be
       0.21295387 -0.20769563 -0.14452568 -0.27749273
0000a0 0f d1 6e 3e 88 8e aa be 05 87 0f be ca bf 12 3c
       0.23321937 -0.33311868 -0.1401635 0.008956859
0000b0 ac d3 41 be 62 25 9b be 67 02 20 3e 55 97 95 3e
       -0.18928403 -0.30301958 0.15625916 0.2921702
0000c0 21 d5 f7 bd 0e 79 22 bd 05 13 5e 3e d2 be aa be
       -0.12101198 -0.039666228 0.21686943 -0.3334871
0000d0 06 d3 1d bd 8a a0 12 3e f5 42 f5 bd e2 f9 40 be
       -0.038531326 0.14319053 -0.11975662 -0.18845323
0000e0 f7 87 93 bc 14 46 1a 3e 20 27 53 3c 6b 8d 71 3e
       -0.018009169 0.15065795 0.012887746 0.23589103
0000f0 eb 2f 58 be f0 cd 50 bc c8 de 93 bd a9 bc 8e bd
       -0.21112029 -0.012744412 -0.072202265 -0.06969578
000100 e3 65 41 3d b4 cb 18 be 66 96 8b bd 49 ef 7a bc
       0.047216307 -0.14921457 -0.068157956 -0.015315839
000110 59 cb 52 be 21 29 a0 be 49 0d 25 3d 6a cd 6e be
       -0.20585383 -0.3128138 0.040295873 -0.23320547
000120 fa 1e 9f 3d ef 87 8d bd 5c 86 05 3e 76 29 5c 3e
       0.0776958 -0.06910693 0.13039535 0.21500191
000130 58 c6 70 3e 11 b4 b4 be 05 66 4e 3d ab 43 5f 3e
       0.23513162 -0.3529363 0.050390262 0.21803157
000140 c1 0d f0 3d 7d d3 79 be 3e 45 2f be dc 74 c0 bd
       0.11721373 -0.24397083 -0.17116258 -0.09397289
000150 5b fc 18 3e 1a 22 05 3e 10 f4 4f be 06 13 ce bb
       0.14940016 0.1300129 -0.20307946 -0.006288889
000160 fc 24 db bd 3d a3 87 bd 6d 88 8f bd 5a 76 2a 3c
       -0.107004136 -0.06622932 -0.07008443 0.010404194
000170 1c cd 40 be 70 db 0a 3d 6b a6 f9 3c dd 2a 25 3e
       -0.18828243 0.03390068 0.030474862 0.16129632
000180 18 3c e0 3d 06 0d 8e 3e e8 1e af 3e 7d 16 93 be
       0.10948962 0.2774431 0.34203267 -0.28728095
000190 ff 37 a0 be 9b b2 8f 3e fa 7e 86 be af 6a d4 3d
       -0.31292722 0.28065953 -0.2626875 0.10371911
0001a0 d6 0c 0f 3e ff 7e 26 3e 4d c3 a6 be dc f0 88 be
       0.1396974 0.16259383 -0.32570878 -0.2674626
0001b0 74 1f b9 bd e8 1c 1d be 5d f4 ab be 4f 32 ad be
       -0.09039202 -0.15343058 -0.33584872 -0.33827445
0001c0 91 6b 23 bd 51 9f 80 3e 42 0a c1 bd ce bb 53 3e
       -0.039897505 0.2512155 -0.09425785 0.2067711
0001d0 af 6d 4f 3e b2 c9 4a 3e 10 70 8a be 4e a5 17 3e
       0.20256685 0.19803503 -0.27038622 0.14809152
0001e0 37 dc b9 bd 91 01 d2 3c ae c4 26 be 34 b0 05 3e
       -0.09075206 0.025635513 -0.16285965 0.13055497
0001f0 e7 a4 15 be 0e ae a2 3e 03 7c 8d 3e 3b cd a7 be
       -0.14613687 0.31773418 0.27633676 -0.32773766

bias f4 [16]
000000 30 c7 de 3c b0 57 9b bd d2 aa 71 3e d6 23 6f be
       0.02719459 -0.075850844 0.23600319 -0.23353514
000010 60 41 8e be b0 8d 93 3d cd a8 89 3e bb 3e aa 3e
       -0.27784252 0.07204759 0.26886597 0.33250985
000020 aa b7 fa bd 00 f4 67 bd 64 34 94 be a8 b3 7f 3d
       -0.122420624 -0.05662918 -0.2894622 0.062427193
000030 f0 6f ad be 85 4f ad be 6c 3f 0c 3e c2 d1 21 3e
       -0.33874464 -0.3384973 0.13696069 0.15802673

weight f4 [16]
000000 0a 00 80 3f fa ff 7f 3f 01 00 80 3f f5 ff 7f 3f
       1.0000012 0.99999964 1.0000001 0.99999934
000010 fb ff 7f 3f 0a 00 80 3f 01 00 80 3f 06 00 80 3f
       0.9999997 1.0000012 1.0000001 1.0000007
000020 f4 ff 7f 3f f8 ff 7f 3f 07 00 80 3f f5 ff 7f 3f
       0.9999993 0.9999995 1.0000008 0.99999934
000030 0a 00 80 3f 09 00 80 3f 01 00 80 3f 01 00 80 3f
       1.0000012 1.0000011 1.0000001 1.0000001

bias f4 [16]
000000 57 a3 7a 35 a6 b8 67 b5 d2 89 17 35 7e cb 19 b5
       9.336995e-07 -8.6322905e-07 5.645244e-07 -5.729306e-07
000010 da 56 49 b5 ad 47 62 35 09 14 98 b4 1d dd 0e 35
       -7.500472e-07 8.429586e-07 -2.8326784e-07 5.3220884e-07
000020 97 de 7e b5 3e 44 5d 35 2c 48 50 35 f7 52 7c b4
       -9.4946284e-07 8.242822e-07 7.759106e-07 -2.3499511e-07
000030 d7 2c 2e 35 54 24 8b 34 79 92 d1 b3 45 a7 43 b5
       6.48853e-07 2.59172e-07 -9.758964e-08 -7.288657e-07

running_mean f4 [16]
000000 f9 8a 02 bf b2 e9 b6 be b3 fa ec 3e ca 2e d6 bd
       -0.50993305 -0.3572517 0.46285018 -0.10458143
000010 e2 85 67 bf 9f 67 54 3d 9e 16 3a be 88 cc 9a 3e
       -0.90438664 0.051856633 -0.1817269 0.3023417
000020 4f 10 dd be 49 b4 90 3e da 27 ef be 88 4f 04 bd
       -0.43176505 0.28262547 -0.46710092 -0.03230241
000030 89 c3 d4 bd 42 3d 4f bf 28 9b a4 3e 65 55 d6 3d
       -0.10388858 -0.80952847 0.32149625 0.104655065

running_var f4 [16]
000000 4c f8 d2 3e bf ee 1f 3f 74 7e be 3e 9f 12 bd 3e
       0.4120506 0.6247367 0.3720585 0.3692827
000010 f9 88 e5 3e 31 41 c5 3e b8 c0 09 3f 10 45 c2 3e
       0.44831064 0.385263 0.5380969 0.37943316
000020 77 fc f9 3e 0b f3 c5 3e 80 53 c6 3e e7 48 db 3e
       0.48825428 0.3866199 0.3873558 0.42829058
000030 58 74 3c 3f 5d 2b 10 3f f9 74 be 3e 7e 15 03 3f
       0.73615026 0.5631617 0.37198618 0.5120467

weight f4 [16, 16, 3]
000000 00 23 04 3e 92 a2 84 bd 80 b8 fe bb cc a6 30 bd
       0.12903976 -0.0647632 -0.007773459 -0.04312782
000010 cf 75 0b bd 0a c5 81 3d 9c cf 96 3d 85 c4 d5 bb
       -0.034047898 0.0633641 0.07363817 -0.006523671
000020 48 d8 71 3d 2e 6f cf 3d 7b ed b7 3d 3b 8a 13 3e
       0.059044152 0.10128628 0.08980843 0.144082
000030 44 27 8f 3d 24 96 1b bd 23 a5 54 bd f6 2b 0a be
       0.06989911 -0.037984982 -0.0519153 -0.13493332
000040 c3 69 10 3d f8 7a 0a be 1c 27 d6 3d 64 f0 ac 3c
       0.035257112 -0.13523471 0.10456678 0.021110721
000050 e9 4d 78 3d e5 13 03 be 4c 81 01 bd 40 f7 b6 bd
       0.060621176 -0.12800558 -0.031617448 -0.08933878
000060 98 18 a9 bd ef fd d8 bc 7c 64 80 3d 33 b9 10 be
       -0.08256644 -0.026488272 0.06269166 -0.14133148
000070 56 41 5a bd 42 95 78 3c de 3e 42 bd f4 ec 51 3d
       -0.053284965 0.015172305 -0.047423236 0.051251367
000080 a4 b4 fa bd bc d0 68 3d 71 62 22 3d 8b 7d d8 bd
       -0.12241486 0.05683969 0.039644662 -0.105708204
000090 b5 6c 02 be a9 f5 80 bd ee 59 fe 3d f4 7f a3 bd
       -0.12736781 -0.06296856 0.124194965 -0.079833895
0000a0 6f 6f f7 3d 32 53 83 bd 08 d9 33 3d 3e d2 d1 3d
       0.12081801 -0.064123526 0.04390815 0.10245179
0000b0 25 6f bf bd 9c 98 41 bd 47 0b 0c be ec 11 79 3d
       -0.09347371 -0.04726468 -0.13676177 0.060808107
0000c0 bc a0 ff 3d 31 ce e3 bd cb c4 ff bd 16 8b ac bd
       0.124818295 -0.11123312 -0.12488707 -0.08424966
0000d0 78 a8 70 3d 78 5c 80 3d 43 fb a2 bd 60 51 a2 3d
       0.058754414 0.06267637 -0.079580806 0.07925677
0000e0 1b cb 08 bd d0 8a a4 3d 9a 18 c6 3d fa 47 d3 bc
       -0.03339682 0.08034289 0.09672661 -0.025791157
0000f0 f4 cf 87 3d 88 6b d9 bd ce 76 0a 3e 84 87 f3 bc
       0.06631461 -0.10616213 0.13521883 -0.029727705
000100 ad c4 04 bb 49 2a e6 bd 4e 92 d5 3d a0 ca 7c 3d
       -0.002025883 -0.11238534 0.10428296 0.061716676
000110 eb 6a af bd 96 b5 a6 3d 56 50 7d bc 44 e6 a1 bd
       -0.08565315 0.081401035 -0.015461048 -0.07905248
000120 20 c9 02 3c 44 cc 65 3d 44 d0 e6 bd 68 05 61 3d
       0.007982522 0.056103006 -0.11270192 0.054936796
000130 03 21 99 bd 95 97 01 bd 44 12 38 bd 41 33 e9 bd
       -0.074769996 -0.0316387 -0.044939294 -0.11386729
000140 31 2c 00 3d d8 7f ab 3d b5 31 c5 3d 3e 17 3f 3c
       0.031292144 0.08373994 0.096286215 0.011663256
000150 74 41 ba bd 6c 8f 02 3e 0f 86 8b 3d 20 7a 01 3e
       -0.090945154 0.12750024 0.06812679 0.12644243
000160 81 fe 8c 3c 2a 84 74 3d c2 19 bf bd 41 dc d4 bd
       0.0172112 0.059696354 -0.09331085 -0.103935726
000170 c3 a5 cd 3c a0 73 93 bb 78 a0 4b bd aa f3 9a bd
       0.025103455 -0.0044998676 -0.04971358 -0.075660065
000180 94 1f fe 3d 50 a4 df bd 79 48 03 be de 8b 85 bd
       0.12408367 -0.10920012 -0.12820615 -0.06520818
000190 ef 3c a2 bd c0 eb c6 bc ac 49 f2 3d 3e 6d 6a bd
       -0.079217784 -0.024282336 0.11830458 -0.057233088
0001a0 f7 16 f5 3c f8 50 db 3d 38 d8 48 3d ec 40 46 3d
       0.029918177 0.10708803 0.049034327 0.048401758
0001b0 00 d9 42 ba c3 79 c3 3d 32 b9 ba 3d d5 78 9e bd
       -0.0007432848 0.095447086 0.091173545 -0.07737891
0001c0 d3 30 60 3d 58 f1 fd bc 30 46 ca bc 1b 17 2c bc
       0.054734062 -0.03099887 -0.024691671 -0.010503556
0001d0 35 d4 72 bd 4f 82 a5 bd 9e b5 06 bd a3 41 20 bc
       -0.059284408 -0.08081495 -0.032888047 -0.009781274
0001e0 f8 ee db 3c af e7 b6 bc 98 b0 b4 3c 48 66 77 3d
       0.026847348 -0.022327272 0.022056863 0.060400277
0001f0 6e 7c 02 be 2f bb af bd 04 f3 a3 bc 1b c2 dc bd
       -0.12742779 -0.08580624 -0.02001334 -0.1077921
000200 74 c0 e7 bd 7c 4f e3 3d f5 d3 da 3d 43 a7 11 3e
       -0.113160044 0.11099145 0.10684959 0.14223962
000210 d4 a6 14 3d d5 21 2a bc c4 b5 7c 3d ab a2 80 bd
       0.036291912 -0.010384043 0.061696783 -0.062810265
000220 b3 8d 5d bc 1e 28 9a bd 08 eb 01 3e 88 c8 72 3c
       -0.013522553 -0.07527183 0.12687314 0.014818318
000230 b5 2f 8a 3b c0 cb 09 3b 60 cc 10 3e 1a a0 3d 3b
       0.004217113 0.0021025985 0.14140463 0.002893454
000240 12 d1 c4 3d 88 5c f7 3d 0d 2d 00 3e c5 00 f4 bd
       0.096101895 0.12078196 0.12517186 -0.11914209
000250 67 fc 50 bd 4e 7b a4 3d e6 f4 87 3d d4 7d 30 bd
       -0.05102196 0.08031331 0.066385075 -0.04308875
000260 5d c0 8e bd c0 c9 df bc 87 57 2b 3d e1 85 1e bd
       -0.06970284 -0.027317882 0.04183152 -0.038701896
000270 32 34 b1 3d 6c 0e a4 3d 61 53 86 bd 34 f2 eb 3d
       0.086525336 0.08010563 -0.06558872 0.11520806
000280 05 cc cb 3d 2d f3 09 3c 52 8b 47 bd c2 b7 ed 3d
       0.09951023 0.008419794 -0.04871685 0.11607315
000290 be a0 89 3d f6 d4 ae 3d b9 6b a3 bb 53 b5 0f be
       0.06720112 0.08536713 -0.004987207 -0.14034013
0002a0 18 7b 25 bd 91 93 cb bb 37 3c f9 3d 78 e1 85 bc
       -0.040400594 -0.0062126596 0.12169688 -0.016342863
0002b0 4a 28 d3 3d 92 07 2a 3d 62 20 df bd fd d6 99 3d
       0.10310419 0.041511126 -0.108948484 0.07511709
0002c0 e1 6c df bd 04 0b 36 3d 90 86 b7 3d ff 5d bd 3d
       -0.10909439 0.0444441 0.08961213 0.09246444
0002d0 f8 80 f5 3c e0 f7 75 bd 52 a5 30 bc d8 02 a7 3d
       0.029968724 -0.060050845 -0.010781603 0.08154839
0002e0 20 73 b8 bb 43 e8 c8 3d 94 a3 18 3d cc c3 b5 3d
       -0.0056289583 0.098099254 0.037265375 0.08875236
0002f0 62 2e 46 bd ac 03 72 3d 63 6d c7 bc 69 d6 c6 bd
       -0.048384078 0.059085533 -0.024344152 -0.09708864
000300 bc 7c e1 3d 8e 70 dd bd 45 bf bf bd 20 fe 50 bd
       0.11010119 -0.10812484 -0.09362654 -0.051023602
000310 75 d0 3f 3d 34 59 d9 bd 7d d3 9f bd f5 c3 14 bd
       0.04682966 -0.10612717 -0.0780401 -0.03631969
000320 11 4e 6b 3d 58 01 1f 3d 59 31 d9 3d bb 15 df bd
       0.057447497 0.03881964 0.106051154 -0.10892817
000330 00 91 3e bb 4c 90 66 3d 3a 6d fe bc 34 f7 c0 bc
       -0.0029078126 0.056289956 -0.031057943 -0.023555376
000340 6e 52 08 be c5 42 e3 3d 04 36 ca 3d 46 36 cc ba
       -0.13312694 0.1109672 0.09873584 -0.001558014
000350 15 70 88 3d 20 32 28 bc 32 fe 9a bd 7b 1a 5c bd
       0.06662003 -0.010265857 -0.07568015 -0.05373619
000360 ce 94 02 be da e1 96 bd f6 1e 88 bd c4 ad 9f bc
       -0.12752077 -0.073672965 -0.0664653 -0.019492038
000370 8b d3 c0 3d 0c 8b a5 3d e0 fe 48 3d 78 c6 a8 bd
       0.094153486 0.08083162 0.049071193 -0.0824098
000380 56 66 b6 3d 5c d0 f9 bd de a8 f6 bd 00 31 c5 3d
       0.08906238 -0.121979445 -0.120439276 0.09628487
000390 d8 5b f9 bc c4 a0 10 3e 59 c1 fd 3d e5 aa 09 be
       -0.030439302 0.14123827 0.12390394 -0.13444097
0003a0 da 02 75 3c 6c b7 f2 bd 63 2c 8f bd 5e 53 8a 3d
       0.014954293 -0.11851391 -0.06990888 0.06754182
0003b0 82 e3 0c bd fc a7 df 3d 3c c9 0e 3d 04 e8 29 3c
       -0.034396656 0.10920712 0.03485988 0.010370258
0003c0 6c 29 1e 3d 2c aa 1f bd 4a 6e 7d bd 4a c1 ad 3d
       0.03861372 -0.038980648 -0.061872758 0.084841326
0003d0 b3 65 36 3d f2 5f 0a be 04 49 ae bc 51 f8 9c 3d
       0.04453058 -0.13513163 -0.021275051 0.0766455
0003e0 de 34 85 3d d8 cf c2 3c c4 5b 01 be 35 48 70 3d
       0.06504224 0.023780748 -0.12632662 0.058662612
0003f0 9c 8c 94 3d c6 6d e5 3d 67 9a ea bb 80 41 1c bd
       0.072533816 0.11202578 -0.0071595195 -0.038148403

bias f4 [16]
000000 24 45 fe bc a0 f2 ae 3c 38 d9 cc 3c 7d 27 07 bb
       -0.031038828 0.021355927 0.025005922 -0.0020622902
000010 bc e9 9f bd 1a 8e f9 3b cc 93 b7 bd 1c 29 07 3e
       -0.07808253 0.007615817 -0.08963737 0.13199276
000020 b0 f4 04 bc ce 95 90 3d 46 f7 84 bd 7c 13 72 3d
       -0.008114979 0.07059823 -0.06492476 0.059100613
000030 d2 72 b4 bd 54 31 cf 3d c4 3c b5 3d 7b 49 92 bd
       -0.08810963 0.101168305 0.08849481 -0.071429215

weight f4 [16]
000000 f9 ff 7f 3f ff ff 7f 3f 01 00 80 3f 02 00 80 3f
       0.9999996 0.99999994 1.0000001 1.0000002
000010 01 00 80 3f 02 00 80 3f 03 00 80 3f 0a 00 80 3f
       1.0000001 1.0000002 1.0000004 1.0000012
000020 0a 00 80 3f 01 00 80 3f f4 ff 7f 3f fc ff 7f 3f
       1.0000012 1.0000001 0.9999993 0.99999976
000030 f9 ff 7f 3f 01 00 80 3f f3 ff 7f 3f f4 ff 7f 3f
       0.9999996 1.0000001 0.9999992 0.9999993

bias f4 [16]
000000 cf ff 81 b5 da 07 9f b4 ac 5b 37 35 c7 1f 7b 34
       -9.685699e-07 -2.962177e-07 6.830621e-07 2.3387757e-07
000010 db dd 14 34 05 3e 21 34 2a 81 33 34 87 71 f2 33
       1.3864285e-07 1.5016856e-07 1.6717664e-07 1.1289654e-07
000020 fb 5a 45 35 48 43 d7 34 d0 d1 a9 b4 a2 86 cc 32
       7.3520613e-07 4.0095824e-07 -3.1631362e-07 2.380995e-08
000030 93 99 93 b3 2d 7d e9 b4 f9 4c 07 b5 a2 34 cd 34
       -6.873156e-08 -4.349071e-07 -5.040343e-07 3.822252e-07

running_mean f4 [16]
000000 fa 7e f1 bd 50 7d 3d be 44 6e 43 be 6a 34 5e 3e
       -0.11791797 -0.18504834 -0.19085032 0.21699682
000010 81 c3 e2 bd ef e2 d9 3c 66 5a 68 3e dc 38 3e 3c
       -0.11072446 0.026597468 0.22690734 0.011610236
000020 08 87 06 be 79 a6 d9 bc c5 41 ec 3c d2 0a e0 3e
       -0.13137448 -0.026568638 0.028839955 0.43758255
000030 96 f8 aa be 43 3e 27 3e 72 c7 99 be 60 c4 a6 3e
       -0.3339278 0.16332345 -0.30034977 0.32571697

running_var f4 [16]
000000 3f e5 bf 3e 8c f4 ee 3e f7 c5 bb 3e 81 eb cf 3e
       0.37479588 0.4667095 0.36674473 0.40609363
000010 47 84 e8 3e 9f 39 d0 3e 75 ee ea 3e f4 29 01 3f
       0.4541342 0.4066896 0.45885053 0.5045464
000020 f7 b3 d2 3e 6d 3f c0 3e 3a b4 d1 3e 04 9b d8 3e
       0.41152927 0.3754839 0.40957814 0.42305768
000030 39 2e ca 3e 93 dd c4 3e 2d ff 15 3f 87 93 c4 3e
       0.3948839 0.38450298 0.5859249 0.38393804
