DFA-PS/DFA-PS/Experiments/Full-GOP/CSI/backup/best/DecisionModel_CalibrationModule.pt (torch, 433804 bytes, 150 tensors)

weight f4 [7]
00000000: 374b 803f 772b 803f 152f 803f a1ff 7e3f
00000010: ca35 803f e162 803f e945 7e3f
1.0022954 1.0013264 1.0014368 0.9960881 1.0016415 1.0030175 0.99325424

bias f4 [7]
00000000: 2672 8038 e61b f8b7 7722 a5b7 bea9 7bb8
00000010: 56c6 a337 ead1 0d35 8c3c deb7
6.1247774e-05 -2.9576895e-05 -1.9685582e-05 -6.0001148e-05 1.9523472e-05 5.283206e-07 -2.6492657e-05

running_mean f4 [7]
00000000: f4ae a140 1845 a540 a830 9e40 e8b4 904d
00000010: 6281 cc51 eb54 9341 1457 653e
5.0526066 5.1646843 4.9434395 3.0347187e+08 1.09793e+11 18.416464 0.22396499

running_var f4 [7]
00000000: b338 cd42 50f1 d542 e31d c542 fbf3 a25c
00000010: b8af c365 be3d 1a48 8c5e 723e
102.61074 106.97131 98.55837 3.6693764e+17 1.1551286e+23 157942.97 0.2366888

weight f4 [16, 7, 5, 1]
00000000: ae72 da3d 7f68 23be 97b6 5d3d 6d04 a43d
00000010: 3bcf d9bd 39a8 73bd c36c 003c e60f f4bd
00000020: f45e 9bbd 3898 c3bd a698 28bd e53d 29be
00000030: 6f4d 23bd 0bb7 26bd c8e9 083e a5c3 d4bd
00000040: ac62 b2bd 1e4b 2abe cccd f73d b873 06be
00000050: 3e6a 72bd bd47 2cbe 2740 d93d dd66 3dbd
00000060: aadc 4dbd a234 f23d 44ac 22be d3eb d83d
00000070: 86cc ecbc fe26 80bd 9c4f 15be 2311 1a3e
00000080: 634d 6b3d 407f 803d df13 aebd 1ae5 e8bd
00000090: fa53 403d b89f fd3d 49b4 27be c1d8 15be
000000a0: d6ad 49bd a19c b73d 46d6 1b3e 3eb7 083e
000000b0: 836b 5bba 2bc6 d6bc d16b ff3d 7140 b6bd
000000c0: a5dc 103e af80 d2bd 3ee0 30bc 2c88 24be
000000d0: 4d12 f7bd cf6a ecbc 2742 30bd 0fa7 21be
000000e0: 8e52 93bd e949 e2bd 2753 03be 6f91 b9bd
000000f0: 9970 e2bc 5042 13bd 1bae 09be 519b f7bd
00000100: da48 7fbd e03b 8ebd 75cd 4d3d e92e 083e
00000110: 8938 0d3e 7bad 263e f09b 523d 5c95 f73d
00000120: 3141 0a3e 364d 45bd 4962 63bd be2a 1dbd
00000130: 2070 39bc 9501 83bc 0f2b 8ebc 8309 afbd
00000140: 4703 213e 77e0 85bc 919a 213d 45dd 9ebd
00000150: 8e48 5f3d b649 d8bd 10ac 903c c6ef 063e
00000160: 0277 c9bd 23da 2bbe a814 11be 8b88 143e
00000170: 8b03 e83d 7d4e 163d 2d83 1abd 0a1f 2fbe
00000180: 7cc6 db3d 3325 4c3d b93b 833d 128c 13be
00000190: fef4 663c 5e14 11be cd2a ac3d 685d d13d
000001a0: 4bd6 3b3d 2ce6 d3bc 815c 0c3e 0fb0 2a3e
000001b0: 9a94 0ebe 7f1e f1bd 80c0 193e 16aa 243d
000001c0: 694c f5bd cdb7 ed3d 6c93 c8bd bdb1 25be
000001d0: f161 bcbd 49f7 1c3e c146 f63d f0ae e03d
000001e0: 2e37 fbbc ad21 053e 07a8 5abd f66f 4f3d
000001f0: 455a bebd 00a0 27bc 6924 ab3d ded6 c5bd
00000200: 82dd 05be 6097 2b3e 441c 5abc 3eab d03b
00000210: efbc 09be d191 853d a184 61bd bf49 34bd
00000220: f045 3b3d 07c6 1cbc e8f2 02be d585 213e
00000230: 826c 25be c617 31bd 10da 273e e266 ef3d
00000240: 27cd 04be b63b 2dbe f77a 42bd c944 d5bd
00000250: 1e5b 20be 1654 913d 0d0b f03d 08b2 11bd
00000260: c20a 0c3e 370d a8bd 6133 00be a97a 5e3d
00000270: ce37 b4bd 9893 3f3d 3c04 5f3d f8c1 0e3e
00000280: 68d4 c03c 0193 153e e023 2c3e 8c37 183e
00000290: 813b 1fbe d723 08be 08db adbb d657 ef3c
000002a0: 4453 debc 4d99 b4bd a5f3 7b3d aa90 293c
000002b0: fc98 4dbd 61cd 243e 1e0b 10be 765b b93a
000002c0: e4cb 803d 546a dabc 7072 1c3e 450b 66bc
000002d0: c7ed bbbc b565 0bbe b601 273e d676 693d
000002e0: 92f4 263e 9938 f4bc 915f 9cbc 5f3e 1cbe
000002f0: b5ae 0f3e 0af1 b1bd 7ea9 493c 3552 263e
00000300: 0313 23be 6bc4 133e dd70 09bd 8b44 d8bd
00000310: 5a30 21be fb8e cc3d 668e 6ebd 93ae 90bd
00000320: dbe4 153e 20f2 103e 5c1b cb3d 267e cfbd
00000330: 9c27 7cbc 9ea2 68bd 228b 593d 08c5 19bd
00000340: ad15 95bd 0e0c d4bd 3231 173e 8fd7 8f3c
00000350: a9bf 293e cbbf 9cbd 91a5 89bd 2e23 733c
00000360: e15b ee3d 3c13 b53d 8c15 ed3d 00b9 c6ba
00000370: cc82 52bd 34dd 85bd d994 363d 2903 9cbd
00000380: 16eb 91bd 3f09 0ebe 69a4 923d 0e84 8e3c
00000390: da0b 02be 9261 03bd 8fed b13d 6565 01bc
000003a0: d2c0 f5bd c79f 09be 0559 553d 4aab d4bc
000003b0: fb07 da3c 480e f33d f663 6cbd 3b84 45bd
000003c0: db27 223d b49d 0a3e 1fa8 21be 2611 77bd
000003d0: fbfa f8bd abc5 243e 6dfc a63d f8e3 c03d
000003e0: c8b5 073e 23a6 333d 0c66 343d 1dfe 21bd
000003f0: 7b33 8ebd 11f7 eebd 3528 2a3e 0b45 533d
0.10666405 -0.15957831 0.05412921 0.08008657 -0.10635229 -0.0594866 0.007838431 -0.11917095
-0.0758647 -0.09550518 -0.041161202 -0.16527517 -0.03986877 -0.040701907 0.1337043 -0.10388879
-0.087102264 -0.16630217 0.120997995 -0.1313008 -0.05918335 -0.16824241 0.10607939 -0.046240676
-0.05025927 0.11826445 -0.15886027 0.10591855 -0.028906118 -0.06257437 -0.1458115 0.150456
0.05744685 0.06274271 -0.08499884 -0.11371823 0.046955086 0.123839796 -0.16377367 -0.14633466
-0.04923805 0.089654215 0.15218458 0.13351151 -0.00083702075 -0.02621754 0.12471736 -0.0889901
0.14146669 -0.10278451 -0.010795651 -0.1606757 -0.120640375 -0.028859524 -0.043031838 -0.15786384
-0.071934804 -0.110492535 -0.12824689 -0.090609424 -0.027641581 -0.035951912 -0.13445322 -0.12090171
-0.062325336 -0.06945014 0.050244767 0.13299145 0.13791098 0.16277115 0.051418245 0.12089035
0.13501431 -0.048169337 -0.055513654 -0.03837084 -0.011318237 -0.015991965 -0.017354516 -0.08546736
0.15723906 -0.016342385 0.039454047 -0.077570476 0.054512553 -0.10560934 0.01766017 0.13177404
-0.09837152 -0.16782431 -0.14168036 0.14505212 0.11328801 0.036695946 -0.037722755 -0.17101684
0.10731217 0.049840163 0.064078756 -0.14408901 0.014096497 -0.14167926 0.08406601 0.10222894
0.045858663 -0.02586659 0.13707162 0.16668724 -0.13923874 -0.11773395 0.15014839 0.04020127
-0.11977465 0.11607323 -0.097937435 -0.16181083 -0.09198368 0.15328707 0.12025214 0.10970867
-0.03066596 0.13001128 -0.0533829 0.050643884 -0.09294561 -0.010231018 0.08356554 -0.09660123
-0.1307278 0.16756964 -0.013312403 0.00636807 -0.13450979 0.06521953 -0.055058125 -0.044015642
0.045720994 -0.009568698 -0.12787974 0.15773709 -0.16154674 -0.043235563 0.16391778 0.11689545
-0.12968884 -0.16917309 -0.04748055 -0.1041351 -0.15659758 0.07096116 0.11720858 -0.035570174
0.13675979 -0.082056455 -0.125196 0.054316197 -0.087997064 0.046771616 0.054447398 0.1394118
0.023538783 0.14606859 0.1681056 0.1486494 -0.15550043 -0.13294922 -0.0053056516 0.029216688
-0.027139314 -0.08818302 0.061511654 0.010349432 -0.050194725 0.16093971 -0.14066741 0.0014141637
0.06288889 -0.02666203 0.1527803 -0.014040773 -0.02294053 -0.13613017 0.16309246 0.056998096
0.16304234 -0.029812144 -0.019088538 -0.15258168 0.14031489 -0.08688553 0.0123084765 0.16242297
-0.15925221 0.14430396 -0.0335549 -0.105599485 -0.15741101 0.09988209 -0.05824127 -0.070645474
0.14638083 0.14154863 0.09917328 -0.10131483 -0.015390303 -0.05679571 0.053111203 -0.03754142
-0.07279525 -0.10353862 0.1476486 0.017558841 0.16577019 -0.07653769 -0.067210324 0.01483993
0.11638618 0.08841559 0.11576375 -0.0015161335 -0.05139427 -0.06536332 0.044575546 -0.0761779
-0.07124917 -0.13870715 0.07160265 0.017396953 -0.12699834 -0.032075472 0.08687889 -0.0078977095
-0.11999668 -0.13439856 0.05208685 -0.025960583 0.026615134 0.11867958 -0.057712518 -0.048221808
0.03958879 0.13536721 -0.1578679 -0.06031909 -0.12157246 0.1609103 0.08153615 0.094184816
0.13252938 0.043859612 0.044042632 -0.039548982 -0.06943413 -0.11668218 0.166169 0.051579516

bias f4 [16]
00000000: e236 ffbb e903 a03c 92cc 303d adc3 bb3d
00000010: b13d 05bc 271d 603b c0c3 043e 5eee febd
00000020: a582 2ebd fedc 803d 6d31 87bd 17dd f33c
00000030: fece 12be 563d 82bd 4f23 133d 7847 cc3d
-0.007788525 0.019533115 0.043163843 0.091681816 -0.008132384 0.0034197064 0.12965298 -0.12447809
-0.04260506 0.06292151 -0.06601224 0.02976851 -0.14336774 -0.06359355 0.035922345 0.09974569

weight f4 [16]
00000000: 52f3 7f3f 3036 7f3f 2a05 803f 7ee7 7f3f
00000010: a808 803f d300 803f 80e7 7f3f ea9d 7f3f
00000020: 746b 7f3f a52d 803f 7e0c 803f c714 803f
00000030: 561d 803f 620f 803f 8fc4 7f3f a9dd 7f3f
0.9998065 0.9969206 1.0001576 0.99962604 1.0002642 1.0000252 0.99962616 0.9985033
0.99773335 1.001393 1.0003812 1.0006341 1.0008953 1.0004694 0.999093 0.999476

bias f4 [16]
00000000: 9b85 8d3a d29c cbba 8f39 abba 8faa 84ba
00000010: 1550 dc39 c0f5 8039 d825 8939 e5fc 36ba
00000020: f236 edba cd5d 5bba 1df8 4939 67a3 4c3a
00000030: d3ed c039 1802 1a3a a9de c63a 90f7 38ba
0.0010797264 -0.0015534407 -0.0013063418 -0.0010121631 0.00042021336 0.0002459716 0.00026158872 -0.0006980433
-0.001809804 -0.00083681644 0.00019261283 0.0007806331 0.00036798287 0.0005874946 0.0015172559 -0.00070559327

running_mean f4 [16]
00000000: fee8 7cbb ee0d bc3c d9b3 483d b89c b73d
00000010: 64de 21bc fcc0 fe3b 156b 153e b1a2 e9bd
00000020: b827 29bd de2c b73d e5e0 88bd f2c1 d23c
00000030: 9839 20be 9c5c a3bd 3856 f23c fd14 f33d
-0.0038591023 0.022955861 0.04899964 0.089654386 -0.009879682 0.0077744704 0.1459163 -0.11407984
-0.041297644 0.089441046 -0.0668352 0.025727246 -0.1564697 -0.07976648 0.029582128 0.118692376

running_var f4 [16]
00000000: df6c 003f a781 093f 287d 943e a86e 673e
00000010: f263 b23e f707 9d3e 33ad b63e 4f95 de3e
00000020: 0cc6 c83e f49a a93e 4b70 4f3e 7681 7d3e
00000030: 0003 8f3e 59d5 383f d5c5 b33e 697f a23e
0.50166124 0.5371346 0.29001737 0.22600806 0.34841877 0.3067014 0.35679016 0.43473288
0.39213598 0.33126032 0.2025768 0.24756417 0.27931976 0.7220054 0.3511187 0.3173783

weight f4 [16, 16, 2]
00000000: f95b 66bd dd07 6b3d bcb2 9bbd 93d3 11be
00000010: b91b 2b3d 87d5 e4bd e43a 2a3e 2ce4 c73d
00000020: 11d4 1fbe 345b 873d 2fa8 e83d 8493 5e3d
00000030: 1cb0 19be 04f5 19bd 8d4d 4f3d ac02 5f3d
00000040: 189f 833c 4bb4 16be d038 acbd 3cd8 0c3d
00000050: 24e3 243c 71de a9bd ef86 a7bc 544c d9bd
00000060: e338 2c3e 94c6 27be 0958 2cbe 62a0 aa3d
00000070: b795 b93d eca5 7cbd e3d8 f13c 0e20 45bd
00000080: 570c 16be 88de 21be 7780 85bd 0177 c73c
00000090: a500 d03d ca50 a7bc 1fbc 8c3c 8a68 3dbd
000000a0: 1de9 ea3c f001 9e3d bc8e 0f3d 3e10 9e3d
000000b0: 444d 393d 7dbc d63b 475b e8ba 2b1b 29be
000000c0: ab41 e0bd 1c78 06be c244 e33d 493b fcbc
000000d0: a32e 0dba eed4 763d 8906 03be f79b 29be
000000e0: 3ed0 02be 0433 babd e8cd 90bb a8b0 fd3d
000000f0: db0a 0bbd c38b 153e e990 81bc f2f5 2dbe
00000100: 6ac6 11bd bc16 0f3e aa55 853b b3d5 173e
00000110: 6e74 adbd 9758 9a3d 9177 cfbd 115d 2bbe
00000120: c497 4ebd 26a8 17be 7a07 9f3d 43c9 863d
00000130: 69a3 253c 7cd1 1f3e 7eaf ddbd 118f cabc
00000140: ade1 a73d 9984 09be 0f94 693d 14c0 3abd
00000150: 25d0 1dbe 7554 2e3e 4600 333d 3bb4 06be
00000160: a23a a5bd 0f3c 03bd 0f29 1a3e d41d 9a3d
00000170: 17aa e9bd 2754 25be e467 453d f682 0c3e
00000180: 8c1c 2bbe 0010 bc3d ce36 143e e50d 00be
00000190: 91f9 1ebe 480a 113d 6ce4 9abc 6568 9b3d
000001a0: 0d0e 9a3d a27c 253e e0c5 6439 64b1 e43c
000001b0: 2692 84bd 3433 e6bd 824c c73d 4e7a 59bd
000001c0: 57d4 13be aff2 32bc 5380 b83d a2ca ef3d
000001d0: 3630 8d3c f320 373d c6fd b5bc fcca bcbd
000001e0: 25ab 8ebc 65d1 a3bd 48e3 c73d 4b66 1e3d
000001f0: 37bb 043e 29db 023d 9bca 013d f8da c1bd
00000200: db3d 143e 5c5c 4cbd 30a2 233e b328 083e
00000210: 5206 f9bd 7e2a d2bd b16c 04be 0910 e3bb
00000220: 9ae1 e5bd e3a7 1b3e 8d9e a73d 4fb0 74bd
00000230: 5b55 0ebe 9b95 fdbd 7b42 1d3e 52dc 14be
00000240: e5db 2e3e 2be0 09be 4a42 0c3d 8c18 c2bd
00000250: e3da 05be 6344 203e be51 16be e4c2 5a3c
00000260: d589 0bbe 1b72 20bc 73b2 353d d93b 8c3c
00000270: d2c9 05bc baf8 89bd 71a8 20be 6f03 bf3d
00000280: 1f50 02be 7cc2 77bc 5583 13bd 3aa4 0dbe
00000290: 0fe0 81bd 6b01 05be 9387 9b3c 0115 ba3d
000002a0: f358 f3bd bf7d 15bc b41e d9bd 3e50 f0bd
000002b0: dbac e63c fa56 2abc 5e42 ad3d 192e 963d
000002c0: a353 0b3e b74b 203e 9902 993b 9313 ccbd
000002d0: d659 883d bace 2d3d 074a 2b3e 7091 033e
000002e0: 4fc4 0fbc c669 403d 84a3 26be a86c d9bd
000002f0: f621 d93d 8a37 253d 19bc 8e3d 28a8 15be
00000300: f5bc c1bd b302 b2bd 43bc 1b3e d122 e3bd
00000310: 5bac 133e 1989 0f3e 29bf 113d c115 d93d
00000320: 2968 023e 7e73 173e 2a42 a7bc 10b1 a23c
00000330: 4b61 013e 4de9 c7bd 67d6 02be 6dfd 1fbe
00000340: 3376 9d3d 41b3 cabd ae29 26be 025c 16bd
00000350: 55f8 e2bd ab6b 01be f3ee cebd 4460 103e
00000360: fbb7 90bd 3b4b 13bd ca0f 32be 6ce0 8a3c
00000370: e65b 493d 51ae 17be 2d8d d53d ce88 25bd
00000380: 027c b0bd ec38 313e d239 143e 1d41 b4bc
00000390: c54f 34be 69f8 8a3b cde8 013e d2c7 74bd
000003a0: b0d9 debd eea8 70bd c3c4 34bd 1d51 703d
000003b0: 0606 6abd a04e 07be 6820 2c3e bf63 f1bd
000003c0: c78f ae3c adb8 103e f5c2 b23d 45dd fd3c
000003d0: 2621 eebd bb15 05be 87b7 5ebd ccd5 1b3e
000003e0: f84d c9bd 36c4 edbb 429c a6bd b8bf 293e
000003f0: b8fe 1b3e 08e1 203c 6e61 273e bdd6 323e
-0.056240056 0.057380546 -0.0760245 -0.14240865 0.041774485 -0.111735396 0.16624027 0.09760317
-0.1560824 0.066091925 0.113602035 0.0543399 -0.15008587 -0.03758718 0.050611068 0.054445907
0.016067073 -0.14717214 -0.084092736 0.034385905 0.01006392 -0.082943805 -0.020450084 -0.106102616
0.16818576 -0.16384345 -0.16830458 0.08331372 0.09061759 -0.061681673 0.029522365 -0.048126273
-0.14653145 -0.15807545 -0.06518643 0.024348738 0.10156373 -0.020424265 0.017179547 -0.046242274
0.02867561 0.07715213 0.03504823 0.07717942 0.045239702 0.0065532313 -0.0017727398 -0.1651427
-0.10950025 -0.13131756 0.11097099 -0.030789988 -0.00053856726 0.06026166 -0.12795462 -0.16563402
-0.1277475 -0.09091762 -0.004419077 0.1238721 -0.0339459 0.14604096 -0.015816169 -0.16988352
-0.035589613 0.13973516 0.00406905 0.14827614 -0.08469473 0.075364284 -0.10130227 -0.16734721
-0.050437704 -0.14810237 0.07765098 0.065813564 0.010109761 0.15607256 -0.10824488 -0.024726423
0.08197341 -0.13429488 0.057025965 -0.045593336 -0.15411432 0.17024405 0.043701433 -0.1315469
-0.08067824 -0.0320397 0.15054725 0.075252205 -0.11409395 -0.16145383 0.04819478 0.13721833
-0.16710109 0.09182739 0.14474031 -0.125053 -0.1552489 0.035410196 -0.018907748 0.07588271
0.07522211 0.16160825 0.00021817489 0.027916618 -0.06473188 -0.11240235 0.097313896 -0.053095154
-0.1443647 -0.010922118 0.09008851 0.11708571 0.017234903 0.044709157 -0.022215735 -0.09218404
-0.017415592 -0.07998923 0.09760147 0.038671773 0.12962042 0.03194729 0.03168736 -0.09465593
0.14476721 -0.04989277 0.15979838 0.13296776 -0.12159409 -0.10262011 -0.12932087 -0.006929402
-0.11224671 0.15200762 0.08184538 -0.059738453 -0.13899748 -0.123820506 0.15357392 -0.1453717
0.1707607 -0.1346442 0.034242906 -0.09477338 -0.1307178 0.15651087 -0.1467962 0.01335213
-0.13626797 -0.00979283 0.044359636 0.017118381 -0.0081657935 -0.06736894 -0.15689255 0.09326827
-0.12725876 -0.015122052 -0.03601392 -0.13832179 -0.06341564 -0.12988822 0.018985545 0.090860374
-0.118822 -0.0091242185 -0.10601559 -0.11734055 0.028158596 -0.010396713 0.08459924 0.07333011
0.13606124 0.15653883 0.004669499 -0.09964671 0.0665776 0.042433478 0.16727458 0.12848449
-0.008774831 0.046975873 -0.16273314 -0.10616428 0.10602181 0.04033617 0.069694705 -0.14614928
-0.09459869 -0.08691921 0.15208535 -0.11090625 0.14421217 0.14017142 0.035582695 0.10599852
0.12735046 0.1479015 -0.020417292 0.01985982 0.1263477 -0.097612955 -0.127771 -0.15624018
0.0768856 -0.09897471 -0.16226837 -0.03670884 -0.11082522 -0.12638728 -0.1010417 0.14099222
-0.070663415 -0.035960417 -0.17388836 0.016952716 0.049159907 -0.1481259 0.10427318 -0.04041367
-0.086174026 0.1730687 0.14475182 -0.022003705 -0.17608555 0.0042410386 0.12686463 -0.059760876
-0.10881364 -0.058754854 -0.04413296 0.058671106 -0.05713465 -0.13213587 0.16809237 -0.11786603
0.021308793 0.14132948 0.08728591 0.030989299 -0.11627416 -0.12996571 -0.054374244 0.15218276
-0.098293245 -0.007256056 -0.081352726 0.16577041 0.15233886 0.009819277 0.1634576 0.17464729

bias f4 [16]
00000000: 8f96 4e3d a991 e73d e07c 4a3d e50b 543d
00000010: 3e66 083e 6182 28bd 4ce3 ae3d 60ae 223e
00000020: 673c 8e3b 631a 253d efe4 713d 078a 483d
00000030: b6b2 c03c 8f2e aa3d d678 223e d669 093e
0.050436553 0.11307079 0.049435496 0.051769156 0.13320252 -0.041139964 0.08539447 0.15886831
0.0043406966 0.040308367 0.05905622 0.048959758 0.023522716 0.083096616 0.15866408 0.1341928

weight f4 [8, 16]
00000000: 8143 4bbe b494 ec3c 0f98 ad3d 6fa0 aebd
00000010: 1c46 b73d e7de 043d ac3a 59be 72dc ec3d
00000020: 3362 263e a82e 913c 6964 46be 550e 92bb
00000030: 82dc 38bd c6d4 e0bd cf97 473e 1645 fd3d
00000040: 29f7 563d 1971 27be 42ec 4fbe da28 4e3e
00000050: cf9c 34be 05b5 663e 340e 733e 735b 6cbd
00000060: 2f3f 86bd 4cc3 6abe af21 aebd 4807 e93d
00000070: 396c 1f3e 689b 8a3d 8b92 7bbe a7d6 9abd
00000080: c15a 463e daaa a33d 7728 283d d247 b53d
00000090: 33c2 97bd 6cdb 4a3e 2d29 5a3d 8660 213b
000000a0: 04c6 31bd f725 023e 748d 463e 7077 f33d
000000b0: e84f eebd 8a22 393e 43d9 753e d3ae 3cbe
000000c0: 414e 7c3e 930e 75be 3a84 8cbc 9b46 1d3d
000000d0: 5d0a 90bc 3e0b 673e 4626 65be f2ba 4dbe
000000e0: 2c05 293e 5625 45be 913d b6bd a12e febd
000000f0: a3bf 88bc 1b3d 683e 76c2 30bc 0410 903d
00000100: 0175 a53c 2ec9 72be 6c35 1abe 0550 4a3d
00000110: 288d c43b 34b0 6e3d 45c0 aabc b6f4 30be
00000120: 4ee4 6dbd 4313 13be ff71 6dbd 71e8 4cbe
00000130: a78e 3c3e 35b3 593e 99ca 1a3e 3db9 453e
00000140: dc35 253e 6abf 313e 2821 6d3e 1a00 57be
00000150: 9d8f 07bd 7fa7 223e 4635 193d 9d9e 85bc
00000160: 4c02 153d 0077 013d 540d 38be 697b 5b3d
00000170: 23e3 223e 4c1b 803e 9826 473e 194b 65be
00000180: ce03 49be 98aa 283e 7f15 753e a9d6 fcbd
00000190: aae7 743d 2e90 e6bd eadd 723e 54b1 dd3d
000001a0: 84f6 1cbe bb70 45be f3a7 58bd 2c92 f23b
000001b0: 84f4 263e 18af 5fbe 0b8d 9d3d 7de2 94bd
000001c0: 0223 5e3e 83c0 7a3e a514 323e 0c6b 37be
000001d0: 9f01 5f3e 7aad e83d d1ee 2ebe 0c12 5c3e
000001e0: 45d1 a4bd 6007 9cbd dd88 40be 2ad7 e7bd
000001f0: 4ad9 1cbe 6d63 58bb 4b81 0bbe cde2 ccbd
-0.1984997 0.0288795 0.084762685 -0.08526694 0.08948919 0.03243914 -0.21213788 0.11565484
0.16248398 0.017722443 -0.19374241 -0.004457275 -0.045132168 -0.10978083 0.19491504 0.12366693
0.052481804 -0.16351737 -0.20304969 0.20132771 -0.17637943 0.22529991 0.23735887 -0.0577044
-0.0655502 -0.22926062 -0.085025184 0.11378342 0.15568627 0.06767923 -0.2456762 -0.07560473
0.19370557 0.07991572 0.041054215 0.08851589 -0.074100874 0.19810265 0.053261925 0.0024624183
-0.043401733 0.12709795 0.19389898 0.11888015 -0.11636335 0.18079582 0.2400866 -0.18426065
0.24639226 -0.23931341 -0.017152894 0.038397413 -0.017583067 0.22562882 -0.22377881 -0.20090845
0.16505879 -0.19252524 -0.088984616 -0.124112375 -0.016692942 0.2267956 -0.010788551 0.07034305
0.020197393 -0.23709556 -0.15059441 0.04939272 0.0059982724 0.05827351 -0.020843634 -0.1728085
-0.058079056 -0.14362817 -0.057970043 -0.20010544 0.18413793 0.21259768 0.15116347 0.19308944
0.16133827 0.17358175 0.2315718 -0.20996132 -0.033095945 0.15884207 0.03740432 -0.016310984
0.036379144 0.031607628 -0.17973834 0.05358449 0.15906958 0.25020826 0.19448316 -0.22391929
-0.19630358 0.16471326 0.23933981 -0.12345631 0.059791245 -0.11257969 0.23717466 0.10824838
-0.15328413 -0.19281285 -0.052894544 0.007402679 0.16304213 -0.21844137 0.076929174 -0.07269762
0.21693042 0.244875 0.17390688 -0.17911929 0.21777962 0.11361213 -0.17083289 0.2149126
-0.080477275 -0.07618594 -0.18802209 -0.11320336 -0.15317264 -0.0033018247 -0.1362354 -0.10004196

bias f4 [8]
00000000: f4c9 3ebe 7e10 6d3e bfa1 223d c1c1 3bbe
00000010: f5bb 1d3e 2cf3 083d 398e 513d ffa0 53be
-0.18631727 0.23150823 0.039705034 -0.1833563 0.15403731 0.03343503 0.051161025 -0.20666884

weight f4 [16, 8]
00000000: 133e a2be c820 20be 4ae2 04be ba97 453e
00000010: e355 053e c3fc 8d3e d502 a3be 040e a5be
00000020: 25ad 493e c334 853e 0125 8bbe 69f1 07be
00000030: be01 73be 8cec f63b 8904 1b3e fda6 b23d
00000040: 7a03 26be 0fd2 99be 7a90 31bb d25c 843d
00000050: 72de 51be dc1c 93bd b59b 99be 6eaf 6b3e
00000060: 6000 37be 7423 72be d709 e9bd 183e b33e
00000070: 2df1 86be 9192 abbe 5577 8c3e 1245 4dbe
00000080: 2ae7 32be 30c3 aabe bda1 333e 5d65 57be
00000090: b268 3c3e 911c 1cbe 6fec 5fbe 9669 623e
000000a0: 35c6 973e deac d03b 377b 2abe c132 ecbd
000000b0: d856 c33d f115 413d 54d1 373e 93ae 8bbe
000000c0: 0be6 b73c b138 b03e c9e8 a03d dd55 57bd
000000d0: a1b7 5c3e a126 ea3c 2a1e 7fbe a3a8 313e
000000e0: 440c 33be 2277 8abe 24b0 643c 9304 94bd
000000f0: d9a5 50bd 915e 733e 041b df3d 711a 253e
00000100: 3890 15be d1f8 183e 8a8e 3dbe c000 4c3e
00000110: e690 1a3e bcd1 893e 95e1 943e 4374 5dbd
00000120: 1331 813e fd7e b23e abcf 033d 3b5b 303d
00000130: e1b5 53bd fb2b 0c3e ac65 0abe e514 98be
00000140: ade1 b0be f7b7 823c 93c0 4abd a74f 04be
00000150: edc9 4bbe 808c f2bd cb91 d73d 0904 7d3e
00000160: c266 84be fe0f 51be 2ebb fabd 1563 eb3d
00000170: c267 bfbd 3f4c 403d 7ca9 883e 4adb 8fbe
00000180: 1dc0 3f3e 7162 3abe bd37 da3d 8703 953e
00000190: c8fe 233e f61e 43bd ab7e 9b3e 75bb 8abe
000001a0: e475 58bd 63e9 b03d 1c48 a43d 9a2a 82bd
000001b0: 532e 4b3e af6e 8b3e b4e9 8cbe b690 d0bd
000001c0: a531 7d3e 4a43 473e a966 453e 7c3b 98be
000001d0: add5 a7bd f00d 96be a85d 97be c741 9cbe
000001e0: fcf8 6e3e 1730 9f3d 68bb 23be 4b01 713d
000001f0: 0595 053e b108 77bb bbd6 c4bd fa47 8abe
-0.31687984 -0.15637505 -0.12976947 0.1929616 0.13021044 0.27731904 -0.31838098 -0.32237256
0.19694956 0.26016816 -0.2717667 -0.13275684 -0.23731133 0.007535523 0.15138449 0.08723257
-0.16212264 -0.30043074 -0.0027094171 0.064630166 -0.20495012 -0.07183239 -0.30001608 0.2301614
-0.17871237 -0.23646337 -0.1137883 0.3500831 -0.26355878 -0.3351026 0.27434793 -0.2004588
-0.17470995 -0.3335204 0.17542167 -0.21034761 0.18399313 -0.15245272 -0.21867536 0.2211059
0.29643407 0.0063682636 -0.16648565 -0.11533118 0.095380485 0.047140066 0.17950946 -0.27281627
0.02244856 0.34418252 0.078569 -0.05257212 0.21554424 0.028582873 -0.2491385 0.17349486
-0.17485148 -0.27044016 0.013958011 -0.07227435 -0.050939415 0.23766543 0.10893825 0.16123368
-0.14605796 0.14938666 -0.18511406 0.19922161 0.15094337 0.26917827 0.29078355 -0.054065954
0.25232753 0.3486251 0.03218047 0.043055754 -0.051687125 0.13688652 -0.13515347 -0.2970344
-0.34547177 0.015956862 -0.04950006 -0.1292101 -0.19901247 -0.118432045 0.10525855 0.2470857
-0.25859648 -0.20416257 -0.12242733 0.11493508 -0.09345962 0.046947714 0.26691806 -0.28096992
0.18725629 -0.18201615 0.106551625 0.29104254 0.1601516 -0.04763695 0.30370077 -0.27096143
-0.052846804 0.08638265 0.08021566 -0.06355782 0.1984189 0.27232882 -0.2752205 -0.101838514
0.24725969 0.19459262 0.19277443 -0.29732883 -0.08195052 -0.29307508 -0.29563642 -0.30518934
0.23337168 0.07772844 -0.15989459 0.058839124 0.13045128 -0.003769439 -0.09611269 -0.2700804

bias f4 [16]
00000000: 758a 94be 462e c43d 6b07 9cbe e6a7 663e
00000010: 3a7b 8bbe 86e1 8cbe 4f6f a9bd 21eb 573d
00000020: fab1 b33e 9b1a 9cbd 05c9 8cbb 6b39 a43d
00000030: 75b9 573e 2bf8 f3bc 2915 08be e5ca 793e
-0.29011884 0.095791385 -0.3047441 0.22524986 -0.27242452 -0.2751581 -0.082731836 0.05271447
0.35096723 -0.07622262 -0.0042964243 0.08018764 0.2106684 -0.029781422 -0.13289322 0.24393804

weight f4 [1, 2, 7, 3]
00000000: 8583 ab3d 62c2 0abe cd7d 763d f6c5 dcbd
00000010: 7723 af3c ae89 bdbd c9d3 05be b49c bcbd
00000020: 9524 ae3c f0df 9cbd 2bfd 12be 21a3 11be
00000030: efc2 edbb dc1e 0f3e a589 d6bc 11f4 013e
00000040: ee09 c43c fdd2 19be 94aa 853d a9aa 98bd
00000050: 5d35 d83d d432 ecbd 064c 68bd d653 eebd
00000060: c825 b73d 83e7 583d 491c ea3d 6b90 983c
00000070: 33b7 b43d 683e c73c e878 903b 1dbc 1b3e
00000080: f82a d83c 6bec babd df26 0fbe c87f d33c
00000090: 5542 4fbd cda0 bebd f75b ab3d 886b b6bd
000000a0: 40ee ff3d 93b0 a7bd
0.08374695 -0.13550714 0.060178567 -0.107799456 0.021379216 -0.09254776 -0.13069071 -0.09209576
0.021257678 -0.076599 -0.14354388 -0.14222385 -0.007255904 0.13976616 -0.02618868 0.1269076
0.023930516 -0.15021892 0.06526676 -0.07454426 0.10557053 -0.11533132 -0.056713127 -0.11637084
0.08942753 0.05295516 0.11431176 0.018623551 0.08824005 0.02432175 0.0044089444 0.15208478
0.026387677 -0.091271244 -0.13979672 0.025817767 -0.05060037 -0.09308014 0.0836715 -0.08907229
0.124966145 -0.08187976

weight f4 [16]
00000000: 6af7 7f3f 789f 7f3f b4e6 7f3f 861a 803f
00000010: 4a00 803f 5a14 803f e8d6 7f3f e617 803f
00000020: 4e1a 803f a518 803f ac23 803f 22ca 7f3f
00000030: 9df7 7f3f 9691 7f3f 8f5b 7f3f 1325 803f
0.999869 0.99852705 0.999614 1.0008094 1.0000088 1.0006211 0.99937296 1.0007293
1.0008028 1.0007521 1.0010886 0.99917805 0.999872 0.9983152 0.9974908 1.0011314

bias f4 [16]
00000000: e21c af3a ff04 bfba b0b8 8eba 40eb 8139
00000010: a984 f539 693c 4d3a b70d 2eba 427e 583a
00000020: bead 01ba d1cc 50ba 24e9 743a d56e 07ba
00000030: 2302 e5b9 94a6 01ba edc6 82ba 380b 853a
0.0013360048 -0.0014573633 -0.0010888781 0.00024780072 0.0004682888 0.0007829131 -0.0006639617 0.000825856
-0.0004946849 -0.00079650903 0.0009342602 -0.00051663566 -0.00043679876 -0.00049457815 -0.0009977497 0.0010150438

running_mean f4 [16]
00000000: 3a42 5b3d ea18 dc3d 1a0e da3c 2450 703d
00000010: 0bef 033d a146 663d 8c89 de3d 2118 483d
00000020: 88a1 bb3d f912 c33d 3532 943d 40fd 603d
00000030: 3b49 883d 1c8e a83d d10a b83d 0fae a83d
0.053529955 0.107469395 0.026618052 0.058670178 0.03221039 0.0562197 0.10866079 0.048851136
0.09161669 0.09525103 0.07236139 0.054929018 0.066545926 0.0823023 0.08986438 0.08236324

running_var f4 [16]
00000000: a45f 8e3b 520e 573d e204 133b e9f0 603c
00000010: 83e1 633b d3b6 c43c 2aed 723d 70cd 223c
00000020: a878 8b3d 61ae 723d 2c78 893d 82a7 9f3c
00000030: c975 3a3c d8eb 133c 2c98 2e3d a36e 2d3d
0.0043448973 0.05250389 0.002243333 0.013729312 0.0034771867 0.024012959 0.05930821 0.009936675
0.06810123 0.059248332 0.06712374 0.019489054 0.011380621 0.0090283975 0.04262559 0.04234184

weight f4 [32, 16, 3, 3]
00000000: a168 b83c 487f 09bd fd60 dfbc 63b0 943d
00000010: 1b9c 3c3c 1cfc 8cbd d578 75bd f6ee 013c
00000020: dcf1 d3bc b109 5bbd 950b 55bd 59a2 a4bd
00000030: 2fcf 9bbd abd8 65bd f931 6b3c 73ba 953d
00000040: 96b9 17bc 663e 70bd af8a 103c 8250 97bd
00000050: 3748 8c3c b998 483d 8792 cebc 7ffc 13bd
00000060: 0cf1 963d 693d a13d 2cc1 9cbc b249 16bd
00000070: 472b afbc 679e 413d ee24 41bd b436 31bd
00000080: 83b9 0c3c b70e 98bd 6aa3 0dbd b305 d13b
00000090: d743 84bc adbf 833d 45f7 48bd 2247 71bc
000000a0: de88 a93c 1f4b 133a 817d cabc 3693 d73c
000000b0: eb80 9ebc bf72 7d3d 7dc8 413c 601e ae3c
000000c0: b1a6 193c ed07 063c 6acd 8d3d c1eb 903b
000000d0: 1280 1abd f9be 4ebd 9ad5 21bd 86e9 07bb
000000e0: babd 8dbd f749 a5bd 1cd0 8b3d 1d8d 3abd
000000f0: 5ac8 a6bd 6b21 99bd abab a0bd f0f7 5c3d
00000100: b9a1 533d f2c4 5b3d 7416 11bc 6413 a13c
00000110: 3356 4dbd 53cb 323d 08dc a1bd 908e 653d
00000120: 196f 7b3d 2956 363d d5fd 66bd e79e e93c
00000130: fa89 913d e638 3d3c 2f52 39bd d0cf 9fbc
00000140: efaf da3c 57dd 10bc 492f 733d f4c0 7e3d
00000150: bbd9 df3c 2626 4abd 21c1 573d 7795 03bc
00000160: 9981 8a3d 6901 ffbc 5f84 e23c 1c01 a83d
00000170: 571b 98bb d151 733d 54b7 0abd 7def 8a3d
00000180: 7246 3bbd 745a 203c eaec 9d3d f01a 06bd
00000190: 2630 3a3d 1aaf 9c3d 1323 9bbd 6181 50bd
000001a0: aff9 533d e134 80bc 66a0 63bc 627c 933d
000001b0: 0a12 00bd dc0e 4a3d 02e9 d3bc 1ade a4bc
000001c0: b7d6 1bbd e80f 85bd 732c abbd c6f8 06bd
000001d0: a19d 4ebc 39ea 8cbd fea2 8d3c e47d 853d
000001e0: 8e43 6dbd 7ed3 a1bc d799 493d a1d5 863d
000001f0: d653 763c 95f9 29bd 4aca 1fbd d255 aebc
00000200: ba3b 48bd 01b9 333d 7d56 dabc 8f35 37bd
00000210: 8f3b 873d 477a 55bc f089 ebbb 11be 093d
00000220: 7e1f b93c 05d4 643c 3600 073d eae6 d03c
00000230: f923 963d 5d24 333d 365b 2abd 18b1 0d3c
00000240: 6168 973c 8217 4a3d 93ef 5e3d df04 74bd
00000250: 1e65 44bd 81eb 3c3c f115 40bd 26c6 8e3c
00000260: fcc4 2cbd 7bbb c83c 9624 3abb ca4d 413d
00000270: 1e4f 4c3d e594 b93c 54bf 7bbc c28f 74bd
00000280: d3cf 673d 56a2 e4bc c7ea c03c ad8e 83bc
00000290: fe66 493d e1c2 563d dea8 363c 1c59 a33c
000002a0: aa33 8e3d 6c3b 24bc adb1 a83d 0fc6 27bd
000002b0: 248e 66bc 10b8 813c 44b4 383d 1d16 663d
000002c0: 2e87 263d 4b04 6cbb e3fe 933d e4f3 27bb
000002d0: 9bb3 9fbd bd8f 21bd caba a13c c3dd c5bc
000002e0: 3914 de3c 2f23 08bd 034a 5dbb ad9b 91bd
000002f0: ddc4 8fbb ab48 1ebd 601f 653d 9f91 0cbd
00000300: 369a a3bd 2b1d 48bc f398 133d 7aaf 703d
00000310: e0e4 cfbc f6d8 21bd c70b a13c eb96 a33c
00000320: db7a 97bd 33d8 773d 9f1a 9c3d 1a4f 1f3c
00000330: 16a3 523d 5067 5dbd b73e 5dbc d2a4 803c
00000340: 1f27 74bd 97ab 823d 43f3 303d 06b8 903d
00000350: 7fd0 193d 36c4 c83c 225e 413c ddd6 48bc
00000360: 5bb4 d33b b572 4ebd 84ca 4f3d 090b c93c
00000370: a243 bc3c bc62 a4bd 93fb a3bd 3bd9 edbc
00000380: 6ce3 fcbc 6f38 16bd 8ab0 913c 9928 573a
00000390: 5cc6 d93c fcc7 8dbd 520b 573b 15f1 20bd
000003a0: 94d3 a5bd 1a73 88bd 6af2 dfbc bf6d 8d3d
000003b0: 0e83 553d e09d 44bd 0f49 aa3d a349 7abd
000003c0: 461f 54bd b06a 253d af01 17bd 9401 d53c
000003d0: cfbd 2d3d 52d3 d8bc 49ae 903c ded3 3fbd
000003e0: 1a62 c7bc 4969 2f3d a305 73bd e146 66bd
000003f0: 001e 71bd f155 52bd 500d 9ebd 5562 263d
0.022510828 -0.03356865 -0.027267927 0.072602056 0.011511828 -0.068840235 -0.059929688 0.007930508
-0.025872163 -0.05347604 -0.052013 -0.08038778 -0.076078765 -0.056114834 0.014355176 0.07310953
-0.009260556 -0.058653258 0.008822127 -0.073884025 0.017124278 0.048973773 -0.025216354 -0.03612947
0.07370195 0.07873041 -0.01913508 -0.036691375 -0.021382941 0.047270205 -0.04715436 -0.04326506
0.008589151 -0.07424682 -0.034579672 0.006378853 -0.01614563 0.06433044 -0.04906394 -0.014726432
0.020695146 0.0005618799 -0.024718048 0.026315313 -0.019348582 0.06187701 0.011827585 0.021254718
0.009378121 0.008180601 0.06923945 0.0044226353 -0.037719794 -0.050475094 -0.039510347 -0.0020738556
-0.06920953 -0.08070748 0.06826803 -0.045544732 -0.08143683 -0.07477077 -0.07845243 0.05394739
0.051667903 0.05365462 -0.008855451 0.019662566 -0.050131034 0.043650936 -0.07903296 0.05604416
0.061385248 0.044515762 -0.056394417 0.028518153 0.07106395 0.01154921 -0.045244392 -0.019508272
0.02669522 -0.008841834 0.059371267 0.062195733 0.027325502 -0.049352787 0.052674416 -0.008031241
0.06763 -0.031128602 0.02765101 0.082033366 -0.004641931 0.059404198 -0.03386624 0.0678396
-0.04572148 0.009787191 0.077112034 -0.032740533 0.045456074 0.076505855 -0.07575049 -0.050904635
0.05175179 -0.015650215 -0.013893222 0.072014585 -0.031267203 0.049330577 -0.025867943 -0.020125438
-0.038046565 -0.064971745 -0.083580874 -0.032952093 -0.012610824 -0.06880612 0.017289635 0.06518152
-0.057925753 -0.019754168 0.04921898 0.06583715 0.0150346365 -0.041497786 -0.039011277 -0.021281157
-0.048885085 0.043877605 -0.026652569 -0.04472881 0.06603157 -0.0130296415 -0.0071880743 0.033628527
0.022598024 0.013966565 0.032959186 0.025500733 0.0733108 0.04373585 -0.04159089 0.0086481795
0.018482389 0.049338825 0.054427695 -0.059574958 -0.047947995 0.011530758 -0.046895925 0.017428469
-0.042180046 0.02450346 -0.0028403155 0.047193326 0.04988014 0.022654006 -0.01536544 -0.05970741
0.05659468 -0.027909439 0.02354945 -0.016059244 0.049170487 0.052431945 0.0111486595 0.019939952
0.06943448 -0.010023933 0.08237014 -0.040960368 -0.014071975 0.015834838 0.04509379 0.056173433
0.04065626 -0.00360133 0.0722635 -0.0025627548 -0.07797929 -0.03944372 0.019742388 -0.024153596
0.027109252 -0.03323668 -0.0033766038 -0.07109771 -0.0043874816 -0.03864352 0.055938125 -0.034318563
-0.07988398 -0.012213985 0.036034536 0.058761097 -0.02537769 -0.03951355 0.019658936 0.019969424
-0.0739648 0.060508918 0.07622265 0.009723449 0.051425062 -0.054053605 -0.013503722 0.015703592
-0.05960762 0.063803844 0.043200742 0.0706635 0.037552353 0.024507623 0.011802228 -0.012258259
0.006460709 -0.050402362 0.050730243 0.024541395 0.022981469 -0.080266446 -0.08006968 -0.029034248
-0.030870162 -0.036674913 0.017784376 0.00082076486 0.026583843 -0.069229096 0.0032813144 -0.039292414
-0.08096996 -0.06662579 -0.027337272 0.06905698 0.052126937 -0.048002124 0.08314716 -0.06110538
-0.051787637 0.04038495 -0.03686684 0.02600173 0.042417344 -0.026467953 0.01766123 -0.04683291
-0.02433877 0.042825017 -0.059331547 -0.05621994 -0.0588665 -0.05135149 -0.07717383 0.04062112

bias f4 [32]
00000000: a7c0 613d f510 8bbc 482b 933d 288e 34bc
00000010: bed2 83bc 2337 323d 903d 91bd 5559 53bd
00000020: dc96 833d 34a0 3c3d 67a3 ecbc 6963 4d3d
00000030: 163d 1a3d 79cd 813d 9865 7ebc 2859 f3bc
00000040: fc54 a6bd d290 a0bd fe33 403d f645 003d
00000050: bcbd c03c b86c be3c ff47 e13c 2f99 92bc
00000060: 4993 8c3d 4b13 8f3c 2f28 99bd 0d2a 13bd
00000070: e2ce 443d ef3b f7bc 24d1 e73b cd4e 9f3d
0.05511537 -0.01697586 0.071859896 -0.011020221 -0.0160917 0.043509614 -0.0709182 -0.051598866
0.064252585 0.04605122 -0.02888651 0.050143633 0.037655912 0.06338019 -0.0155271515 -0.029705599
-0.08121678 -0.07840122 0.046924584 0.03131672 0.023527972 0.0232452 0.02750015 -0.01789531
0.0686403 0.017465254 -0.074783675 -0.035928775 0.04804886 -0.030179946 0.007074492 0.07778702

weight f4 [32]
00000000: bc01 803f c210 803f 5676 7f3f 590b 803f
00000010: 580c 803f 1b0d 803f ccfc 7f3f 23c5 7f3f
00000020: a027 803f 2c09 803f 82ee 7f3f ec90 7f3f
00000030: dfd1 7f3f 6e9f 7f3f ef14 803f 26a2 7f3f
00000040: e40b 803f c898 7f3f 55f0 7f3f 5d3c 803f
00000050: 1116 803f c81d 803f 1eb1 7f3f cd0b 803f
00000060: d516 803f 6004 803f e792 7f3f ac16 803f
00000070: dca1 7f3f f8e9 7f3f 58ec 7f3f 342b 803f
1.0000529 1.0005114 0.9978994 1.0003463 1.0003767 1.0004 0.9999511 0.9991018
1.0012093 1.0002799 0.9997331 0.9983051 0.9992961 0.99852645 1.0006388 0.99856794
1.0003629 0.998425 0.9997609 1.0018421 1.0006734 1.0009089 0.99879634 1.0003601
1.0006968 1.0001335 0.9983353 1.0006919 0.9985635 0.99966383 0.99970007 1.0013185

bias f4 [32]
00000000: ceb4 8637 1f0a 613a d4cd 103a 7eac d239
00000010: de04 4fba 8a2b 403a fec3 7138 d749 f0ba
00000020: c128 b43a 16fd 50b9 c7db 3238 fcde 91ba
00000030: 5ff4 b938 ff9e 4fba 7816 13ba fe10 03ba
00000040: fae8 69ba f0f5 10ba 1892 013a b028 1a3a
00000050: 25f6 fc39 dec5 553a a9c5 adba 4457 423a
00000060: 5fbb 713a b3e8 acb8 200a 54ba 5925 59b9
00000070: 7316 49ba b5f4 2039 68b8 173a 974a 89b9
1.6058239e-05 0.0008584577 0.0005523835 0.00040182838 -0.00078971486 0.00073307066 5.764141e-05 -0.0018332553
0.0013745056 -0.00019930708 4.264319e-05 -0.0011129077 8.867005e-05 -0.00079201156 -0.0005610953 -0.00049997855
-0.0008922961 -0.00055298116 0.0004942729 0.00058806967 0.00048248578 0.00081547897 -0.001325776 0.0007413516
0.0009221341 -8.244943e-05 -0.0008088667 -0.00020708646 -0.00076708867 0.0001534995 0.00057876715 -0.0002618625

running_mean f4 [32]
00000000: b530 3abd 3110 1cbd 260c 6c3e 7756 073e
00000010: 31f7 8dbd 7263 183f d0df 6abd 4c6e c0bc
00000020: 5bef d73d a6e0 8e3e c7f6 86be 0a37 713b
00000030: 7b56 cebd 6140 cfbd 4c51 183e c626 763e
00000040: cc95 2e3e 0f29 f93d 0c62 583e 25ce 853e
00000050: bc03 90bd 48d5 b53d 40e4 ac3e ceb2 debd
00000060: 61ba c8be 18ec 303e 49e1 3ebe 708c ae3d
00000070: 37e6 2cbd fb61 893e 76e0 e8bd 01ea 9f3e
-0.045456607 -0.03810138 0.2305151 0.13216577 -0.06931914 0.5952674 -0.05734235 -0.023490094
0.105437 0.27905768 -0.2636015 0.0036806487 -0.100750886 -0.10119701 0.14874762 0.24038228
0.1704933 0.121660344 0.21131152 0.26133838 -0.07031962 0.08878571 0.3376789 -0.10873948
-0.39204696 0.17277563 -0.18640627 0.0852288 -0.042211737 0.26832566 -0.113709375 0.31233218

running_var f4 [32]
00000000: b6ba 133e efd2 fa3d 643c 863e a6f6 633e
00000010: ee1a 563e f348 fb3e 4104 433e ee09 293e
00000020: b12a 803e 3c78 a13e 13b7 223e c2ab 6d3e
00000030: 7651 263e 55f9 2c3e 16b0 7b3e da2e 383e
00000040: dd3b 253e acf8 ac3e adcd 4c3e 55e3 a73e
00000050: 50f1 ea3d f87e 3c3e c36a 613e 9d81 f03d
00000060: bb58 db3e b519 b13e 22f8 593e c5da f13d
00000070: 0645 3b3e 5182 7f3e 0bd6 0d3e 6634 513e
0.14426693 0.12247264 0.2621795 0.22262058 0.2090871 0.49079093 0.19044591 0.16507694
0.2503257 0.31537044 0.1589015 0.23210052 0.16242012 0.16891988 0.2457889 0.17986622
0.16136117 0.33783472 0.20000334 0.32790628 0.11471808 0.1840781 0.22013383 0.11743472
0.42841133 0.34589925 0.21286061 0.11809305 0.18288049 0.24952056 0.13851182 0.20430145

weight f4 [32, 32, 3, 3]
00000000: 738e 4b3d 98ae 81bb 3d9a 233d 0a0a f63b
00000010: 5949 d63c 9a09 f7bc e63e 333d 3bc5 413d
00000020: f3aa 5e3c d2c3 163b 2a82 8a3b 6717 8bbc
00000030: 195e a9bc cf67 8dbc c8fb 913b bddf fbbb
00000040: 8792 153c 45cd f8bc 62f5 5dbd 9ec6 80bc
00000050: 40a5 b1bb c39c 35bc f1b3 e5bc b152 8d3c
00000060: 18e6 40bd 989b ca3c 608e 603d 867d a53c
00000070: 1106 a7bc a5e9 013c a1dc 443c 3c79 31bc
00000080: 5f41 b83c 34b2 563c 03bf debc fdfa fa3c
00000090: 80d8 12bd e456 253d c533 123d e75e 98bc
000000a0: 3039 8e3c 1fc3 55bd e21e ea3a 48a0 673d
000000b0: 7efe 1b3d 767b cb3c 0736 bcbc 3e0a dfbc
000000c0: 8f1a c73b fad3 2ebd ec5a ff3c e73c 43bd
000000d0: d0e0 0fbc 3a63 563d 9e31 41bd 961f adbc
000000e0: 4942 0abd ca2a 3dbd 4f91 b0bc 74df 193d
000000f0: 64e7 b3bc e98d 50bd b640 b73c b65f 57bd
00000100: 7ccc 553d ad65 a93c c29c c93c 65e9 583d
00000110: 0768 02ba 4edf 07bd b129 0dbd 965c b4bc
00000120: 20a6 663d 7b02 13bd 5f42 1fbd d8c1 863c
00000130: b6c7 61bd d6d3 23bd fa25 a63c 6d94 8bba
00000140: 915d 64bd 2f96 103d 6314 353d 6253 43bd
00000150: a30e 60bb 7742 03bd 01e0 a53c 139b 023d
00000160: 19dc 673d a8c0 3c3b 6668 0d3d a65c 09bd
00000170: 33b0 29bd 042d 28bd cd4a 5c3d 67f3 173b
00000180: 9a7d 5a3d 9d07 f9bc 034b 3a3c aa44 35bd
00000190: a41e 24bc e18a 9f3c a16d a73c f9ef 423c
000001a0: 542e d73c cd65 1bbc 0f9b 003d 705d 473c
000001b0: 1338 8abb 0c13 29bd 9c0a eabc 9d5f b7bb
000001c0: a466 b6bc ae5d ce3c 72c2 f2bc f507 ffbb
000001d0: e9be 203d 94f4 493d 19c7 373d b9fb 0abd
000001e0: 0c40 a83c 23af 2fbd e25b 49bc 5bc0 dc3c
000001f0: a3fd 5abd bee5 383c e119 59bd 231c 043d
00000200: f22d 0cbd 3010 323d d210 b9bc 77a1 5dbd
00000210: 4f5a 4a3d 1801 e33c 2d7a 3d3b 5139 643b
00000220: c833 fabc c4ce 25bd f202 8d3c 6326 23ba
00000230: 5085 0ebc 8ba1 0abd de2d 30bc aea4 863c
00000240: 9d52 0e3d 8fd6 103d 0aa1 1cbd aa52 243d
00000250: 1974 1b3c 81f6 373d fffd 5f3c b396 5cbc
00000260: 6b95 3f3c adac 00bd 7b83 d33c 3715 80bb
00000270: 61f4 f43c 7529 353d 8365 3a3b 638f 6b3c
00000280: 310c 043d cf20 373d b410 1fbd 12de 3abd
00000290: 7b68 47bd 5d72 d93b b27a 87bc 0661 1c3d
000002a0: e009 f23c f379 553d fc6d 07bd aa68 34bd
000002b0: b101 e8bb cb6f cd3b 6c87 413d 66f0 7bbc
000002c0: 1a6b 0e3d c84d 4b3c 2e25 7a3c 1eea 23bc
000002d0: 50d8 003d 3de0 d73c 9072 623d 613a 813b
000002e0: bbdc 073c 9a22 1d3d 65f7 1a3d 1b85 183c
000002f0: 729f 4c3d fab8 0b3d 2297 0e3c 1e67 9ebc
00000300: 8c8e 293d 0d58 67bd 7b1a e7bc 399a f03c
00000310: c6f1 773b 97e7 443d 546d 223d 8426 a03c
00000320: 6202 93bc 12c0 003d 61ea 0bbd 1dce 8a3c
00000330: 5931 fc3b d849 32bd f1ac 843b d3ef a43b
00000340: 5ad0 a0bc f3fa 81bc 4f4f 353d 1849 c3bc
00000350: 9322 003d 3847 99bc 5064 06bd 3044 2e3d
00000360: ae97 5bbd 8b6d 2bbd 46b0 403d 66b5 5fbd
00000370: b93f 0fbd bbdd 11bd d4a0 6abc 891c c3bc
00000380: 0555 3bbd e0b5 8a3c ad52 0c3d 95b6 63bc
00000390: bc08 41bd d922 01bc 761a 2bbd ba6c bbbc
000003a0: 74a8 b9bc 2171 3bbd 2a1b 37bd 9721 f83c
000003b0: 1286 47bd 6abc bfbc 2452 53bd 94dd 23bd
000003c0: 3e02 753c 51f9 ea3c 113f e23c c78a fd3c
000003d0: 3708 80bc 00aa 4f3d a08a a8bc 25ce 4dbd
000003e0: 6d7b 27bd 5686 423d bd7a 023d 79c5 66bd
000003f0: 4527 df3c 5da2 ecbc 2ebe 6cbd 197c 71bd
0.049696397 -0.003957581 0.039942015 0.007508521 0.026158022 -0.030155946 0.043761156 0.047307234
0.013590562 0.0023004902 0.0042269425 -0.016978933 -0.020674752 -0.017261414 0.0044550635 -0.007686584
0.009129173 -0.030371318 -0.054189093 -0.015719708 -0.0054213107 -0.011084738 -0.028039904 0.017251344
-0.047094434 0.024732396 0.05482328 0.020201456 -0.020388635 0.00792924 0.012015493 -0.010832127
0.022492109 0.01310401 -0.02719069 0.030637259 -0.035851 0.04036607 0.035693903 -0.01859994
0.017361253 -0.052188035 0.0017861987 0.05654934 0.0380845 0.024839144 -0.022974981 -0.027226564
0.006076164 -0.042682625 0.031171285 -0.047665503 -0.008781627 0.052340724 -0.04716646 -0.021133225
-0.03375462 -0.046183385 -0.021553664 0.037566617 -0.021960922 -0.050916586 0.022369724 -0.05258151
0.052196965 0.020678366 0.02461088 0.052956957 -0.0004974608 -0.033171944 -0.03446359 -0.022016805
0.056310773 -0.035891037 -0.038881656 0.016449854 -0.0551221 -0.039996944 0.02028178 -0.0010649093
-0.055753294 0.035299476 0.044208895 -0.047686942 -0.0034188412 -0.032045808 0.020248415 0.03188617
0.056606386 0.0028801356 0.03452339 -0.033535622 -0.041427802 -0.041058555 0.053782273 0.002318585
0.05334244 -0.030399138 0.011370423 -0.044254936 -0.010017071 0.019475402 0.020438017 0.011898034
0.026267208 -0.00948472 0.031397875 0.012168273 -0.0042181103 -0.04127793 -0.028569512 -0.005596115
-0.02226574 0.025191154 -0.029633734 -0.007782931 0.039244566 0.049305514 0.04486761 -0.033931468
0.020538352 -0.042891633 -0.012289973 0.026947191 -0.053464543 0.011285244 -0.053003196 0.032253396
-0.034223504 0.04347247 -0.022591028 -0.054109063 0.04940253 0.027710482 0.0028911934 0.0034824202
-0.03054227 -0.04048039 0.017213318 -0.00062236766 -0.008698776 -0.033845466 -0.010753123 0.016435947
0.034746755 0.03536087 -0.038239516 0.040117897 0.009488129 0.04491282 0.013671397 -0.013463664
0.011693339 -0.031414676 0.02581953 -0.003908779 0.029901685 0.04422899 0.0028441853 0.014377448
0.03223819 0.044709023 -0.03883429 -0.04562194 -0.048683625 0.0066359476 -0.016537998 0.038178466
0.029545724 0.052118253 -0.033063874 -0.044045128 -0.0070802798 0.0062694303 0.04724829 -0.01537714
0.03477011 0.012408681 0.015267653 -0.010004548 0.03145629 0.026352042 0.055285037 0.003943727
0.008292372 0.038363077 0.03783359 0.009309079 0.049956746 0.034111954 0.008703025 -0.01933628
0.04139571 -0.056480456 -0.028210869 0.029370414 0.0037833317 0.048072424 0.039655045 0.019549616
-0.017945472 0.031433173 -0.034159068 0.016943986 0.0076963124 -0.043527454 0.0040489365 0.005033472
-0.0196306 -0.015866732 0.044265088 -0.023838565 0.031282973 -0.018710718 -0.03281051 0.042545497
-0.05361145 -0.041852515 0.047043107 -0.054616354 -0.03497288 -0.03561185 -0.014320571 -0.023817318
-0.045735378 0.016932428 0.034258533 -0.013898511 -0.04712747 -0.0078818435 -0.041773282 -0.022878993
-0.022663333 -0.045762185 -0.04470364 0.030289454 -0.048711844 -0.023405273 -0.051592007 -0.040006235
0.014954148 0.028683336 0.027617963 0.030949963 -0.015628917 0.050699234 -0.020573914 -0.050245423
-0.040889192 0.047491394 0.031855334 -0.05634067 0.027240405 -0.028886015 -0.057798557 -0.05895624

bias f4 [32]
00000000: 5407 e43c 1750 53bd bf7f 353d 1a18 6dbd
00000010: 9d33 18bd 7f27 3dbd 7275 1dbd aaf6 123a
00000020: f2d4 5e3d 3b3f fbbc 03d2 57bd 3646 1d3d
00000030: 9afa 6dbc 882e e53c 87b2 fdbc 6d4c c6bc
00000040: c20b 4a3c a952 2cbd dd0e 16bd 1853 adbb
00000050: 9d2c 1bbd a633 f238 0194 6d3c e166 98bc
00000060: f122 363d 5f09 39bd 02de f1bc 5d40 0b3d
00000070: 87bc c63c b86b 143d c718 053d b9da 21bd
0.027835526 -0.05159005 0.04431128 -0.057884313 -0.037158597 -0.046180245 -0.038442083 0.0005606214
0.0544023 -0.0306698 -0.052690517 0.038397036 -0.01452508 0.02797629 -0.030968918 -0.024206365
0.012331905 -0.04207102 -0.03663527 -0.0052894466 -0.037884343 0.000115490795 0.014500619 -0.018603744
0.044466916 -0.045174953 -0.029524807 0.03399693 0.024259819 0.03623554 0.032494333 -0.03951523

weight f4 [32]
00000000: 68ff 7f3f 98f4 7f3f 57ee 7f3f 78ac 7f3f
00000010: 4d17 803f 760f 803f 41d9 7f3f 161e 803f
00000020: bde0 7f3f 61b3 7f3f 7d08 803f 260d 803f
00000030: dcb9 7f3f 3c00 803f 9e56 803f bf08 803f
00000040: c4e2 7f3f a8ac 7f3f 310a 803f e109 803f
00000050: e305 803f 68d4 7f3f cf18 803f f004 803f
00000060: 3915 803f d3f4 7f3f d11c 803f e6c6 7f3f
00000070: 211e 803f 858f 7f3f 0130 803f 1c08 803f
0.99999094 0.99982595 0.9997305 0.9987254 1.0007111 1.0004718 0.9994088 1.0009181
0.999523 0.99883085 1.000259 1.0004013 0.99892974 1.0000072 1.0026433 1.0002669
0.9995539 0.9987283 1.000311 1.0003015 1.0001796 0.9993348 1.0007571 1.0001507
1.0006477 0.9998295 1.0008794 0.9991287 1.0009195 0.9982837 1.001465 1.0002475

bias f4 [32]
00000000: 4c78 45ba 13b0 193a 042b 0a3b 6e35 43ba
00000010: b978 f739 d06f 8239 7d71 bdba 38ce 88b9
00000020: ea7b 9db9 539d 473a 77c1 28b9 cb0c 1b3a
00000030: d474 22ba b428 143b 5951 c73a f4e8 93b9
00000040: 54c1 a839 1ab5 cb39 fd0c 9c39 0af2 2639
00000050: 5f36 d23a 213d 64ba 500c 76b9 f7ba 6939
00000060: c49a 163b fd62 b0ba 958d 8a3a bde6 6a3a
00000070: fcd0 aa39 5b0f 53ba 19a8 3a3a 7997 2eba
-0.0007532879 0.0005862724 0.0021082768 -0.00074466213 0.00047201457 0.0002487884 -0.0014453378 -0.00026093586
-0.00030037697 0.00076146907 -0.000160938 0.0005914687 -0.00061972183 0.0022607269 0.0015206739 -0.00028211589
0.00032187498 0.00038854108 0.00029764316 0.0001592116 0.0016037932 -0.00087066187 -0.00023464975 0.00022290261
0.002298043 -0.0013457235 0.0010570759 0.0008960774 0.00032580632 -0.00080512994 0.00071203854 -0.00066601444

running_mean f4 [32]
00000000: fad8 823d 5148 003e e011 efbc 8328 8e3c
00000010: 1438 843e 056c e0bc 5486 473d 7166 263d
00000020: 2b39 b53d 2a92 7bbd 48bd 4bbd 1a9b cf3d
00000030: ce9d b13e 20fb f73d 6543 9a3b d2ca c33d
00000040: 9b96 c43c ba38 edbc 064c 5ebe d079 b6bc
00000050: 2386 4d3b 1586 acbb 3121 0e3e 0577 ca3c
00000060: 60bd 2a3d 86da 9e3d adee a7be 1c2b 4cbd
00000070: 1717 3a3e c535 7b3e 77ce 933e 1247 d7bc
0.06389041 0.12527587 -0.029183328 0.017353302 0.25824034 -0.027395258 0.04871209 0.04062504
0.088487945 -0.06141869 -0.04974106 0.10137005 0.34690708 0.12108445 0.004707741 0.09560169
0.023997596 -0.028957713 -0.21708688 -0.022274882 0.003136047 -0.0052650073 0.13879849 0.024714956
0.04168451 0.07756524 -0.32799283 -0.0498458 0.1817287 0.2453223 0.28868458 -0.026279006

running_var f4 [32]
00000000: 5644 ab3d 9972 af3d 27b1 043e 587a ed3d
00000010: 3896 903e 3a70 e23d 6dba e63d dfd6 a33d
00000020: 07b6 163e 9db3 943d 5d95 d03d b888 fd3d
00000030: 21aa 3e3e d5e6 8f3e 7ed9 af3d e8ac 3b3e
00000040: 73ef 203e 8e01 e03d c8e6 533e 390e a73d
00000050: 59d3 b73d ff7e a13d 09ff 383e a7d0 b83d
00000060: 0156 113e 83b2 0e3e 79e6 953e 121f 8f3e
00000070: e6b3 a53e 9926 1f3e c422 613e 0a94 bd3d
0.083626434 0.0856678 0.12958203 0.11595601 0.28239608 0.11056562 0.11266027 0.07999968
0.14717875 0.07260821 0.10184739 0.12379593 0.18619587 0.28105798 0.08586405 0.18327677
0.15716343 0.109377965 0.20693505 0.0815701 0.08975858 0.07885551 0.18066038 0.09024172
0.14192964 0.13935284 0.292774 0.27953392 0.32363814 0.15542068 0.21985918 0.09256752
