DFA-PS/DFA-PS/Experiments/Full-GOP/HSI/backup/factor/DecisionModel_CalibrationModule.pt (torch, 277327 bytes, 81 tensors)

weight f4 [7]
0	0x3f805bb5	1.0027987
1	0x3f808b25	1.0042464
2	0x3f80830e	1.0039995
3	0x3f7efe60	0.99606895
4	0x3f80ba8c	1.005693
5	0x3f80629b	1.0030092
6	0x3f7d6b80	0.98992157

bias f4 [7]
0	0xb884a46e	-6.324878e-05
1	0xb7873928	-1.611987e-05
2	0xb7adf3c7	-2.0736725e-05
3	0x378824f7	1.6229676e-05
4	0x38a57857	7.890228e-05
5	0xb76ee04c	-1.4238129e-05
6	0xb7775f1f	-1.4744494e-05

running_mean f4 [7]
0	0x40a356d7	5.1043506
1	0x40a5776f	5.1708293
2	0x40a108a5	5.0323052
3	0x4aaef6b5	5.7332105e+06
4	0x4114bda9	9.296304
5	0x4a6a5e56	3.8398935e+06
6	0x3e52c935	0.20584567

running_var f4 [7]
0	0x42c1d5fb	96.91793
1	0x42c69815	99.297035
2	0x42bce168	94.44025
3	0x5843339e	8.5850585e+14
4	0x43ae85e0	349.0459
5	0x56478940	5.4848075e+13
6	0x3e25b9fc	0.16184229

weight f4 [16, 7, 5, 1]
0	0x3d986038	0.07440227
1	0xbdb0df60	-0.086363554
2	0x3d5ad71f	0.05342781
3	0x3cbb0ae1	0.022832336
4	0xbe058281	-0.13038065
5	0xbd8f4be7	-0.06996899
6	0x3d14b474	0.036304906
7	0xbd49ac67	-0.04923668
8	0xbd32f3de	-0.0436896
9	0xbdc26f30	-0.094938636
10	0x3cf1d2de	0.029519495
11	0x3ab5e64d	0.0013877839
12	0xbe0c8c82	-0.13725474
13	0x3decea18	0.11568087
14	0xbd8257a5	-0.06364373
15	0xbc2ca206	-0.010536676
16	0x3d512c61	0.051067714
17	0x3d743770	0.05962318
18	0xbde2a29e	-0.11066173
19	0xbe12c066	-0.14331207
20	0xbdf71484	-0.1206446
21	0xbdadab87	-0.08479982
22	0x3d8ed43c	0.06974074
23	0xbdc777f3	-0.097396754
24	0x3e271c4b	0.16319387
25	0xbda14744	-0.07874921
26	0xbd58ca24	-0.05292715
27	0xbded5701	-0.1158886
28	0xbe141ca4	-0.1446405
29	0xbddfdbae	-0.109305725
30	0x3c96e658	0.018420383
31	0xbc8e9b0b	-0.017407915
32	0xbe20b09c	-0.15692371
33	0xbd9cd654	-0.07658067
34	0x3e1783b4	0.14796335
35	0xbe094487	-0.13405047
36	0x3e019bb1	0.12657048
37	0x3dfa5917	0.12224024
38	0xbdbe831b	-0.0930235
39	0xbdd78c5e	-0.1052482
40	0x3e10d32f	0.1414306
41	0xbcf85561	-0.03031415
42	0x3e0b0f64	0.1358009
43	0x3e18306f	0.14862226
44	0xbda3f2e0	-0.08005309
45	0x3e198e61	0.1499572
46	0x3cc002d5	0.02343885
47	0x3d9b35b4	0.075786024
48	0xbd0fbd52	-0.03509266
49	0x3d9b906a	0.07595904
50	0xbe21f54d	-0.15816231
51	0x3d62a3f5	0.055332143
52	0xbdbac8a5	-0.09120301
53	0xbe1f4e4b	-0.1555721
54	0x3e08e265	0.13367613
55	0xbc775f51	-0.015098409
56	0x3d6e73d7	0.058215942
57	0xbe208a41	-0.1567774
58	0x3d61ccd7	0.05512699
59	0xbd044f14	-0.032301977
60	0x3cac0711	0.020999463
61	0x3e135429	0.14387573
62	0xbe1dde2c	-0.15416783
63	0x3d5baba5	0.05363049
64	0x3cca2e2a	0.024680216
65	0x3d840cb9	0.06447739
66	0x3e003779	0.12521161
67	0xbdffba37	-0.124866895
68	0x3d8f3163	0.06991842
69	0x3def6cd7	0.116906814
70	0xbccac2f7	-0.02475117
71	0xbe1cc374	-0.15308934
72	0x3c97f928	0.018551424
73	0xbd1dd5b3	-0.038533878
74	0x3e289bd8	0.164657
75	0xbdc3db5f	-0.09563326
76	0xbd35821e	-0.044313543
77	0x3bd8df04	0.0066183824
78	0xbe076f1a	-0.13225976
79	0xbd0b306f	-0.033981737
80	0x3dc60849	0.09669549
81	0xbd82fd8e	-0.06396018
82	0xbd9fb431	-0.07798041
83	0x3cc76065	0.024337957
84	0xbd7e754a	-0.062123574
85	0xbda6c0aa	-0.081422165
86	0x3d29c01a	0.041442968
87	0xbd3d4935	-0.046212394
88	0xbd850417	-0.06494921
89	0x3dba2990	0.09089959
90	0xbdbecbd4	-0.09316221
91	0x3dd582e8	0.10425359
92	0xbd26fce2	-0.04076851
93	0x3dc2c67e	0.09510516
94	0x3d1be22b	0.038057487
95	0xbd08a8bb	-0.03336404
96	0xbd71cf05	-0.05903532
97	0xbd8e495a	-0.069475845
98	0xbda0ed88	-0.078578055
99	0xbdd85f75	-0.10565082
100	0x3e02543d	0.12727447
101	0x3db14f4b	0.08657702
102	0xbd1b362f	-0.03789347
103	0xbd72f718	-0.05931768
104	0xbdaed373	-0.085364245
105	0xbe1da6a5	-0.15395601
106	0x3d09e087	0.03366139
107	0xbdb7094f	-0.08937322
108	0xbb54d7cc	-0.0032477258
109	0x3da6eecc	0.08151016
110	0xbdd7d317	-0.10538309
111	0xbd7c3948	-0.061578065
112	0x3c2432fc	0.010021921
113	0x3e1a93d1	0.1509545
114	0x3db308ae	0.0874189
115	0x3d69c665	0.05707397
116	0xbcc8f384	-0.02453018
117	0x3e1f91b3	0.15582924
118	0x3e0e8f79	0.13921918
119	0xbbcb20c9	-0.0061989767
120	0xbd94501d	-0.07241843
121	0xbd02b30c	-0.031909034
122	0x3d761d56	0.06008657
123	0xbe219941	-0.15781118
124	0xbd0cbf39	-0.03436205
125	0x3e278d3d	0.16362472
126	0x3dc3ecb3	0.09566631
127	0x3e0fecff	0.1405525
128	0x3e12bf73	0.14330845
129	0xbe049a35	-0.1294945
130	0x3e0c6f88	0.13714421
131	0x3d107fff	0.035278317
132	0xbddce5ba	-0.10786004
133	0xbe00419a	-0.12525025
134	0xbe138b2e	-0.14408562
135	0xbccf3a47	-0.025296343
136	0xbd3de3cf	-0.046359833
137	0x3e19c393	0.15016012
138	0xbd8790d2	-0.06619419
139	0xbe09f429	-0.13472046
140	0x3d9fcd9c	0.07802889
141	0x3e18ba0c	0.14914721
142	0x3d115ed1	0.035490815
143	0x3cda18c4	0.026623137
144	0x3e227d69	0.15868153
145	0xbcd1a1db	-0.025589874
146	0xbce0e41b	-0.02745252
147	0xbd488fd8	-0.048965305
148	0x3cd457b4	0.025920726
149	0x3dc75418	0.097328365
150	0xbcd02866	-0.025409888
151	0x3c23846d	0.009980303
152	0x3d90cba8	0.07070094
153	0x3e1215a6	0.1426607
154	0x3b8b100b	0.004243856
155	0xbe1d1d28	-0.15343153
156	0x3e0166f0	0.12636924
157	0x3d6b4a61	0.05744398
158	0x3c9f203f	0.019424556
159	0x3db6636c	0.08905682
160	0x3d4fb1c7	0.05070665
161	0x3e1b6dd4	0.15178615
162	0xb8976d31	-7.2205796e-05
163	0xbc8fae66	-0.017539214
164	0xbceee73e	-0.029163
165	0x3c7edbc5	0.015555327
166	0xbd96e3aa	-0.07367642
167	0x3deaac93	0.11458697
168	0xbda5a36e	-0.08087812
169	0x3d1c3411	0.038135592
170	0x3d4f58ad	0.050621677
171	0x3bea75af	0.0071551423
172	0xbdca5775	-0.09879962
173	0xbe010e73	-0.12603168
174	0xbdc40113	-0.095705174
175	0x3c7b9299	0.015354776
176	0xbcd21c28	-0.025648192
177	0xbd6bbc1d	-0.057552446
178	0xbd91774f	-0.071028344
179	0xbd8bb41b	-0.06821462
180	0x3dca5b6b	0.09880718
181	0x3dd291fc	0.102817506
182	0x3e0a013e	0.13477036
183	0x3e1a3ee7	0.15063058
184	0xbe2413d3	-0.16023187
185	0x3c8dc4d2	0.017305765
186	0xbe157ff5	-0.14599593
187	0xbe013c82	-0.12620738
188	0x3ca4b567	0.02010603
189	0x3dc41e6f	0.09576117
190	0xbd3de1b7	-0.046357837
191	0x3c218b15	0.00985982
192	0xbdfa9e08	-0.12237173
193	0x3e159683	0.14608197
194	0xbdc86d11	-0.09786428
195	0xbcfdd84f	-0.030986933
196	0x3e21f8ce	0.15817568
197	0xbd07e465	-0.0331768
198	0x3dc7fe6f	0.09765326
199	0x3e216227	0.15760098
200	0xbdf037e8	-0.11729413
201	0x3d9483c5	0.072516955
202	0xbcc2569b	-0.023722937
203	0x3e10c645	0.14138134
204	0xbe1e3694	-0.15450507
205	0x3d36fd89	0.044675384
206	0x3e0ca2cd	0.13733979
207	0xbca76322	-0.020433012
208	0xbe03090e	-0.12796423
209	0xbcf1ea0f	-0.029530553
210	0x3dd00793	0.10157695
211	0x3d68fd3f	0.05688214
212	0x3e19ceb4	0.15020257
213	0x3d248376	0.040164433
214	0xbd356f9b	-0.04429589
215	0x3d6edc6d	0.058315683
216	0x3d18bf6a	0.03729192
217	0x3e0f2f89	0.13982977
218	0xbdac7971	-0.084216006
219	0xbd976778	-0.07392782
220	0xbd066c16	-0.032817923
221	0x3d3720c4	0.044708982
222	0x3e08aa96	0.13346323
223	0xbd1ec913	-0.038765978
224	0x3ceb07f1	0.02869031
225	0xbdad2b93	-0.08455577
226	0xbdffaa56	-0.12483661
227	0xbdd7987c	-0.10527131
228	0xbe24c8f8	-0.16092288
229	0x3d81d75a	0.06339903
230	0xbdd5feec	-0.10449013
231	0xbdb7413b	-0.089479886
232	0x3de908ff	0.11378669
233	0x3dc122f7	0.09430497
234	0x3d05cfb4	0.032668784
235	0x3e0a95c3	0.13533692
236	0xbc9da663	-0.019244378
237	0xbd78cb63	-0.06074084
238	0xbdd42021	-0.103576906
239	0x3df339db	0.118762694
240	0x3d8c5f80	0.06854153
241	0xbdc2010e	-0.094728574
242	0xbde3d902	-0.11125375
243	0x3bcdbe84	0.0062788147
244	0x3e0badb7	0.13640486
245	0x3dfda2eb	0.1238459
246	0x3d172a0e	0.03690534
247	0xbd78b579	-0.06071994
248	0xbc067ad6	-0.008207997
249	0xbe274b5e	-0.16337344
250	0xbdfbdca2	-0.12297942
251	0xbe0ea293	-0.13929205
252	0xbd9e6d08	-0.0773564
253	0xbcf4333e	-0.02980959
254	0xbdf0ae57	-0.11752003
255	0xbe0292aa	-0.1275126

bias f4 [16]
0	0x3e1679c9	0.14694895
1	0xbd735b94	-0.059413508
2	0xbe27bfbd	-0.16381736
3	0xbde30240	-0.110844135
4	0xbbc721b3	-0.0060770153
5	0xbc1263a5	-0.00893489
6	0xbd5699d2	-0.05239279
7	0xbe102958	-0.14078271
8	0x3e1714ef	0.1475408
9	0x3dd165e2	0.10224511
10	0xbdc9d449	-0.09854943
11	0xbde19894	-0.1101543
12	0xbda9c579	-0.08289618
13	0x3e007ad5	0.12546857
14	0xbd0f730a	-0.03502182
15	0x3db076e8	0.086164296

weight f4 [16]
0	0x3f7ff46d	0.9998234
1	0x3f801acb	1.0008177
2	0x3f806c5a	1.0033066
3	0x3f801d66	1.0008972
4	0x3f7f8415	0.99810916
5	0x3f801afa	1.0008233
6	0x3f7f508b	0.99732274
7	0x3f7f361e	0.9969195
8	0x3f7fa9ba	0.9986836
9	0x3f8051b4	1.0024934
10	0x3f7f34cd	0.9968994
11	0x3f801769	1.0007144
12	0x3f800178	1.0000448
13	0x3f80429c	1.0020328
14	0x3f7fef94	0.9997494
15	0x3f805993	1.0027336

bias f4 [16]
0	0x3b3b74dc	0.002860359
1	0x3b6baebd	0.0035962306
2	0x3b49b30f	0.0030776893
3	0x39a45fa2	0.0003135177
4	0x3afd0cb6	0.0019306156
5	0x3a1c0460	0.00059515797
6	0xbaf464e7	-0.0018645794
7	0x3b2b2fb8	0.0026120972
8	0x3a9059c0	0.0011013076
9	0x3b0b1b6b	0.002122606
10	0x395a2d36	0.00020806942
11	0xbb14ed05	-0.0022724282
12	0xbabc40b4	-0.0014362545
13	0xba8dcb68	-0.0010818066
14	0xba82febf	-0.0009994133
15	0xba22997e	-0.00062026817

running_mean f4 [16]
0	0x3e4098f8	0.18808353
1	0xbd847f86	-0.06469636
2	0xbe1e67cd	-0.15469284
3	0xbdd2a1a3	-0.10284736
4	0xbd4c60eb	-0.049897116
5	0x3c099e34	0.008399535
6	0xbd8402ab	-0.064458214
7	0xbda8dfe3	-0.08245828
8	0x3e239673	0.1597536
9	0x3d69c9e4	0.057077304
10	0xbdccd3c7	-0.10001331
11	0xbdff08ad	-0.12452827
12	0xbe0afdfb	-0.13573448
13	0x3e084246	0.13306531
14	0x3c96daf8	0.01841496
15	0x3db0886b	0.0861977

running_var f4 [16]
0	0x3f0183c2	0.5059167
1	0x3e918c14	0.28427184
2	0x3eb5ea77	0.35530445
3	0x3e3995d7	0.18123566
4	0x3ee4622e	0.44606155
5	0x3e6c5cd1	0.23082282
6	0x3efe81ff	0.49708554
7	0x3f354953	0.7081501
8	0x3e7379c5	0.2377692
9	0x3ea5e911	0.32404378
10	0x3e6d045d	0.23146196
11	0x3ea04f44	0.31310475
12	0x3ebd2e8b	0.36949572
13	0x3ee441c0	0.44581413
14	0x3e7ce022	0.24694875
15	0x3e8126d1	0.25224927

weight f4 [16, 16, 2]
0	0xbda79796	-0.081832096
1	0xbe17faad	-0.14841719
2	0x3dbef158	0.093233764
3	0x3df6e11e	0.120546564
4	0xbdcc8beb	-0.09987625
5	0xbda26322	-0.07929064
6	0xbdfa7aee	-0.12230478
7	0x3d9b2c55	0.07576815
8	0x3d1b6c89	0.037945304
9	0x3c8d1259	0.017220663
10	0x3e135be1	0.14390518
11	0x3db59ef2	0.08868207
12	0xbce6273d	-0.028094882
13	0x3d1b0645	0.037847776
14	0x3e322cba	0.17399874
15	0xbe154c61	-0.14579917
16	0xbda1f781	-0.07908536
17	0xbdcbf659	-0.099590965
18	0xbdccfa71	-0.100087054
19	0x3e0e9686	0.13924608
20	0xbcc1b95a	-0.023647953
21	0x3da7ec24	0.08199337
22	0xbc765b40	-0.015036404
23	0xbe31a054	-0.17346317
24	0xbd8f66d8	-0.07002038
25	0xbe0c3656	-0.13692603
26	0x3dc9968b	0.09843167
27	0x3d8b116a	0.06790431
28	0xbe183f33	-0.14867859
29	0xbbe5afaf	-0.0070094685
30	0x3d86ddd5	0.0658528
31	0xbdce88f8	-0.100847185
32	0xbc8b2acc	-0.01698818
33	0x3db6d5e8	0.08927518
34	0x3e289c63	0.16465907
35	0xbdf35629	-0.11881668
36	0xbe179cb0	-0.14805865
37	0xbdf15f01	-0.11785699
38	0xbd859cc1	-0.06524039
39	0xbda63e9c	-0.081174105
40	0xbd8ff9c4	-0.07030061
41	0xbdd1e953	-0.10249581
42	0x3c9528ba	0.018207897
43	0x3c98c186	0.018646967
44	0x3dd16fc4	0.10226396
45	0x3dddd25f	0.10831141
46	0xbd08aa98	-0.033365816
47	0xbdc169fb	-0.09444042
48	0xbdc4fc15	-0.09618393
49	0x3d5a747e	0.05333375
50	0x3cdab17a	0.026695956
51	0x3de02e93	0.10946383
52	0x3e07705b	0.13226454
53	0x3e2ba527	0.1676222
54	0x3de1c480	0.110238075
55	0x3e07c051	0.13256957
56	0x3d848660	0.064709425
57	0x3e17e39e	0.14832923
58	0x3d7b227f	0.061312195
59	0x3cf6e6f5	0.030139426
60	0xbd0f9a8c	-0.035059497
61	0x3d93ee88	0.072232306
62	0x3c6ce99a	0.014459992
63	0x3db5e3b4	0.088813215
64	0xbe185d0e	-0.14879248
65	0xbd3c0b45	-0.045909185
66	0x3d38aa91	0.04508454
67	0x3d1ea081	0.038727287
68	0x3ddcd4c3	0.107827686
69	0xbdc64934	-0.09681931
70	0x3de7a747	0.113112025
71	0xbd216bfb	-0.03940962
72	0xbe18444c	-0.14869803
73	0xbd5417f6	-0.051780663
74	0x3d8beb4a	0.06831987
75	0xbe32b6d5	-0.17452557
76	0xbdc2571f	-0.09489273
77	0xbc5f6f44	-0.013637368
78	0x3c946505	0.018114576
79	0x3d0bb05d	0.03410374
80	0x3e13788e	0.14401457
81	0xbbb02af1	-0.0053762128
82	0xbd93b2da	-0.072118476
83	0x3d9cbf70	0.07653701
84	0xbd868d17	-0.065698795
85	0x3d1d14d9	0.03834996
86	0xbdd315bb	-0.10306879
87	0x3c058ec7	0.008151717
88	0xbd779942	-0.060448892
89	0xbd92f56a	-0.07175715
90	0x3d12db40	0.035853624
91	0x3db7fe1d	0.08984015
92	0xbdfe4884	-0.12416175
93	0xbc9b46a5	-0.018954584
94	0x3d802983	0.06257918
95	0x3dcac4fa	0.099008515
96	0x3e0fc62f	0.14040445
97	0xbce1722b	-0.02752026
98	0xbe165186	-0.14679536
99	0xbd753645	-0.05986621
100	0xbe11e579	-0.14247693
101	0x3da5b113	0.08090415
102	0x3ae73863	0.0017640706
103	0x3dd16d53	0.1022593
104	0x3e22dfee	0.15905735
105	0xbcebbac7	-0.028775586
106	0x3dac3a64	0.08409575
107	0x3d8688b7	0.06569045
108	0x3b9d8c3b	0.0048079765
109	0x3e2a2f83	0.16619687
110	0xbe13af66	-0.14422378
111	0x3e0072e8	0.12543833
112	0xbdc6e83d	-0.09712265
113	0x3bec0be7	0.0072035673
114	0xbc1202d3	-0.008911806
115	0x3d98e255	0.074650444
116	0x3dfe1e1f	0.12408089
117	0xbcddb079	-0.027061688
118	0xbe32c3a7	-0.17457448
119	0x3db510fb	0.088411294
120	0x3e193696	0.14962229
121	0x3e1ceadd	0.15323968
122	0xbdbe2ce3	-0.09285905
123	0x3d506c5c	0.05088459
124	0xbdab7e9d	-0.08373759
125	0xbdcac24c	-0.099003404
126	0xbe0ba990	-0.13638902
127	0xbe29bee4	-0.16576725
128	0x3c1ed04c	0.0096932165
129	0x3de7544d	0.11295376
130	0xbdd2b0d5	-0.10287634
131	0x3d415073	0.047195863
132	0xbd8b30bd	-0.067964055
133	0xbe0f0b54	-0.13969165
134	0x3d5454eb	0.051838797
135	0xbd23185d	-0.039818157
136	0xbdf594cd	-0.11991272
137	0x3dc81599	0.097697444
138	0xbd317f20	-0.043334126
139	0x3cfcc119	0.030853795
140	0x3e2a5a40	0.1663599
141	0x3bba0e22	0.0056779543
142	0xbda56711	-0.08076299
143	0xbe0bf08b	-0.13665979
144	0x3de3ecf1	0.11129177
145	0x3d7c1d10	0.061551154
146	0xbd96562b	-0.07340654
147	0xbdf4ba8f	-0.11949646
148	0x3e1ca501	0.15297319
149	0xbdc1b0cd	-0.0945755
150	0x3e2e19e4	0.17002064
151	0xbcdf0444	-0.027223714
152	0x3dcb8f0f	0.09939396
153	0xbdd5ecbe	-0.104455456
154	0x3d3e7edc	0.0465077
155	0xbd8b2f78	-0.06796163
156	0xbe02d379	-0.12775983
157	0x3e32a44d	0.17445488
158	0xbe2cdbf0	-0.16880774
159	0x3d6d3172	0.057908483
160	0x3df9a648	0.12189919
161	0xbdef26f9	-0.11677355
162	0xbe2bb570	-0.16768432
163	0x3dd170c7	0.10226589
164	0xbbe1129d	-0.006868674
165	0xbd80ed19	-0.06295223
166	0x3dfeaa61	0.12434841
167	0x3e17fbc0	0.14842129
168	0xbdfee104	-0.12445262
169	0x3e2ab981	0.16672327
170	0x3e1e1ce3	0.15440707
171	0xbdbdfa9f	-0.09276318
172	0xbe2c163b	-0.16805355
173	0xbe29279a	-0.16519013
174	0xbc1f2335	-0.009712984
175	0xbda9de07	-0.082943015
176	0x3cc95429	0.024576264
177	0xbdfe8f17	-0.12429636
178	0x3e1b3c94	0.15159827
179	0xbdd45fbf	-0.103698246
180	0x3cce4a96	0.02518205
181	0x3e201477	0.15632807
182	0xbe15189d	-0.1456017
183	0x3df81528	0.1211341
184	0xbd6ca9d3	-0.057779144
185	0x3d87236c	0.06598553
186	0x3de2abfa	0.11067958
187	0xbe19bdf9	-0.15013875
188	0x3e06b76d	0.13155909
189	0xbbb65606	-0.005564454
190	0x3e1d344b	0.1535198
191	0xbd72644c	-0.05917768
192	0x3da8522f	0.082188
193	0xbe0a63cc	-0.13514632
194	0xbceb59c3	-0.028729325
195	0x3e1d0780	0.15334892
196	0xbe35ef1c	-0.17766994
197	0xbdabfd80	-0.08397961
198	0xbe15ef34	-0.1464203
199	0x3c62e119	0.013847613
200	0xbbd7637e	-0.0065731397
201	0x3e182953	0.14859514
202	0x3ccd494f	0.02505937
203	0x3e1a3f1b	0.15063135
204	0xbe2fda60	-0.17173147
205	0xbd0c68cf	-0.03427964
206	0x3da45d77	0.080256395
207	0x3deefb38	0.1166901
208	0xbdf3a943	-0.118975185
209	0xbd5648f3	-0.052315664
210	0x3d0efa39	0.0349066
211	0x3b2205ea	0.0024722763
212	0xbdedb4b3	-0.11606731
213	0x3e1df61a	0.15425912
214	0xba29439b	-0.00064569124
215	0xbe25718d	-0.16156597
216	0xbe01acb6	-0.1266354
217	0x3d9dd70a	0.07707031
218	0x3dd8cf2f	0.10586392
219	0x3c5676bb	0.013089831
220	0x3ddac8fd	0.10682867
221	0x3e1441a2	0.14478162
222	0xbda20351	-0.07910789
223	0x3e17d6fb	0.14828102
224	0xbd3fbf6b	-0.04681341
225	0xbd909b6a	-0.07060893
226	0x3e15f32c	0.14643544
227	0xbde0c61f	-0.109752886
228	0xbd5b97a6	-0.05361142
229	0x3dc2e01b	0.09515401
230	0x3d51ea74	0.051248983
231	0x3d1d88ed	0.03846066
232	0xbe1633f7	-0.1466826
233	0x3d810f2d	0.06301723
234	0x3c438bb8	0.011935167
235	0x3d6783ec	0.056522295
236	0x3dd5589b	0.10417291
237	0x3e2726af	0.1632335
238	0xbddf1f68	-0.10894662
239	0xbe01e80d	-0.12686177
240	0xbe0cce30	-0.1375053
241	0xbe2ecf65	-0.17071302
242	0xbd03225d	-0.032015193
243	0x3de8289a	0.11335869
244	0x3d45f94f	0.048333462
245	0x3d6d9051	0.05799896
246	0xbe2236af	-0.15841173
247	0x3db61dcc	0.08892402
248	0xbe352d5f	-0.17693089
249	0xbd154bde	-0.036449306
250	0xbd9d2301	-0.07672692
251	0xbcafb99a	-0.021450806
252	0xbc9ea489	-0.019365566
253	0x3ba58ca7	0.0050521675
254	0x3e099a42	0.13437751
255	0xbde4df10	-0.11175358

bias f4 [16]
0	0xbe0577ea	-0.13034025
1	0x3df89497	0.12137716
2	0x3d1c4148	0.038148195
3	0xbc27a93f	-0.0102332225
4	0xbcf20d49	-0.02954735
5	0xbd189ec7	-0.037260797
6	0x3d4ff268	0.050768286
7	0xbce08b26	-0.027410101
8	0xbd9658c3	-0.07341149
9	0x3e1ef8c0	0.15524578
10	0x3e074acf	0.13212131
11	0xbdb1a2a6	-0.08673601
12	0xbd57f75c	-0.052726135
13	0xbe121f14	-0.14269668
14	0xbe00392f	-0.12521814
15	0x3d17f8b1	0.037102405

weight f4 [8, 16]
0	0x3dd841a9	0.10559399
1	0xbd9043e4	-0.07044199
2	0x3d9bef17	0.07613962
3	0x3e5f65f3	0.21816234
4	0x3e3274d3	0.17427377
5	0x3d26bd7e	0.040708058
6	0x3cdcc781	0.0269506
7	0xbd4097ab	-0.04701964
8	0xbe75ee6a	-0.24016729
9	0x3d786df9	0.060651753
10	0xbd3f4113	-0.04669292
11	0x3e489dcf	0.19591449
12	0xbe6f9d0c	-0.23399752
13	0xbd80a387	-0.0628119
14	0x3d82885e	0.06373666
15	0xbe4f073d	-0.20217605
16	0x3dedbae5	0.11607913
17	0xbdcdbbf1	-0.100456126
18	0x3e35de8c	0.17760676
19	0xbe03b4c0	-0.1286192
20	0x3e10b66c	0.14132088
21	0x3db8b415	0.09018723
22	0xbe7aa9af	-0.24478792
23	0xbe5ea656	-0.2174314
24	0x3e399474	0.18123037
25	0xbe77d030	-0.24200511
26	0xbc6d036e	-0.01446615
27	0xbe674432	-0.22584608
28	0x3e20a56c	0.15688103
29	0x3e0dc70a	0.13845459
30	0xbe0bf27f	-0.13666724
31	0xbe2d9e4e	-0.1695492
32	0x3e09e9f2	0.1346815
33	0x3e35eec1	0.17766859
34	0x3e654f87	0.22393619
35	0xbe5d88bc	-0.21634191
36	0xbda80382	-0.08203794
37	0xbdc93b9c	-0.09825823
38	0xbe421956	-0.18954977
39	0x3e1f817d	0.1557674
40	0x3db64623	0.08900096
41	0xbcc46776	-0.023975115
42	0xbe56c19c	-0.20972294
43	0x3d646f68	0.055770308
44	0x3c0d33a6	0.008618271
45	0x3e5df003	0.21673588
46	0x3d3e5c4c	0.04647474
47	0x3e34bc6e	0.17650005
48	0x3d1ee8f0	0.038796365
49	0x3e06499d	0.13114019
50	0xbcc331c7	-0.023827447
51	0xbe63e648	-0.22255814
52	0x3da61f50	0.08111441
53	0xbd8622b1	-0.065495856
54	0x3e510eb3	0.20415764
55	0xbe4c75ef	-0.19966863
56	0x3cb0b2b8	0.021569595
57	0x3e2e3ec0	0.17016125
58	0xbdc48882	-0.09596349
59	0xbe3769f8	-0.17911518
60	0x3dd08df7	0.10183328
61	0xbdf97682	-0.12180807
62	0xbc2be0b5	-0.010490586
63	0x3e5d6232	0.2161949
64	0xbd01519b	-0.031571966
65	0xbe11ec6d	-0.14250346
66	0x3d815a06	0.06315999
67	0x3dbb3101	0.09140206
68	0xbe5d0d0b	-0.21587007
69	0x3d220e0b	0.039564174
70	0x3dea8c12	0.114524975
71	0x3e6692bf	0.22516917
72	0x3e6eff82	0.23339656
73	0x3e451b3d	0.19248672
74	0x3d536fd1	0.05162031
75	0x3d9ee67e	0.07758807
76	0x3ccf7227	0.025322987
77	0xbe62436b	-0.2209603
78	0x3dd917a1	0.1060021
79	0x3e044e38	0.12920463
80	0xbe47ba21	-0.19504596
81	0xbdfcb41c	-0.12339041
82	0x3c93c7e9	0.01803966
83	0x3e7ed2ed	0.2488515
84	0xbe278a93	-0.16361456
85	0xbe45b7f6	-0.19308457
86	0xbde0f540	-0.10984278
87	0xbe6becf7	-0.23039614
88	0x3df5f528	0.120096505
89	0xbe37ff83	-0.17968564
90	0x3e7fc05b	0.24975722
91	0x3e445f32	0.19176939
92	0x3d51a7c5	0.051185388
93	0x3cf75ad0	0.03019467
94	0x3e541d0d	0.20714207
95	0x3df2a83a	0.11848493
96	0x3de33221	0.11093546
97	0x3e0aa1f2	0.1353834
98	0xbe68b5c8	-0.22725594
99	0x3e5c1701	0.2149315
100	0x3e7cd0b8	0.24688995
101	0xbd8d12fa	-0.06888385
102	0xbd5210d3	-0.051285576
103	0xbdd2ace8	-0.102868855
104	0x3e02c27c	0.12769502
105	0xbc5593a0	-0.013035685
106	0xbe31d78d	-0.17367382
107	0xbe0b63ce	-0.13612291
108	0x3cef1095	0.029182712
109	0x3e05866e	0.13039562
110	0xbe50ae05	-0.20378883
111	0xbcab9826	-0.020946573
112	0xbe2be56a	-0.16786733
113	0x3c22c83f	0.009935438
114	0xbe7a22cf	-0.24427341
115	0x3e4f02ed	0.2021596
116	0x3e791646	0.24324903
117	0x3d58620d	0.052827884
118	0x3e047e1f	0.12938736
119	0xbe1ed8a2	-0.15512326
120	0x3e5d3f4f	0.21606182
121	0x3e0e696a	0.139074
122	0xbdf6e1a1	-0.12054754
123	0x3e7ecf8d	0.24883862
124	0x3e1478ca	0.14499202
125	0xbd3e98e3	-0.046532523
126	0xbe3cfdec	-0.18456239
127	0xbd3582d2	-0.044314213

bias f4 [8]
0	0x3e770791	0.2412398
1	0xbe4817e4	-0.19540364
2	0xbe26fbf1	-0.16307046
3	0x3e440232	0.19141462
4	0x3e0867c5	0.13320835
5	0x3da62835	0.08113138
6	0xbe7cd352	-0.24689987
7	0x3ca9bb80	0.02071929

weight f4 [16, 8]
0	0xbdea0d62	-0.11428334
1	0x3e80dfc5	0.25170723
2	0xbe99dc1d	-0.30050746
3	0x3e5acf98	0.21368253
4	0xbdabbf12	-0.08386053
5	0x3d35c10b	0.044373553
6	0x3e101863	0.14071803
7	0xbd93779f	-0.0720055
8	0x3e961061	0.2930937
9	0xbe8f8a96	-0.2803542
10	0xbd1699f9	-0.036767934
11	0xbdc6567e	-0.09684466
12	0x3e07c116	0.1325725
13	0xbe2cb60e	-0.16866323
14	0xbe218ba4	-0.15775925
15	0x3c80716f	0.01567909
16	0xbcd0e07f	-0.025497673
17	0xbe905752	-0.2819162
18	0xbe010009	-0.1259767
19	0x3e914859	0.2837551
20	0x3d828823	0.06373622
21	0xbdf27393	-0.1183845
22	0xbc68fedd	-0.01422092
23	0x3e790b4c	0.24320716
24	0x3e226ab1	0.15861012
25	0x3db6ad09	0.089197226
26	0x3dd5a094	0.104310185
27	0x3eab6b1c	0.33480155
28	0x3eae1be5	0.34005657
29	0x3c906012	0.017623935
30	0x3cc05e45	0.023482451
31	0x3d2a848d	0.041630317
32	0xbe6bfdfe	-0.23046109
33	0xbc0def2b	-0.008662979
34	0xbdf947b3	-0.12171879
35	0xbcb07b53	-0.02154318
36	0x3e914142	0.283701
37	0x3e50d4c8	0.2039367
38	0xbe3b27a4	-0.1827684
39	0xbe925409	-0.2857974
40	0xbe7b5ab1	-0.24546315
41	0x3eacdd1b	0.3376244
42	0xbea54081	-0.32275775
43	0xbd85ffcb	-0.06542929
44	0xbe49d6b1	-0.19710805
45	0xbe0fd8f1	-0.140476
46	0xbe6cb50e	-0.23115942
47	0xbcbb3811	-0.022853883
48	0xbd76bd4f	-0.060239132
49	0x3c4e8c26	0.012606656
50	0xbd4d41e4	-0.050111666
51	0x3e9f2e7d	0.31090155
52	0xbe8dc3e1	-0.27688506
53	0x3e7f91b7	0.2495793
54	0xbe772fff	-0.24139403
55	0x3d0522c9	0.032503877
56	0xbe6182af	-0.22022508
57	0x3e877652	0.2645746
58	0xbeb01e4a	-0.3439811
59	0xbe9b8ffd	-0.30383292
60	0xbe227d55	-0.15868123
61	0x3d99d548	0.07511383
62	0xbe7b2ea4	-0.2452951
63	0x3e02d555	0.12776692
64	0x3e69d031	0.22833325
65	0xbe883066	-0.26599425
66	0x3e9fd827	0.312196
67	0x3d295f37	0.04135057
68	0x3ead6477	0.3386571
69	0xbe535110	-0.20636392
70	0xbe357a2a	-0.17722383
71	0xbcf98740	-0.03046
72	0xbeab31db	-0.33436474
73	0x3e3caec9	0.1842605
74	0x3eaef5da	0.34171945
75	0x3debe8e3	0.11519029
76	0x3ea1b1ec	0.31581056
77	0x3b09cd17	0.0021026784
78	0x3e6bad67	0.23015366
79	0x3dac454c	0.08411655
80	0x3e8dd694	0.27702773
81	0xbe3c16c0	-0.18368053
82	0xbeb12c52	-0.34604126
83	0xbdbe8216	-0.09302156
84	0x3e5f58c4	0.21811205
85	0x3e8f6c51	0.28012326
86	0xbd81b715	-0.06333748
87	0xbeb14672	-0.34624058
88	0xbe981cc1	-0.29709437
89	0xbe959937	-0.29218456
90	0x3db38921	0.0876639
91	0xbd4ff826	-0.050773762
92	0xbd849fe3	-0.064758085
93	0xbe90b1c9	-0.2826064
94	0x3cc29b05	0.02375556
95	0xbe304979	-0.17215528
96	0xbde7dedc	-0.11321804
97	0x3ddc5680	0.10758686
98	0x3e8513c1	0.25991634
99	0x3e07a62f	0.13246988
100	0xbc1956f2	-0.009359108
101	0x3e5a5d18	0.21324575
102	0xbe9a3b8f	-0.30123565
103	0x3daf12d7	0.08548515
104	0xbe216d33	-0.15764312
105	0xbe8f7113	-0.28015956
106	0xbd8f1362	-0.06986119
107	0xbdc22a4f	-0.09480726
108	0xbe9f0aa1	-0.31062797
109	0xbd15fc9e	-0.036617868
110	0x3e1f7907	0.15573512
111	0xbea17c10	-0.31539965
112	0x3e994ddc	0.29942214
113	0x3d817d92	0.06322779
114	0x3e791742	0.24325278
115	0xbe22e49b	-0.15907519
116	0xbe2756ec	-0.16341752
117	0xbe206152	-0.15662125
118	0x3d8e44da	0.06946726
119	0x3e797dfb	0.24364464
120	0x3d125a5d	0.03573071
121	0x3e84274a	0.25811225
122	0x3d706665	0.0586914
123	0x3e908175	0.28223768
124	0xbe2a66cc	-0.16640776
125	0xbe2d1e74	-0.16906148
126	0x3e48c642	0.1960688
127	0x3ca2cce7	0.019873096

bias f4 [16]
0	0xbd920037	-0.07128947
1	0xbe31302b	-0.17303531
2	0x3e5c7de7	0.21532403
3	0x3e431071	0.1904924
4	0x3e23323a	0.15937129
5	0x3dc952df	0.098302595
6	0x3d847160	0.06466937
7	0xbe8e637d	-0.2781028
8	0xbe1c1cb1	-0.1524532
9	0xbe91d25f	-0.28480813
10	0x3e121ca0	0.14268732
11	0xbe5cd86e	-0.21566936
12	0x3e193553	0.14961748
13	0xbe1bc7ec	-0.15212983
14	0xbd8054f4	-0.062662035
15	0x3e4d51c2	0.2005072

weight f4 [1, 2, 7, 3]
0	0xbcda70ae	-0.026665058
1	0xbb9114f3	-0.004427546
2	0xbd90cc96	-0.07070272
3	0xbdcff4f0	-0.1015414
4	0x3d730b66	0.059337042
5	0xbd8156fc	-0.06315419
6	0xbdba6ad6	-0.091024086
7	0x3d0e2059	0.034698818
8	0xbd96e959	-0.07368726
9	0xbc167308	-0.009182699
10	0xbb0e29c6	-0.002169238
11	0x3ddf8cb2	0.109155074
12	0xbe084148	-0.13306153
13	0xbd57b893	-0.052666258
14	0xbda208cf	-0.07911836
15	0xbe0681d3	-0.13135462
16	0xbde95e76	-0.1139497
17	0xbcbb94df	-0.022898136
18	0x3dd34969	0.10316736
19	0xbe1d0f50	-0.15337873
20	0xbd1fed4f	-0.039044674
21	0x3dc69b4c	0.09697589
22	0x3d9b48b9	0.0758223
23	0x3d38fcb6	0.04516288
24	0x3a3bdf7b	0.0007166785
25	0x3da0463c	0.07825896
26	0x3c910b82	0.017705683
27	0xbde35e08	-0.111019194
28	0xbddaba51	-0.10680068
29	0x3b4be8ea	0.003111417
30	0xbca085e9	-0.019595103
31	0xbe108ba9	-0.14115776
32	0x3c98e0c3	0.018661862
33	0x3c945cb4	0.01811061
34	0xbc55ed2b	-0.0130570335
35	0xbdfb15d1	-0.122600205
36	0x3e1540d9	0.14575519
37	0x3b997642	0.004683287
38	0x3ccb16f3	0.024791216
39	0xbde0335f	-0.10947298
40	0xbd9e7a5f	-0.07738184
41	0x3db25b26	0.087087914

weight f4 [16]
0	0x3f7fb827	0.9989037
1	0x3f7f4f9c	0.9973085
2	0x3f7f57bf	0.99743265
3	0x3f801c6a	1.0008671
4	0x3f804e61	1.0023919
5	0x3f7f5f5b	0.99754876
6	0x3f7fd546	0.99934804
7	0x3f7fb3a9	0.99883515
8	0x3f7face4	0.99873185
9	0x3f808440	1.004036
10	0x3f803339	1.0015632
11	0x3f803014	1.0014672
12	0x3f8037d0	1.0017033
13	0x3f7fbc8a	0.9989706
14	0x3f7f5ef0	0.9975424
15	0x3f803ba6	1.0018203

bias f4 [16]
0	0x3b03cb55	0.002011021
1	0x3ac1d062	0.0014786834
2	0xbaa641f2	-0.0012684448
3	0x3a8458b9	0.0010097242
4	0x3b87292d	0.0041247816
5	0xbb27d99b	-0.002561188
6	0x3aa2073c	0.0012361775
7	0xb99e1183	-0.00030149156
8	0x38c12956	9.2106566e-05
9	0x3b89dab5	0.00420698
10	0x3a9ffea0	0.0012206621
11	0x3afb461d	0.0019170676
12	0xb95d9ec1	-0.00021135343
13	0xb9c916cc	-0.00038354693
14	0xbb180cef	-0.0023201068
15	0x3a97145c	0.0011526453

running_mean f4 [16]
0	0x3d928267	0.071537785
1	0x3d22b631	0.039724533
2	0x3db5f04b	0.08883723
3	0x3d8d6880	0.069046974
4	0x3d2c5058	0.04206881
5	0x3d3e4215	0.04644974
6	0x3d44d9fe	0.048059456
7	0x3d3d762f	0.046255287
8	0x3d71109c	0.05885373
9	0x3d4cb159	0.04997382
10	0x3d35bcfd	0.044369686
11	0x3d29850a	0.04138664
12	0x3d4c9fa1	0.04995692
13	0x3d17d3fd	0.037067402
14	0x3da05893	0.07829394
15	0x3d85bb91	0.06529916

running_var f4 [16]
0	0x3bae4537	0.0053183096
1	0x3ba9c2ce	0.005180693
2	0x3c0ce0e3	0.008598539
3	0x3c679c1d	0.014136341
4	0x3bd778ec	0.0065756943
5	0x3be71ac9	0.0070527536
6	0x3c3d9a87	0.011572487
7	0x3b2bb926	0.0026202886
8	0x3c09d6e4	0.00841305
9	0x3c44e197	0.012016675
10	0x3bd83eaf	0.0065992693
11	0x3bd6f2c7	0.006559703
12	0x3c273639	0.010205799
13	0x3b94d1cd	0.0045416118
14	0x3c56bf08	0.013107069
15	0x3c8a9339	0.016915904

weight f4 [32, 16, 3, 3]
0	0xbc3ba772	-0.011453496
1	0x3c28cd87	0.010302908
2	0xbca0a191	-0.01960829
3	0x3cd95e40	0.0265342
4	0xbda0eebf	-0.07858037
5	0x3d5f6d21	0.054547433
6	0xbcec422b	-0.028840145
7	0xbd22e28b	-0.03976683
8	0x3bb6f56c	0.005583456
9	0x3b8925d1	0.0041854163
10	0x3da4fe5c	0.08056328
11	0x3d4cce79	0.050001595
12	0x3d9d3f78	0.07678121
13	0xbcdab026	-0.026695322
14	0x3d6937ed	0.0569381
15	0x3d6e4edc	0.058180675
16	0x3d285854	0.04109986
17	0xbc93d81b	-0.018047383
18	0x3d87a6d3	0.06623616
19	0x3c76aa71	0.015055285
20	0x3d2928dc	0.041298732
21	0x3d5bda7a	0.053675152
22	0x3d372318	0.044711202
23	0x3d96e521	0.073679216
24	0x3caa6cc4	0.020803817
25	0xbcf6f41c	-0.030145697
26	0x3d5d2218	0.053987592
27	0xbda035bf	-0.07822751
28	0xbd039d2c	-0.032132313
29	0x3cb3f48c	0.021967195
30	0xbd2183c1	-0.03943229
31	0xbda1773f	-0.078840725
32	0xbd6e1445	-0.0581248
33	0x3c514a05	0.012773995
34	0x3d580117	0.052735414
35	0xbd9d2ffb	-0.07675167
36	0x3cf54861	0.02994174
37	0xbd480ede	-0.048842303
38	0x3d7af7bb	0.06127141
39	0x3d4f09bd	0.050546397
40	0x3bdbd030	0.0067081675
41	0xbd43bdf8	-0.04778859
42	0xbd449d21	-0.048001412
43	0xbd795269	-0.060869608
44	0x3d09cffc	0.033645615
45	0x3d869bef	0.06572711
46	0x3d00d049	0.031448636
47	0xbda968e5	-0.0827196
48	0xbd9ed114	-0.07754722
49	0x3cd5f397	0.02611713
50	0xbd16f542	-0.03685499
51	0x3c84b457	0.016199274
52	0x3da436fe	0.080183014
53	0x3d9a7f32	0.07543792
54	0xbc8dc9f1	-0.017308207
55	0x3d98823a	0.07446714
56	0xbc2067a4	-0.009790335
57	0x3d60c946	0.05487945
58	0xbc5d329d	-0.013500837
59	0x3d61a8e7	0.05509272
60	0x3d4ed96a	0.05050031
61	0x3c406880	0.011743665
62	0x3d62ba72	0.05535359
63	0x3a175cfc	0.00057740486
64	0xbd867cab	-0.06566747
65	0x3caa4f51	0.020789774
66	0x3d88b21a	0.06674595
67	0x3cc302a2	0.023804966
68	0xbc9f4238	-0.019440755
69	0x3d9cda3c	0.076588124
70	0x3d818ba8	0.063254654
71	0x3d2d19c1	0.04226089
72	0xbd057b84	-0.032588497
73	0xbc17aa21	-0.0092568705
74	0x3cd9d766	0.026591968
75	0x3d8c6c29	0.068565674
76	0xbd34f31f	-0.04417717
77	0xbda5f69a	-0.08103676
78	0x3d9fdb27	0.07805472
79	0xbb9a22d6	-0.00470386
80	0x3d99db9c	0.0751259
81	0xbd06ba7b	-0.032892685
82	0x3cda33f1	0.026636096
83	0x3d5e08e3	0.054207694
84	0xbd5a82ec	-0.053347513
85	0x3cbfdb04	0.023419864
86	0x3d96ae3b	0.073574506
87	0xbdacdf28	-0.08441001
88	0xbdaff41b	-0.08591481
89	0x3cd2c401	0.025728228
90	0x3d1986c6	0.037482046
91	0xbbaa36d1	-0.005194523
92	0xbcd2ab00	-0.025716305
93	0xbbf0b48b	-0.007345741
94	0x3d56ca86	0.052439235
95	0x3daa6335	0.083197035
96	0x3cd0c46c	0.025484286
97	0x3d584123	0.052796494
98	0x3d189ccb	0.037258904
99	0x3d5ae455	0.05344041
100	0xbce4199c	-0.027844243
101	0x3d50017f	0.050782677
102	0x3d1e7931	0.038689796
103	0x3d29b938	0.041436404
104	0xbce17f5e	-0.027526554
105	0xbcb23ad6	-0.02175657
106	0xbc9d0e45	-0.019171843
107	0x3d006d7c	0.031354412
108	0x3cb32b57	0.021871252
109	0x3cc0ade0	0.02352041
110	0x3d94be3a	0.07262845
111	0x3d962682	0.073315635
112	0x3d8f75c2	0.070048824
113	0x3d8f99fd	0.07011793
114	0xbc6144a0	-0.013749272
115	0xbc75f13a	-0.015011126
116	0xbd81d564	-0.06339529
117	0x3c728a4f	0.014803483
118	0x3ba27845	0.004958185
119	0x3d1dea90	0.038553774
120	0x3d826470	0.06366813
121	0x3d5ed08d	0.05439811
122	0xbc1f8160	-0.009735435
123	0xbd19015c	-0.037354812
124	0xbba4ca77	-0.0050290185
125	0xbd587295	-0.05284365
126	0xba8169bf	-0.0009873434
127	0xbc9c8ba8	-0.019109562
128	0x3d9a2f90	0.07528603
129	0x3d0c318c	0.03422694
130	0x3c073f9d	0.008254913
131	0xbcc95075	-0.024574498
132	0xbd84547a	-0.06461425
133	0x3cb5d68f	0.022197036
134	0xbc286ffa	-0.010280604
135	0xbd69e0ea	-0.05709926
136	0x3c134993	0.008989709
137	0xbc50197a	-0.012701387
138	0x3a30fab9	0.0006751228
139	0xbd8689a3	-0.06569221
140	0xbd33611c	-0.043793783
141	0x3d909ff8	0.070617616
142	0xbc9eba67	-0.019375993
143	0x3cccaaef	0.024983851
144	0xbc054ca5	-0.008135949
145	0xbd88442e	-0.06653629
146	0xbd900015	-0.07031266
147	0x3d59188b	0.05300192
148	0x3d7d45b4	0.061834052
149	0xbcb81432	-0.022470567
150	0x3d6a63d2	0.057224102
151	0x3d783dfe	0.060605995
152	0xbd471e82	-0.04861308
153	0xbd243502	-0.040089615
154	0x3d7deb59	0.061992023
155	0xbd2bb0ca	-0.041916646
156	0xbd1f5e03	-0.038908016
157	0xbd3365fa	-0.043798424
158	0x3ac883db	0.0015298085
159	0xbd7cfa0b	-0.061761897
160	0xbd8a47e8	-0.06751996
161	0xbd363990	-0.04448849
162	0x3d3f135e	0.04664933
163	0xbcdd52b2	-0.027016971
164	0x3ca57f12	0.020202193
165	0xbd53fe1c	-0.05175601
166	0xbd881a0e	-0.066455945
167	0xbd859355	-0.06522242
168	0x3d2b440b	0.041812938
169	0xbc7a10a3	-0.015262756
170	0x3d985881	0.07438756
171	0x3bb485fb	0.005509136
172	0x3d61de6b	0.055143755
173	0xbcc76dbb	-0.024344316
174	0x3b0f4758	0.0021862593
175	0xbc8939da	-0.016751219
176	0x3d339530	0.04384345
177	0x3cea45c2	0.028597716
178	0xbda17a46	-0.0788465
179	0x3cb45481	0.02201295
180	0xbcb882f5	-0.022523383
181	0x3d961076	0.073273584
182	0xbd0b6094	-0.03402765
183	0xbd12104f	-0.035660084
184	0xbd8c6328	-0.0685485
185	0xbd97aa1b	-0.07405492
186	0x3da99ae6	0.08281498
187	0xbbb175a5	-0.0054156356
188	0xbd2072d6	-0.039172016
189	0x3d4d3986	0.050103687
190	0x3d12381c	0.03569804
191	0x3d683b9c	0.056697473
192	0x3bd904ac	0.0066228714
193	0xbca77f77	-0.020446522
194	0xbd9af55a	-0.07566328
195	0x3d36f63e	0.04466843
196	0xbd8087c3	-0.062758945
197	0x3ba1e92d	0.004941127
198	0x3d8f2693	0.06989779
199	0x3c97c0ac	0.01852449
200	0xbd9a5d9a	-0.07537384
201	0x3d9fa49b	0.07795068
202	0x3cd70b46	0.026250493
203	0x3c851f24	0.0162502
204	0xbcf4fd3f	-0.029905913
205	0x3c8d6c18	0.017263457
206	0xbcdff476	-0.027338248
207	0x3cd5a85f	0.026081262
208	0x3d597af9	0.05309579
209	0xbac95b4c	-0.0015362292
210	0x3d9f84b7	0.07788985
211	0x3d7601b7	0.06006023
212	0x3d828ad7	0.06374138
213	0x3cf24c52	0.029577408
214	0x38f6d0a9	0.0001176906
215	0x3cca98ff	0.024731157
216	0xbd895753	-0.06706109
217	0xbcaf8997	-0.021427913
218	0x3d23adb3	0.039960574
219	0x3d752db6	0.059858046
220	0xbc518b25	-0.012789522
221	0x3ca7523b	0.020424953
222	0xbc8064c3	-0.015673047
223	0x3cbf4d5b	0.023352316
224	0x3b26fc66	0.002548003
225	0xbd364e54	-0.044508293
226	0x3c4b4ba9	0.0124081755
227	0x3d9854e6	0.07438068
228	0x3d6a6655	0.057226498
229	0xbdb2142b	-0.08695253
230	0xbcb54539	-0.022127734
231	0xbd1bcb24	-0.038035527
232	0x3d6b366d	0.05742495
233	0x3d69a967	0.05704632
234	0xbda566f0	-0.080762744
235	0x3d813af5	0.06310073
236	0xbd2c72f9	-0.042101834
237	0xbda8a949	-0.082354136
238	0xbd15f40e	-0.0366097
239	0xbd9e3322	-0.077245966
240	0xbd7b3f7a	-0.061339833
241	0x3c894a71	0.01675913
242	0xbd586e86	-0.05283978
243	0xbd6fc43d	-0.058536757
244	0x3d953905	0.07286266
245	0xbda05b5b	-0.07829925
246	0xbcd4888b	-0.025944015
247	0x3d0d2e1e	0.03446781
248	0x3d958542	0.073008075
249	0x3d84c900	0.0648365
250	0xbbb686a2	-0.0055702487
251	0x3c886239	0.016648399
252	0x3a87b3be	0.001035325
253	0x3d95a685	0.07307152
254	0xbd8706f5	-0.06593124
255	0xbd00d42a	-0.031452335

bias f4 [32]
0	0x3d2b681d	0.041847337
1	0x3d21914f	0.039445218
2	0xbd930e9b	-0.0718052
3	0xbc823e40	-0.015898824
4	0xbda81736	-0.08207552
5	0x3d5533fe	0.052051537
6	0xbd80e8cf	-0.06294405
7	0xbc3ac0c3	-0.011398497
8	0xbc5d3ed5	-0.01350375
9	0xbd88a571	-0.066721804
10	0x3d63a75e	0.055579536
11	0xbb3be757	-0.0028671825
12	0xbd948984	-0.072527915
13	0xbd1913c4	-0.037372366
14	0xbd258d91	-0.04041821
15	0xbd7ed042	-0.06221033
16	0x3cb2153e	0.021738645
17	0x3d367063	0.044540774
18	0xbd43445a	-0.047672607
19	0xbca9a58a	-0.020708818
20	0x3c9e72ab	0.019341787
21	0xbb980525	-0.004639285
22	0xbd7bceca	-0.061476506
23	0xbc8bcd6a	-0.017065722
24	0x3c031260	0.007999986
25	0x3cf9a815	0.030475656
26	0x3ccd1892	0.02503613
27	0xbc51146f	-0.012761219
28	0xbcb394af	-0.021921484
29	0x3c5dfdfa	0.013549322
30	0x3cc99d5b	0.024611166
31	0xbd908a37	-0.070576124

weight f4 [32]
0	0x3f7fb32e	0.9988278
1	0x3f7f95f9	0.99838215
2	0x3f802128	1.0010118
3	0x3f7f3b44	0.9969981
4	0x3f801430	1.0006161
5	0x3f802f65	1.0014464
6	0x3f7f3f81	0.99706274
7	0x3f8040e8	1.0019808
8	0x3f7fbd44	0.9989817
9	0x3f805451	1.0025731
10	0x3f7f2c3b	0.99676865
11	0x3f7f5fa9	0.9975534
12	0x3f804d1c	1.0023532
13	0x3f7ff2fa	0.9998013
14	0x3f803a7e	1.001785
15	0x3f800f93	1.0004753
16	0x3f8049b7	1.0022496
17	0x3f800673	1.0001968
18	0x3f802949	1.0012599
19	0x3f8047b9	1.0021888
20	0x3f7fd273	0.99930495
21	0x3f7fa4c9	0.9986082
22	0x3f7f5e35	0.99753124
23	0x3f80254d	1.0011383
24	0x3f800769	1.0002261
25	0x3f800063	1.0000118
26	0x3f80749a	1.0035584
27	0x3f7fc601	0.99911505
28	0x3f7f6932	0.9976989
29	0x3f7ee86a	0.99573386
30	0x3f8019af	1.0007838
31	0x3f7f5d0a	0.9975134

bias f4 [32]
0	0xbae6dfa5	-0.0017614259
1	0x39dac777	0.00041728813
2	0x3a64f385	0.0008733797
3	0xbb8ab4c0	-0.004232973
4	0x3afc1fcd	0.0019235552
5	0x3924e57f	0.00015725753
6	0xbaed9bc5	-0.0018128088
7	0x3aaa9333	0.001301384
8	0xb96be629	-0.00022497088
9	0x3adac059	0.0016689404
10	0xbad6d680	-0.001639083
11	0xb9f4d8ef	-0.00046700935
12	0x3b88f957	0.0041801143
13	0x3aecaa57	0.0018056136
14	0xbadb13c6	-0.0016714267
15	0x39c417ab	0.00037401667
16	0xba0b2ad6	-0.0005308812
17	0x38be2646	9.067035e-05
18	0x3b31c30d	0.0027124316
19	0x3b46d94c	0.0030341921
20	0xba972805	-0.0011532312
21	0x3a31f50d	0.00067885296
22	0x38d06a70	9.9380384e-05
23	0x3b549f8a	0.0032443726
24	0x3b0925c6	0.0020927056
25	0xba30e9c1	-0.0006748699
26	0x3b8d8ad3	0.0043195277
27	0xbaec2aa3	-0.0018018078
28	0xbb21ac1b	-0.0024669233
29	0xbb0a6a65	-0.0021120545
30	0x39100f25	0.00013738552
31	0x39a1f703	0.0003089235

running_mean f4 [32]
0	0x3ef60329	0.48049286
1	0xbc96c956	-0.018406551
2	0xbe8a41be	-0.27003282
3	0x3e63d60b	0.2224962
4	0xbe69a7cf	-0.2281792
5	0x3decf725	0.115705766
6	0xbe97f1a4	-0.29676545
7	0x3e8cdbf9	0.27511576
8	0xbef94f01	-0.48693088
9	0x3e07ce79	0.13262357
10	0xbdb1065e	-0.086437926
11	0xbe37ddca	-0.179557
12	0x3dce2591	0.10065759
13	0xbe92b08c	-0.2865032
14	0x3eefe76a	0.46856242
15	0xbe33c0f8	-0.1755408
16	0xbe5cc681	-0.21560098
17	0xbeb6f139	-0.35730913
18	0xbe43b86e	-0.19113323
19	0x3d7b2b79	0.061320756
20	0x3e1dadeb	0.15398376
21	0x3de90a67	0.11378937
22	0xbd06bec6	-0.03289678
23	0x3d361f6d	0.044463564
24	0xbddc8f2b	-0.107694946
25	0x3cb7edda	0.022452284
26	0xbe4e136d	-0.20124598
27	0xbe4b012a	-0.19824663
28	0xbe6fb531	-0.23408963
29	0x3d37b8d2	0.044853993
30	0xbb49a686	-0.0030769422
31	0xbd8120f1	-0.06305111

running_var f4 [32]
0	0x3e880522	0.26566416
1	0x3e709386	0.23493776
2	0x3e695a28	0.22788298
3	0x3defb03d	0.11703537
4	0x3e4f5720	0.2024808
5	0x3e3feb98	0.18742216
6	0x3e2f655b	0.17128508
7	0x3ea074bb	0.31339058
8	0x3ec033c0	0.37539482
9	0x3e224d3d	0.15849777
10	0x3e6fe44e	0.23426935
11	0x3ebbf32b	0.3670896
12	0x3e0bb9aa	0.13645044
13	0x3e2e86e0	0.17043638
14	0x3e947e33	0.29002532
15	0x3def9ec7	0.11700206
16	0x3e4be8a9	0.19912972
17	0x3e84bfce	0.25927585
18	0x3e01d364	0.12678295
19	0x3e11357f	0.14180563
20	0x3e4011df	0.18756817
21	0x3e7d3652	0.24727753
22	0x3e55787d	0.20846744
23	0x3e4b27e9	0.19839443
24	0x3e100163	0.14063029
25	0x3e3c7648	0.18404496
26	0x3e1f4b01	0.15555955
27	0x3e51e606	0.20497903
28	0x3e45b0d5	0.19305737
29	0x3e14844c	0.14503592
30	0x3e43f91b	0.19137995
31	0x3e399e03	0.18126683

weight f4 [32, 32, 3, 3]
0	0xbc98b3a4	-0.018640347
1	0x3b9103a7	0.004425484
2	0xbd175da5	-0.03695454
3	0x3c56be8c	0.013106953
4	0xbcd2212f	-0.025650589
5	0xbd551f74	-0.05203195
6	0x3d190ca7	0.03736558
7	0x3d6274c8	0.055287153
8	0x3c9ad620	0.01890093
9	0x3d300e85	0.042982597
10	0x3c9282eb	0.017884692
11	0x3cf5a0d1	0.02998391
12	0xbd5dea03	-0.05417825
13	0x3b57332d	0.00328369
14	0x3ce43941	0.027859332
15	0x3d6540a1	0.055969838
16	0xbccc7dff	-0.024962423
17	0xbd0ffd92	-0.035153933
18	0x3b2d1e16	0.0026415638
19	0x3d1e8c33	0.038707923
20	0xbd385ec3	-0.045012247
21	0xbc638860	-0.013887495
22	0x399d162c	0.00029961893
23	0x3cc210d4	0.023689665
24	0xbccde62e	-0.025134172
25	0xbcc69191	-0.024239333
26	0x3b8e549c	0.0043435823
27	0xbad3bf6c	-0.0016155071
28	0x3c0dd1c6	0.008655971
29	0x3d63334f	0.055468854
30	0xbcb3cf6c	-0.021949492
31	0x3d0f1096	0.034927927
32	0xbd352d38	-0.044232577
33	0x3c1fd294	0.009754796
34	0x3bf435cc	0.007452702
35	0xbd5639f7	-0.052301373
36	0xbc850c6e	-0.016241278
37	0x3d277437	0.040882315
38	0xbd28a63a	-0.04117415
39	0xbcdbe734	-0.026843645
40	0xba58e56d	-0.0008273933
41	0x3c8b2983	0.016987568
42	0xbd329bdc	-0.04360567
43	0xbccf90c9	-0.025337594
44	0x3d7d8e1f	0.061903115
45	0x3d2d5af4	0.042323068
46	0x3d496ddf	0.049177047
47	0x3c174ca1	0.009234578
48	0xbd4df805	-0.050285358
49	0xbc8de178	-0.017319426
50	0xbb801c31	-0.0039096107
51	0xbadc75dc	-0.0016819793
52	0x3c85a6d8	0.016314909
53	0xbd42ab08	-0.04752639
54	0x3c9ffdee	0.019530263
55	0xbc141e94	-0.0090404935
56	0xbd330251	-0.04370338
57	0x3cfb10f4	0.030647732
58	0xbd062ffc	-0.032760605
59	0x3d0af09f	0.03392088
60	0x3b1df8cd	0.0024104596
61	0x3d388444	0.045048013
62	0xbd758fd7	-0.05995163
63	0xbc16e845	-0.009210651
64	0x3c0fefbc	0.0087851845
65	0x3cd34c6e	0.02579328
66	0x3d0fca83	0.03510524
67	0x3d5ee25b	0.05441509
68	0xbcbc2927	-0.022968842
69	0x3c6ecd38	0.014575295
70	0x3d11852e	0.0355274
71	0x3d095184	0.033525005
72	0x3c9cc50b	0.019136926
73	0xbb0de4bf	-0.0021651236
74	0x3d66e23c	0.056368098
75	0x3d6636e0	0.056204677
76	0x3c27a68e	0.010232581
77	0x3d6de1b8	0.05807659
78	0xbcaceec6	-0.02110995
79	0x3cd8fef5	0.02648876
80	0x3d5fb44b	0.0546153
81	0xbb8ee8bc	-0.00436124
82	0xbd10648b	-0.035252135
83	0xbd31b98e	-0.04338985
84	0x3cf78584	0.030215032
85	0xbd34fa5b	-0.04418407
86	0xbca507bc	-0.02014529
87	0x3d0db4fb	0.034596425
88	0x3c72cfaa	0.014820019
89	0x3cfc8e1a	0.030829478
90	0x3d0d9808	0.034568816
91	0xbc1be7ba	-0.009515697
92	0x3cfe89f8	0.031071648
93	0xbd03e835	-0.03220387
94	0xbcf959ec	-0.030438386
95	0xbd52a15a	-0.051423408
96	0xbd3dafc2	-0.046310194
97	0x3cfb8ca6	0.030706715
98	0xbd634d15	-0.055493433
99	0x3cd6cff4	0.026222207
100	0x3c4436cd	0.011975956
101	0xbced9991	-0.02900389
102	0xbd51ace0	-0.051190257
103	0x3cb9d040	0.02268231
104	0xbd0fca58	-0.03510508
105	0xbd2f2839	-0.04276297
106	0xbd5615e0	-0.052266955
107	0x3cf5042a	0.029909212
108	0x3d2d12da	0.042254306
109	0x3baf84a1	0.005356387
110	0xbca77e87	-0.020446075
111	0xbc3ea36d	-0.011635643
112	0xbd2a4fc6	-0.041579984
113	0xbd1638db	-0.036675315
114	0x3ba30dba	0.0049760016
115	0xbc4e7af6	-0.012602558
116	0x3cff1ade	0.031140741
117	0xbce1b130	-0.02755031
118	0xbd02f655	-0.0319732
119	0xbd59673b	-0.053076964
120	0x3d38559f	0.04500353
121	0xbcd9a951	-0.026569994
122	0x3b4aaeee	0.003092702
123	0x3cdefb64	0.027219482
124	0xbd05f16c	-0.03270094
125	0xbd75428b	-0.059877913
126	0xbd58a7b2	-0.0528943
127	0x3cad31dc	0.021141939
128	0xbca925c1	-0.020647885
129	0x3d4b44f7	0.049626317
130	0xbcdbece9	-0.026846366
131	0x3d46e8d4	0.048561886
132	0xbb0b31ec	-0.0021239473
133	0xbd76981b	-0.060203653
134	0x3c894601	0.016757013
135	0xbb7ba36f	-0.0038396975
136	0xbd636c2e	-0.05552309
137	0xbd4d8bdd	-0.050182212
138	0xbcf7ac5a	-0.03023355
139	0xbd69d74f	-0.0570901
140	0x3d385756	0.045005165
141	0xbaac32dd	-0.0013137717
142	0xbccc390a	-0.024929542
143	0xbaf3a3de	-0.0018588265
144	0xbd6214ad	-0.0551955
145	0xbd5be520	-0.053685308
146	0x3d739a26	0.05947318
147	0xbd29d2dc	-0.041460857
148	0x3c9a69ba	0.018849242
149	0xbd2a1120	-0.041520238
150	0x3bf33c3b	0.0074229515
151	0xbc868694	-0.016421594
152	0xbcffc8af	-0.031223623
153	0x3d241a46	0.04006412
154	0x3ced1888	0.028942361
155	0x3bc58acd	0.0060285092
156	0xbd099d01	-0.033596996
157	0xbd07290a	-0.032998122
158	0xbd35f462	-0.044422515
159	0xbbf22fb7	-0.007390942
160	0x3cbb6ce1	0.022879066
161	0xbd0d48e7	-0.034493353
162	0xbcc20643	-0.023684626
163	0xbd2f258a	-0.04276041
164	0x3c64da05	0.0139679955
165	0xbbef7bd3	-0.007308462
166	0xbc368bc3	-0.01114172
167	0x3cb08570	0.021548003
168	0x3d27598e	0.04085689
169	0x3d43f8a7	0.047844555
170	0x3d23578d	0.039878417
171	0xbcd83c27	-0.02639587
172	0xbc324087	-0.010879642
173	0xbc7b8383	-0.015351179
174	0x3c8e884b	0.017398974
175	0xbc80b408	-0.015710846
176	0x3ce79297	0.028268142
177	0x3d226042	0.03964258
178	0x3d6d8c70	0.05799526
179	0xbb3911ec	-0.0028239442
180	0x3d21fdb4	0.03954859
181	0x3d00cc41	0.03144479
182	0x3cc227fa	0.023700703
183	0xbccc206d	-0.024917806
184	0x3c450e7c	0.012027379
185	0x3cc24249	0.023713248
186	0x3bfe792d	0.00776591
187	0x3d10db8c	0.035365626
188	0x3cbd6dc0	0.023123622
189	0xbc9a1c2e	-0.018812265
190	0xbc1053c8	-0.0088090375
191	0xbc99524f	-0.018716006
192	0x3d4d15a6	0.050069474
193	0xbd103daf	-0.035215076
194	0xbba18e4c	-0.004930293
195	0x3b67ca36	0.003536833
196	0x3ca71c7c	0.020399325
197	0xbd421f6e	-0.047393255
198	0x3b8848d8	0.0041590743
199	0x3d1e2603	0.03861047
200	0x3d429bf4	0.04751201
201	0xbc4ec89b	-0.01262107
202	0x3c0e371a	0.008680129
203	0xbcd3d29a	-0.025857259
204	0x3d2ed21d	0.04268085
205	0x3d39f45e	0.045399062
206	0xbc82cce5	-0.015966842
207	0xbd637738	-0.055533618
208	0x3d6b4b21	0.057444695
209	0x3bfd89f7	0.007737394
210	0xbc28c923	-0.010301861
211	0x3c3a3e83	0.011367443
212	0xb8316676	-4.2295513e-05
213	0xbd6160ff	-0.055024143
214	0xbd4b02c3	-0.04956318
215	0x3d5fec3d	0.054668654
216	0x3c153206	0.009106165
217	0x3d55d886	0.052208446
218	0x3cdaa9e0	0.02669233
219	0xbcc748aa	-0.024326641
220	0xbcbce002	-0.023056034
221	0xbba62552	-0.005070367
222	0xbd304d81	-0.043042663
223	0x3ba39859	0.0049925265
224	0xbc3abe8c	-0.011397969
225	0xbd5981f2	-0.05310244
226	0x3d0d28ba	0.034462668
227	0xbd383229	-0.04496971
228	0xbd5c5fe6	-0.053802393
229	0x3cf9e4e2	0.030504648
230	0x3d5876ec	0.052847788
231	0x3d240440	0.040043116
232	0xbae3bc9c	-0.0017374936
233	0xbd62b1a7	-0.055345204
234	0xbd1ec076	-0.038757764
235	0x3d6b91c3	0.057512056
236	0x3b05164f	0.0020307486
237	0xbd3df89c	-0.04637967
238	0xbc76dd99	-0.015067481
239	0x3c625522	0.013814243
240	0x3d59ea39	0.053201888
241	0x3d2c6d96	0.042096697
242	0x3d5d4ece	0.054030232
243	0xbcb6138f	-0.022226123
244	0x3ca57d63	0.02020139
245	0x3bd3eee9	0.0064676893
246	0xb9556036	-0.00020349104
247	0x3a9102c1	0.0011063443
248	0xbd1ddb3e	-0.038539164
249	0xbcdbd567	-0.026835157
250	0x3cfa077f	0.030521153
251	0x3d015c5a	0.031582214
252	0x3c9651e6	0.0183496
253	0x3c30b4bc	0.010785278
254	0xbd078955	-0.033089954
255	0xbcefaaae	-0.029256191

bias f4 [32]
0	0x3c09d211	0.0084119
1	0xbbca0e1d	-0.006166233
2	0xbd66c14b	-0.056336682
3	0x3d4e87ba	0.050422408
4	0xbd64f32e	-0.055895977
5	0x3c144512	0.009049671
6	0x3c7faf93	0.015605825
7	0xbd5f8159	-0.054566715
8	0x3d6d7f1e	0.057982557
9	0x3ae7922a	0.0017667462
10	0x3c9b8d08	0.018988147
11	0x3c1f8f3c	0.00973874
12	0x3d41bf7c	0.047301754
13	0x3cfed1f6	0.031105977
14	0xbd2ce3a4	-0.042209283
15	0xbbe5d9ef	-0.007014505
16	0xbc7a9d7a	-0.015296334
17	0x3b60b0b8	0.003428502
18	0xbd3675a4	-0.044545785
19	0x3d17be7a	0.037046887
20	0x3d265474	0.040607885
21	0x3d228169	0.039674196
22	0x3d095736	0.033530436
23	0x3c04779d	0.008085159
24	0xbd61524c	-0.055010125
25	0x3d12151b	0.03566466
26	0xbd0f466b	-0.034979265
27	0xbd0f4c7d	-0.034985054
28	0x3d08ad9d	0.033368696
29	0xbced5c8e	-0.028974798
30	0xbb7f80e6	-0.0038986742
31	0x3d2bf77a	0.04198406

weight f4 [32]
0	0x3f801186	1.0005348
1	0x3f7f1851	0.9964648
2	0x3f800349	1.0001003
3	0x3f7f5a62	0.9974729
4	0x3f7f43bf	0.9971275
5	0x3f7f8530	0.99812603
6	0x3f7f9098	0.9983001
7	0x3f7f7efb	0.9980313
8	0x3f80124b	1.0005583
9	0x3f808f42	1.0043719
10	0x3f803303	1.0015568
11	0x3f7f0ef4	0.9963219
12	0x3f7f934e	0.99834144
13	0x3f7fbcb8	0.99897337
14	0x3f8017be	1.0007246
15	0x3f7f58c4	0.9974482
16	0x3f805055	1.0024515
17	0x3f802c7a	1.0013573
18	0x3f7fbb34	0.99895024
19	0x3f7ffab9	0.9999195
20	0x3f7edd6b	0.99556607
21	0x3f7f8e02	0.9982606
22	0x3f8020f5	1.0010058
23	0x3f803b8b	1.0018171
24	0x3f7fc87c	0.9991529
25	0x3f80202f	1.0009822
26	0x3f802e94	1.0014215
27	0x3f804566	1.0021179
28	0x3f80257a	1.0011437
29	0x3f8014e5	1.0006377
30	0x3f805087	1.0024575
31	0x3f8079d9	1.0037185

bias f4 [32]
0	0x3b07ed8e	0.002074096
1	0xbb427687	-0.0029672699
2	0xbb77aeb3	-0.0037793338
3	0x380c1531	3.3398337e-05
4	0xb8c7fced	-9.5361705e-05
5	0x3b0abb73	0.0021168857
6	0x3aeabf0a	0.0017909717
7	0x3a62be0d	0.00086495356
8	0xb8a6e708	-7.95853e-05
9	0x39bdf1eb	0.00036229132
10	0xb9ce7d22	-0.00039384613
11	0xba84a6f1	-0.0010120553
12	0xbae3adc4	-0.0017370512
13	0x3a00e961	0.00049175887
14	0xbb84c792	-0.004052111
15	0x3a4421b9	0.00074818317
16	0x3b58e574	0.003309575
17	0xbb0f7651	-0.002189059
18	0xbac674f5	-0.0015141057
19	0x3b01e659	0.0019821136
20	0xbaf701e8	-0.0018845173
21	0x3a9ce809	0.0011971007
22	0x3a8cb4a4	0.0010734987
23	0x3a4d4237	0.0007829996
24	0xb9e2f8b7	-0.00043291386
25	0xbac955f2	-0.0015360697
26	0x3abb977d	0.0014312115
27	0xbb2d1c60	-0.0026414618
28	0x3ac67c17	0.0015143183
29	0x3b2d3552	0.0026429486
30	0x38d146b8	9.979069e-05
31	0x3adccac8	0.0016845101

running_mean f4 [32]
0	0xbd4dce5c	-0.050245628
1	0xbe1ac1ec	-0.15113038
2	0xbddc278a	-0.10749729
3	0xbe5f0b86	-0.2178174
4	0xbdf20ca3	-0.118188165
5	0xbe4e8331	-0.20167233
6	0x3d1a581a	0.037681676
7	0x3e0941c0	0.13403988
8	0xbd89ff2a	-0.06738122
9	0x3dcf3618	0.101177394
10	0x3e202e7d	0.15642734
11	0x3de071cc	0.10959205
12	0x3eb507eb	0.35357603
13	0xbda82b00	-0.082113266
14	0xbdab8a1b	-0.08375951
15	0xbda2e076	-0.07952969
16	0xbe9e3a8d	-0.30904046
17	0x3dacc8fc	0.08436772
18	0xbe629661	-0.22127678
19	0x3c68c4a9	0.014207044
20	0xbdd002d7	-0.10156792
21	0x3d065388	0.032794505
22	0xbe22a4b1	-0.15883137
23	0x3dd21d88	0.10259539
24	0xbdc07004	-0.09396365
25	0x3ebb4acc	0.36580503
26	0xbe8daf0d	-0.27672616
27	0x3d8b3675	0.06797496
28	0xbe84c6bc	-0.25932872
29	0xbea09f13	-0.31371364
30	0x3da36d8e	0.0797988
31	0xbc2fdaf4	-0.010733355

running_var f4 [32]
0	0x3d87b0dd	0.06625531
1	0x3da7ef46	0.08199935
2	0x3d9c9b1f	0.076467745
3	0x3dd304e5	0.10303668
4	0x3d6da933	0.05802269
5	0x3d944029	0.072388
6	0x3d8ea47e	0.06964968
7	0x3e0462f1	0.12928368
8	0x3dd093c2	0.101844326
9	0x3db0ddee	0.0863608
10	0x3d979d71	0.074030764
11	0x3d7b7638	0.06139204
12	0x3dc0a1fe	0.094058976
13	0x3dfc2be8	0.12313062
14	0x3dc3e02e	0.09564243
15	0x3d850633	0.06495323
16	0x3de31713	0.110883854
17	0x3e111bdc	0.14170784
18	0x3dd77913	0.1052114
19	0x3d9abcc5	0.07555536
20	0x3da66c4e	0.08126126
21	0x3d8b9c4b	0.0681692
22	0x3da13b34	0.0787262
23	0x3daa8d74	0.08327761
24	0x3dd7929e	0.10526012
25	0x3e10e515	0.14149888
26	0x3e0305ce	0.12795183
27	0x3db78e65	0.089627065
28	0x3e00f664	0.1259399
29	0x3e1147a1	0.1418748
30	0x3dce7af5	0.10082046
31	0x3ddd47c8	0.10804707
