DFA-PS/DFA-PS/Experiments/Full-GOP/HSI/backup/factor/DecisionModel_RatioModule.pt (torch, 78025 bytes, 83 tensors)

weight f4 [8, 4, 3]
0.056283794 0.025738541 -0.26515427 0.0467987 0.10376061 -0.06306577 -0.1875447 -0.0781323
0.11985253 0.024414605 -0.054624397 -0.12789635 0.13860166 0.19380835 0.22689648 0.14186174
-0.28136346 -0.26762345 -0.13044901 -0.066767044 -0.23190036 -0.06307561 -0.2554315 0.27179655
-0.04657214 0.051092148 -0.06737275 -0.1153074 0.17527407 0.15512776 0.060146898 0.28565097
0.049703445 -0.25790632 0.098924235 -0.11478709 -0.114165805 -0.064045854 0.08486523 -0.23425718
-0.24274746 -0.11100818 0.050538298 -0.09050037 0.17061216 -0.2676888 0.268328 -0.23188356
0.21512008 0.1620694 -0.033468056 -0.23545243 0.20614947 -0.08417472 0.057023216 0.029335337
0.16201723 0.2825438 0.13997485 -0.23777786 -0.06776611 -0.16901812 0.06248934 -0.12546423
0.09734254 -0.1332179 0.23500998 0.22304112 0.060066964 -0.22833602 -0.011085378 0.22152312
0.26899862 0.1226228 -0.2599768 0.010158406 -0.16866665 -0.22627065 -0.01951385 0.134108
-0.22796936 0.22189869 -0.18491775 0.2262232 -0.0023096832 -0.17207989 0.014448646 -0.16005753
-0.11819226 0.09221734 0.22085188 -0.22577317 -0.11190727 -0.00044614408 -0.1851042 0.027658245
00000000: d689 663d a2d9 d23c 4dc2 87be feaf 3f3d
00000010: 7180 d43d a028 81bd b80b 40be d403 a0bd
00000020: 3e75 f53d 2301 c83c d5bd 5fbd 43f7 02be
00000030: 98ed 0d3e b275 463e 8d57 683e 3444 113e
00000040: df0e 90be f105 89be 6d94 05be 29bd 88bd
00000050: 4a77 6dbe c92d 81bd ebc7 82be eb28 8b3e
00000060: 6ec2 3ebd 0046 513d b9fa 89bd 4926 ecbd
00000070: 0c7b 333e d0d9 1e3e 985c 763d d840 923e
00000080: d795 4b3d 4c0c 84be ca98 ca3d 7e15 ebbd
00000090: c3cf e9bd 792a 83bd d2cd ad3d 1de1 6fbe
000000a0: ca92 78be 4258 e3bd 3f01 4f3d 4258 b9bd
000000b0: f4b4 2e3e 820e 89be 4a62 893e e272 6dbe
000000c0: 7048 5c3e 85f5 253e cd15 09bd 711a 71be
000000d0: d918 533e cc63 acbd 2d91 693d a950 f03c
000000e0: d8e7 253e 95a9 903e 9155 0f3e 0a7c 73be
000000f0: f5c8 8abd 1613 2dbe d2f4 7f3d b279 00be
00000100: 875b c73d 466a 08be 75a6 703e e464 643e
00000110: c708 763d ebd0 69be 729f 35bc f5d6 623e
00000120: 30ba 893e aa21 fb3d ae1b 85be 716f 263c
00000130: f3b6 2cbe 7eb3 67be 82db 9fbc 9c53 093e
00000140: cd70 69be 6939 633e 145b 3dbe 0ea7 673e
00000150: 0e5e 17bb b635 30be 04ba 6c3c 1fe6 23be
00000160: c90e f2bd 72dc bc3d ff26 623e 1531 67be
00000170: a42f e5bd 72e8 e9b9 f58b 3dbe 8b93 e23c

bias f4 [8]
0.11437163 -0.19222057 0.15787992 -0.21305196 -0.1437609 0.19448858 0.2653612 -0.05051042
00000000: ac3b ea3d 78d5 44be 46ab 213e 4b2a 5abe
00000010: 0f36 13be 0428 473e 6cdd 873e 04e4 4ebd

weight f4 [8]
1.0000002 1.0000012 0.9999995 0.9999993 0.99999946 0.9999995 1.0000012 1.0000007
00000000: 0200 803f 0a00 803f f8ff 7f3f f4ff 7f3f
00000010: f7ff 7f3f f8ff 7f3f 0a00 803f 0600 803f

bias f4 [8]
8.438914e-07 9.543184e-07 -9.0713837e-07 2.5923407e-07 -2.926836e-07 -9.286932e-07 7.627361e-07 5.872908e-07
00000000: c787 6235 2116 8035 1382 73b5 dc2c 8b34
00000010: 2122 9db4 504b 79b5 d3be 4c35 51a6 1d35

running_mean f4 [8]
36.034435 35.18523 43.92901 18.007719 -49.006107 3.6328802 -32.96652 47.851925
00000000: 4323 1042 adbd 0c42 4eb7 2f42 cf0f 9041
00000010: 4106 44c2 1c81 6840 b7dd 03c2 5f68 3f42

running_var f4 [8]
1001.99396 3589.273 2234.654 2262.9968 7647.9136 5254.4653 2026.8342 640.417
00000000: 9d7f 7a44 5e54 6045 77aa 0b45 f36f 0d45
00000010: 4fff ee45 b933 a445 b25a fd44 b01a 2044

weight f4 [8, 8, 3]
-0.016324334 -0.027521497 -0.16831061 -0.0530394 0.091251396 0.0031174687 0.083813086 0.021315977
-0.10660013 0.12865798 0.14416687 0.021680512 -0.06288226 -0.05546764 0.08573874 -0.08861591
0.041972842 -0.1774661 0.076228246 0.09005381 -0.10350144 -0.050696876 0.14386982 0.011199394
-0.07005731 -0.031937443 0.105521925 -0.12205981 -0.043780804 -0.15642902 -0.00075837394 -0.1782817
0.13868901 0.15768008 0.028780542 0.18744145 -0.20002493 -0.04417069 -0.0042729657 0.11335535
0.18985187 0.020837784 -0.0006127138 0.019745044 -0.19928613 0.028916422 0.018871851 0.060731906
-0.15263592 -0.14531028 -0.08332654 0.12978515 0.06767362 0.093477115 0.04764741 -0.14113149
-0.07214048 0.16689225 0.06142953 -0.15252766 0.11909063 -0.15688965 0.11632461 0.08465748
0.07144126 -0.01380357 -0.14601223 -0.16231954 -0.16481099 0.05550489 -0.12444408 0.19302888
0.129487 -0.203954 0.17407832 0.14375994 0.15832783 0.025423538 -0.16360404 -0.10189667
0.16439478 0.18921342 0.008091217 0.13376296 -0.061351754 -0.12961471 0.13912797 0.1898923
-0.004029548 -0.11397864 0.095357865 0.11943511 0.0087895375 0.06607126 -0.09458423 -0.20406577
0.014158285 -0.14152248 0.041455917 0.14802474 -0.1456017 -0.14068784 0.08542261 0.12930669
-0.08833863 -0.17288795 0.16831492 0.18319963 -0.04608064 -0.1342804 0.0031391985 -0.20377287
0.13551436 -0.14140725 0.18599755 -0.10232294 -0.018101506 0.07120794 -0.040826246 -0.08225227
0.08217746 -0.019559486 -0.02113339 -0.11787106 0.042171657 0.18424964 -0.005282471 -0.17627154
-0.03276474 -0.102975756 -0.037121166 0.13510649 0.09384992 -0.15379484 0.060408395 0.009055439
-0.19366033 -0.1256937 0.14112943 -0.057687465 0.09488964 0.08746784 -0.09216031 0.1067097
0.14770418 0.09634665 -0.04601885 -0.12237436 0.17593525 -0.16165242 -0.14954203 0.10989879
0.15269579 0.16750027 0.06716642 0.1116517 -0.19999738 0.07420148 0.053393643 -0.10488721
0.18815792 0.19016711 0.033399113 -0.14704147 -0.16429636 -0.06702442 -0.09496719 0.094329506
-0.1651259 -0.068837 -0.10922791 0.042231172 -0.027437266 0.18362394 -0.11504052 -0.19734535
0.001154181 -0.17490754 -0.10839841 -0.077918805 -0.19699152 0.15207739 0.1212396 0.043346476
0.12174418 0.03612241 0.14936045 0.08185353 0.023225145 0.17410797 0.08990994 -0.046051346
00000000: 9cba 85bc c374 e1bc 9e59 2cbe d83f 59bd
00000010: 03e2 ba3d 724e 4c3b 32a6 ab3d d89e ae3c
00000020: 2b51 dabd ebbe 033e 7ba0 133e 549b b13c
00000030: 6ac8 80bd 0932 63bd cb97 af3d 427c b5bd
00000040: b7eb 2b3d acb9 35be 8e1d 9c3d 226e b83d
00000050: 90f8 d3bd 87a7 4fbd 9c52 133e aa7d 373c
00000060: 357a 8fbd d6d0 02bd e11b d83d 7efa f9bd
00000070: 8053 33bd ee2e 20be 9dcd 46ba 7a8f 36be
00000080: 7e04 0e3e e376 213e 2cc5 eb3c a7f0 3f3e
00000090: 56d3 4cbe 53ec 34bd 3c04 8cbb da26 e83d
000000a0: 8768 423e 00b4 aa3c 879e 20ba 5cc0 a13c
000000b0: aa11 4cbe 22e2 ec3c 2499 9a3c 05c2 783d
000000c0: 974c 1cbe 38cc 14be 1ba7 aabd 66e6 043e
000000d0: 7898 8a3d ee70 bf3d ee29 433d c684 10be
000000e0: 63be 93bd cde5 2a3e 889d 7b3d 3630 1cbe
000000f0: cae5 f33d aea7 20be 993b ee3d e760 ad3d
00000100: cc4f 923d 5e28 62bc 3b84 15be 1837 26be
00000110: 36c4 28be 1859 633d 8adc febd 5da9 453e
00000120: 3d98 043e 51d9 50be 9641 323e ce35 133e
00000130: b120 223e 0645 d03c d187 27be 34af d0bd
00000140: 1b57 283e 2ac1 413e 0691 043c 28f9 083e
00000150: fa4b 7bbd b8b9 04be 9077 0e3e 2173 423e
00000160: 4c0a 84bb a26d e9bd fc4a c33d 659a f43d
00000170: fe01 103c 5e50 873d 60b5 c1bd 9ef6 50be
00000180: 27f8 673c 45eb 10be aecd 293d cc93 173e
00000190: 9d18 15be 7910 10be 0df2 ae3d f968 043e
000001a0: e2ea b4bd 8a09 31be bf5a 2c3e af98 3b3e
000001b0: 0ebf 3cbd cd80 09be 03bb 4d3b d6a9 50be
000001c0: 47c4 0a3e 10cd 10be 2476 3e3e b18e d1bd
000001d0: 9c49 94bc 78d5 913d 6c39 27bd e173 a8bd
000001e0: a84c a83d 373b a0bc ee1f adbc 6266 f1bd
000001f0: 30bc 2c3d f0ab 3c3e 9418 adbb 8780 34be
00000200: 5234 06bd f4e4 d2bd 5d0c 18bd 5b59 0a3e
00000210: 6334 c03d 657c 1dbe cb6e 773d 445d 143c
00000220: e54e 46be d9b5 00be 3c84 103e b149 6cbd
00000230: 8055 c23d 5722 b33d 8bbe bcbd 9d8a da3d
00000240: c43f 173e 6451 c53d 437e 3cbd 699f fabd
00000250: 5f28 343e 3688 25be 8c21 19be 9e12 e13d
00000260: 495c 1c3e 3185 2b3e 8c8e 893d a6a9 e43d
00000270: 1dcc 4cbe f2f6 973d 4bb3 5a3d 1bcf d6bd
00000280: 78ac 403e 2bbb 423e 82cd 083d 0a92 16be
00000290: 4e3d 28be 1944 89bd 287e c2bd d42f c13d
000002a0: c416 29be 6afa 8cbd e2b2 dfbd 98fa 2c3d
000002b0: 1ec4 e0bc ea07 3c3e 5d9a ebbd e614 4abe
000002c0: e347 973a f61a 33be fcff ddbd e593 9fbd
000002d0: 25b8 49be 2dba 1b3e 784c f83d 138c 313d
000002e0: 0355 f93d 18f5 133d f2f1 183e d3a2 a73d
000002f0: a942 be3c 5c49 323e b422 b83d 56a0 3cbd

bias f4 [8]
0.09487736 0.120541394 0.07117736 -0.037032098 -0.07986105 -0.08496188 -0.08410688 0.06589171
00000000: 104f c23d 68de f63d 70c5 913d f8ae 17bd
00000010: 318e a3bd 7f00 aebd 3a40 acbd 3cf2 863d

weight f4 [8]
1.0000012 1.0000001 0.99999934 0.99999905 0.99999905 1.0000012 1.0000001 0.99999976
00000000: 0a00 803f 0100 803f f5ff 7f3f f0ff 7f3f
00000010: f0ff 7f3f 0a00 803f 0100 803f fcff 7f3f

bias f4 [8]
2.459009e-07 6.0071966e-07 -9.3042974e-07 -7.1599936e-07 -8.7510807e-07 -9.0582824e-07 -1.6821998e-07 -7.93368e-07
00000000: 5d04 8434 2441 2135 a5c2 79b5 1a33 40b5
00000010: f8e8 6ab5 0b28 73b5 f59f 34b4 d5f7 54b5

running_mean f4 [8]
0.11843346 0.08377524 -0.10792655 0.014464432 -0.15771586 -0.109024756 0.1425781 -0.06498051
00000000: 3e8d f23d 5a92 ab3d 9808 ddbd 3afc 6c3c
00000010: 4480 21be 5f48 dfbd feff 113e 8014 85bd

running_var f4 [8]
0.43747333 0.527948 0.4446553 0.41485357 0.3538627 0.38953477 0.4085267 0.38483676
00000000: 81fc df3e 9a27 073f dca9 e33e b067 d43e
00000010: 7e2d b53e 1a71 c73e 692a d13e 5309 c53e

weight f4 [8, 4, 1]
-0.46459275 -0.038723793 0.13957244 -0.060260646 -0.40567324 0.09521865 0.36786887 -0.39195552
0.2395351 0.32447517 -0.30411205 0.43768382 -0.2294153 -0.07687208 0.07528394 -0.13923967
-0.37716657 0.41490823 -0.47376186 -0.45686525 -0.11491404 0.32282585 0.21079637 0.19730982
0.14695065 -0.4517568 -0.33869588 -0.046086382 0.16932854 0.07294752 -0.36940426 0.3646406
00000000: 1adf edbe d79c 1ebd 14ec 0e3e ded3 76bd
00000010: 67b4 cfbe ff01 c33d 4f59 bc3e 65ae c8be
00000020: b048 753e 9c21 a63e 93b4 9bbe 1818 e03e
00000030: d8eb 6abe 1c6f 9dbd 772e 9a3d d894 0ebe
00000040: fa1b c1be da6e d43e ea90 f2be 3eea e9be
00000050: 0d58 ebbd 6e49 a53e 01db 573e 960b 4a3e
00000060: 3b7a 163e ab4c e7be 8c69 adbe 13c5 3cbd
00000070: 7664 2d3e 8265 953d 8e22 bdbe 2cb2 ba3e

bias f4 [8]
0.34517324 -0.31894624 0.21752012 -0.16975456 0.43444204 -0.29039645 0.46088886 -0.16794723
00000000: 8cba b03e ec4c a3be 98bd 5e3e 24d4 2dbe
00000010: 306f de3e d8ae 94be a0f9 eb3e 5cfa 2bbe

weight f4 [8]
1.0000002 0.99999934 0.9999992 1.0000011 0.9999999 0.99999964 1.0000012 1.0000012
00000000: 0200 803f f5ff 7f3f f3ff 7f3f 0900 803f
00000010: feff 7f3f faff 7f3f 0a00 803f 0a00 803f

bias f4 [8]
-9.314104e-07 7.2592464e-08 -6.5563023e-07 -5.416271e-07 -3.4935056e-07 9.188381e-07 -5.7509766e-07 -7.825913e-07
00000000: 0906 7ab5 21e4 9b33 91fe 2fb5 5564 11b5
00000010: 608e bbb4 13a6 7635 6960 1ab5 4413 52b5

running_mean f4 [8]
16.187681 112.85144 -126.358376 39.654564 132.89677 -57.828865 13.797863 -105.79853
00000000: 5f80 8141 f0b3 e142 7db7 fcc2 469e 1e42
00000010: 93e5 0443 c250 67c2 0cc4 5c41 d998 d3c2

running_var f4 [8]
84.30163 3483.208 4317.8076 436.24307 4658.284 869.31134 60.099686 3015.6394
00000000: 6f9a a842 54b3 5945 76ee 8645 1d1f da43
00000010: 4692 9145 ed53 5944 1466 7042 3b7a 3c45

weight f4 [16, 8, 3]
0.10513142 -0.16493003 0.008487343 -0.15731983 -0.04754073 -0.08665104 0.15770645 0.005171001
-0.0017526237 0.13642651 0.14507234 -0.20152159 0.029294198 0.05514136 0.030102165 0.047247987
-0.039293762 -0.041881777 0.19673954 -0.08865971 -0.10209147 -0.04092035 -0.09116504 -0.13197431
-0.039625864 0.13022915 0.056857467 -0.01792704 0.058925886 -0.19167355 -0.13844931 -0.0851396
0.15257359 -0.1760809 0.16996334 0.052444853 -0.03531156 -0.16629834 0.11581514 -0.18123114
0.12248269 0.10404698 -0.12632905 0.08108281 0.03795586 -0.1758594 0.00030190597 0.11419848
0.031939518 -0.15404254 -0.10384083 0.12021265 -0.03120599 0.059694808 -0.013891664 0.04727646
-0.123992905 -0.07694312 -0.043915324 0.10711567 0.17400026 0.17983288 -0.09213065 0.037729014
0.03274435 0.12701662 0.10051137 0.065875515 0.16729337 0.18553193 0.14321685 0.12471068
-0.17906268 -0.17493884 0.11378645 0.018404676 0.13535331 0.10489008 -0.04916665 0.18339822
0.08563511 0.014503865 0.046318498 0.095122844 -0.014640795 0.12779398 -0.12892598 0.18863605
-0.1734584 -0.05822732 0.19424337 -0.12881684 -0.1737443 -0.17105237 -0.20128705 -0.20134743
0.08037095 0.059363678 0.1941186 -0.113716654 0.0785446 0.19422899 0.04834194 -0.08208381
-0.033108167 -0.12001484 0.19957694 -0.20211235 0.18176879 -0.024996944 0.080167346 0.11106367
0.11751341 0.09439642 0.041180894 0.12554124 -0.0775379 -0.10125222 0.062049955 0.07397574
-0.16473244 -0.097017065 -0.15985385 0.010298013 0.114036106 -0.104434654 0.16464269 0.055742577
0.16335806 -0.02837151 -0.073735 -0.19600077 -0.004599264 -0.16706665 -0.034660295 0.20050901
0.07596654 0.08317046 -0.037768766 0.078822106 0.14018555 0.1130486 0.15980656 0.16708626
-0.13268138 -0.13832633 -0.1023992 0.12174424 0.09317166 -0.017752877 0.18691403 -0.07782969
0.1044725 -0.14141352 -0.16765402 0.13752466 -0.19289559 0.16584818 -0.15021211 -0.18378752
-0.1553505 0.17879152 -0.19703272 -0.08897205 0.12258232 -0.076216415 -0.042122602 -0.017339254
-0.08590107 0.14751855 0.035077684 0.040055532 -0.061249558 0.023173532 -0.04647929 0.05018164
-0.00881933 0.03301074 0.032238916 -0.01582298 0.1056392 0.123656884 -0.016829597 0.059505954
-0.19666663 -0.16773373 -0.18912224 -0.13188386 -0.17854193 -0.12290889 0.116389856 -0.16889578
-0.18658641 -0.03478021 -0.0008635974 0.18514825 0.016821517 -0.043627232 -0.082913615 0.08303858
-0.16954397 -0.13108753 -0.12371814 0.16063449 -0.101884946 0.01476215 -0.17210767 0.09557792
-0.06397455 -0.13352063 0.024457423 -0.04906676 -0.050892137 0.10685811 0.1896327 0.024664262
-0.10616795 0.107439935 0.024469202 -0.18638085 0.08503179 -0.13673711 -0.0778917 0.036455788
0.09582568 0.15153793 0.14441109 -0.036348227 0.19914058 -0.1005097 0.14804192 0.04612133
-0.16886088 0.034806646 -0.06138388 -0.04505071 -0.03226805 0.08958065 0.076984756 0.008694324
0.020004997 -0.03787289 -0.18727008 0.17128018 -0.14349799 0.09571913 -0.19208059 0.118153185
-0.058396976 -0.05716164 -0.19162731 -0.07263918 -0.021863362 -0.11269928 0.09976969 0.1094698
00000000: 244f d73d 6be3 28be 7f0e 0b3c 7318 21be
00000010: 12ba 42bd 1a76 b1bd cd7d 213e 8071 a93b
00000020: 4bb8 e5ba 64b3 0b3e d88d 143e ad5b 4ebe
00000030: 63fa ef3c e8db 613d d198 f63c 1b87 413d
00000040: 7ff2 20bd 3a8c 2bbd 1776 493e 3993 b5bd
00000050: 5515 d1bd 199c 27bd bdb4 babd 4624 07be
00000060: bb4e 22bd ca5a 053e 60e3 683d badb 92bc
00000070: 455c 713d 1246 44be a8c5 0dbe ac5d aebd
00000080: 403c 1c3e 8d4e 34be df0a 2e3e 6ad0 563d
00000090: dba2 10bd 1d4a 2abe 7d30 ed3d a894 39be
000000a0: 34d8 fa3d 9516 d53d 675c 01be bf0e a63d
000000b0: 9b77 1b3d 7d14 34be 2249 9e39 e5e0 e93d
000000c0: 03d3 023d 54bd 1dbe 80aa d4bd 0d32 f63d
000000d0: b4a3 ffbc 8b82 743d dd99 63bc f6a4 413d
000000e0: feef fdbd 5b94 9dbd 8ee0 33bd 765f db3d
000000f0: 202d 323e 1c26 383e ffae bcbd bd89 1a3d
00000100: f11e 063d a510 023e e8d8 cd3d bee9 863d
00000110: f44e 2b3e 15fc 3d3e 70a7 123e 5068 ff3d
00000120: 355c 37be 2b23 33be df08 e93d 67c5 963c
00000130: 0f9a 0a3e 9cd0 d63d f862 49bd becc 3b3e
00000140: 7661 af3d 9ea1 6d3c 77b8 3d3d c4cf c23d
00000150: f2df 6fbc 6ddc 023e 2c05 04be cf29 413e
00000160: 149f 31be c57f 6ebd bce7 463e 90e8 03be
00000170: 07ea 31be 5a28 2fbe 311e 4ebe 052e 4ebe
00000180: 8699 a43d 5427 733d 07c7 463e 47e4 e8bd
00000190: fedb a03d f7e3 463e 3302 463d 8e1b a8bd
000001a0: 6e9c 07bd 57ca f5bd e65d 4c3e 8af6 4ebe
000001b0: 9921 3a3e 64c6 ccbc c72e a43d 5975 e33d
000001c0: dfaa f03d e952 c13d 4cad 283d e28d 003e
000001d0: 31cc 9ebd 535d cfbd 1828 7e3d 9880 973d
000001e0: 9faf 28be e2b0 c6bd bab0 23be ffb8 283c
000001f0: c38b e93d d6e1 d5bd 1898 283e 5452 643d
00000200: 5647 273e 5e6b e8bc 6002 97bd 6db4 48be
00000210: 6cb5 96bb 8513 2bbe f4f7 0dbd 3c52 4d3e
00000220: 5894 9b3d 4655 aa3d 6cb3 1abd 7c6d a13d
00000230: cd8c 0f3e 0686 e73d 55a4 233e a918 2b3e
00000240: a1dd 07be 6ba5 0dbe acb6 d1bd 0b55 f93d
00000250: c9d0 be3d 7b6e 91bc 6466 3f3e 2c65 9fbd
00000260: aef5 d53d b5ce 10be 7fad 2bbe 44d3 0c3e
00000270: 6c86 45be 1bd4 293e 34d1 19be cc32 3cbe
00000280: 3414 1fbe 2015 373e f2c2 49be fa36 b6bd
00000290: 700c fb3d 5a17 9cbd c088 2cbd 0d0b 8ebc
000002a0: e6ec afbd 1a0f 173e 9ead 0f3d 4511 243d
000002b0: d1e0 7abd 6bd6 bd3c 1161 3ebd 438b 4d3d
000002c0: f37e 10bc 4536 073d f40c 043d 329f 81bc
000002d0: 5d59 d83d d23f fd3d 39de 89bc 84bc 733d
000002e0: fa62 49be 64c2 2bbe 43a9 41be 900c 07be
000002f0: b2d3 36be a8b7 fbbd ce5d ee3d 04f3 2cbe
00000300: 8210 3fbe b275 0ebd 0a63 62ba 8197 3d3e
00000310: 47cd 893c 78b2 32bd 9dce a9bd 2210 aa3d
00000320: ef9c 2dbe cf3b 06be f05f fdbd 5e7d 243e
00000330: 0ea9 d0bd f2dc 713c fe3c 30be 5bbe c33d
00000340: 1705 83bd a2b9 08be ef5a c83c 3afa 48bd
00000350: 4674 50bd 6dd8 da3d 132f 423e b50c ca3c
00000360: 956e d9bd 7809 dc3d a373 c83c 9fda 3ebe
00000370: 2625 ae3d d004 0cbe af85 9fbd aa52 153d
00000380: 4140 c43d c22c 1b3e 80e0 133e e1e1 14bd
00000390: 82eb 4b3e 08d8 cdbd 4d98 173e b8e9 3c3d
000003a0: dee9 2cbe 6a91 0e3d aa6d 7bbd 1887 38bd
000003b0: 812b 04bd 0f76 b73d 2faa 9d3d a372 0e3c
000003c0: 85e1 a33c 9a20 1bbd bac3 3fbe 1264 2f3e
000003d0: 23f1 12be 6408 c43d c6b0 44be 4cfa f13d
000003e0: ab31 6fbd 5322 6abd f339 44be dac3 94bd
000003f0: cb1a b3bc e1ce e6bd 0d54 cc3d b431 e03d

bias f4 [16]
0.1857832 -0.030317754 -0.100548655 0.01635048 0.05356598 0.15503928 -0.16161388 -0.124944665
-0.10341852 -0.061431095 0.17884582 -0.0076895 0.117456734 -0.14074706 -0.20037618 0.14459896
00000000: f43d 3e3e f05c f8bc 74ec cdbd 71f1 853c
00000010: 0068 5b3d 9ec2 1e3e 1c7e 25be fde2 ffbd
00000020: 17cd d3bd 2c9f 7bbd 5c23 373e 34f8 fbbb
00000030: 288d f03d ff1f 10be 6a2f 4dbe c011 143e

weight f4 [16]
0.9999998 1.0000005 1.0000012 0.9999992 1.0000001 1.0 0.99999905 0.9999992
1.0 1.0000001 0.99999917 1.0000007 0.9999988 1.0000005 0.99999946 1.0000012
00000000: fdff 7f3f 0400 803f 0a00 803f f3ff 7f3f
00000010: 0100 803f 0000 803f f0ff 7f3f f3ff 7f3f
00000020: 0000 803f 0100 803f f2ff 7f3f 0600 803f
00000030: ecff 7f3f 0400 803f f7ff 7f3f 0a00 803f

bias f4 [16]
8.930062e-07 9.1734694e-07 6.076802e-07 -9.3445686e-07 3.234893e-07 -4.888174e-07 7.451563e-07 -4.74967e-07
-7.711778e-09 -8.2986355e-07 -9.3540507e-07 -2.344868e-07 -9.09016e-07 -1.254666e-07 8.4012675e-07 7.3029724e-07
00000000: ebb6 6f35 9a3f 7635 771f 2335 63d7 7ab5
00000010: 08ac ad34 4737 03b5 c006 4835 f8fe feb4
00000020: c27c 04b2 cac3 5eb5 8c18 7bb5 3ec7 7bb4
00000030: 1b03 74b5 ffb7 06b4 1285 6135 a509 4435

running_mean f4 [16]
-0.025679681 0.12919803 0.18831329 -0.15078352 0.49395034 0.34121674 -0.4596905 -0.16381976
-0.17515284 0.24274051 -0.10631298 0.060828168 0.075229056 -0.06083103 -0.12824765 0.07310314
00000000: 325e d2bc 7d4c 043e 33d5 403e ff66 1abe
00000010: 0fe7 fc3e f6b3 ae3e 8e5c ebbe 5ec0 27be
00000020: 445b 33be f890 783e 9fba d9bd f526 793d
00000030: b111 9a3d f529 79bd 5a53 03be 19b7 953d

running_var f4 [16]
0.42432067 0.5825307 0.46026343 0.47904307 0.40611315 0.78218096 0.5501325 0.4300197
0.48157912 0.36929253 0.39606476 0.43483636 0.4492897 0.38227478 0.36809427 0.48347571
00000000: 8f40 d93e bb20 153f a6a7 eb3e 2245 f53e
00000010: 10ee cf3e 033d 483f 7cd5 0c3f 8b2b dc3e
00000020: 8a91 f63e e913 bd3e 00c9 ca3e dfa2 de3e
00000030: 4d09 e63e 85b9 c33e da76 bc3e 218a f73e

weight f4 [16, 16, 3]
0.04359382 0.08729618 0.0844835 -0.05941135 0.006089518 -0.048602253 0.013387384 -0.040167335
0.066141956 -0.06916618 0.019712556 -0.1313587 -0.110585116 0.09842772 -0.0935256 -0.045887865
-0.111045055 0.058974095 0.08698001 -0.13528392 0.13068813 -0.026386116 -0.031871013 0.02022033
-0.14178754 -0.05731779 0.01697014 0.07087066 0.114874616 -0.010794045 -0.13425565 0.024380527
-0.12147577 0.13213678 0.0852933 -0.07690135 0.08051737 0.035290964 -0.06580794 0.056218788
-0.07532558 -0.04218498 -0.0639943 0.041768227 0.09059475 -0.078178674 -0.012715992 0.00015816606
-0.09441312 -0.12365791 -0.0057681752 0.09757664 0.037290033 0.0886173 -0.08975072 -0.005356937
0.026714738 -0.11092196 -0.050099406 -0.13648935 0.043314073 0.07153138 -0.1230707 -0.10381382
-0.028293079 -0.10865687 0.13575965 -0.099876285 -0.08805469 -0.13452655 -0.13180909 0.120254144
0.12727667 0.05899581 0.044127654 -0.06776801 0.09122639 0.046266105 0.11875583 0.010103597
0.091596924 0.0023746677 -0.03597949 0.13465454 -0.04453932 -0.056365233 -0.017987905 0.104536675
0.014275901 0.027901357 0.104664035 0.13914806 0.06396383 -0.06380927 0.082107835 0.068719156
0.10392603 -0.12201779 0.101852015 0.018861946 0.0064404337 -0.0681817 -0.02763712 -0.14247124
-0.052419346 -0.039058123 0.13071516 -0.11288932 0.057988685 0.027318062 0.13741922 0.12396207
-0.010396179 0.061508752 -0.0030921681 0.103972845 -0.019346148 -0.07235506 -0.03574367 -0.07247398
0.0070845177 -0.05393697 0.13518466 0.018285004 -0.1333797 0.006058321 0.010023489 -0.10278271
0.017058918 0.0052529885 -0.040457062 -0.123514645 -0.058977585 0.032181825 0.025173793 0.12767258
-0.10328984 -0.06224802 -0.08475821 0.10043466 -0.047085192 -0.11660814 -0.13478902 0.06941326
-0.12499576 0.07167718 -0.07534533 0.13740371 -0.112385996 0.13757533 -0.062919155 -0.117551014
0.04740873 -0.060972534 -0.038776785 -0.106646724 -0.048756894 0.12765676 0.05794847 -0.07813392
0.024873713 -0.015575182 -0.11441325 0.06678583 0.10293093 -0.10516671 0.13731231 0.10766822
-0.09904357 -0.13748865 0.01682032 0.10078385 0.10454393 -0.028348444 0.0036161477 0.10230737
0.0927925 0.12786162 -0.0468534 -0.102612145 0.060069595 0.08567219 -0.028061667 0.078850485
-0.1291218 0.0023685885 -0.122588344 -0.040360305 0.11283984 -0.09794536 -0.04479937 0.14128186
-0.090292126 -0.10225109 -0.0012676016 -0.011833476 0.06989031 0.043404493 -0.06134528 -0.08043001
-0.12709905 0.052171126 -0.08931995 -0.08925498 -0.08501238 -0.12318249 0.036309913 -0.01146141
0.13114828 0.004361377 0.023113033 0.04840151 0.020922616 0.06063534 -0.113302216 -0.034164082
0.103411116 0.0529111 -0.0067800656 0.039072037 0.1329931 0.070201 -0.037675742 -0.03948945
-0.14432783 -0.027071781 0.12878129 -0.053439718 0.07223338 0.05914926 -0.13379374 -0.03852993
-0.008541825 0.11702031 0.109888405 -0.12076953 -0.1187835 -0.078879096 0.06870148 0.07438311
0.0780356 -0.003790287 0.08866662 -0.08676148 -0.045589633 -0.043465897 -0.0012428922 0.041392274
0.13221388 0.032559287 0.09296708 -0.09330563 -0.13302779 0.10922743 -0.14113607 -0.09902706
00000000: 6f8f 323d 57c8 b23d af05 ad3d 5159 73bd
00000010: 948a c73b 2813 47bd c256 5b3c 8186 24bd
00000020: 6f75 873d 00a7 8dbd 3a7c a13c e582 06be
00000030: 737a e2bd 7994 c93d 5a8a bfbd eaf4 3bbd
00000040: 976b e3bd d28e 713d 9322 b23d de87 0abe
00000050: 1cd3 053e b227 d8bc 2e8b 02bd 1ba5 a53c
00000060: c130 11be 0fc6 6abd f704 8b3c a324 913d
00000070: 6243 eb3d 82d9 30bc 507a 09be acb9 c73c
00000080: 4ac8 f8bd dd4e 073e 41ae ae3d 747e 9dbd
00000090: 4ae6 a43d 428d 103d 50c6 86bd ac45 663d
000000a0: 4c44 9abd 28ca 2cbd 720f 83bd 2915 2b3d
000000b0: be89 b93d 241c a0bd bc56 50bc 61d9 2539
000000c0: aa5b c1bd 5c40 fdbd f602 bdbb 43d6 c73d
000000d0: 6fbd 183d fd7c b53d 3acf b7bd 3f89 afbb
000000e0: ded8 da3c 0d2b e3bd 0935 4dbd ddc3 0bbe
000000f0: 196a 313d 0b7f 923d 7e0c fcbd 579c d4bd
00000100: e3c6 e7bc 7e87 debd 9404 0b3e f08b ccbd
00000110: 0456 b4bd 54c1 09be f6f8 06be ce47 f63d
00000120: d154 023e 97a5 713d 33bf 343d f4c9 8abd
00000130: e7d4 ba3d 8781 3d3d 4236 f33d 8f89 253c
00000140: 2b97 bb3d 50a0 1b3b 3b5f 13bd e1e2 093e
00000150: dd6e 36bd 3bdf 66bd 5f5b 93bc 5317 d63d
00000160: 78e5 693c 6391 e43c 195a d63d d47c 0e3e
00000170: 78ff 823d 6fae 82bd 2728 a83d a1bc 8c3d
00000180: 2cd7 d43d 77e4 f9bd ca97 d03d 5e84 9a3c
00000190: 460a d33b d9a2 8bbd 3e67 e2bc fbe3 11be
000001a0: abb5 56bd 69fb 1fbd 32da 053e 8432 e7bd
000001b0: 8b85 6d3d 21ca df3c a0b7 0c3e d3df fd3d
000001c0: bc54 2abc 9af0 7b3d f9a5 4abb b7ef d43d
000001d0: d07b 9ebc e42e 94bd f467 12bd 3d6d 94bd
000001e0: 3e25 e83b 03ed 5cbd d96d 0a3e 6fca 953c
000001f0: b094 08be e184 c63b 8f39 243c be7f d2bd
00000200: 25bf 8b3c 4321 ac3b 4eb6 25bd 3ff5 fcbd
00000210: 7b92 71bd 17d1 033d 4539 ce3c 9abc 023e
00000220: a089 d3bd c8f7 7ebd b695 adbd b0b0 cd3d
00000230: 67dc 40bd 40d0 eebd 2206 0abe 8a28 8e3d
00000240: c7fd ffbd 7ccb 923d a74e 9abd 8fb3 0c3e
00000250: a12a e6bd 8ce0 0c3e c2db 80bd 96be f0bd
00000260: a82f 423d 56be 79bd 68d4 1ebd 9969 dabd
00000270: 4fb5 47bd 74b8 023e 605b 6d3d ad04 a0bd
00000280: f5c3 cb3c 0c2f 7fbc 7e51 eabd 02c7 883d
00000290: 74cd d23d a561 d7bd 999b 0c3e 2881 dc3d
000002a0: 5bd7 cabd d3c9 0cbe c5ca 893c c367 ce3d
000002b0: 211b d63d ff3a e8bc e4fc 6c3b 8786 d13d
000002c0: ff09 be3d 28ee 023e 5ae9 3fbd 5126 d2bd
000002d0: 890b 763d e774 af3d 95e1 e5bc 5d7c a13d
000002e0: 8138 04be 523a 1b3b 990f fbbd d950 25bd
000002f0: 9318 e73d 9497 c8bd 8b7f 37bd 31ac 103e
00000300: 14eb b8bd 0569 d1bd a725 a6ba 32e1 41bc
00000310: a722 8f3d e9c8 313d 3045 7bbd 7db8 a4bd
00000320: 4126 02be 64b1 553d 61ed b6bd 51cb b6bd
00000330: f81a aebd 1a47 fcbd b4b9 143d a3c8 3bbc
00000340: bc4b 063e e2e9 8e3b 8b57 bd3c a940 463d
00000350: e865 ab3c c35c 783d fe0a e8bd a3ef 0bbd
00000360: 35c9 d33d 4fb9 583d 502b debb 000a 203d
00000370: 582f 083e 8bc5 8f3d e151 1abd b1bf 21bd
00000380: adca 13be a4c5 ddbc 3edf 033e 9be3 5abd
00000390: 18ef 933d 7f46 723d 3a01 09be 8fd1 1dbd
000003a0: 03f3 0bbc 58a8 ef3d 2c0d e13d 0456 f7bd
000003b0: c344 f3bd 5d8b a1bd 5db3 8c3d 2c56 983d
000003c0: 21d1 9f3d 7766 78bb d896 b53d 01b0 b1bd
000003d0: 32bc 3abd 4c09 32bd 8be8 a2ba f28a 293d
000003e0: 1363 073e e35c 053d 8665 be3d 0617 bfbd
000003f0: 7038 08be a1b2 df3d f985 10be b3ce cabd

bias f4 [16]
-0.017986253 0.103467956 0.058688313 0.0047389283 -0.029651508 -0.013875512 0.05858466 0.030120477
-0.06882894 0.06934318 -0.014630133 0.12559089 0.049310356 -0.0445963 0.107955515 -0.0121828895
00000000: e857 93bc 02e7 d33d 2863 703d 0349 9b3b
00000010: b8e7 f2bc 1e56 63bc 78f6 6f3d 38bf f63c
00000020: 30f6 8cbd cc03 8e3d 3ab3 6fbc e69a 003e
00000030: a8f9 493d 9caa 36bd c817 dd3d be9a 47bc

weight f4 [16]
1.0000012 0.99999905 0.99999994 0.9999992 0.99999976 1.0000005 1.000001 1.0
1.0000008 1.0000012 1.0000007 0.99999934 1.0000012 1.000001 0.99999887 1.0000012
00000000: 0a00 803f f0ff 7f3f ffff 7f3f f3ff 7f3f
00000010: fcff 7f3f 0400 803f 0800 803f 0000 803f
00000020: 0700 803f 0a00 803f 0600 803f f5ff 7f3f
00000030: 0a00 803f 0800 803f edff 7f3f 0a00 803f

bias f4 [16]
9.1011776e-07 -7.658703e-07 -8.459721e-07 -1.7807243e-07 3.3789984e-08 3.5551415e-07 -7.794027e-07 7.2042485e-07
-4.202705e-07 9.256937e-07 7.724538e-07 -9.357589e-07 9.260978e-07 9.2014176e-07 -8.9226194e-07 7.100612e-07
00000000: d14e 7435 3596 4db5 c316 63b5 2d34 3fb4
00000010: 7b20 1133 7edd be34 2538 51b5 3863 4135
00000020: 8aa1 e1b4 307d 7835 9f5a 4f35 dd30 7bb5
00000030: f598 7835 a9ff 7635 c683 6fb5 099b 3e35

running_mean f4 [16]
-0.008171455 0.17781845 -0.05719644 0.082862824 -0.056333352 0.03553494 -0.07983424 0.11279061
0.10397541 -0.0370567 -0.12516488 -0.075809665 -0.084358476 0.019703725 0.02878519 0.03974814
00000000: 91e1 05bc 0a16 363e d046 6abd fcb3 a93d
00000010: cdbd 66bd 168d 113d 2280 a3bd c3fe e63d
00000020: 0ff1 d43d c4c8 17bd 392b 00be 1942 9bbd
00000030: 23c4 acbd b569 a13c ebce eb3c f2ce 223d

running_var f4 [16]
0.3978449 0.3599431 0.40518525 0.38421828 0.36533126 0.3753659 0.38920507 0.37282258
0.3805356 0.36109507 0.36861238 0.50644267 0.41603345 0.41289175 0.3997898 0.39069098
00000000: 54b2 cb3e 764a b83e 7174 cf3e 42b8 c43e
00000010: b30c bb3e f62f c03e e345 c73e 9ae2 be3e
00000020: 90d5 c23e 74e1 b83e c3ba bc3e 3aa6 013f
00000030: 5602 d53e 8c66 d33e 40b1 cc3e a608 c83e

weight f4 [16, 8, 1]
-0.07217363 0.03978966 -0.30732116 -0.24934518 -0.29307452 0.16879228 -0.020380404 -0.29529932
-0.20255835 0.08566762 -0.19537018 -0.0049019135 0.1534802 -0.10573392 0.05726023 -0.33838466
-0.31005535 0.33332825 0.06877889 0.3143239 0.08363887 0.087100245 -0.035185665 0.09061996
0.22466744 0.23994198 0.119270615 -0.014102506 -0.2412061 -0.14401133 -0.28919008 -0.016193481
-0.21253513 -0.27822974 -0.15938683 -0.13974057 0.21295312 -0.20769472 -0.14452554 -0.27749252
0.23321906 -0.33311906 -0.14016338 0.00895649 -0.1892846 -0.30301943 0.15625878 0.29217044
-0.12101108 -0.03966683 0.21686947 -0.33348668 -0.038531754 0.14319026 -0.11975697 -0.18845339
-0.018009463 0.15065897 0.012887724 0.2358915 -0.21111956 -0.012743741 -0.07220163 -0.0696953
0.0472162 -0.14921449 -0.06815788 -0.01531612 -0.2058541 -0.3128137 0.040295593 -0.23320557
0.07769646 -0.069108374 0.1303969 0.21500064 0.23512997 -0.35293496 0.050388724 0.21803297
0.11721389 -0.24397063 -0.17116334 -0.09397265 0.1494002 0.13001224 -0.2030793 -0.0062898737
-0.10700304 -0.06622806 -0.070084475 0.0104054175 -0.18828063 0.033902332 0.030476533 0.16129749
0.10948861 0.27744243 0.3420327 -0.28728184 -0.31292808 0.28065857 -0.26268834 0.10371919
0.13969888 0.16259362 -0.32570916 -0.2674613 -0.090392 -0.15343215 -0.33584803 -0.33827588
-0.039897382 0.25121576 -0.09425707 0.20677145 0.20256615 0.198035 -0.27038673 0.14809056
-0.09075255 0.025633918 -0.16285947 0.1305548 -0.14613804 0.3177338 0.27633613 -0.327738
00000000: c5cf 93bd 7cfa 223d 3359 9dbe 5854 7fbe
00000010: dd0d 96be e2d7 2c3e cef4 a6bc 7931 97be
00000020: 756b 4fbe 8172 af3d 1f0f 48be 3ba0 a0bb
00000030: ea29 1d3e 078b d8bd b489 6a3d c140 adbe
00000040: 93bf 9ebe 00aa aa3e f2db 8c3d 10ef a03e
00000050: db4a ab3d 9d61 b23d d81e 10bd f596 b93d
00000060: 390f 663e 5ab3 753e 2744 f43d 330e 67bc
00000070: bbfe 76be b577 13be b910 94be 31a8 84bc
00000080: cfa2 59be 2174 8ebe 4d36 23be 2718 0fbe
00000090: 6210 5a3e edad 54be 81fe 13be 8013 8ebe
000000a0: fad0 6e3e 958e aabe fd86 0fbe 3ebe 123c
000000b0: d2d3 41be 5d25 9bbe 4d02 203e 5d97 953e
000000c0: a8d4 f7bd b079 22bd 0813 5e3e c4be aabe
000000d0: 79d3 1dbd 78a0 123e 2443 f5bd edf9 40be
000000e0: 9588 93bc 5846 1a3e 0827 533c 8b8d 713e
000000f0: ba2f 58be 20cb 50bc 73de 93bd 69bc 8ebd
00000100: c665 413d afcb 18be 5c96 8bbd 77f0 7abc
00000110: 6bcb 52be 1e29 a0be fe0c 253d 71cd 6ebe
00000120: 521f 9f3d b188 8dbd c486 053e 2129 5c3e
00000130: e9c5 703e e4b3 b4be 6864 4e3d 0944 5f3e
00000140: d60d f03d 70d3 79be 7145 2fbe bc74 c0bd
00000150: 5efc 183e ee21 053e 05f4 4fbe 491b cebb
00000160: 6924 dbbd 94a2 87bd 7388 8fbd 7c7b 2a3c
00000170: a3cc 40be 2cdd 0a3d eca9 f93c 2b2b 253e
00000180: 903b e03d ef0c 8e3e e91e af3e 9b16 93be
00000190: 1c38 a0be 7bb2 8f3e 167f 86be ba6a d43d
000001a0: 390d 0f3e f17e 263e 5ac3 a6be b0f0 88be
000001b0: 711f b9bd 511d 1dbe 46f4 abbe 7f32 adbe
000001c0: 706b 23bd 5a9f 803e da09 c1bd e5bb 533e
000001d0: 806d 4f3e b0c9 4a3e 2170 8abe 0da5 173e
000001e0: 79dc b9bd 39fe d13c a2c4 26be 28b0 053e
000001f0: 36a5 15be 01ae a23e ee7b 8d3e 46cd a7be

bias f4 [16]
0.02719459 -0.075850844 0.23600319 -0.23353514 -0.27784252 0.07204759 0.26886597 0.33250985
-0.122420624 -0.05662918 -0.2894622 0.062427193 -0.33874464 -0.3384973 0.13696069 0.15802673
00000000: 30c7 de3c b057 9bbd d2aa 713e d623 6fbe
00000010: 6041 8ebe b08d 933d cda8 893e bb3e aa3e
00000020: aab7 fabd 00f4 67bd 6434 94be a8b3 7f3d
00000030: f06f adbe 854f adbe 6c3f 0c3e c2d1 213e

weight f4 [16]
1.0000008 1.0000002 0.999999 0.9999993 1.0000006 1.0 1.0000005 1.0000004
1.0 0.9999988 1.0000004 1.0000002 1.0 0.9999996 1.0000012 1.0000001
00000000: 0700 803f 0200 803f efff 7f3f f4ff 7f3f
00000010: 0500 803f 0000 803f 0400 803f 0300 803f
00000020: 0000 803f ecff 7f3f 0300 803f 0200 803f
00000030: 0000 803f f9ff 7f3f 0a00 803f 0100 803f

bias f4 [16]
8.54474e-07 3.366963e-07 -3.0475562e-07 7.3862475e-07 -3.8261913e-08 3.1840176e-07 -5.0237816e-07 -6.752026e-07
6.7087103e-07 8.4003295e-07 2.4104875e-07 1.0357363e-07 9.2066074e-07 5.2084596e-07 -6.2421327e-07 4.1215276e-07
00000000: 025f 6535 30c3 b434 4b9d a3b4 e845 4635
00000010: 6b55 24b3 cef0 aa34 2adb 06b5 923f 35b5
00000020: e815 3435 a07e 6135 7d69 8134 356c de33
00000030: 5323 7735 43d0 0b35 9c8f 27b5 d845 dd34

running_mean f4 [16]
-0.5060122 -0.35565856 0.472647 -0.08705044 -0.8953945 0.031341728 -0.17512974 0.3079809
-0.44033128 0.275805 -0.4530761 -0.036416955 -0.08740734 -0.78361005 0.34847727 0.090805836
00000000: 048a 01bf e118 b6be cafe f13e 8047 b2bd
00000010: 9338 65bf 2f60 003d 3655 33be acaf 9d3e
00000020: 1a73 e1be 5036 8d3e 97f9 e7be f229 15bd
00000030: 9f02 b3bd ab9a 48bf 9d6b b23e 69f8 b93d

running_var f4 [16]
0.41683257 0.6158874 0.37652794 0.3864779 0.46714196 0.38630858 0.55262005 0.3846662
0.4845166 0.39973387 0.40035582 0.43227598 0.72175777 0.5748985 0.376122 0.5074819
00000000: 146b d53e ccaa 1d3f 45c8 c03e 6ee0 c53e
00000010: 3b2d ef3e 3dca c53e 8278 0d3f f8f2 c43e
00000020: 8f12 f83e eba9 cc3e 70fb cc3e 4753 dd3e
00000030: 1ec5 383f 8c2c 133f 1093 c03e 55ea 013f

weight f4 [16, 16, 3]
0.12903976 -0.064761624 -0.0077719553 -0.04312782 -0.03404628 0.06336548 0.07363817 -0.0065227477
0.0590433 0.10128628 0.089810014 0.14408377 0.06989911 -0.037983533 -0.051915526 -0.13493332
0.035255574 -0.13523304 0.10456678 0.021109 0.060619563 -0.12800558 -0.031615674 -0.08933725
-0.08256644 -0.026486594 0.06269332 -0.14133148 -0.053285856 0.015173859 -0.047423236 0.051249724
-0.12241619 0.05683969 0.03964318 -0.10570944 -0.12736781 -0.06297002 0.124193564 -0.079833895
0.12081974 -0.06412182 0.04390815 0.10245124 -0.09347438 -0.04726468 -0.13676026 0.060809545
0.124818295 -0.111232504 -0.12488655 -0.08424966 0.05875408 0.06267608 -0.079580806 0.07925626
-0.033397365 0.08034289 0.09672691 -0.025791543 0.06631461 -0.106161535 0.13521905 -0.029727705
-0.0020258557 -0.112384565 0.10428296 0.061717145 -0.08565273 0.081401035 -0.015461391 -0.07905155
0.007982522 0.056102723 -0.112702146 0.054936796 -0.07477053 -0.03163904 -0.044939294 -0.11386697
0.031292662 0.08373994 0.09628569 0.011662633 -0.090945154 0.1274998 0.06812625 0.12644243
0.017210413 0.059696883 -0.09331085 -0.10393624 0.025102949 -0.0044998676 -0.049713902 -0.07566033
0.12408367 -0.10920113 -0.12820704 -0.06520818 -0.079217754 -0.024281802 0.11830458 -0.05723206
0.029918898 0.10708803 0.04903321 0.048401963 -0.0007432848 0.09544589 0.09117314 -0.07737891
0.05473484 -0.030999953 -0.024691671 -0.010503813 -0.059283767 -0.08081495 -0.03288847 -0.009782657
0.026847348 -0.02232772 0.022056196 0.060400277 -0.12742676 -0.085806064 -0.02001334 -0.10779236
-0.11315934 0.11099145 0.10685056 0.14224051 0.036291912 -0.010383152 0.061697908 -0.062810265
-0.013523279 -0.07527262 0.12687314 0.014819234 0.004217928 0.0021025985 0.14140533 0.002893502
0.096101895 0.12078262 0.1251726 -0.11914209 -0.05102233 0.080312446 0.066385075 -0.04308953
-0.06970355 -0.027317882 0.04183096 -0.038701434 0.086525336 0.080106415 -0.06558847 0.11520806
0.09950949 0.008420426 -0.04871685 0.11607363 0.067200705 0.08536713 -0.004988182 -0.14033939
-0.040400594 -0.0062128133 0.121697634 -0.016342863 0.10310344 0.04151082 -0.108948484 0.075117715
-0.10909364 0.0444441 0.08961137 0.092463665 0.029968724 -0.06005164 -0.0107823815 0.08154839
-0.005628547 0.098099984 0.037265375 0.08875164 -0.04838481 0.059085533 -0.024343746 -0.09708824
0.11010119 -0.10812462 -0.093626335 -0.051023602 0.046830017 -0.10612763 -0.0780401 -0.036319572
0.057447992 0.03881964 0.10605087 -0.10892752 -0.0029078126 0.056289498 -0.031058026 -0.023555376
-0.13312674 0.110966414 0.09873584 -0.0015584298 0.06662027 -0.010265857 -0.07567994 -0.053737286
-0.12752077 -0.07367263 -0.06646474 -0.019492038 0.09415397 0.08083122 0.049071193 -0.08240999
0.08906217 -0.121979445 -0.120438814 0.09628553 -0.030439302 0.14123835 0.12390475 -0.13444097
0.014954494 -0.118513286 -0.06990888 0.06754186 -0.034396235 0.10920712 0.034859683 0.010369799
0.03861372 -0.038981076 -0.06187359 0.084841326 0.044529695 -0.13513283 -0.021275051 0.07664445
0.065041274 0.023780748 -0.12632504 0.05866183 0.072533816 0.11202648 -0.0071587414 -0.038148403
00000000: 0023 043e bea1 84bd e3ab febb cca6 30bd
00000010: 1d74 0bbd c3c5 813d 9ccf 963d c6bc d5bb
00000020: 63d7 713d 2e6f cf3d 50ee b73d b28a 133e
00000030: 4427 8f3d 9f94 1bbd 60a5 54bd f62b 0abe
00000040: 2668 103d 887a 0abe 1c27 d63d c8ec ac3c
00000050: 384c 783d e513 03be 707f 01bd 73f6 b6bd
00000060: 9818 a9bd 6afa d8bc 5b65 803d 33b9 10be
00000070: 4542 5abd c79b 783c de3e 42bd 3beb 513d
00000080: 57b5 fabd bcd0 683d e360 223d 317e d8bd
00000090: b56c 02be 6df6 80bd 3259 fe3d f47f a3bd
000000a0: 5770 f73d 4d52 83bd 08d9 333d f5d1 d13d
000000b0: 7f6f bfbd 9c98 41bd e20a 0cbe 6e13 793d
000000c0: bca0 ff3d decd e3bd 85c4 ffbd 168b acbd
000000d0: 1ea8 703d 515c 803d 43fb a2bd 1b51 a23d
000000e0: adcb 08bd d08a a43d c218 c63d c948 d3bc
000000f0: f4cf 873d 386b d9bd dd76 0a3e 8487 f3bc
00000100: 38c4 04bb e129 e6bd 4e92 d53d 1ecb 7c3d
00000110: b36a afbd 96b5 a63d c651 7dbc c7e5 a1bd
00000120: 20c9 023c f8cb 653d 62d0 e6bd 6805 613d
00000130: 4b21 99bd f097 01bd 4412 38bd 1633 e9bd
00000140: bc2c 003d d87f ab3d 6f31 c53d a114 3f3c
00000150: 7441 babd 4f8f 023e c685 8b3d 207a 013e
00000160: dafc 8c3c b884 743d c219 bfbd 86dc d4bd
00000170: b3a4 cd3c a073 93bb cea0 4bbd cef3 9abd
00000180: 941f fe3d d8a4 dfbd b548 03be de8b 85bd
00000190: eb3c a2bd a1ea c6bc ac49 f23d 2a6c 6abd
000001a0: 7a18 f53c f850 db3d 0cd7 483d 2341 463d
000001b0: 00d9 42ba 2379 c33d fcb8 ba3d d578 9ebd
000001c0: a431 603d 9df3 fdbc 3046 cabc 2f18 2cbc
000001d0: 89d3 72bd 4f82 a5bd 0fb6 06bd 7047 20bc
000001e0: f8ee db3c 9fe8 b6bc 32af b43c 4866 773d
000001f0: 297c 02be 17bb afbd 04f3 a3bc 3ec2 dcbd
00000200: 16c0 e7bd 7c4f e33d 77d4 da3d 7fa7 113e
00000210: d4a6 143d 191e 2abc f2b6 7c3d aba2 80bd
00000220: be90 5dbc 8828 9abd 08eb 013e 5fcc 723c
00000230: 8b36 8a3b c0cb 093b 8fcc 103e e8a0 3d3b
00000240: 12d1 c43d e15c f73d 3f2d 003e c500 f4bd
00000250: cafc 50bd da7a a43d e6f4 873d a67e 30bd
00000260: bcc0 8ebd c0c9 dfbc f156 2b3d 6585 1ebd
00000270: 3234 b13d d50e a43d 3f53 86bd 34f2 eb3d
00000280: a2cb cb3d d4f5 093c 528b 47bd 03b8 ed3d
00000290: 86a0 893d f6d4 ae3d e773 a3bb 21b5 0fbe
000002a0: 187b 25bd db94 cbbb 9c3c f93d 78e1 85bc
000002b0: e527 d33d 4007 2a3d 6220 dfbd 51d7 993d
000002c0: 7d6c dfbd 040b 363d 2a86 b73d 975d bd3d
000002d0: f880 f53c b5f8 75bd 96a8 30bc d802 a73d
000002e0: ad6f b8bb a5e8 c83d 94a3 183d 6bc3 b53d
000002f0: 272f 46bd ac03 723d 896c c7bc 33d6 c6bd
00000300: bc7c e13d 7170 ddbd 2abf bfbd 20fe 50bd
00000310: d5d0 3f3d 7159 d9bd 7dd3 9fbd d5c3 14bd
00000320: 964e 6b3d 5801 1f3d 3331 d93d 6415 dfbd
00000330: 0091 3ebb d18f 663d 676d febc 34f7 c0bc
00000340: 6052 08be 5c42 e33d 0436 ca3d 3a44 ccba
00000350: 3570 883d 2032 28bc 16fe 9abd a11b 5cbd
00000360: ce94 02be ade1 96bd aa1e 88bd c4ad 9fbc
00000370: ccd3 c03d d78a a53d e0fe 483d 92c6 a8bd
00000380: 3a66 b63d 5cd0 f9bd a0a8 f6bd 5931 c53d
00000390: d85b f9bc c9a0 103e c6c1 fd3d e5aa 09be
000003a0: b203 753c 18b7 f2bd 632c 8fbd 6353 8a3d
000003b0: 11e3 0cbd fca7 df3d 07c9 0e3d 17e6 293c
000003c0: 6c29 1e3d 9faa 1fbd 296f 7dbd 4ac1 ad3d
000003d0: c564 363d 4360 0abe 0449 aebc c4f7 9c3d
000003e0: 5c34 853d d8cf c23c 5a5b 01be 6347 703d
000003f0: 9c8c 943d 246e e53d e093 eabb 8041 1cbd

bias f4 [16]
-0.031038828 0.021355927 0.025005922 -0.0020622914 -0.07808253 0.007615818 -0.08963737 0.13199276
-0.008114979 0.07059823 -0.06492476 0.059100613 -0.08810963 0.101168305 0.08849481 -0.071429215
00000000: 2445 febc a0f2 ae3c 38d9 cc3c 8227 07bb
00000010: bce9 9fbd 1d8e f93b cc93 b7bd 1c29 073e
00000020: b0f4 04bc ce95 903d 46f7 84bd 7c13 723d
00000030: d272 b4bd 5431 cf3d c43c b53d 7b49 92bd

weight f4 [16]
0.99999964 0.9999999 1.0000005 0.9999997 1.000001 0.9999988 1.0000012 1.0000012
0.9999995 0.99999946 0.999999 0.9999999 0.9999988 0.99999994 1.0000012 1.0000012
00000000: faff 7f3f feff 7f3f 0400 803f fbff 7f3f
00000010: 0800 803f ecff 7f3f 0a00 803f 0a00 803f
00000020: f8ff 7f3f f7ff 7f3f efff 7f3f feff 7f3f
00000030: ecff 7f3f ffff 7f3f 0a00 803f 0a00 803f

bias f4 [16]
8.658986e-07 -3.9930505e-08 -1.256112e-07 2.0355404e-08 2.146876e-08 -9.2965416e-07 6.5568395e-07 9.674701e-07
-7.2314555e-07 5.6869432e-08 -4.3780898e-07 9.225579e-08 7.3768334e-08 -8.5589147e-07 9.252324e-07 7.325936e-07
00000000: 1970 6835 0e80 2bb3 bedf 06b4 02da ae32
00000010: 4d6a b832 598d 79b5 4202 3035 05da 8135
00000020: 2f1e 42b5 9a40 7433 020c ebb4 281e c633
00000030: 926a 9e33 6ac0 65b5 7d5d 7835 73a7 4435

running_mean f4 [16]
-0.15142922 -0.16964579 -0.17712454 0.22053139 -0.06631318 0.02467497 0.18646502 0.039589334
-0.12521388 -0.030168697 0.047355443 0.4297947 -0.32292974 0.15758179 -0.26905242 0.3354991
00000000: 4310 1bbe a0b7 2dbe 2360 35be fbd2 613e
00000010: 34cf 87bd 2a23 ca3c b0f0 3e3e 6d28 223d
00000020: 1138 00be 5824 f7bc c8f7 413d 0d0e dc3e
00000030: 0c57 a5be 1f5d 213e 3dc1 89be 8ac6 ab3e

running_var f4 [16]
0.38096076 0.48751116 0.37849197 0.41963905 0.45640442 0.40743938 0.43359083 0.54106504
0.43762705 0.3797413 0.4166048 0.41187593 0.4360179 0.39423403 0.6186661 0.37823796
00000000: 4a0d c33e 109b f93e b3c9 c13e eeda d63e
00000010: d7ad e93e e59b d03e 9eff dd3e 3d83 0a3f
00000020: a710 e03e 746d c23e 394d d53e 67e1 d23e
00000030: bd3d df3e 0bd9 c93e e760 1e3f 68a8 c13e

weight f4 [16, 16, 3]
0.11197162 -0.114421844 0.0074862093 -0.033024184 0.076240815 0.10799512 -0.088965684 0.01945774
0.032157943 -0.076375656 0.038129587 -0.13051748 0.12899673 0.031827014 -0.018702641 0.018622622
0.12158892 -0.105287805 -0.06552667 -0.00664569 -0.040703826 -0.012180626 -0.11426768 -0.08776623
0.06908497 0.059959523 -0.10779509 -0.0803839 -0.116756625 0.12172097 0.12651971 0.11528362
-0.009420395 0.12161371 -0.07490275 -0.0010862201 0.076072514 0.04874442 -0.12870961 0.08708045
0.1397792 -0.06920643 -0.05300291 -0.12246754 -0.0028058887 -0.092764765 0.11328664 -0.09709872
0.14021447 -0.016625285 -0.04569424 0.034440324 0.07646608 0.029996157 0.11806241 -0.110040985
0.11019677 0.01698342 -0.07999854 0.1430214 -0.0243802 0.059527166 -0.059184663 0.107905924
-0.033507485 0.07221393 0.07441722 -0.041781355 0.12889406 -0.14214809 0.0373359 -0.12841167
-0.08069248 0.14110222 0.12119332 0.06680602 -0.08810342 -0.12503298 0.07925622 0.11024148
0.002556637 0.12970701 -0.09270637 -0.13002954 0.12678862 0.05646007 -0.07969676 0.08181518
-0.07106909 -0.013243839 -0.075474985 -0.03950919 -0.11447226 -0.00992462 0.018374545 0.10791212
0.0179431 -0.09793772 -0.04951001 -0.0421701 -0.07094857 -0.032165207 -0.01695174 0.06283719
0.12345865 0.12838337 -0.07329316 -0.038897634 -0.14032705 0.12999338 -0.13540183 -0.021055758
-0.14252071 -0.097707346 -0.11075531 -0.11946007 0.032093838 -0.09395918 0.0054290085 0.0983582
-0.08994393 -0.11129614 -0.07839271 -0.07136585 0.08304442 -0.03291505 -0.05861991 0.023071079
-0.115008414 -0.122625954 0.0024219141 0.138984 -0.1333378 -0.14062221 0.10582268 -0.050448343
0.1330104 0.11960465 0.06098333 0.06571934 0.13515222 -0.104072765 0.050843637 -0.1197661
0.09753716 -0.06482861 -0.098019406 -0.0587546 0.05268591 0.014385536 0.03921461 -0.09283625
0.06866938 -0.10739525 -0.07233663 -0.05825323 -0.10585703 -0.069772124 0.071866274 0.12818834
-0.047968 0.025586337 0.13296789 0.013349313 -0.11650153 -0.13502665 -0.058368348 0.01808402
0.024101377 -0.03491961 -0.13209379 -0.08639723 0.021537498 -0.08222677 0.05814369 -0.013721233
-0.0543067 -0.022184461 0.06248706 0.04916823 -0.0008274019 -0.06437673 0.13882211 -0.045329966
0.12772772 -0.060678087 0.05419649 -0.020786032 0.0193796 0.063502744 0.13758557 0.021645248
-0.11533651 -0.015527135 -0.03679966 -0.12296008 -0.0051196134 -0.10787083 0.06679052 -0.0077581154
0.11716613 -0.10324588 -0.053599384 0.06282517 -0.052995265 -0.12339379 -0.12973368 -0.13872999
0.10776286 0.117984 0.051049203 -0.098430134 0.114093095 0.01347895 -0.07489106 0.039745554
-0.035015583 0.032644134 -0.10377805 0.021355793 0.060188722 -0.0017547458 -0.04614938 -0.0031776796
0.033630177 -0.09379636 -0.08699074 0.0023301095 -0.099905275 -0.04628643 0.06857276 -0.107878454
0.09736719 -0.031270996 -0.07692039 0.06173554 0.14112392 0.06953637 -0.052815415 0.04374832
-0.13401657 0.1273934 0.1060538 0.056670725 0.061149444 -0.023224153 -0.1335925 0.1224483
0.01740238 0.07409504 0.088164255 -0.012972787 -0.03293454 -0.04004203 -0.10998775 -0.13427201
00000000: 6051 e53d 0056 eabd e04e f53b 5e44 07bd
00000010: 2524 9c3d 8c2c dd3d a433 b6bd d765 9f3c
00000020: 0cb8 033d d76a 9cbd c52d 1c3d 60a6 05be
00000030: b817 043e 0b5d 023d 4836 99bc 788e 983c
00000040: 9d03 f93d 22a1 d7bd d932 86bd 17c4 d9bb
00000050: 0eb9 26bd 4091 47bc 2c05 eabd c8be b3bd
00000060: 6c7c 8d3d 1e98 753d acc3 dcbd 50a0 a4bd
00000070: 191e efbd d848 f93d 628e 013e d219 ec3d
00000080: 0058 1abc 9c10 f93d 9d66 99bd 805f 8eba
00000090: e8cb 9b3d 3ba8 473d 74cc 03be 3c57 b23d
000000a0: 4722 0f3e 1abc 8dbd 9419 59bd 43d0 fabd
000000b0: 00e3 37bb 74fb bdbd d302 e83d b2db c6bd
000000c0: 6294 0f3e c031 88bc e229 3bbd 4c11 0d3d
000000d0: 409a 9c3d 80ba f53c b4ca f13d 2b5d e1bd
000000e0: d8ae e13d d020 8b3c 46d6 a3bd 3474 123e
000000f0: fcb8 c7bc c2d2 733d 9e6b 72bd c8fd dc3d
00000100: 253f 09bd e6e4 933d 0e68 983d ed22 2bbd
00000110: cefc 033e 458f 11be 87ed 183d 597e 03be
00000120: 1942 a5bd 1a7d 103e 3434 f83d 98d1 883d
00000130: 916f b4bd a508 00be 1651 a23d 49c6 e13d
00000140: 408d 273b ead1 043e d6dc bdbd 7726 05be
00000150: e0d4 013e ad42 673d 0e38 a3bd b88e a73d
00000160: ac8c 91bd b0fc 58bc a192 9abd 63d4 21bd
00000170: 6f70 eabd e09a 22bc 3786 963c 0801 dd3d
00000180: 68fd 923c 9293 c8bd 02cb 4abd 8eba 2cbd
00000190: 7c4d 91bd aabf 03bd 60de 8abc c9b0 803d
000001a0: e4d7 fc3d ee76 033e b91a 96bd 2053 1fbd
000001b0: e5b1 0fbe fc1c 053e c7a6 0abe 207d acbc
000001c0: f3f0 11be ca1a c8bd aed3 e2bd 7ba7 f4bd
000001d0: d474 033d ac6d c0bd d3e5 b13b 0670 c93d
000001e0: 8634 b8bd 3bef e3bd 5b8c a0bd 4228 92bd
000001f0: 3113 aa3d eed1 06bd 6e1b 70bd 8fff bc3c
00000200: 8889 ebbd 5123 fbbd fab8 1e3b d251 0e3e
00000210: b489 08be 45ff 0fbe 90b9 d83d eca2 4ebd
00000220: e133 083e 48f3 f43d a8c9 793d dd97 863d
00000230: 5865 0a3e 1a24 d5bd 6b41 503d ee47 f5bd
00000240: 90c1 c73d ddc4 84bd 66be c8bd aaa8 70bd
00000250: 2ecd 573d 50b1 6b3c 809f 203d ef20 bebd
00000260: 88a2 8c3d 0af2 dbbd 3a25 94bd f09a 6ebd
00000270: 92cb d8bd b0e4 8ebd a02e 933d ce43 033e
00000280: 187a 44bd 709a d13c bc28 083e 14b7 5a3c
00000290: 5b98 eebd 6d44 0abe a613 6fbd f024 943c
000002a0: 4070 c53c dd07 0fbd 9843 07be 08f1 b0bd
000002b0: 686f b03c 8266 a8bd 1428 6e3d 06cf 60bc
000002c0: b470 5ebd 30bc b5bc 6ef2 7f3d a064 493d
000002d0: 00e6 58ba f2d7 83bd 6227 0e3e eaab 39bd
000002e0: 0ecb 023e 9689 78bd 24fd 5d3d 7847 aabc
000002f0: f8c1 9e3c ba0d 823d 3be3 0c3e 6051 b13c
00000300: 8c35 ecbd 8665 7ebc 3ebb 16bd 7fd2 fbbd
00000310: 6ec2 a7bb 62eb dcbd 78c9 883d ca37 febb
00000320: ccf4 ef3d 9372 d3bd 078b 5bbd 7caa 803d
00000330: 9011 59bd e2b5 fcbd e8d8 04be 3c0f 0ebe
00000340: c6b2 dc3d 98a1 f13d f818 513d bd95 c9bd
00000350: a4a9 e93d d0d6 5c3c 7c60 99bd 3ccc 223d
00000360: 806c 0fbd dbb5 053d 9689 d4bd 58f2 ae3c
00000370: 7388 763d 80ff e5ba 2207 3dbd 9e40 50bb
00000380: ccbf 093d 4e18 c0bd 3328 b2bd c0b4 183b
00000390: 239b ccbd d796 3dbd e06f 8c3d 61ef dcbd
000003a0: 7368 c73d 0416 00bd 7088 9dbd 68de 7c3d
000003b0: ca82 103e 1669 8e3d fa54 58bd 7031 333d
000003c0: a43b 09be 6a73 023e bc32 d93d 901f 683d
000003d0: d777 7a3d 9440 bebc 79cc 08be 2dc6 fa3d
000003e0: 708f 8e3c 24bf 973d 768f b43d d08b 54bc
000003f0: 5ee6 06bd 1d03 24bd 4241 e1bd 9a7e 09be

bias f4 [16]
0.056212395 -0.05549272 0.11951703 0.0857628 -0.1393511 -0.03527139 -0.09626219 0.09784648
0.13291281 -0.04386217 0.13135004 -0.046035856 -0.10351877 -0.005083993 -0.06570683 -0.08430566
00000000: f83e 663d 564c 63bd 58c5 f43d 68a4 af3d
00000010: 0eb2 0ebe bc78 10bd 1c25 c5bd bc63 c83d
00000020: 4c1a 083e d2a8 33bd a080 063e 1890 3cbd
00000030: a601 d4bd a097 a6bb 4d91 86bd 72a8 acbd

weight f4 [16]
1.0000012 0.99999964 1.0000004 1.0000011 0.99999917 0.99999934 0.9999997 1.0000002
1.0000012 1.0000012 1.0000005 1.0 0.9999992 0.999999 0.9999988 0.9999988
00000000: 0a00 803f faff 7f3f 0300 803f 0900 803f
00000010: f2ff 7f3f f5ff 7f3f fbff 7f3f 0200 803f
00000020: 0a00 803f 0a00 803f 0400 803f 0000 803f
00000030: f3ff 7f3f efff 7f3f ecff 7f3f ecff 7f3f

bias f4 [16]
1.3170306e-07 -5.554337e-07 7.9354663e-07 3.9954605e-07 -8.5849643e-07 -2.9725769e-07 -8.8874793e-07 7.31636e-07
8.6619144e-07 9.147518e-07 -7.222629e-07 3.0264182e-08 -7.0710934e-07 -9.2368697e-07 -9.4028087e-07 -8.828136e-07
00000000: 436a 0d34 1d19 15b5 1c04 5535 3181 d634
00000010: 6d73 66b5 c996 9fb4 4b92 6eb5 a565 4435
00000020: 3984 6835 448d 7535 87e1 41b5 d2fb 0133
00000030: 2fd0 3db5 49f3 77b5 9c67 7cb5 7dfa 6cb5

running_mean f4 [16]
0.08313892 -0.054434866 0.023700982 0.025668435 -0.15109158 0.10162892 0.095954366 0.09576063
0.16507442 -0.14034502 0.11546515 -0.116106786 -0.05922265 -0.22029203 -0.05505391 -0.018473959
00000000: bd44 aa3d 18f7 5ebd 9028 c23c 9c46 d23c
00000010: c0b7 1abe d322 d03d b983 c43d 261e c43d
00000020: 4509 293e 9bb6 0fbe fe78 ec3d 65c9 edbd
00000030: 7393 72bd 3c94 61be 3580 61bd b356 97bc

running_var f4 [16]
0.38034257 0.36045077 0.35874748 0.36965996 0.35880014 0.41808537 0.36717555 0.37849787
0.3612017 0.41207096 0.36511564 0.37546226 0.3537659 0.38477865 0.3602979 0.36375514
00000000: 43bc c23e 018d b83e c0ad b73e 1244 bd3e
00000010: a7b4 b73e 490f d63e 6ffe bb3e 79ca c13e
00000020: 6eef b83e f7fa d23e 70f0 ba3e 973c c03e
00000030: ce20 b53e b501 c53e f778 b83e 1d3e ba3e
