DFA-PS/DFA-PS/Experiments/Full-GOP/HSI/backup/best/DecisionModel_CalibrationModule.pt (torch, 277327 bytes, 81 tensors)

weight f4 [7]
0	0x3f8069cb	1.0032285
1	0x3f8090dc	1.0044208
2	0x3f808acc	1.0042357
3	0x3f7ed2d7	0.99540466
4	0x3f80b28c	1.0054488
5	0x3f8070d3	1.0034431
6	0x3f7d4d39	0.9894596

bias f4 [7]
0	0x37374ac2	1.0925056e-05
1	0x38a62799	7.9228725e-05
2	0xb75b36c2	-1.30661665e-05
3	0xb780c8b6	-1.5352252e-05
4	0x3892bae4	6.9966336e-05
5	0xb6617a47	-3.3598787e-06
6	0xb8ab9cc8	-8.183118e-05

running_mean f4 [7]
0	0x402af7df	2.6713789
1	0x402bc5c4	2.6839457
2	0x402803e1	2.6252367
3	0x49dace00	1.792448e+06
4	0x40d363a4	6.605913
5	0x49f55085	2.0096166e+06
6	0x3e528520	0.20558596

running_var f4 [7]
0	0x4209aedb	34.420757
1	0x420b4220	34.814575
2	0x4205ad0e	33.419
3	0x56f573d0	1.3493888e+14
4	0x4385a2f8	267.2732
5	0x558dbb2f	1.9479386e+13
6	0x3e271e52	0.1632016

weight f4 [16, 7, 5, 1]
0	0x3d980c15	0.074241795
1	0xbdb08a16	-0.08620088
2	0x3d5a50b6	0.05329963
3	0x3cba180a	0.02271654
4	0xbe05a54b	-0.13051336
5	0xbd8f9ee1	-0.070127256
6	0x3d155ff8	0.036468476
7	0xbd4a3745	-0.049369115
8	0xbd336c0c	-0.043804213
9	0xbdc2b4fa	-0.09507175
10	0x3cf07ec1	0.029357316
11	0x3acb6448	0.0015517557
12	0xbe0cae8d	-0.13738461
13	0x3decae7d	0.115567185
14	0xbd829e25	-0.0637782
15	0xbc2c8269	-0.010529139
16	0x3d50b718	0.05095586
17	0x3d73f68d	0.0595613
18	0xbde2b600	-0.1106987
19	0xbe12c5b7	-0.14333235
20	0xbdf6fcca	-0.120599344
21	0xbdade116	-0.08490197
22	0x3d8e7fb2	0.0695795
23	0xbdc76639	-0.09736294
24	0x3e2749fc	0.16336817
25	0xbda19b60	-0.078909636
26	0xbd581f41	-0.05276418
27	0xbded9a31	-0.11601675
28	0xbe143b21	-0.14475681
29	0xbde02106	-0.10943799
30	0x3c97a7c3	0.018512612
31	0xbc8ed2b1	-0.01743445
32	0xbe206dfa	-0.15666953
33	0xbd9cb11b	-0.07650968
34	0x3e17a94d	0.14810677
35	0xbe0945dc	-0.13405555
36	0x3e024fdb	0.12725775
37	0x3dfabccf	0.12243044
38	0xbdbe1c55	-0.09282748
39	0xbdd7bccd	-0.10534058
40	0x3e10d1a0	0.14142466
41	0xbcf2b624	-0.029627867
42	0x3e0b4225	0.13599451
43	0x3e186445	0.14882
44	0xbda42464	-0.080147535
45	0x3e198aa2	0.1499429
46	0x3cc5a3b1	0.024125906
47	0x3d9b9590	0.07596886
48	0xbd0ef159	-0.034898136
49	0x3d9b5d1b	0.07586118
50	0xbe21f6ca	-0.15816799
51	0x3d623f31	0.055236045
52	0xbdb9ecc2	-0.09078361
53	0xbe1f59fb	-0.15561669
54	0x3e088131	0.13330533
55	0xbc73a3a2	-0.014870556
56	0x3d6fd78e	0.05855518
57	0xbe2066b4	-0.15664178
58	0x3d614c08	0.05500415
59	0xbd03dd4d	-0.03219347
60	0x3cabfc73	0.0209944
61	0x3e14083e	0.14456269
62	0xbe1dac72	-0.15397814
63	0x3d5c7949	0.053826604
64	0x3cc96ce2	0.024588052
65	0x3d833688	0.064068854
66	0x3dfff690	0.124982
67	0xbe0047cf	-0.12527393
68	0x3d8e2f14	0.06942573
69	0x3dee0681	0.11622334
70	0xbcccf467	-0.025018884
71	0xbe1ccf64	-0.15313488
72	0x3c973683	0.01845861
73	0xbd1d5a2a	-0.038416065
74	0x3e284336	0.16431889
75	0xbdc46816	-0.09590165
76	0xbd35b2da	-0.04436002
77	0x3bd5b686	0.0065220026
78	0xbe0750d3	-0.13214426
79	0xbd0c913d	-0.034318198
80	0x3dc57a8b	0.09642514
81	0xbd83150c	-0.06400499
82	0xbd9fe61a	-0.0780756
83	0x3cc85eb0	0.024459213
84	0xbd7fd75f	-0.062461253
85	0xbda719ed	-0.08159242
86	0x3d297102	0.04136754
87	0xbd3c7fdf	-0.046020385
88	0xbd853849	-0.06504876
89	0x3dbaa44b	0.09113368
90	0xbdbf4019	-0.093383975
91	0x3dd54068	0.10412675
92	0xbd263418	-0.040577024
93	0x3dc27465	0.09494857
94	0x3d1a9d9a	0.037747957
95	0xbd09c1a6	-0.033631943
96	0xbd71ff55	-0.059081394
97	0xbd8e79f0	-0.069568515
98	0xbda0aff2	-0.07846059
99	0xbdd90f71	-0.10598648
100	0x3e0249f7	0.12723528
101	0x3db14f22	0.086576715
102	0xbd1af8c0	-0.037834883
103	0xbd7233d5	-0.059131462
104	0xbdaf1c74	-0.08550349
105	0xbe1dca2e	-0.15409157
106	0x3d089bc1	0.033351664
107	0xbdb7609b	-0.08953973
108	0xbb47da9f	-0.0030495299
109	0x3da69dee	0.081355914
110	0xbdd81bfe	-0.10552214
111	0xbd7d7cff	-0.061886784
112	0x3c21676d	0.009851319
113	0x3e1ac8e5	0.15115698
114	0x3db2b833	0.087265395
115	0x3d693ade	0.056940906
116	0xbccb712d	-0.02483424
117	0x3e1f6664	0.15566403
118	0x3e0ec3be	0.13941857
119	0xbbd00842	-0.0063486407
120	0xbd94ebbf	-0.072715275
121	0xbd034684	-0.03204967
122	0x3d7626a3	0.06009544
123	0xbe21263f	-0.15737246
124	0xbd0ad472	-0.03389401
125	0x3e277d16	0.1635631
126	0x3dc3b204	0.09555438
127	0x3e100853	0.14065675
128	0x3e12f9de	0.1435313
129	0xbe04bd9c	-0.12962955
130	0x3e0c4bf5	0.1370085
131	0x3d0f3b4e	0.034968667
132	0xbddd3cf2	-0.1080264
133	0xbe000da1	-0.12505199
134	0xbe13b3d7	-0.14424072
135	0xbccfdfb5	-0.025375227
136	0xbd3de744	-0.04636313
137	0x3e199d9c	0.1500153
138	0xbd8712a7	-0.065953545
139	0xbe09d64e	-0.13460657
140	0x3d9fd3bd	0.07804058
141	0x3e1907ee	0.14944431
142	0x3d1267ab	0.035743397
143	0x3cda27fd	0.026630396
144	0x3e229243	0.15876107
145	0xbcd1811e	-0.025574263
146	0xbcde715e	-0.027153667
147	0xbd477b55	-0.048701603
148	0x3cd46f76	0.025932055
149	0x3dc77dc4	0.09740785
150	0xbccffe18	-0.025389716
151	0x3c287a4a	0.010283062
152	0x3d9151ac	0.07095656
153	0x3e121790	0.14266801
154	0x3b8dcf3e	0.0043276837
155	0xbe1d0f46	-0.15337858
156	0x3e00fc8b	0.12596337
157	0x3d6b08f8	0.0573816
158	0x3c9e939d	0.019357497
159	0x3db5c72d	0.088758804
160	0x3d501cf4	0.05080886
161	0x3e1b9069	0.15191807
162	0xb90ca2a1	-0.00013412024
163	0xbc8c5e29	-0.017134743
164	0xbcf04ac6	-0.02933253
165	0x3c7f0c42	0.015566887
166	0xbd964728	-0.07337791
167	0x3deb30f0	0.114839435
168	0xbda59f90	-0.08087075
169	0x3d1c86a6	0.03821435
170	0x3d4eb5b1	0.050466243
171	0x3bf151ea	0.0073645012
172	0xbdcacc78	-0.099022806
173	0xbe00f01e	-0.12591597
174	0xbdc3f2d6	-0.09567802
175	0x3c759dab	0.014991204
176	0xbccfb2e5	-0.025353858
177	0xbd6d926a	-0.05800096
178	0xbd91b878	-0.07115263
179	0xbd8c4f6a	-0.068510845
180	0x3dc99db5	0.09844533
181	0x3dd32b93	0.103110455
182	0x3e098b44	0.13432032
183	0x3e1a1d60	0.15050268
184	0xbe24631d	-0.16053434
185	0x3c8ac548	0.016939774
186	0xbe15327c	-0.1457004
187	0xbe01b24c	-0.12665671
188	0x3ca3ada0	0.019980252
189	0x3dc382cb	0.09546431
190	0xbd3da05b	-0.046295505
191	0x3c25e8b2	0.01012628
192	0xbdfb8dce	-0.122829065
193	0x3e153ba5	0.14573534
194	0xbdc7fd52	-0.09765114
195	0xbcfed61b	-0.031107953
196	0x3e223bef	0.15843175
197	0xbd089718	-0.03334722
198	0x3dc78744	0.09742597
199	0x3e215df9	0.15758504
200	0xbdf0f666	-0.11765747
201	0x3d951e65	0.07281188
202	0xbcc60334	-0.02417145
203	0x3e10a5de	0.14125773
204	0xbe1e83c9	-0.1547996
205	0x3d3712e2	0.044695742
206	0x3e0ccdaa	0.1375033
207	0xbca74d60	-0.020422637
208	0xbe02dd51	-0.12779738
209	0xbcf1934d	-0.029489184
210	0x3dcf7fec	0.10131821
211	0x3d699bd3	0.05703337
212	0x3e19f2eb	0.15034072
213	0x3d254c80	0.04035616
214	0xbd340593	-0.04395063
215	0x3d6dc18f	0.05804592
216	0x3d195f6a	0.03744451
217	0x3e0f524e	0.1399624
218	0xbdac12de	-0.08402036
219	0xbd96ad89	-0.07357318
220	0xbd077bfe	-0.033077233
221	0x3d37cc28	0.044872433
222	0x3e08d184	0.13361174
223	0xbd1df093	-0.038559508
224	0x3cede503	0.029039865
225	0xbdadfbe0	-0.08495307
226	0xbe004858	-0.12527597
227	0xbdd84726	-0.105604455
228	0xbe252fde	-0.16131541
229	0x3d81e04f	0.063416116
230	0xbdd6b1eb	-0.10483154
231	0xbdb7888e	-0.089615926
232	0x3de8ce75	0.113675036
233	0x3dc09576	0.094035074
234	0x3d06a546	0.03287246
235	0x3e0a51b9	0.13507737
236	0xbc9c6994	-0.019093312
237	0xbd7839f7	-0.060602155
238	0xbdd3bbd7	-0.10338562
239	0x3df3ee81	0.119107254
240	0x3d8c3e39	0.068478055
241	0xbdc1207d	-0.09430025
242	0xbde3c770	-0.11122024
243	0x3bd21911	0.0064116796
244	0x3e0b93f3	0.13630657
245	0x3dfd1e47	0.123592906
246	0x3d166bb0	0.036723793
247	0xbd794b5d	-0.060862888
248	0xbc026fae	-0.007961197
249	0xbe275597	-0.16341244
250	0xbdfc6030	-0.12323034
251	0xbe0ed1eb	-0.13947265
252	0xbd9eb7b0	-0.07749879
253	0xbcf22e05	-0.02956296
254	0xbdf0c265	-0.11755828
255	0xbe02d509	-0.12776579

bias f4 [16]
0	0x3e169ad3	0.14707498
1	0xbd73749f	-0.05943739
2	0xbe27dad4	-0.1639207
3	0xbde2d82e	-0.11076389
4	0xbbc79500	-0.00609076
5	0xbc12b43c	-0.008954104
6	0xbd56d2f2	-0.052447267
7	0xbe1034f2	-0.14082697
8	0x3e16ea6b	0.14737861
9	0x3dd17765	0.10227851
10	0xbdc99379	-0.09842581
11	0xbde14b3c	-0.11000678
12	0xbda9f0b8	-0.082978666
13	0x3e008e56	0.12554297
14	0xbd0f66af	-0.035010036
15	0x3db0914b	0.086214624

weight f4 [16]
0	0x3f7ffc71	0.9999457
1	0x3f8018db	1.0007585
2	0x3f806d82	1.0033419
3	0x3f8029f4	1.0012803
4	0x3f7f8dd6	0.998258
5	0x3f80130f	1.0005816
6	0x3f7f3334	0.99687505
7	0x3f7f470b	0.9971778
8	0x3f7fc708	0.9991307
9	0x3f80524b	1.0025114
10	0x3f7f1f6c	0.9965732
11	0x3f802890	1.0012379
12	0x3f7ff94f	0.9998979
13	0x3f804368	1.0020571
14	0x3f7fd584	0.99935174
15	0x3f805ec1	1.0028917

bias f4 [16]
0	0x3b4c461c	0.0031169718
1	0x3b5f3cc5	0.003406332
2	0x3b41bdf2	0.002956268
3	0x3a858e74	0.0010189549
4	0x3afaef81	0.0019144864
5	0x3a18e3a5	0.00058322615
6	0xbb1c6fee	-0.0023870426
7	0x3b3a4454	0.0028422074
8	0x3ad6b0d6	0.0016379606
9	0x3b0fe98c	0.0021959273
10	0xb882344c	-6.208624e-05
11	0xbb018828	-0.0019764993
12	0xbac82e3c	-0.0015272568
13	0xbaba0b60	-0.0014194064
14	0xba97f3fc	-0.0011593099
15	0xb9e4e07f	-0.0004365481

running_mean f4 [16]
0	0x3e31f0ae	0.17376968
1	0xbd806a0b	-0.06270226
2	0xbe268fcb	-0.1626579
3	0xbdd324f9	-0.10309786
4	0xbd314574	-0.043279126
5	0xbbe54ba9	-0.006997545
6	0xbd7a2c97	-0.06107768
7	0xbdcef65c	-0.10105583
8	0x3e205c61	0.1566024
9	0x3d87ef1f	0.066374056
10	0xbdc2143e	-0.09476517
11	0xbdfaf9ac	-0.122546524
12	0xbe060567	-0.13087998
13	0x3e084156	0.13306174
14	0x3c134272	0.00898801
15	0x3db52971	0.08845795

running_var f4 [16]
0	0x3f2517ab	0.6448924
1	0x3ea18022	0.3154307
2	0x3ed9596f	0.42451045
3	0x3e64d750	0.2234776
4	0x3f1e3879	0.6180492
5	0x3e5b9634	0.21444017
6	0x3ef366d7	0.47539398
7	0x3f346f5a	0.7048241
8	0x3e6098cd	0.21933289
9	0x3e9adeea	0.30248195
10	0x3e86483d	0.26226988
11	0x3e8a7649	0.2704337
12	0x3ed7c380	0.42141342
13	0x3ee6e09e	0.45093244
14	0x3e90a04d	0.282473
15	0x3e86ffac	0.26366937

weight f4 [16, 16, 2]
0	0xbda7eba8	-0.08199245
1	0xbe185af2	-0.14878443
2	0x3dbf278e	0.09333716
3	0x3df6b1d4	0.12045637
4	0xbdcc97c5	-0.09989885
5	0xbda3082d	-0.07960544
6	0xbdfb0482	-0.12256719
7	0x3d9a56a6	0.07536058
8	0x3d1b4ae1	0.037913207
9	0x3c8be980	0.017079115
10	0x3e134719	0.1438259
11	0x3db4dd40	0.088312626
12	0xbce7c83d	-0.028293723
13	0x3d1a2220	0.0376302
14	0x3e32254b	0.17397039
15	0xbe158dc3	-0.14604859
16	0xbda1b25c	-0.078953475
17	0xbdcc5df7	-0.0997886
18	0xbdccef9d	-0.1000664
19	0x3e0e7c49	0.13914599
20	0xbcc14eca	-0.02359714
21	0x3da79d64	0.08184317
22	0xbc74a1d9	-0.014931166
23	0xbe31ccdb	-0.17363302
24	0xbd8fd7a7	-0.07023554
25	0xbe0c7764	-0.13717419
26	0x3dc94872	0.09828271
27	0x3d8a9ace	0.06767808
28	0xbe183eb5	-0.14867671
29	0xbbede8d9	-0.0072604236
30	0x3d86a7a9	0.065749474
31	0xbdcf13cf	-0.101112
32	0xbc8d483c	-0.017246358
33	0x3db60c64	0.08889082
34	0x3e287916	0.1645244
35	0xbdf397ad	-0.11894164
36	0xbe17dd3f	-0.14830492
37	0xbdf22245	-0.11822943
38	0xbd862334	-0.06549683
39	0xbda6f499	-0.08152122
40	0xbd9050bc	-0.07046649
41	0xbdd2363a	-0.10264249
42	0x3c93805c	0.018005542
43	0x3c954bac	0.01822456
44	0x3dd11651	0.10209335
45	0x3ddd6db5	0.108119406
46	0xbd096e72	-0.033552594
47	0xbdc20eaa	-0.09475453
48	0xbdc565b7	-0.09638541
49	0x3d58f243	0.052965414
50	0x3cd96862	0.026539031
51	0x3ddfcf29	0.109281845
52	0x3e075e54	0.13219577
53	0x3e2b8220	0.16748857
54	0x3de18060	0.11010814
55	0x3e077cb6	0.13231167
56	0x3d842143	0.06451657
57	0x3e17ae1b	0.1481251
58	0x3d7a3509	0.061085735
59	0x3cf548d6	0.029941957
60	0xbd1061ab	-0.035249393
61	0x3d934999	0.07191772
62	0x3c6a6580	0.014306426
63	0x3db5622f	0.08856618
64	0xbe183be0	-0.1486659
65	0xbd3b70a7	-0.04576173
66	0x3d399246	0.045305513
67	0x3d1f032e	0.03882139
68	0x3ddd4888	0.1080485
69	0xbdc5f57c	-0.09665963
70	0x3de7e3fe	0.11322783
71	0xbd217084	-0.039413944
72	0xbe18112c	-0.148503
73	0xbd53bb3b	-0.05169223
74	0x3d8c662c	0.06855425
75	0xbe328e4e	-0.17437097
76	0xbdc2267f	-0.09479999
77	0xbc5e9c27	-0.013587034
78	0x3c9699e0	0.01838392
79	0x3d0c968a	0.034323253
80	0x3e13c851	0.14431883
81	0xbba7406c	-0.005104115
82	0xbd932ae4	-0.07185915
83	0x3d9d1007	0.076690726
84	0xbd85fa41	-0.06541873
85	0x3d1db2bf	0.038500544
86	0xbdd2d172	-0.10293855
87	0x3c06f2da	0.008236611
88	0xbd76eb34	-0.0602829
89	0xbd92dac0	-0.071706295
90	0x3d13c654	0.036077812
91	0x3db81e89	0.08990199
92	0xbdfdcd3f	-0.12392663
93	0xbc99364a	-0.018702645
94	0x3d8085dd	0.062755324
95	0x3dcade0b	0.099056326
96	0x3e101365	0.14069898
97	0xbcde8a04	-0.02716542
98	0xbe165a98	-0.14682996
99	0xbd74b7af	-0.059745487
100	0xbe11b8d2	-0.1423066
101	0x3da66512	0.081247464
102	0x3b07998b	0.0020690884
103	0x3dd25844	0.102707416
104	0x3e22f09c	0.15912098
105	0xbcea6949	-0.028614657
106	0x3dac62c7	0.08417278
107	0x3d8743cf	0.0660473
108	0x3ba2375e	0.004950448
109	0x3e2a6184	0.16638762
110	0xbe139adf	-0.14414547
111	0x3e00b689	0.12569632
112	0xbdc6eeaf	-0.09713494
113	0x3bf3e513	0.0074430793
114	0xbc123dd7	-0.008925877
115	0x3d99295e	0.07478593
116	0x3dfe0896	0.124039814
117	0xbcdc5d00	-0.026899815
118	0xbe3290f4	-0.17438108
119	0x3db5c3d4	0.08875242
120	0x3e195c86	0.14976701
121	0x3e1d2d61	0.15349342
122	0xbdbdfe13	-0.092769764
123	0x3d515dbf	0.051114794
124	0xbdab3ce2	-0.08361222
125	0xbdca2181	-0.098696716
126	0xbe0b8f91	-0.13628985
127	0xbe2979b6	-0.16550335
128	0x3c1eeaac	0.009699505
129	0x3de731ef	0.11288821
130	0xbdd29dac	-0.1028398
131	0x3d417e24	0.047239438
132	0xbd8b4261	-0.0679977
133	0xbe0f227b	-0.13977997
134	0x3d5473df	0.051868316
135	0xbd22d8a1	-0.039757375
136	0xbdf58860	-0.11988902
137	0x3dc82949	0.097734995
138	0xbd31533c	-0.04329227
139	0x3cfd9ec9	0.030959504
140	0x3e2a5681	0.16634561
141	0x3bbacfd1	0.005701043
142	0xbda55df4	-0.08074561
143	0xbe0bf5b8	-0.13667953
144	0x3de3f45e	0.11130594
145	0x3d7c0515	0.061528284
146	0xbd966bc8	-0.073447764
147	0xbdf49737	-0.119429044
148	0x3e1c905c	0.15289444
149	0xbdc1d375	-0.0946416
150	0x3e2e36c6	0.17013082
151	0xbcddffd4	-0.027099527
152	0x3dcb8953	0.09938302
153	0xbdd5d799	-0.104415126
154	0x3d3e97a0	0.04653132
155	0xbd8b17d5	-0.06791655
156	0xbe02c919	-0.12772025
157	0x3e329e03	0.17443089
158	0xbe2cd82d	-0.1687934
159	0x3d6d7bb2	0.057979293
160	0x3df967e4	0.12178019
161	0xbdefaf5b	-0.11703368
162	0xbe2bc02c	-0.16772527
163	0x3dd106ec	0.10206398
164	0xbbe241b6	-0.006904806
165	0xbd81597f	-0.06315898
166	0x3dfe2dbe	0.124110684
167	0x3e17b6ce	0.14815828
168	0xbdff22ef	-0.12457835
169	0x3e2a7ecd	0.16649933
170	0x3e1e011b	0.15430109
171	0xbdbe4a29	-0.09291489
172	0xbe2c50f8	-0.16827762
173	0xbe295e9d	-0.16539998
174	0xbc20acde	-0.00980684
175	0xbdaa2d9d	-0.08309481
176	0x3cc95485	0.024576435
177	0xbdfeb606	-0.12437062
178	0x3e1b1fdb	0.1514887
179	0xbdd4a5a7	-0.10383158
180	0x3ccc5c54	0.02494637
181	0x3e1fc9ab	0.15604274
182	0xbe151e41	-0.14562322
183	0x3df7cecf	0.120999925
184	0xbd6dd8eb	-0.058068197
185	0x3d869c3b	0.06572767
186	0x3de25424	0.11051205
187	0xbe19f97a	-0.15036574
188	0x3e06aa26	0.13150844
189	0xbbbda30a	-0.005787258
190	0x3e1cfd31	0.1533096
191	0xbd733ffc	-0.059387192
192	0x3da76b51	0.08174766
193	0xbe0ad866	-0.13559112
194	0xbcedcfa6	-0.029029679
195	0x3e1ccba0	0.15312052
196	0xbe366064	-0.17810208
197	0xbdacea8a	-0.08443172
198	0xbe166310	-0.14686227
199	0x3c5bc3bf	0.013413369
200	0xbbe1cf0b	-0.0068911365
201	0x3e17e686	0.14834031
202	0x3cca1471	0.02466795
203	0x3e19b47f	0.1501026
204	0xbe3007c0	-0.17190456
205	0xbd0d2a3e	-0.034464113
206	0x3da38061	0.07983471
207	0x3dee0557	0.11622112
208	0xbdf48192	-0.11938776
209	0xbd5857a5	-0.05281796
210	0x3d0dcea6	0.034620903
211	0x3b0c7ea6	0.0021437793
212	0xbdee5543	-0.11637356
213	0x3e1dacaf	0.15397905
214	0xba92306c	-0.0011153347
215	0xbe25f952	-0.1620839
216	0xbe01f7cc	-0.12692183
217	0x3d9d3dcf	0.07677805
218	0x3dd82c17	0.105552845
219	0x3c51f128	0.012813844
220	0x3dd9dc55	0.10637728
221	0x3e13ac37	0.14421163
222	0xbda29fe2	-0.079406515
223	0x3e178861	0.14798118
224	0xbd411bae	-0.047145538
225	0xbd919a1b	-0.071094714
226	0x3e15aa7a	0.14615813
227	0xbde18da9	-0.11013348
228	0xbd5c916e	-0.05384963
229	0x3dc20aaf	0.09474694
230	0x3d4ffeeb	0.050780218
231	0x3d1b2de2	0.037885554
232	0xbe169484	-0.14705092
233	0x3d80335a	0.062597945
234	0x3c3d3481	0.011548162
235	0x3d64ee62	0.055891402
236	0x3dd48612	0.103771344
237	0x3e26b521	0.16280033
238	0xbddfc9e3	-0.10927179
239	0xbe0256e9	-0.12728466
240	0xbe0d16f6	-0.1377829
241	0xbe2f3b80	-0.17112541
242	0xbd044b4e	-0.03229838
243	0x3de759a5	0.11296395
244	0x3d44ea84	0.048075214
245	0x3d6c25f0	0.057653368
246	0xbe22714e	-0.15863535
247	0x3db535de	0.08848165
248	0xbe35acb4	-0.17741662
249	0xbd1744b8	-0.03693077
250	0xbd9e13ba	-0.07718606
251	0xbcb37cfb	-0.021910181
252	0xbca10fa5	-0.01966078
253	0x3b96e82a	0.004605313
254	0x3e093175	0.13397773
255	0xbde5e802	-0.112258926

bias f4 [16]
0	0xbe05c9ff	-0.13065337
1	0x3df819d6	0.12114303
2	0x3d1cbf88	0.038268596
3	0xbc235c66	-0.00997076
4	0xbcf38ca4	-0.029730149
5	0xbd1a080f	-0.03760534
6	0x3d4ef4d5	0.05052646
7	0xbce36a04	-0.027760513
8	0xbd95b703	-0.07310297
9	0x3e1eb2da	0.15497914
10	0x3e0796f7	0.13241182
11	0xbdb11cd3	-0.08648076
12	0xbd569331	-0.052386466
13	0xbe120039	-0.14257897
14	0xbdffeae7	-0.12495976
15	0x3d194be1	0.03742588

weight f4 [8, 16]
0	0x3dd88686	0.10572533
1	0xbd903451	-0.070412286
2	0x3d9bc46e	0.07605825
3	0x3e5f936b	0.21833579
4	0x3e325e03	0.17418675
5	0x3d2651eb	0.040605467
6	0x3cdd7538	0.027033433
7	0xbd3fff3f	-0.04687428
8	0xbe75ecfb	-0.24016182
9	0x3d78415c	0.060609207
10	0xbd3ee50f	-0.046605166
11	0x3e48a8cb	0.1959564
12	0xbe6fa628	-0.23403227
13	0xbd80c211	-0.06287015
14	0x3d825f0b	0.06365784
15	0xbe4ede86	-0.20202073
16	0x3ded3f3c	0.115843266
17	0xbdcd5a7b	-0.100270234
18	0x3e35c8f5	0.1775244
19	0xbe03f85e	-0.12887713
20	0x3e10c842	0.14138892
21	0x3db94283	0.09045889
22	0xbe7af333	-0.24506836
23	0xbe5ef6c9	-0.21773829
24	0x3e39a875	0.18130668
25	0xbe778fc3	-0.24175934
26	0xbc71957e	-0.014745114
27	0xbe6749a2	-0.22586682
28	0x3e20e42b	0.15712039
29	0x3e0e1991	0.1387694
30	0xbe0bae8a	-0.136408
31	0xbe2dee82	-0.16985515
32	0x3e09f0b9	0.13470735
33	0x3e35fa84	0.17771345
34	0x3e65410c	0.22388095
35	0xbe5d793d	-0.2162828
36	0xbda7b8a1	-0.08189512
37	0xbdc93526	-0.098245904
38	0xbe4210d7	-0.18951736
39	0x3e1f8a53	0.1558011
40	0x3db62a3b	0.088947736
41	0xbcc4baea	-0.024014909
42	0xbe56a84e	-0.2096264
43	0x3d645fe9	0.05575553
44	0x3c0cc005	0.008590703
45	0x3e5e17a4	0.21688706
46	0x3d3e3892	0.04644067
47	0x3e34c849	0.17654528
48	0x3d2053f2	0.039142556
49	0x3e06865e	0.13137195
50	0xbcc32f06	-0.023826133
51	0xbe63b65f	-0.22237538
52	0x3da5f2ad	0.08102927
53	0xbd85ea44	-0.06538823
54	0x3e50de57	0.20397316
55	0xbe4c55ee	-0.19954655
56	0x3cb4ecb0	0.022085518
57	0x3e2e5507	0.17024623
58	0xbdc4a978	-0.09602636
59	0xbe374b8d	-0.17899914
60	0x3dd0eb06	0.10201077
61	0xbdf99163	-0.121859334
62	0xbc284f02	-0.010272743
63	0x3e5da6ca	0.21645656
64	0xbd017122	-0.031602032
65	0xbe11e731	-0.14248349
66	0x3d814d80	0.0631361
67	0x3dbb6019	0.091491885
68	0xbe5cf5d9	-0.21578158
69	0x3d221c53	0.039577793
70	0x3dea8373	0.11450853
71	0x3e668ea0	0.22515345
72	0x3e6f050c	0.23341769
73	0x3e451f6f	0.19250272
74	0x3d5353f8	0.05159375
75	0x3d9ee03a	0.077576116
76	0x3ccfa2b1	0.025346132
77	0xbe623dcd	-0.22093888
78	0x3dd91a11	0.10600675
79	0x3e0451ff	0.12921904
80	0xbe483df9	-0.1955489
81	0xbdfc295a	-0.12312575
82	0x3c91cf89	0.017799156
83	0x3e7e79f7	0.24851213
84	0xbe273474	-0.16328603
85	0xbe452b54	-0.1925481
86	0xbde1bcc0	-0.11022329
87	0xbe6c8690	-0.23098207
88	0x3df6ad9c	0.12044832
89	0xbe37abf9	-0.17936696
90	0x3e7f699b	0.24942629
91	0x3e441cd5	0.19151624
92	0x3d5338ff	0.051568028
93	0x3cfb0974	0.030644156
94	0x3e547314	0.20747024
95	0x3df16fba	0.11788888
96	0x3de2d51d	0.110758044
97	0x3e0ac371	0.13551117
98	0xbe68e19d	-0.22742315
99	0x3e5bf465	0.21479948
100	0x3e7d1ca3	0.24717955
101	0xbd8d5443	-0.06900837
102	0xbd527594	-0.051381662
103	0xbdd2ed16	-0.10299127
104	0x3e0299fb	0.12754051
105	0xbc53b65b	-0.012921895
106	0xbe31f6e8	-0.17379344
107	0xbe0b4fee	-0.1360471
108	0x3cef42c8	0.029206648
109	0x3e05b13a	0.13055888
110	0xbe50a5f7	-0.2037581
111	0xbcaccd26	-0.021093916
112	0xbe2bca86	-0.16776475
113	0x3c22e498	0.009942196
114	0xbe7a3b46	-0.24436674
115	0x3e4f23cd	0.202285
116	0x3e792c78	0.2433337
117	0x3d586242	0.05282808
118	0x3e04a2ed	0.12952776
119	0xbe1ec897	-0.15506206
120	0x3e5d3367	0.2160164
121	0x3e0e3c34	0.13890153
122	0xbdf67774	-0.120345026
123	0x3e7e613f	0.24841784
124	0x3e144a99	0.14481582
125	0xbd3d2b9a	-0.04618416
126	0xbe3d2602	-0.1847153
127	0xbd3586ec	-0.044318125

bias f4 [8]
0	0x3e7703b2	0.24122503
1	0xbe47feff	-0.19530867
2	0xbe26bfc7	-0.16284095
3	0x3e44602a	0.19177309
4	0x3e086a1f	0.13321732
5	0x3da6d935	0.08146898
6	0xbe7cd245	-0.24689586
7	0x3cabf121	0.020989003

weight f4 [16, 8]
0	0xbdea3f87	-0.11437898
1	0x3e80eb6d	0.25179616
2	0xbe99bd20	-0.30027103
3	0x3e5b1801	0.21395876
4	0xbdab4dd4	-0.08364454
5	0x3d34a5dc	0.04410349
6	0x3e100ec6	0.14068136
7	0xbd930b63	-0.07179906
8	0x3e9622d0	0.29323435
9	0xbe8fa523	-0.28055677
10	0xbd1791bf	-0.03700423
11	0xbdc6b5d7	-0.09702652
12	0x3e07c368	0.13258135
13	0xbe2cb362	-0.16865304
14	0xbe21af47	-0.15789519
15	0x3c800358	0.015626594
16	0xbcce0e0a	-0.025153179
17	0xbe907a2e	-0.28218216
18	0xbe01570b	-0.1263086
19	0x3e911a2c	0.2834028
20	0x3d82abf8	0.06380457
21	0xbdf208d0	-0.11818087
22	0xbc684b0f	-0.014178052
23	0x3e78a90d	0.24283238
24	0x3e222d46	0.15837583
25	0x3db5fbab	0.088858925
26	0x3dd612a9	0.10452778
27	0x3eab4fe5	0.33459392
28	0x3eae313a	0.34021932
29	0x3c9084fb	0.017641535
30	0x3cc3adae	0.023886528
31	0x3d2af612	0.041738577
32	0xbe6c136b	-0.23054282
33	0xbc08bddf	-0.00834605
34	0xbdf91f73	-0.121642016
35	0xbcae2e58	-0.021262333
36	0x3e913ec6	0.28368205
37	0x3e5116a0	0.20418787
38	0xbe3b5a1b	-0.18296091
39	0xbe92359f	-0.28556535
40	0xbe7b5f2f	-0.24548028
41	0x3eace399	0.33767393
42	0xbea52697	-0.32256004
43	0xbd85a5d7	-0.06525772
44	0xbe49e668	-0.197168
45	0xbe100ad4	-0.1406663
46	0xbe6c9f42	-0.23107627
47	0xbcbb13a1	-0.022836508
48	0xbd776e5b	-0.060407978
49	0x3c4ff7c3	0.012693348
50	0xbd4ce705	-0.050025005
51	0x3e9f1f97	0.3107879
52	0xbe8db976	-0.27680558
53	0x3e7fd8ab	0.24984996
54	0xbe774cbf	-0.2415037
55	0x3d055e6f	0.032560762
56	0xbe6183d3	-0.22022943
57	0x3e877595	0.26456895
58	0xbeb03a48	-0.34419465
59	0xbe9bb05b	-0.30407986
60	0xbe229e7b	-0.15880768
61	0x3d9a3cef	0.075311534
62	0xbe7b48af	-0.24539445
63	0x3e029802	0.12753299
64	0x3e69e484	0.22841078
65	0xbe884e4d	-0.2662224
66	0x3e9fdbe8	0.31222463
67	0x3d293877	0.041313615
68	0x3ead9b1c	0.33907402
69	0xbe53652e	-0.20644066
70	0xbe3599b3	-0.17734413
71	0xbcfb350a	-0.03066494
72	0xbeaafb5e	-0.33394903
73	0x3e3ce139	0.1844529
74	0x3eaeca0d	0.34138528
75	0x3deba49d	0.11506007
76	0x3ea177bd	0.31536666
77	0x3b178da2	0.0023125191
78	0x3e6bb236	0.23017201
79	0x3dac09ea	0.084003285
80	0x3e8de4d0	0.27713633
81	0xbe3c6400	-0.18397522
82	0xbeb141b7	-0.3462045
83	0xbdbeb2e1	-0.09311462
84	0x3e5f7a8d	0.21824093
85	0x3e8f67b2	0.280088
86	0xbd81ed72	-0.06344117
87	0xbeb15020	-0.34631443
88	0xbe980503	-0.29691324
89	0xbe959eff	-0.29222867
90	0x3db35feb	0.08758529
91	0xbd502467	-0.050815966
92	0xbd844d84	-0.064600974
93	0xbe90aebb	-0.2825831
94	0x3cc1b755	0.02364699
95	0xbe306925	-0.1722761
96	0xbde80e98	-0.113309085
97	0x3ddbf9a9	0.10740978
98	0x3e850047	0.25976774
99	0x3e0764aa	0.13221994
100	0xbc167025	-0.009182011
101	0x3e5aa03f	0.21350192
102	0xbe9a4061	-0.30127242
103	0x3daef417	0.0854265
104	0xbe2141bd	-0.15747733
105	0xbe8f95fb	-0.28044114
106	0xbd8f3c4f	-0.06993925
107	0xbdc29cab	-0.09502538
108	0xbe9ef6d6	-0.31047696
109	0xbd14fb6b	-0.036372583
110	0x3e1f4627	0.15554105
111	0xbea19732	-0.31560665
112	0x3e995259	0.2994564
113	0x3d81bea4	0.0633519
114	0x3e7915c5	0.2432471
115	0xbe22b8d7	-0.15890823
116	0xbe275ca4	-0.16343933
117	0xbe20ac9f	-0.1569085
118	0x3d8e058c	0.06934652
119	0x3e796d51	0.24358107
120	0x3d114641	0.03546739
121	0x3e841ea6	0.25804633
122	0x3d7109bc	0.058847174
123	0x3e90885a	0.28229028
124	0xbe2a5230	-0.16632915
125	0xbe2cdf8b	-0.1688215
126	0x3e489388	0.19587529
127	0x3ca44a87	0.020055069

bias f4 [16]
0	0xbd921341	-0.07132579
1	0xbe316f6e	-0.17327663
2	0x3e5cbf72	0.21557406
3	0x3e435190	0.19074082
4	0x3e2345e6	0.15944633
5	0x3dc9a759	0.09846372
6	0x3d845dd2	0.06463207
7	0xbe8e8f76	-0.27843827
8	0xbe1c9fd0	-0.15295339
9	0xbe91c5c4	-0.28471196
10	0x3e11e5c1	0.142478
11	0xbe5ce299	-0.21570815
12	0x3e19548c	0.14973658
13	0xbe1c0e75	-0.1523989
14	0xbd80292a	-0.062578514
15	0x3e4d4268	0.20044863

weight f4 [1, 2, 7, 3]
0	0xbcdcc414	-0.026948966
1	0xbb9a7eff	-0.004714846
2	0xbd9163f9	-0.070991464
3	0xbdd05f1f	-0.10174393
4	0x3d722d3a	0.059125163
5	0xbd8223c7	-0.0635448
6	0xbdbad591	-0.09122766
7	0x3d0d40c4	0.034485593
8	0xbd978f3a	-0.07400365
9	0xbc1682ea	-0.009186486
10	0xbb0a72c6	-0.002112554
11	0x3ddf6cc6	0.10909419
12	0xbe083deb	-0.1330487
13	0xbd5759c4	-0.05257584
14	0xbda1f4df	-0.079080336
15	0xbe0669b4	-0.1312626
16	0xbde9045d	-0.11377785
17	0xbcbb0bf8	-0.022832856
18	0x3dd342ba	0.103154615
19	0xbe1cfd10	-0.1533091
20	0xbd1f8469	-0.038944636
21	0x3dc63ac4	0.096791774
22	0x3d9adaea	0.07561286
23	0x3d37f570	0.0449118
24	0x399f1810	0.0003034477
25	0x3d9f2f15	0.07772652
26	0x3c8cb54d	0.017176295
27	0xbde3b5f3	-0.111186884
28	0xbddb4d2a	-0.10708077
29	0x3b322ab0	0.0027186088
30	0xbca12502	-0.019670967
31	0xbe10b0ab	-0.14129893
32	0x3c9789c1	0.018498303
33	0x3c93e492	0.018053327
34	0xbc57069c	-0.013124134
35	0xbdfb1973	-0.122607134
36	0x3e1519cb	0.1456062
37	0x3b93a9ef	0.0045063416
38	0x3cc99c26	0.02461059
39	0xbde07999	-0.10960693
40	0xbd9eaecf	-0.07748186
41	0x3db23ff7	0.087036066

weight f4 [16]
0	0x3f7fb3ff	0.9988403
1	0x3f7f6b45	0.99773055
2	0x3f7f4f1f	0.99730104
3	0x3f800bb2	1.0003569
4	0x3f805f34	1.0029054
5	0x3f7f5037	0.99731773
6	0x3f7fe008	0.9995122
7	0x3f7fa6d8	0.9986396
8	0x3f7f9cdb	0.9984872
9	0x3f807ed0	1.00387
10	0x3f804308	1.0020456
11	0x3f803492	1.0016043
12	0x3f8037b4	1.0016999
13	0x3f7fb7ec	0.9989002
14	0x3f7f6336	0.9976076
15	0x3f803746	1.0016868

bias f4 [16]
0	0x3b0aa655	0.002115627
1	0x3af71c96	0.0018853124
2	0xbac54788	-0.0015051225
3	0x3a6d9577	0.00090631045
4	0x3b9b0c04	0.004731657
5	0xbb3ae3da	-0.0028517158
6	0x3a93b217	0.0011268285
7	0xba13598e	-0.00056209497
8	0xb7a5ca6e	-1.9763796e-05
9	0x3b88141b	0.0041527874
10	0x3acf03ef	0.0015794019
11	0x3b04ff64	0.0020293826
12	0xb8a50d23	-7.87026e-05
13	0xba41ab88	-0.0007387926
14	0xbb124eed	-0.0022324875
15	0x3a61c24b	0.0008612021

running_mean f4 [16]
0	0x3d8dab75	0.069174685
1	0x3d06e84f	0.03293639
2	0x3dac7c23	0.08422115
3	0x3d764f1e	0.060134046
4	0x3d148ea1	0.036268834
5	0x3d1abdd2	0.037778683
6	0x3d23e100	0.0400095
7	0x3d2fe2da	0.042940952
8	0x3d6a8cfe	0.057263367
9	0x3d221ec7	0.039580133
10	0x3d16a2e4	0.03677644
11	0x3d10c35a	0.03534255
12	0x3d2066dd	0.039160598
13	0x3d0735e6	0.033010386
14	0x3d94ea37	0.072712354
15	0x3d6d1b2d	0.057887245

running_var f4 [16]
0	0x3b742e51	0.0037259052
1	0x3bafde8b	0.0053671054
2	0x3bcd4f26	0.0062655387
3	0x3c4750e5	0.012165283
4	0x3bb611ee	0.0055563366
5	0x3bb5de33	0.00555017
6	0x3c1dabde	0.009623496
7	0x3b0c2f0d	0.002139035
8	0x3bfb28fc	0.007664798
9	0x3c1221a8	0.008919157
10	0x3bc15f62	0.005901263
11	0x3bc95d8a	0.006145184
12	0x3bf59ad3	0.007495263
13	0x3b9e6b15	0.0048345425
14	0x3c247120	0.010036737
15	0x3c726537	0.014794639

weight f4 [32, 16, 3, 3]
0	0xbc3770fb	-0.01119637
1	0x3c2c3412	0.010510461
2	0xbca07e89	-0.019591587
3	0x3cd9dfe9	0.026596026
4	0xbda0bc2a	-0.078483894
5	0x3d5f7e2b	0.054563683
6	0xbcec64a7	-0.028856589
7	0xbd22b5e3	-0.039724242
8	0x3bb5c903	0.005547644
9	0x3b812a66	0.003941822
10	0x3da4840a	0.08032997
11	0x3d4bbb2c	0.049739048
12	0x3d9ce951	0.07661689
13	0xbcdbadfb	-0.026816359
14	0x3d6872b4	0.056750014
15	0x3d6f1365	0.058368105
16	0x3d297e52	0.041380234
17	0xbc938b2e	-0.018010702
18	0x3d87ba9b	0.06627389
19	0x3c7736dc	0.015088763
20	0x3d2947bc	0.041328177
21	0x3d5b5f62	0.05355776
22	0x3d371136	0.044694148
23	0x3d96db5b	0.073660575
24	0x3caa8f50	0.02082029
25	0xbcf4ef3b	-0.02989923
26	0x3d5e1091	0.054215018
27	0xbda07954	-0.078356415
28	0xbd039f51	-0.032134358
29	0x3cb302b2	0.021851871
30	0xbd213622	-0.039358266
31	0xbda136b3	-0.07871761
32	0xbd6dafaa	-0.058028854
33	0x3c58f190	0.013241187
34	0x3d592b11	0.053019587
35	0xbd9cce18	-0.07656497
36	0x3cf502e8	0.029908612
37	0xbd4861e7	-0.048921492
38	0x3d7a436e	0.061099462
39	0x3d4ec69c	0.050482377
40	0x3bda7aac	0.0066674557
41	0xbd44738f	-0.047961768
42	0xbd43479e	-0.04767572
43	0xbd77c694	-0.060492113
44	0x3d0a5250	0.033769906
45	0x3d868215	0.0656778
46	0x3d0078f8	0.031365365
47	0xbda98640	-0.08277559
48	0xbd9e28d4	-0.07722631
49	0x3cd894c9	0.026438134
50	0xbd163e7e	-0.03668069
51	0x3c84417b	0.016144505
52	0x3da3f5c9	0.08005864
53	0x3d99fbd2	0.07518734
54	0xbc8f9711	-0.017528089
55	0x3d988a72	0.07448281
56	0xbc219e1e	-0.009864358
57	0x3d61150f	0.054951724
58	0xbc5cfc8b	-0.013487945
59	0x3d618612	0.0550595
60	0x3d4f680f	0.050636347
61	0x3c41af7d	0.011821625
62	0x3d62b2a1	0.055346135
63	0x3a466235	0.00075677346
64	0xbd866496	-0.06562154
65	0x3ca9ea46	0.020741593
66	0x3d880baf	0.066428535
67	0x3cc09fdf	0.023513732
68	0xbca1fa30	-0.019772619
69	0x3d9ca299	0.076482005
70	0x3d81bb4b	0.063345514
71	0x3d2d5720	0.042319417
72	0xbd0582a9	-0.03259531
73	0xbc185b9b	-0.009299184
74	0x3cd9950a	0.026560325
75	0x3d8c8ba7	0.06862574
76	0xbd350c00	-0.044200897
77	0xbda6585c	-0.08122322
78	0x3da042db	0.07825252
79	0xbb90cb58	-0.0044187717
80	0x3d9a5533	0.07535782
81	0xbd069344	-0.032855287
82	0x3cda6c93	0.0266631
83	0x3d5da9de	0.054117076
84	0xbd5aa412	-0.053379126
85	0x3cbf2b7e	0.023336168
86	0x3d964595	0.073374905
87	0xbdacfbed	-0.084464885
88	0xbdb00584	-0.08594802
89	0x3cd1ccb3	0.025610304
90	0x3d188062	0.03723181
91	0xbbadf10c	-0.005308276
92	0xbcd3facb	-0.025876423
93	0xbbf0b2b9	-0.007345524
94	0x3d5781c3	0.052613985
95	0x3daa741d	0.08322928
96	0x3cd45586	0.025919687
97	0x3d5a13e9	0.053241644
98	0x3d19e8d0	0.037575543
99	0x3d5a55fc	0.053304657
100	0xbce65a38	-0.028119192
101	0x3d4eed84	0.05051948
102	0x3d1e09a1	0.0385834
103	0x3d293035	0.04130574
104	0xbce3fa1a	-0.027829219
105	0xbcb3a6b7	-0.021930082
106	0xbc9e2466	-0.019304466
107	0x3cfea89c	0.031086259
108	0x3cb38668	0.021914676
109	0x3cc0bf8e	0.02352884
110	0x3d948ef5	0.072538294
111	0x3d96c6e0	0.07362151
112	0x3d8fffed	0.07031236
113	0x3d8fded9	0.07024927
114	0xbc623790	-0.013807192
115	0xbc791ddd	-0.015204874
116	0xbd82827e	-0.06372546
117	0x3c71016c	0.014709812
118	0x3b9d5529	0.0048014116
119	0x3d1d08dd	0.03833853
120	0x3d81f741	0.06345988
121	0x3d5db246	0.054125093
122	0xbc2528c4	-0.01008052
123	0xbd19d1a2	-0.037553437
124	0xbbac0c3e	-0.005250483
125	0xbd59f81f	-0.053215142
126	0xba8e6c1c	-0.0010865959
127	0xbc9d572b	-0.019206604
128	0x3d9a0f23	0.07522418
129	0x3d0b3a47	0.033991124
130	0x3c04c265	0.008102988
131	0xbcca3aed	-0.024686301
132	0xbd841d99	-0.06450958
133	0x3cb69cb5	0.02229152
134	0xbc271a90	-0.010199204
135	0xbd6ad9c1	-0.057336573
136	0x3c12c6b6	0.008958509
137	0xbc52b420	-0.012860328
138	0x3a669ce8	0.00087971846
139	0xbd863849	-0.06553704
140	0xbd3308cb	-0.043709558
141	0x3d90ee2a	0.07076676
142	0xbc9de9e5	-0.019276569
143	0x3ccc0594	0.024905004
144	0xbc00f5e3	-0.007871124
145	0xbd878346	-0.06616835
146	0xbd8f4ed2	-0.06997456
147	0x3d58fccc	0.05297546
148	0x3d7d32f4	0.06181617
149	0xbcb842ef	-0.022492854
150	0x3d698bf7	0.057018247
151	0x3d7771a4	0.06041111
152	0xbd4778ae	-0.048699073
153	0xbd2472f5	-0.040148694
154	0x3d7db5f5	0.061941106
155	0xbd2bf85d	-0.041984905
156	0xbd205be6	-0.03915014
157	0xbd347a5e	-0.04406201
158	0x3a9df974	0.0012052492
159	0xbd7d8881	-0.06189776
160	0xbd8ab733	-0.06773224
161	0xbd3721dd	-0.04471003
162	0x3d3f4577	0.046697106
163	0xbcdb750f	-0.026789216
164	0x3ca75517	0.020426316
165	0xbd542887	-0.051796462
166	0xbd883caa	-0.06652196
167	0xbd858ef8	-0.0652141
168	0x3d2a9906	0.04164984
169	0xbc7e2de0	-0.015513867
170	0x3d97ccb9	0.074120946
171	0x3bb8ad82	0.005635918
172	0x3d62400c	0.05523686
173	0xbcc69648	-0.024241582
174	0x3b23299b	0.0024896625
175	0xbc86c21f	-0.016449986
176	0x3d34647a	0.044041134
177	0x3ceae899	0.028675364
178	0xbda1685b	-0.07881232
179	0x3cb37092	0.021904264
180	0xbcb72a53	-0.022359049
181	0x3d961731	0.07328642
182	0xbd0bae9a	-0.03410206
183	0xbd128fe1	-0.035781745
184	0xbd8ce03c	-0.06878707
185	0xbd98094d	-0.07423649
186	0x3daa58c1	0.0831771
187	0xbba79327	-0.0051139775
188	0xbd1f39ae	-0.038873367
189	0x3d4cd2a5	0.050005574
190	0x3d11bc7b	0.03558014
191	0x3d6768e6	0.056496523
192	0x3bd4f4ba	0.0064989002
193	0xbca84285	-0.020539531
194	0xbd9b93d3	-0.075965546
195	0x3d376429	0.044773255
196	0xbd806b9e	-0.06270526
197	0x3ba59aa3	0.0050538345
198	0x3d8f7a1b	0.07005712
199	0x3c98d30d	0.018655324
200	0xbd9a7871	-0.075425036
201	0x3d9f72d4	0.077855736
202	0x3cd5582d	0.026043022
203	0x3c8290c2	0.015938167
204	0xbcf35285	-0.029702434
205	0x3c8dbddb	0.017302444
206	0xbce11a47	-0.02747835
207	0x3cd71f62	0.026260082
208	0x3d5a94db	0.053364616
209	0xbaa90499	-0.0012895047
210	0x3d9f846e	0.07788931
211	0x3d75fb5f	0.06005418
212	0x3d82a48c	0.06379041
213	0x3ceed255	0.029153029
214	0xb9b825da	-0.00035123416
215	0x3cc8174b	0.02442517
216	0xbd896ce3	-0.067102216
217	0xbcb0cc5d	-0.021581823
218	0x3d22fbb0	0.03979081
219	0x3d741df5	0.05959888
220	0xbc55ed02	-0.013056995
221	0x3ca5ce20	0.02023989
222	0xbc8229a1	-0.01588899
223	0x3cbda778	0.023151144
224	0x3b26bd51	0.0025442431
225	0xbd35a3c5	-0.044345636
226	0x3c4b33b2	0.012402462
227	0x3d981c8a	0.074273184
228	0x3d6a47de	0.057197444
229	0xbdb20c06	-0.086936995
230	0xbcb46c88	-0.022024408
231	0xbd1a24b0	-0.037632644
232	0x3d6ce253	0.057833027
233	0x3d6b0bfe	0.057384484
234	0xbda6019c	-0.08105776
235	0x3d807049	0.06271417
236	0xbd2d9b9c	-0.04238473
237	0xbda8d3a7	-0.082434945
238	0xbd16186b	-0.03664438
239	0xbd9e68f5	-0.07734863
240	0xbd7bb0c7	-0.061447885
241	0x3c87ac81	0.016561748
242	0xbd599892	-0.053124018
243	0xbd6e1da5	-0.05813374
244	0x3d953234	0.07284966
245	0xbda0b7a2	-0.07847525
246	0xbcd2a0ec	-0.0257115
247	0x3d0d1a60	0.03444898
248	0x3d955f53	0.07293572
249	0x3d8554ea	0.06510337
250	0xbbabec65	-0.0052466863
251	0x3c8aaffb	0.016929617
252	0x3a8768b7	0.001033089
253	0x3d959a49	0.07304818
254	0xbd873fe0	-0.0660398
255	0xbcffd80c	-0.031230949

bias f4 [32]
0	0x3d2b2b88	0.04178956
1	0x3d218f54	0.03944333
2	0xbd93103e	-0.07180832
3	0xbc821d92	-0.01588324
4	0xbda829d2	-0.082111016
5	0x3d54e013	0.051971506
6	0xbd80ed83	-0.06295302
7	0xbc39f741	-0.011350454
8	0xbc5d4325	-0.013504778
9	0xbd88985e	-0.06669687
10	0x3d63e17b	0.055634957
11	0xbb3a0034	-0.0028381469
12	0xbd947ffa	-0.07250972
13	0xbd1962f6	-0.037447892
14	0xbd25bdf0	-0.04046434
15	0xbd7f1fb9	-0.062286112
16	0x3cb1f45c	0.021722965
17	0x3d3664fb	0.044529896
18	0xbd431855	-0.047630627
19	0xbca979d7	-0.02068798
20	0x3c9e3257	0.019311113
21	0xbb98b4af	-0.004660211
22	0xbd7baa54	-0.061441734
23	0xbc8b5725	-0.017009327
24	0x3c02e1c4	0.007988397
25	0x3cf857b3	0.030315256
26	0x3ccdcec9	0.025123017
27	0xbc50ab68	-0.012736179
28	0xbcb26dcd	-0.021780873
29	0x3c5d7304	0.013516191
30	0x3cca3a17	0.024685903
31	0xbd908670	-0.07056892

weight f4 [32]
0	0x3f7fa9ce	0.99868476
1	0x3f7f7dd0	0.9980135
2	0x3f80333f	1.0015639
3	0x3f7f46b5	0.99717265
4	0x3f801c3c	1.0008616
5	0x3f8023e7	1.0010957
6	0x3f7f447e	0.99713886
7	0x3f805412	1.0025656
8	0x3f7fba9d	0.99894124
9	0x3f804d2a	1.0023549
10	0x3f7f0b3d	0.99626523
11	0x3f7f7ea4	0.99802613
12	0x3f804ad6	1.0022838
13	0x3f7fe4f2	0.9995872
14	0x3f8032fb	1.0015558
15	0x3f80124f	1.0005587
16	0x3f8046b6	1.0021579
17	0x3f8001f0	1.0000591
18	0x3f802c85	1.0013586
19	0x3f8040c1	1.0019761
20	0x3f7fcfdb	0.9992654
21	0x3f7fb1dc	0.99880767
22	0x3f7f7043	0.9978067
23	0x3f8021c7	1.0010308
24	0x3f800996	1.0002925
25	0x3f7ff36c	0.9998081
26	0x3f8080d4	1.0039315
27	0x3f7fbfcf	0.9990205
28	0x3f7f78d0	0.9979372
29	0x3f7eda0a	0.9955145
30	0x3f80111e	1.0005224
31	0x3f7f4319	0.9971176

bias f4 [32]
0	0xbaff6600	-0.0019485354
1	0x39c8a15f	0.00038267203
2	0x3ab56cfa	0.0013841682
3	0xbb8766c4	-0.0041321237
4	0x3b038a59	0.0020071475
5	0x383fb083	4.5702338e-05
6	0xbac7d9e3	-0.001524743
7	0x3ad3f91d	0.0016172264
8	0xb9cdb13e	-0.00039232703
9	0x3ac16ef3	0.0014757797
10	0xbb01fa7f	-0.0019833145
11	0xb89e58cc	-7.550567e-05
12	0x3b8ac410	0.0042347983
13	0x3ad2ac97	0.0016073164
14	0xbb06ddc4	-0.002057896
15	0x39f6a9e3	0.00047047352
16	0xb9ada260	-0.0003311811
17	0x390d5ad4	0.00013480644
18	0x3b2b4444	0.0026133219
19	0x3b3a4bee	0.0028426605
20	0xba9617b6	-0.0011451158
21	0x3a21e17f	0.0006175264
22	0x39ebac57	0.00044951096
23	0x3b536a61	0.0032259452
24	0x3b1de34c	0.0024091778
25	0xba69ae37	-0.00089142047
26	0x3b98b815	0.004660616
27	0xbafb2671	-0.0019161237
28	0xbb2490fb	-0.002511083
29	0xbb15c1af	-0.002285104
30	0x38668fb8	5.497012e-05
31	0x389398b6	7.037951e-05

running_mean f4 [32]
0	0x3ee5be90	0.4487195
1	0xbb8c9aa9	-0.004290898
2	0xbe84c064	-0.25928032
3	0x3e60d3ad	0.21955748
4	0xbe5649ae	-0.20926544
5	0x3dd351ec	0.1031836
6	0xbe910b1a	-0.28328782
7	0x3e82e87a	0.2556799
8	0xbef532da	-0.4789036
9	0x3dea6f04	0.11446956
10	0xbda8c0ae	-0.08239876
11	0xbe219b68	-0.15781939
12	0x3dded6f2	0.10880841
13	0xbe8d3374	-0.27578318
14	0x3eec6c20	0.46176243
15	0xbe31385a	-0.17306653
16	0xbe57b55e	-0.2106528
17	0xbeb17dca	-0.34666282
18	0xbe49a0cb	-0.19690244
19	0x3d676289	0.056490455
20	0x3e10a9a0	0.14127207
21	0x3dd55ab8	0.10417694
22	0xbd157797	-0.036491003
23	0x3d4d2f81	0.05009413
24	0xbddaa5cd	-0.10676155
25	0x3c8b97ae	0.0170401
26	0xbe44fe28	-0.19237578
27	0xbe417816	-0.18893465
28	0xbe78def9	-0.24303807
29	0x3d74d5ea	0.059774317
30	0xba003edb	-0.00048921787
31	0xbd60195b	-0.05471168

running_var f4 [32]
0	0x3e924864	0.28570855
1	0x3e801d2b	0.25022253
2	0x3e5a3476	0.21309075
3	0x3e0cb794	0.13741904
4	0x3e65b318	0.224316
5	0x3e32ef22	0.17474034
6	0x3e202783	0.15640073
7	0x3ead55fc	0.33854663
8	0x3ecfb763	0.405696
9	0x3e276e79	0.16350736
10	0x3e873420	0.26406956
11	0x3ecfab81	0.40560535
12	0x3e047fc0	0.12939358
13	0x3e50e39f	0.2039933
14	0x3e9108f8	0.28327155
15	0x3dd88ee1	0.10574127
16	0x3e310242	0.17286018
17	0x3ea4a8c0	0.32159996
18	0x3df988a9	0.12184269
19	0x3e062bea	0.1310269
20	0x3e50a4fe	0.2037544
21	0x3e83be7d	0.2573127
22	0x3e5a534d	0.21320839
23	0x3e52b665	0.2057739
24	0x3e0fe80c	0.14053363
25	0x3e3fe0a1	0.18738033
26	0x3df964ea	0.12177451
27	0x3e40d5d1	0.18831564
28	0x3e497f94	0.19677573
29	0x3df8257f	0.12116527
30	0x3e3e6629	0.18593659
31	0x3e2d0e19	0.16899909

weight f4 [32, 32, 3, 3]
0	0xbc97d388	-0.018533483
1	0x3b9216b8	0.0044582747
2	0xbd1685a4	-0.036748543
3	0x3c59a6ec	0.013284426
4	0xbcd03618	-0.025416419
5	0xbd542e0e	-0.051801734
6	0x3d1a4344	0.037661806
7	0x3d63b191	0.055589262
8	0x3c9c628b	0.019089958
9	0x3d2e2be2	0.04252232
10	0x3c8e28c0	0.017353415
11	0x3cf25069	0.029579358
12	0xbd5e5e95	-0.05428942
13	0x3b50d8cd	0.0031867505
14	0x3ce24523	0.027620858
15	0x3d63198a	0.055444278
16	0xbcd103f7	-0.025514586
17	0xbd113fa2	-0.035461076
18	0x3b376cac	0.0027988357
19	0x3d1ed900	0.038781166
20	0xbd39153f	-0.045186277
21	0xbc637890	-0.013883725
22	0x39ed0927	0.00045210982
23	0x3cc359e6	0.023846578
24	0xbcccd424	-0.0250035
25	0xbcc5364f	-0.024073748
26	0x3b8faa85	0.004384341
27	0xbac020f2	-0.0014658256
28	0x3c0ca7b2	0.008584904
29	0x3d646f1e	0.055770032
30	0xbcb3d0b9	-0.021950113
31	0x3d0ef2a9	0.034899388
32	0xbd34e07b	-0.044159394
33	0x3c1fd95f	0.009756415
34	0x3bf7566f	0.0075481455
35	0xbd5622a3	-0.052279126
36	0xbc865ce7	-0.016401721
37	0x3d275192	0.040849276
38	0xbd2898bd	-0.041161288
39	0xbcdd5948	-0.027020112
40	0xba66a0a3	-0.00087977404
41	0x3c8a1943	0.016857749
42	0xbd3306e6	-0.04370775
43	0xbccf9d3f	-0.025343535
44	0x3d7d83b0	0.061893165
45	0x3d2d7603	0.042348873
46	0x3d494089	0.04913381
47	0x3c18baf0	0.009321913
48	0xbd4d90b0	-0.050186813
49	0xbc8d63b9	-0.017259466
50	0xbb7551e9	-0.0037432855
51	0xbad6f000	-0.001639843
52	0x3c855b3e	0.01627886
53	0xbd436e4a	-0.0477126
54	0x3c9d9020	0.019233763
55	0xbc164f80	-0.009174228
56	0xbd32b915	-0.04363354
57	0x3cf78373	0.030214047
58	0xbd06a0b3	-0.0328681
59	0x3d09ca74	0.03364034
60	0x3b0ea11d	0.0021763511
61	0x3d378ee4	0.044814005
62	0xbd76ac18	-0.060222715
63	0xbc198695	-0.009370466
64	0x3c0ed263	0.008717152
65	0x3cd3143c	0.025766484
66	0x3d1056c6	0.035239004
67	0x3d5f3591	0.054494444
68	0xbcba0dd9	-0.022711681
69	0x3c7316ad	0.014836949
70	0x3d12fce3	0.035885703
71	0x3d0adecf	0.033903893
72	0x3c9c749c	0.019098572
73	0xbb00e424	-0.0019667232
74	0x3d663d13	0.05621059
75	0x3d665dbd	0.05624174
76	0x3c2a43da	0.010392154
77	0x3d6e8b3d	0.058238257
78	0xbcaf29b9	-0.0213822
79	0x3cd95173	0.026528096
80	0x3d5e2bb0	0.054240882
81	0xbb877918	-0.0041343085
82	0xbd1081e8	-0.03528014
83	0xbd31fed7	-0.043455925
84	0x3cf86f92	0.030326638
85	0xbd353229	-0.04423729
86	0xbca62a63	-0.020283883
87	0x3d0dee77	0.034651246
88	0x3c727d59	0.014800393
89	0x3cfbb059	0.030723738
90	0x3d0d9adf	0.034571525
91	0xbc206cb2	-0.00979154
92	0x3cfbc451	0.03073326
93	0xbd04b09e	-0.032394998
94	0xbcfb0a73	-0.030644631
95	0xbd532d6f	-0.051557
96	0xbd3e234d	-0.046420384
97	0x3cfa532b	0.030557236
98	0xbd639242	-0.055559404
99	0x3cd5b148	0.02608551
100	0x3c417ced	0.01180957
101	0xbced99eb	-0.029004058
102	0xbd52a852	-0.051430054
103	0x3cb7f632	0.022456262
104	0xbd1145b8	-0.03546688
105	0xbd2f56a4	-0.042807236
106	0xbd559c2e	-0.052150898
107	0x3cf3790c	0.029720806
108	0x3d2ccd1a	0.042187788
109	0x3ba5fb96	0.005065392
110	0xbca7ca72	-0.020482276
111	0xbc3a4e4f	-0.011371209
112	0xbd2a009b	-0.041504484
113	0xbd163886	-0.036675
114	0x3b9623c4	0.0045819003
115	0xbc51140e	-0.012761129
116	0x3cfda15c	0.030960731
117	0xbce2f350	-0.027703911
118	0xbd02a820	-0.031898618
119	0xbd598e0b	-0.05311398
120	0x3d369635	0.044576842
121	0xbcd9985e	-0.026561912
122	0x3b453c11	0.0030095617
123	0x3cdd8324	0.027040072
124	0xbd069dd8	-0.032865375
125	0xbd76fc27	-0.060299065
126	0xbd58e97a	-0.052957036
127	0x3cab3be7	0.020902587
128	0xbcaa0257	-0.020753069
129	0x3d4a5032	0.049392886
130	0xbcdd82ee	-0.027039971
131	0x3d462aa2	0.0483805
132	0xbb29d5a8	-0.0025914703
133	0xbd77d405	-0.060504932
134	0x3c86d62e	0.01645955
135	0xbb5cbbff	-0.003368139
136	0xbd61c039	-0.05511496
137	0xbd4c717c	-0.049912915
138	0xbcf7013f	-0.030151961
139	0xbd6a01ed	-0.057130743
140	0x3d37a515	0.04483517
141	0xba9f11d3	-0.0012136049
142	0xbcce245f	-0.025163827
143	0xbadd9e0c	-0.0016908064
144	0xbd617998	-0.0550476
145	0xbd5a8be3	-0.053356063
146	0x3d749a24	0.059717312
147	0xbd2c032d	-0.041995216
148	0x3c9a1b51	0.018811854
149	0xbd2a6d75	-0.041608293
150	0x3bf8cb64	0.0075926054
151	0xbc860cbd	-0.016363496
152	0xbd0002bf	-0.03125262
153	0x3d231ce3	0.03982247
154	0x3cec83f3	0.028871512
155	0x3bc2246b	0.0059247515
156	0xbd08f20a	-0.03343395
157	0xbd072afd	-0.03299998
158	0xbd3654f6	-0.04451462
159	0xbbf6f4ea	-0.0075365203
160	0x3cbc3d6a	0.022978503
161	0xbd0d3a76	-0.03447958
162	0xbcc38796	-0.023868363
163	0xbd306422	-0.043064244
164	0x3c61eace	0.013788892
165	0xbbf31a2a	-0.0074188905
166	0xbc3913d8	-0.011296235
167	0x3cb02900	0.021503925
168	0x3d27947f	0.0409131
169	0x3d43a1ca	0.047761716
170	0x3d249a67	0.040186312
171	0xbcd668c8	-0.02617301
172	0xbc33cfad	-0.010974807
173	0xbc7f6ef9	-0.015590423
174	0x3c8fb06c	0.01754018
175	0xbc81628b	-0.01579406
176	0x3ce7b044	0.028282292
177	0x3d21c15a	0.039491035
178	0x3d6cf378	0.057849377
179	0xbb451a0b	-0.0030075337
180	0x3d22b6ab	0.039724987
181	0x3d01a88f	0.03165489
182	0x3cc4ac4c	0.024007939
183	0xbccaf757	-0.024776144
184	0x3c443e78	0.011977784
185	0x3cc2fa98	0.023801133
186	0x3bfba81b	0.007679952
187	0x3d111f50	0.035430253
188	0x3cc0600a	0.023483295
189	0xbc9a91ef	-0.018868415
190	0xbc0ab70c	-0.008466493
191	0xbc98dfd5	-0.018661419
192	0x3d4dd44d	0.050251294
193	0xbd0f5e09	-0.03500179
194	0xbba0dde8	-0.004909266
195	0x3b61d228	0.0034457538
196	0x3ca6f435	0.020380119
197	0xbd419ee0	-0.047270656
198	0x3b860101	0.004089475
199	0x3d1ccb9a	0.038280107
200	0x3d419c6b	0.047268312
201	0xbc5150f0	-0.012775645
202	0x3c0f44b2	0.008744406
203	0xbcd25698	-0.025676057
204	0x3d2f9104	0.042862907
205	0x3d3a544d	0.04549055
206	0xbc821aad	-0.01588186
207	0xbd64ad0a	-0.055829085
208	0x3d6a29e8	0.05716887
209	0x3bfe6241	0.0077631776
210	0xbc2c6a0c	-0.01052333
211	0x3c39f6b2	0.011350321
212	0xb88ea1de	-6.801238e-05
213	0xbd61dd64	-0.055142775
214	0xbd4b0212	-0.04956252
215	0x3d5e77fd	0.05431365
216	0x3c131708	0.008977659
217	0x3d554cf2	0.052075334
218	0x3cd9e246	0.026597153
219	0xbcc7a75f	-0.024371801
220	0xbcbc40ae	-0.02298006
221	0xbba6a71e	-0.00508584
222	0xbd2fcea2	-0.04292167
223	0x3baa12eb	0.0051902435
224	0xbc398802	-0.011323931
225	0xbd5ac4e0	-0.05341041
226	0x3d0bf87e	0.034172527
227	0xbd39567d	-0.045248497
228	0xbd5ce1b3	-0.05392618
229	0x3cf9b69e	0.030482586
230	0x3d590492	0.052982874
231	0x3d230e26	0.039808415
232	0xbb02a28c	-0.0019933311
233	0xbd633d0d	-0.055478144
234	0xbd1de1f9	-0.038545582
235	0x3d6c9ef6	0.057768784
236	0x3b10db4c	0.0022103367
237	0xbd3cc22e	-0.04608362
238	0xbc77d653	-0.0151267825
239	0x3c60df58	0.013725124
240	0x3d586ac5	0.0528362
241	0x3d2c0350	0.041995347
242	0x3d5d24c9	0.05399016
243	0xbcb4876a	-0.022037227
244	0x3ca73577	0.020411236
245	0x3bd8649b	0.00660379
246	0x37f5fc6a	2.9323815e-05
247	0x3aab4f89	0.0013069968
248	0xbd1d3301	-0.03837872
249	0xbcde188f	-0.02711132
250	0x3cf74ca9	0.030187922
251	0x3d00a396	0.031406008
252	0x3c94d177	0.018166287
253	0x3c2d442d	0.010575336
254	0xbd0881ba	-0.033326842
255	0xbcefc693	-0.029269492

bias f4 [32]
0	0x3c09f5dd	0.008420435
1	0xbbca61c0	-0.0061762035
2	0xbd66c83e	-0.05634331
3	0x3d4e8c8b	0.050427
4	0xbd6571ef	-0.05601686
5	0x3c144175	0.009048809
6	0x3c7f59fd	0.01558542
7	0xbd5f9de9	-0.054593954
8	0x3d6d742e	0.057972126
9	0x3aeb5edf	0.0017957351
10	0x3c9bd8e2	0.019024316
11	0x3c1feef5	0.009761562
12	0x3d41a921	0.047280435
13	0x3cfeac01	0.031087877
14	0xbd2cf23b	-0.042223196
15	0xbbe5f222	-0.00701739
16	0xbc7bac61	-0.015360923
17	0x3b61b3bd	0.0034439408
18	0xbd364d95	-0.04450758
19	0x3d17d64c	0.037069604
20	0x3d263050	0.04057342
21	0x3d225bbc	0.039638266
22	0x3d096c13	0.033550333
23	0x3c042ba0	0.008067042
24	0xbd61791c	-0.05504714
25	0x3d121447	0.03566387
26	0xbd0f40ab	-0.03497378
27	0xbd0f3af8	-0.034968346
28	0x3d089d3f	0.033353087
29	0xbced3cfc	-0.028959744
30	0xbb81d288	-0.003961865
31	0x3d2be80c	0.041969344

weight f4 [32]
0	0x3f800e41	1.000435
1	0x3f7f2559	0.99666363
2	0x3f800f68	1.0004702
3	0x3f7f5aba	0.9974781
4	0x3f7f2ad2	0.99674714
5	0x3f7f81cf	0.9980745
6	0x3f7f939a	0.998346
7	0x3f7f92a3	0.99833125
8	0x3f8011c6	1.0005424
9	0x3f808adf	1.004238
10	0x3f802d9b	1.0013918
11	0x3f7f0960	0.9962368
12	0x3f7f9489	0.9983602
13	0x3f7fab3f	0.99870676
14	0x3f802119	1.0010101
15	0x3f7f5792	0.99742997
16	0x3f8052d9	1.0025283
17	0x3f8041d2	1.0020087
18	0x3f7fbf37	0.99901146
19	0x3f7fea61	0.9996701
20	0x3f7ed7b0	0.99547863
21	0x3f7fa904	0.9986727
22	0x3f802558	1.0011396
23	0x3f8037cc	1.0017028
24	0x3f7fb157	0.99879974
25	0x3f801b50	1.0008335
26	0x3f802840	1.0012283
27	0x3f804223	1.0020183
28	0x3f802ef8	1.0014334
29	0x3f801929	1.0007678
30	0x3f805309	1.002534
31	0x3f807645	1.0036093

bias f4 [32]
0	0x3b0e643e	0.002172723
1	0xbb2f09e7	-0.0026708783
2	0xbb69262e	-0.0035575735
3	0x39956aa4	0.00028498948
4	0x39876110	0.00025821524
5	0x3b028f9f	0.001992203
6	0x3adb8b2c	0.001674985
7	0x3a8f5c04	0.0010937457
8	0xb993ef9d	-0.0002821655
9	0xb33b3a1e	-4.3592188e-08
10	0xb9a5ca97	-0.00031622194
11	0xba950169	-0.0011368218
12	0xbac38d9d	-0.0014919523
13	0x39b44efc	0.00034391123
14	0xbb850773	-0.004059726
15	0x3aa21569	0.0012366
16	0x3b624b9b	0.0034529928
17	0xbad6bb75	-0.0016382771
18	0xba9ada46	-0.0011814318
19	0x3b1376fa	0.0022501335
20	0xbad237d6	-0.0016038369
21	0x3acb7477	0.001552238
22	0x3aa00918	0.0012209741
23	0x3a28146a	0.00064117333
24	0xba3c308e	-0.0007178866
25	0xbaf4b36e	-0.0018669197
26	0x3aa0f6b2	0.0012280552
27	0xbb39681c	-0.0028290814
28	0x3aa447a3	0.0012533556
29	0x3b38e4b4	0.002821249
30	0x38e6993c	0.00010995797
31	0x3af18579	0.0018426619

running_mean f4 [32]
0	0xbd13cd63	-0.036084544
1	0xbe1d5ab4	-0.15366632
2	0xbdea7eb3	-0.11449947
3	0xbe3b42c3	-0.18287186
4	0xbdf113e0	-0.11771369
5	0xbe3c5c64	-0.18394619
6	0x3d1d78b7	0.0384452
7	0x3e00458c	0.1252653
8	0xbd701529	-0.05861393
9	0x3df0c585	0.11756424
10	0x3e1867aa	0.14883295
11	0x3db924e1	0.09040237
12	0x3ea1a69f	0.31572434
13	0xbd89d8f0	-0.06730831
14	0xbda48e82	-0.08034994
15	0xbd9b1601	-0.07572556
16	0xbe9ce5db	-0.30644116
17	0x3d8b4883	0.0680094
18	0xbe4f4e48	-0.20244706
19	0x3c0dbb79	0.008650654
20	0xbde326a8	-0.110913575
21	0x3d6ea903	0.05826665
22	0xbe128ad3	-0.1431077
23	0x3e01cc31	0.12675549
24	0xbdc21120	-0.094759226
25	0x3ea0371c	0.31292045
26	0xbe7f9537	-0.24959265
27	0x3d2c7bab	0.042110126
28	0xbe6fce65	-0.23418577
29	0xbe8ccc4c	-0.27499616
30	0x3d58806d	0.05285685
31	0x3b4de8c6	0.0031419261

running_var f4 [32]
0	0x3d9c20ae	0.07623421
1	0x3da3ef6e	0.08004652
2	0x3d8609da	0.06544848
3	0x3dcd9dcb	0.10039862
4	0x3d85c12d	0.06530986
5	0x3da6740b	0.08127602
6	0x3d697867	0.05699959
7	0x3e0c9d08	0.13731778
8	0x3dd01fff	0.10162353
9	0x3deacbe4	0.1146467
10	0x3d62d7d1	0.0553816
11	0x3d6e4e43	0.058180105
12	0x3db0b8f2	0.086290255
13	0x3dc78ca3	0.09743621
14	0x3db585ca	0.08863409
15	0x3d883950	0.066515565
16	0x3df2e4e4	0.11860064
17	0x3e0c8284	0.13721663
18	0x3de3bcbe	0.11119984
19	0x3d954b4a	0.07289751
20	0x3d9fee29	0.07809097
21	0x3d8908dc	0.06691143
22	0x3d87bed8	0.066281974
23	0x3e04ef2e	0.12981865
24	0x3dc92196	0.09820859
25	0x3e030061	0.12793113
26	0x3dccd100	0.10000801
27	0x3db334cf	0.08750307
28	0x3ddebf32	0.10876311
29	0x3e230203	0.15918736
30	0x3db5701e	0.08859275
31	0x3db021ad	0.08600173
