DFA-PS/DFA-PS/Experiments/Full-GOP/HSI/backup/best/DecisionModel_RatioModule.pt (torch, 78025 bytes, 83 tensors)

weight f4 [8, 4, 3]
0.056359127 0.025797639 -0.26491192 0.04682551 0.103617094 -0.06309836 -0.18727954 -0.07814893
0.1197904 0.024423838 -0.05462315 -0.12802991 0.13888176 0.19423541 0.22688136 0.14196208
-0.28142035 -0.26775822 -0.13044599 -0.06683846 -0.231984 -0.063130304 -0.25533822 0.27184376
-0.046650164 0.051264305 -0.067348994 -0.11529807 0.17538697 0.15532693 0.060178857 0.2856224
0.04982924 -0.25788626 0.099229306 -0.11458201 -0.11407494 -0.0639523 0.08501602 -0.23422806
-0.24252334 -0.110901706 0.05053369 -0.09047349 0.17065963 -0.267525 0.26846865 -0.23186208
0.21501197 0.16238526 -0.033463147 -0.23551396 0.20594901 -0.084274344 0.056999106 0.02916017
0.16185173 0.28252906 0.14023434 -0.23762989 -0.068240106 -0.16928908 0.062429458 -0.12543191
0.09735124 -0.13337724 0.2348899 0.22294885 0.060001343 -0.22822355 -0.010954334 0.2216457
0.26887918 0.12242649 -0.2600726 0.010242843 -0.16870342 -0.22629248 -0.019392826 0.1341007
-0.22796245 0.22193459 -0.18470418 0.22634932 -0.0022041171 -0.17208797 0.0144201005 -0.15988411
-0.11832896 0.09200353 0.2207045 -0.22596653 -0.11198726 -0.0005306762 -0.1850969 0.027628591
00000000: d4d8 663d 9255 d33c 89a2 87be 1bcc 3f3d
00000010: 3335 d43d b739 81bd 35c6 3fbe 8c0c a0bd
00000020: ab54 f53d 8014 c83c 86bc 5fbd 461a 03be
00000030: 0537 0e3e a6e5 463e 9653 683e 825e 113e
00000040: 5416 90be 9b17 89be a293 05be 9ae2 88bd
00000050: 378d 6dbe 764a 81bd b1bb 82be 1b2f 8b3e
00000060: 3e14 3fbd 85fa 513d 45ee 89bd 6521 ecbd
00000070: a498 333e 060e 1f3e 1b7e 763d 193d 923e
00000080: bf19 4c3d ab09 84be bc38 cb3d f9a9 eabd
00000090: 1fa0 e9bd 6cf9 82bd e11c ae3d 7bd9 6fbe
000000a0: 0a58 78be 6f20 e3bd 6afc 4e3d 2a4a b9bd
000000b0: 66c1 2e3e 09f9 88be b974 893e 416d 6dbe
000000c0: 192c 5c3e 5248 263e a710 09bd 922a 71be
000000d0: 4ce4 523e 0798 acbd e577 693d 4fe1 ee3c
000000e0: 76bc 253e a6a7 903e 9799 0f3e 4055 73be
000000f0: 78c1 8bbd 1e5a 2dbe 08b6 7f3d 3971 00be
00000100: 1660 c73d 0b94 08be fa86 703e b44c 643e
00000110: f8c3 753d 6fb3 69be cf79 33bc 17f7 623e
00000120: 88aa 893e bdba fa3d 3c28 85be 99d1 273c
00000130: 97c0 2cbe 37b9 67be b4dd 9ebc b251 093e
00000140: fd6e 69be d242 633e 1823 3dbe 1ec8 673e
00000150: f372 10bb d437 30be 4942 6c3c a9b8 23be
00000160: 7456 f2bd 596c bc3d 5c00 623e c563 67be
00000170: 9459 e5bd 141d 0bba 0b8a 3dbe 5b55 e23c

bias f4 [8]
0.11437163 -0.19222057 0.15787992 -0.21305196 -0.1437609 0.19448858 0.2653612 -0.05051042
00000000: ac3b ea3d 78d5 44be 46ab 213e 4b2a 5abe
00000010: 0f36 13be 0428 473e 6cdd 873e 04e4 4ebd

weight f4 [8]
0.99967724 1.0000309 0.9999092 0.9999821 0.9999013 1.0001541 1.0000706 1.0001116
00000000: d9ea 7f3f 0301 803f 0dfa 7f3f d4fe 7f3f
00000010: 88f9 7f3f 0d05 803f 5002 803f a803 803f

bias f4 [8]
-4.090442e-05 4.3347747e-05 -2.2646504e-05 -9.7254615e-06 -9.436531e-05 7.81983e-05 0.00013177442 0.00016895165
00000000: c990 2bb8 4ad0 3538 fff8 bdb7 8a2a 23b7
00000010: fde5 c5b8 65fe a338 ed2c 0a39 9d28 3139

running_mean f4 [8]
-18.653198 -17.19627 -21.754164 -11.262566 26.392723 -2.6633747 16.988916 -25.9474
00000000: c039 95c1 f691 89c1 8708 aec1 7833 34c1
00000010: 4c24 d341 bb74 2ac0 4de9 8741 4694 cfc1

running_var f4 [8]
590.62524 1649.3219 1123.7397 1006.0768 3523.3308 2219.5815 969.62616 579.9345
00000000: 04a8 1344 4d2a ce44 ac77 8c44 ea84 7b44
00000010: 4b35 5c45 4eb9 0a45 1368 7244 cffb 1044

weight f4 [8, 8, 3]
-0.016377054 -0.027492587 -0.16844296 -0.053191785 0.09130856 0.003056877 0.08382685 0.021332484
-0.10668744 0.12854059 0.1441368 0.021480532 -0.06275275 -0.055437982 0.08564818 -0.08868307
0.042022645 -0.17752916 0.076422535 0.090003684 -0.10340664 -0.050727684 0.14381848 0.011149859
-0.06982457 -0.03188813 0.10551399 -0.12206383 -0.043620057 -0.15626158 -0.00058946514 -0.17797807
0.13868569 0.15782294 0.028962893 0.18743475 -0.19993085 -0.044217788 -0.0042284112 0.113378376
0.19002143 0.02092882 -0.00057804247 0.019753138 -0.19928284 0.02909299 0.01913898 0.060786884
-0.15252176 -0.14517762 -0.083118394 0.12994236 0.067817815 0.093407825 0.04780009 -0.1410434
-0.07193755 0.1670918 0.06119246 -0.15228368 0.119034 -0.15665697 0.11626834 0.08474536
0.07142545 -0.013944557 -0.14590843 -0.16225398 -0.16507247 0.055654567 -0.1242392 0.193199
0.12942465 -0.20392448 0.17406775 0.14366107 0.1583168 0.025376283 -0.16365932 -0.1019398
0.16441147 0.18917665 0.0080558285 0.13375543 -0.06138027 -0.12966958 0.1392009 0.18985428
-0.004049553 -0.11398494 0.09530965 0.119531944 0.008848756 0.065992735 -0.09460568 -0.20405924
0.014139052 -0.14151597 0.041414764 0.14801309 -0.14553265 -0.14077784 0.08551205 0.12925112
-0.088366665 -0.17279413 0.16824242 0.18318439 -0.046114005 -0.13429278 0.0029224036 -0.2038927
0.1354791 -0.14144547 0.18600406 -0.102523655 -0.018302944 0.07126278 -0.04074932 -0.08232721
0.08221827 -0.019373821 -0.021058656 -0.11786746 0.042088646 0.18430766 -0.005402595 -0.1762135
-0.03257685 -0.1030923 -0.037055254 0.13528924 0.09392176 -0.15365587 0.060308 0.00921741
-0.1938623 -0.12566274 0.14121327 -0.057539046 0.09462532 0.08752074 -0.09212734 0.10678504
0.1476483 0.09630805 -0.046053734 -0.122322544 0.17591634 -0.16162458 -0.14956182 0.10992785
0.15269504 0.16747634 0.067217335 0.111681595 -0.19999586 0.07422363 0.053377267 -0.10488772
0.1882176 0.19020347 0.033232532 -0.14713095 -0.1641455 -0.067040905 -0.09517057 0.094280414
-0.16471414 -0.068531424 -0.1091618 0.042578455 -0.027549507 0.18401809 -0.11467679 -0.19716437
0.0011547873 -0.17461593 -0.108393155 -0.078089476 -0.19680639 0.1522115 0.12135865 0.043491833
0.12158631 0.036423482 0.14958869 0.082058966 0.023101972 0.17451975 0.090287454 -0.04568701
00000000: 2c29 86bc 2238 e1bc 507c 2cbe a1df 59bd
00000010: fbff ba3d e355 483b 69ad ab3d 76c1 ae3c
00000020: f27e dabd 25a0 033e 9998 133e f1f7 af3c
00000030: 8484 80bd f012 63bd 5068 af3d 789f b5bd
00000040: f01f 2c3d 34ca 35be 6b83 9c3d da53 b83d
00000050: dcc6 d3bd d5c7 4fbd 2745 133e e6ad 363c
00000060: 2f00 8fbd 219d 02bd b817 d83d 9afc f9bd
00000070: f2aa 32bd 0903 20be 5686 1aba e23f 36be
00000080: 9f03 0e3e 569c 213e 9743 ed3c e5ee 3f3e
00000090: acba 4cbe b61d 35bd 7c8e 8abb ec32 e83d
000000a0: fa94 423e eb72 ab3c c687 17ba 55d1 a13c
000000b0: cd10 4cbe 6c54 ee3c 5ac9 9c3c abfb 783d
000000c0: aa2e 1cbe 71a9 14be fa39 aabd 9c0f 053e
000000d0: 11e4 8a3d 9a4c bf3d 07ca 433d ae6d 10be
000000e0: ff53 93bd 1d1a 2b3e f2a4 7a3d 41f0 1bbe
000000f0: 19c8 f33d af6a 20be 181e ee3d fa8e ad3d
00000100: 8247 923d b677 64bc 0569 15be e825 26be
00000110: c208 29be 0bf6 633d 1f71 febd f5d5 453e
00000120: e587 043e 94d1 50be d13e 323e e31b 133e
00000130: cd1d 223e ece1 cf3c 4f96 27be d0c5 d0bd
00000140: 7b5b 283e 86b7 413e 98fc 033c 2ff7 083e
00000150: e169 7bbd 1ac8 04be ae8a 0e3e 2969 423e
00000160: 1db2 84bb f070 e9bd b531 c33d 2acd f43d
00000170: 5ffa 103c 3327 873d 9fc0 c1bd e8f4 50be
00000180: 7ba7 673c 90e9 10be 87a2 293d be90 173e
00000190: 8306 15be 1128 10be f120 af3d 685a 043e
000001a0: 95f9 b4bd f2f0 30be be47 2c3e b094 3b3e
000001b0: 0ae2 3cbd 0c84 09be cc85 3f3b 3fc9 50be
000001c0: 08bb 0a3e 15d7 10be d977 3e3e ecf7 d1bd
000001d0: 0ef0 95bc 38f2 913d c2e8 26bd 2b9b a8bd
000001e0: 0d62 a83d d9b5 9ebc 3483 acbc 7f64 f1bd
000001f0: 2565 2c3d 26bb 3c3e 4008 b1bb 5071 34be
00000200: 4e6f 05bd 0e22 d3bd 40c7 17bd 4389 0a3e
00000210: 0d5a c03d f757 1dbe 8505 773d 9f04 173c
00000220: d783 46be bcad 00be 369a 103e 10ae 6bbd
00000230: ebca c13d 133e b33d 42ad bcbd 1db2 da3d
00000240: 1e31 173e 283d c53d d7a2 3cbd 3e84 fabd
00000250: 6a23 343e ea80 25be bc26 19be da21 e13d
00000260: 175c 1c3e eb7e 2b3e 3ea9 893d 52b9 e43d
00000270: b7cb 4cbe 8f02 983d 1fa2 5a3d 5fcf d6bd
00000280: 1dbc 403e b3c4 423e d61e 083d 7fa9 16be
00000290: c215 28be be4c 89bd cae8 c2bd 1716 c13d
000002a0: d3aa 28be 345a 8cbd 3990 dfbd bf66 2e3d
000002b0: 81af e1bc 3d6f 3c3e aadb eabd 75e5 49be
000002c0: 3b5c 973a 85ce 32be 3bfd ddbd 60ed 9fbd
000002d0: 9d87 49be 55dd 1b3e e28a f83d 7e24 323d
000002e0: 3e02 f93d ca30 153d c72d 193e 880e a83d
000002f0: 5940 bd3c 4eb5 323e a1e8 b83d 4d22 3bbd

bias f4 [8]
0.09487736 0.120541394 0.07117736 -0.03703212 -0.079861164 -0.08496187 -0.08410688 0.06589171
00000000: 104f c23d 68de f63d 70c5 913d feae 17bd
00000010: 408e a3bd 7d00 aebd 3a40 acbd 3cf2 863d

weight f4 [8]
0.9998973 1.0003053 1.000203 0.99991286 0.9999122 0.9998391 0.9998919 1.0003026
00000000: 45f9 7f3f 010a 803f a706 803f 4afa 7f3f
00000010: 3ffa 7f3f 75f5 7f3f eaf8 7f3f ea09 803f

bias f4 [8]
-0.00013895087 0.00031117047 -2.6394704e-05 2.0008227e-05 -5.043671e-05 -0.00010283074 -3.1841e-05 4.7291607e-05
00000000: 57b3 11b9 9824 a339 326a ddb7 57d7 a737
00000010: 018c 53b8 d5a6 d7b8 038d 05b8 fa5a 4638

running_mean f4 [8]
0.21021004 0.11876544 -0.08532874 0.14050715 -0.10991417 -0.19949691 0.011582623 0.10436378
00000000: 4d41 573e 4c3b f33d d6c0 aebd 1be1 0f3e
00000010: ae1a e1bd eb48 4cbe 0bc5 3d3c adbc d53d

running_var f4 [8]
0.01683366 0.079189375 0.064737804 0.20682614 0.061340388 0.011421014 0.06064563 0.06027309
00000000: bee6 893c 0a2e a23d 4195 843d 3bca 533e
00000010: 0f40 7b3d 341f 3b3c 8d67 783d eae0 763d

weight f4 [8, 4, 1]
-0.46400255 -0.038541354 0.1395807 -0.06038261 -0.4058839 0.095169656 0.36784452 -0.39197275
0.23973231 0.32449815 -0.30398303 0.43783677 -0.2295128 -0.07684704 0.07557358 -0.13889311
-0.37752402 0.41486835 -0.47369018 -0.45695084 -0.115069374 0.32290325 0.21076523 0.19730565
0.14689015 -0.4518753 -0.33862016 -0.046107844 0.16935687 0.072987095 -0.36935323 0.36468858
00000000: be91 edbe 8add 1dbd 3eee 0e3e c153 77bd
00000010: 04d0 cfbe 4fe8 c23d 1e56 bc3e a7b0 c8be
00000020: 637c 753e 9f24 a63e aaa3 9bbe 242c e03e
00000030: 6705 6bbe fb61 9dbd 52c6 9a3d ff39 0ebe
00000040: d44a c1be a069 d43e 8587 f2be 76f5 e9be
00000050: 7ea9 ebbd 9353 a53e d7d2 573e 7e0a 4a3e
00000060: 5f6a 163e 335c e7be 9f5f adbe 94db 3cbd
00000070: e36b 2d3e 427a 953d de1b bdbe 76b8 ba3e

bias f4 [8]
0.34517324 -0.31894624 0.21752012 -0.16975456 0.43444204 -0.29039645 0.46088886 -0.16794723
00000000: 8cba b03e ec4c a3be 98bd 5e3e 24d4 2dbe
00000010: 306f de3e d8ae 94be a0f9 eb3e 5cfa 2bbe

weight f4 [8]
0.9998133 1.0002719 0.9997017 0.99997604 1.0001373 0.9998722 0.99989015 1.0002453
00000000: c4f3 7f3f e908 803f 73ec 7f3f 6efe 7f3f
00000010: 8004 803f a0f7 7f3f cdf8 7f3f 0a08 803f

bias f4 [8]
-0.00015316992 0.00014659698 -9.7566226e-05 -2.5213472e-05 0.00012322247 5.308846e-06 6.464988e-05 7.4649135e-05
00000000: 3d9c 20b9 d4b7 1939 789c ccb8 8581 d3b7
00000010: 4835 0139 a422 b236 a494 8738 f38c 9c38

running_mean f4 [8]
-10.321267 -60.10879 67.30332 -21.905972 -68.34868 29.647469 -7.043652 55.136097
00000000: e923 25c1 676f 70c2 4d9b 8642 6e3f afc1
00000010: 86b2 88c2 042e ed41 9965 e1c0 5d8b 5c42

running_var f4 [8]
68.52708 2850.6147 3601.4453 364.56485 4070.5776 782.2514 74.25894 2467.8115
00000000: dd0d 8942 d629 3245 2017 6145 4d48 b643
00000010: 3e69 7e45 1790 4344 9484 9442 fc3c 1a45

weight f4 [16, 8, 3]
0.10497623 -0.16500188 0.008662228 -0.15744464 -0.047584184 -0.08644705 0.15760355 0.0050537563
-0.0017098254 0.13637443 0.14500743 -0.20130299 0.029244596 0.055016294 0.03014284 0.04713406
-0.039413285 -0.04181485 0.19668311 -0.08871334 -0.10187824 -0.041126978 -0.09132036 -0.13174182
-0.03967589 0.13019902 0.056864552 -0.018005783 0.058828384 -0.191657 -0.13856155 -0.08513881
0.15257044 -0.17617542 0.16984707 0.05240831 -0.03534114 -0.16633527 0.11576957 -0.18105356
0.122461475 0.10406228 -0.12646419 0.08106129 0.03793208 -0.17589855 0.00031673728 0.11424961
0.031728048 -0.15423565 -0.10414842 0.1202345 -0.031453982 0.05933927 -0.013828582 0.04768797
-0.12382258 -0.07680563 -0.04409779 0.10677088 0.17407814 0.17947882 -0.09236971 0.037709724
0.03315415 0.1272619 0.1003991 0.065602 0.16703686 0.18541527 0.14358337 0.12500419
-0.17879708 -0.17472179 0.11368348 0.018639248 0.13541916 0.10480281 -0.049282257 0.18341316
0.085685685 0.014731504 0.046544537 0.095084056 -0.014470863 0.12801298 -0.12908165 0.18861265
-0.17365773 -0.05835683 0.1944431 -0.12855399 -0.17378055 -0.17121325 -0.20150821 -0.20137642
0.080576874 0.059583813 0.19403267 -0.113569066 0.078721486 0.1942011 0.04871668 -0.08226993
-0.033424344 -0.11980408 0.19988906 -0.20212162 0.18187143 -0.024812533 0.0801586 0.11131203
0.11738296 0.09410173 0.04143209 0.12570015 -0.07758972 -0.100827955 0.061887432 0.07360982
-0.16475768 -0.09692538 -0.15952535 0.010340768 0.114129804 -0.104459755 0.16506849 0.05559145
0.16293493 -0.02832561 -0.07363385 -0.19610757 -0.004641719 -0.16699097 -0.034542806 0.2009408
0.076040484 0.082731165 -0.037726868 0.07887313 0.14030626 0.11347603 0.15978897 0.16665305
-0.1329816 -0.13813245 -0.1020107 0.1215292 0.093448006 -0.017443191 0.18693365 -0.0777559
0.10447336 -0.1415645 -0.16741483 0.13786258 -0.1932296 0.16605966 -0.14994958 -0.18380877
-0.15521523 0.17875162 -0.19734316 -0.08864535 0.122939244 -0.07615313 -0.04205677 -0.01721082
-0.08589408 0.14757343 0.035326928 0.04004258 -0.061112795 0.02341726 -0.04654282 0.050145566
-0.008911991 0.032982107 0.03229338 -0.015600586 0.10568746 0.12375342 -0.016782528 0.059481643
-0.19669491 -0.16776882 -0.18914466 -0.1318091 -0.17828058 -0.12293401 0.116352975 -0.16887018
-0.18648614 -0.034666363 -0.00094676967 0.18544425 0.016943248 -0.043614104 -0.08269868 0.082799196
-0.16964668 -0.13080914 -0.12358447 0.16048796 -0.102088965 0.014869344 -0.17202996 0.09549892
-0.06394978 -0.13362363 0.024588658 -0.048962545 -0.050875276 0.10704364 0.1896463 0.024519421
-0.10625668 0.10748567 0.024820572 -0.18648838 0.08535908 -0.13640945 -0.077982955 0.036292452
0.095703036 0.15136777 0.14456397 -0.036019556 0.19897111 -0.10029029 0.14830998 0.046037387
-0.16897449 0.03466771 -0.061517775 -0.044810247 -0.031961303 0.08951125 0.07687215 0.008558743
0.01994606 -0.037905447 -0.18737563 0.17124283 -0.14356846 0.09567796 -0.19211416 0.118194275
-0.05835368 -0.05709046 -0.19164677 -0.07270252 -0.021873329 -0.11276458 0.09962055 0.109503336
00000000: c7fd d63d 41f6 28be 04ec 0d3c 2b39 21be
00000010: a2e7 42bd 270b b1bd d362 213e fb99 a53b
00000020: 381c e0ba bda5 0b3e d47c 143e 5f22 4ebe
00000030: 5d92 ef3c c458 613d 1eee f63c a50f 413d
00000040: d36f 21bd 0c46 2bbd 4c67 493e 57af b5bd
00000050: 8aa5 d0bd c374 28bd 2b06 bbbd 54e7 06be
00000060: 3083 22bd e452 053e ceea 683d dd80 93bc
00000070: 08f6 703d bc41 44be 14e3 0dbe 425d aebd
00000080: 6d3b 1c3e 5467 34be 64ec 2d3e 19aa 563d
00000090: dfc1 10bd cb53 2abe 9918 ed3d 1b66 39be
000000a0: 15cd fa3d 9b1e d53d d47f 01be 7603 a63d
000000b0: ab5e 1b3d c01e 34be c20f a639 b3fb e93d
000000c0: 45f5 013d f3ef 1dbe c44b d5bd 813d f63d
000000d0: e4d5 00bd bc0d 733d 4791 62bc 7654 433d
000000e0: b196 fdbd 454c 9dbd e29f 34bd b1aa da3d
000000f0: 8a41 323e 4cc9 373e 552c bdbd 8375 1a3d
00000100: a5cc 073d f250 023e 0b9e cd3d 575a 863d
00000110: b60b 2b3e 80dd 3d3e 8507 133e 1901 003e
00000120: 9516 37be 45ea 32be e2d2 e83d 56b1 983c
00000130: 52ab 0a3e dba2 d63d 31dc 49bd a9d0 3b3e
00000140: fa7b af3d 685c 713c 7ca5 3e3d 6ebb c23d
00000150: 3317 6dbc d615 033e fb2d 04be ad23 413e
00000160: 55d3 31be 9207 6fbd 181c 473e a8a3 03be
00000170: 87f3 31be 8752 2fbe 2b58 4ebe 9f35 4ebe
00000180: 7d05 a53d 280e 743d 80b0 463e e696 e8bd
00000190: bb38 a13d a7dc 463e 248b 473d 237d a8bd
000001a0: f7e7 08bd d75b f5bd b8af 4c3e f8f8 4ebe
000001b0: 813c 3a3e a743 cbbc 312a a43d 90f7 e33d
000001c0: 7a66 f03d 68b8 c03d b2b4 293d 8ab7 003e
000001d0: 5ce7 9ebd e37e cebd ad7d 7d3d bfc0 963d
000001e0: 3db6 28be d080 c6bd 9d5a 23be 536c 293c
000001f0: e3bc e93d ffee d5bd b707 293e dcb3 633d
00000200: 6ad8 263e 1c0b e8bc 58cd 96bd 6cd0 48be
00000210: 9019 98bb aeff 2abe c27c 0dbd 6dc3 4d3e
00000220: 1dbb 9b3d f56e a93d 7d87 1abd 3c88 a13d
00000230: 72ac 0f3e 1f66 e83d b89f 233e 19a7 2a3e
00000240: 542c 08be 9872 0dbe fcea d0bd 4de4 f83d
00000250: ab61 bf3d 06e5 8ebc 896b 3f3e 7c3e 9fbd
00000260: 21f6 d53d 49f6 10be cb6e 2bbe d92b 0d3e
00000270: fbdd 45be 8b0b 2a3e 628c 19be 5e38 3cbe
00000280: bef0 1ebe aa0a 373e 5314 4abe b18b b5bd
00000290: 92c7 fb3d 2cf6 9bbd b843 2cbd b5fd 8cbc
000002a0: 3ce9 afbd 7d1d 173e f8b2 103d b003 243d
000002b0: 6951 7abd 8ed5 bf3c afa3 3ebd 7065 4d3d
000002c0: 9903 12bc 3f18 073d 1046 043d 9a99 7fbc
000002d0: ab72 d83d 6f72 fd3d 837b 89bc 06a3 733d
000002e0: 646a 49be 97cb 2bbe 23af 41be f7f8 06be
000002f0: 2f8f 36be d4c4 fbbd 784a ee3d 4eec 2cbe
00000300: 39f6 3ebe 51fe 0dbd a330 78ba 19e5 3d3e
00000310: 91cc 8a3c b4a4 32bd ed5d a9bd a092 a93d
00000320: dcb7 2dbe d5f2 05be db19 fdbd f556 243e
00000330: 0514 d1bd 8d9e 733c 9f28 30be f094 c33d
00000340: 1af8 82bd a2d4 08be 276e c93c f38c 48bd
00000350: 9862 50bd b239 db3d a432 423e f4dc c83c
00000360: 1a9d d9bd 7221 dc3d 8354 cb3c cff6 3ebe
00000370: bed0 ae3d ebae 0bbe 87b5 9fbd 65a7 143d
00000380: f4ff c33d 2700 1b3e 9408 143e 3e89 13bd
00000390: 15bf 4b3e ff64 cdbd 92de 173e b391 3c3d
000003a0: a607 2dbe bbff 0d3d 10fa 7bbd f38a 37bd
000003b0: dbe9 02bd ad51 b73d 256f 9d3d f839 0c3c
000003c0: eb65 a33c be42 1bbd 66df 3fbe 485a 2f3e
000003d0: 9c03 13be cef2 c33d 93b9 44be d70f f23d
000003e0: 4504 6fbd b0d7 69bd 0d3f 44be 0fe5 94bd
000003f0: b22f b3bc 1ef1 e6bd dc05 cc3d 4943 e03d

bias f4 [16]
0.1857832 -0.030317754 -0.100548655 0.016350478 0.05356598 0.15503928 -0.16161388 -0.124944665
-0.10341852 -0.061431095 0.17884582 -0.007689541 0.117456734 -0.14074706 -0.20037618 0.14459896
00000000: f43d 3e3e f05c f8bc 74ec cdbd 70f1 853c
00000010: 0068 5b3d 9ec2 1e3e 1c7e 25be fde2 ffbd
00000020: 17cd d3bd 2c9f 7bbd 5c23 373e 8cf8 fbbb
00000030: 288d f03d ff1f 10be 6a2f 4dbe c011 143e

weight f4 [16]
1.0001268 1.0001024 1.0001285 1.000067 1.0000763 1.0000058 0.99976635 0.99992144
1.0002263 0.999806 0.9997349 0.9999031 0.99985176 1.0002594 1.0001565 0.999764
00000000: 2804 803f 5b03 803f 3604 803f 3202 803f
00000010: 8002 803f 3100 803f b0f0 7f3f dafa 7f3f
00000020: 6a07 803f 49f3 7f3f a0ee 7f3f a6f9 7f3f
00000030: 49f6 7f3f 8008 803f 2105 803f 89f0 7f3f

bias f4 [16]
-1.4334975e-05 0.00021217646 1.9729328e-05 0.00035260088 -8.480756e-06 -0.00013144255 -0.00015693017 -0.00020707039
5.299589e-05 -0.00011480866 -0.0003442042 9.8760225e-05 -0.00014157919 0.00019518736 3.256136e-05 -0.00023841638
00000000: 4080 70b7 af7b 5e39 6980 a537 4add b839
00000010: 9248 0eb7 d7d3 09b9 9f8d 24b9 0921 59b9
00000020: e747 5e38 6ec5 f0b8 4e76 b4b9 7e1d cf38
00000030: e074 14b9 35ab 4c39 7e92 0838 69ff 79b9

running_mean f4 [16]
-0.1062145 -0.078892775 0.35921496 -0.21141438 0.42710888 0.36972862 -0.37781486 -0.27938843
-0.17345239 -0.06389955 -0.091021195 -0.048271537 0.46387658 -0.0076706456 -0.23339297 -0.07817753
00000000: fd86 d9bd 8992 a1bd 06eb b73e 037d 58be
00000010: 04ae da3e 124d bd3e f370 c1be 000c 8fbe
00000020: 819d 31be c4dd 82bd 5269 babd 60b8 45bd
00000030: 3b81 ed3e 0a5a fbbb 91fe 6ebe 8a1b a0bd

running_var f4 [16]
0.16976915 0.310472 0.11757842 0.2788649 0.16565003 0.6619294 0.27900547 0.102239564
0.12389951 0.03340187 0.05529283 0.24835363 0.17646272 0.06430916 0.05645268 0.105706654
00000000: f7d7 2d3e 30f6 9e3e f4cc f03d 61c7 8e3e
00000010: 29a0 293e 3574 293f ced9 8e3e fa62 d13d
00000020: 07bf fd3d 66d0 083d bc7a 623d 6a50 7e3e
00000030: a5b2 343e 85b4 833d ed3a 673d bb7c d83d

weight f4 [16, 16, 3]
0.043583263 0.08719302 0.08445232 -0.05944012 0.0060206223 -0.048862692 0.013265443 -0.04015424
0.06614016 -0.06923322 0.019507926 -0.1316462 -0.11068548 0.09814241 -0.09389321 -0.04578438
-0.11094297 0.059044514 0.08699062 -0.13523981 0.13065054 -0.026615337 -0.031926513 0.01993442
-0.14168812 -0.057099566 0.017020995 0.07074074 0.114720374 -0.011032216 -0.134088 0.02428093
-0.12150084 0.13233064 0.08528273 -0.0771915 0.08069977 0.035372272 -0.06573703 0.05602264
-0.075420395 -0.042503584 -0.06409707 0.041839857 0.090666674 -0.07835295 -0.0128681315 -0.00013243123
-0.09449448 -0.12349602 -0.0060462486 0.097696066 0.03695359 0.08849771 -0.0895489 -0.0056136777
0.02677095 -0.11100377 -0.049894992 -0.13638969 0.043508768 0.07118755 -0.123466 -0.10364415
-0.02825994 -0.10861577 0.13582091 -0.10004191 -0.08799344 -0.13454673 -0.13171199 0.12051968
0.12744002 0.059071865 0.04421883 -0.06793496 0.09146429 0.04598705 0.11867618 0.010266825
0.0916995 0.0025113816 -0.035853267 0.13431764 -0.044435035 -0.056184 -0.018078802 0.10469542
0.013888801 0.027952053 0.104619764 0.13909927 0.06400132 -0.0636037 0.08209111 0.06840919
0.103933014 -0.12186645 0.10182494 0.019122552 0.006213607 -0.06839421 -0.027315155 -0.1425516
-0.052583754 -0.038873907 0.1305902 -0.11293301 0.058125574 0.02721089 0.13727985 0.12427625
-0.010452111 0.061410923 -0.0028752466 0.10388486 -0.019228693 -0.07228544 -0.035655443 -0.07247979
0.007373522 -0.053836178 0.13511024 0.018466214 -0.13361172 0.0059359535 0.010073023 -0.102553
0.017164167 0.005512603 -0.040494014 -0.12360287 -0.05871698 0.032088857 0.024968062 0.12780516
-0.10331764 -0.06242666 -0.084695734 0.10066816 -0.047372155 -0.1164941 -0.13474455 0.06930723
-0.12518094 0.07197181 -0.075475544 0.13773715 -0.11211417 0.13780142 -0.06261371 -0.117326945
0.047276393 -0.061119333 -0.038895626 -0.10696944 -0.04833647 0.12822403 0.05817415 -0.077845775
0.024948882 -0.015728798 -0.11415227 0.06659306 0.102799 -0.105330445 0.13706045 0.10747711
-0.098795876 -0.13725917 0.01659544 0.1006561 0.104918055 -0.028144317 0.0033465624 0.10221237
0.09232805 0.12804045 -0.04655526 -0.102420315 0.060302205 0.08550705 -0.028201379 0.07924549
-0.1288319 0.0023772565 -0.1222127 -0.040213734 0.112753496 -0.097743824 -0.04441995 0.14141265
-0.0903665 -0.10227232 -0.0013936426 -0.01176295 0.06973004 0.043304674 -0.061246585 -0.08046586
-0.12716046 0.052363213 -0.08913763 -0.08914646 -0.08485792 -0.123179756 0.03618472 -0.011430603
0.13106613 0.004273986 0.02312208 0.048395175 0.021076594 0.060718525 -0.11323326 -0.034034338
0.10338453 0.052874185 -0.0068544857 0.03925104 0.13319406 0.0701034 -0.03784729 -0.039501555
-0.14431818 -0.027102694 0.12878954 -0.05348014 0.072238 0.059112225 -0.13371007 -0.038342893
-0.008608881 0.11713078 0.10983465 -0.120784126 -0.11892058 -0.07882057 0.068834454 0.07433018
0.07777262 -0.0041184328 0.08867581 -0.086980544 -0.045324706 -0.043658316 -0.0011262998 0.04159621
0.1323891 0.03235615 0.09268364 -0.09347057 -0.133092 0.10933826 -0.14125918 -0.09903031
00000000: 5d84 323d 4192 b23d 57f5 ac3d 7c77 73bd
00000010: a448 c53b 3f24 48bd 4d57 593c c678 24bd
00000020: 7e74 873d 25ca 8dbd 16cf 9f3c 43ce 06be
00000030: 12af e2bd e3fe c83d 154b c0bd 6788 3bbd
00000040: 1136 e3bd a9d8 713d 2328 b23d 4e7c 0abe
00000050: 41c9 053e 6808 dabc 60c5 02bd 824d a33c
00000060: b116 11be 3ce1 69bd 9d6f 8b3c 85e0 903d
00000070: 84f2 ea3d 78c0 34bc 5d4e 09be cde8 c63c
00000080: 6fd5 f8bd af81 073e b6a8 ae3d 9416 9ebd
00000090: ec45 a53d 84e2 103d 23a1 86bd ff77 653d
000000a0: 0276 9abd 3d18 2ebd 5345 83bd 4560 2b3d
000000b0: 73af b93d 8377 a0bd dbd4 52bc 3ddd 0ab9
000000c0: 5286 c1bd 7beb fcbd 9c1f c6bb e014 c83d
000000d0: a65c 173d 4a3e b53d 6a65 b7bd f1f2 b7bb
000000e0: c04e db3c f255 e3bd b15e 4cbd bda9 0bbe
000000f0: 4036 323d c7ca 913d bedb fcbd 6243 d4bd
00000100: 6481 e7bc f271 debd a314 0b3e c6e2 ccbd
00000110: e835 b4bd 9ec6 09be 82df 06be 06d3 f63d
00000120: a37f 023e 57f5 713d ce1e 353d 7c21 8bbd
00000130: a151 bb3d eb5c 3c3d 7f0c f33d 2f36 283c
00000140: f3cc bb3d fe95 243b e0da 12bd 908a 093e
00000150: 8301 36bd 3221 66bd ff19 94bc 8d6a d63d
00000160: db8d 633c b4fb e43c e342 d63d 0a70 0e3e
00000170: 2013 833d a842 82bd 621f a83d 1e1a 8c3d
00000180: d5da d43d 1e95 f9bd 9889 d03d e6a6 9c3c
00000190: 839b cb3b 4312 8cbd 08c4 dfbc 0cf9 11be
000001a0: 1062 57bd 3f3a 1fbd 70b9 053e 6c49 e7bd
000001b0: 1515 6e3d 5fe9 de3c 1793 0c3e 8c84 fe3d
000001c0: 553f 2bbc 058a 7b3d a26e 3cbb 96c1 d43d
000001d0: 7e85 9dbc 640a 94bd 710b 12bd 4970 94bd
000001e0: 969d f13b 5383 5cbd 575a 0a3e 7546 973c
000001f0: 83d1 08be 6382 c23b 5209 253c 4f07 d2bd
00000200: de9b 8c3c 11a3 b43b 0ddd 25bd 8023 fdbd
00000210: 3781 70bd 9b6f 033d d289 cc3c 5bdf 023e
00000220: 3398 d3bd 19b3 7fbd f574 adbd 1c2b ce3d
00000230: 4e09 42bd 7594 eebd 7afa 09be f3f0 8d3d
00000240: 6f2f 00be f565 933d ec92 9abd f80a 0d3e
00000250: 1d9c e5bd d11b 0d3e 9e3b 80bd 1c49 f0bd
00000260: e4a4 413d 4458 7abd 0551 1fbd cb12 dbbd
00000270: 76fc 45bd 294d 033e 0448 6e3d 9b6d 9fbd
00000280: 9961 cc3c aed9 80bc aac8 e9bd f161 883d
00000290: 4888 d23d 7db7 d7bd 9359 0c3e f61c dc3d
000002a0: 7e55 cabd ab8d 0cbe 29f3 873c c924 ce3d
000002b0: 47df d63d e98e e6bc 0052 5b3b b854 d13d
000002c0: 7d16 bd3d 091d 033e bab0 3ebd bec1 d1bd
000002d0: 72ff 763d 521e af3d 9406 e7bc 764b a23d
000002e0: 82ec 03be bfcb 1b3b a74a fabd 28b7 24bd
000002f0: 4eeb e63d ea2d c8bd b2f1 35bd 7ace 103e
00000300: 1212 b9bd 2674 d1bd e3aa b6ba 63b9 40bc
00000310: a0ce 8e3d 3e60 313d b3dd 7abd 49cb a4bd
00000320: 5a36 02be cf7a 563d ca8d b6bd 6b92 b6bd
00000330: fdc9 adbd ab45 fcbd 6e36 143d 6d47 3bbc
00000340: 3336 063e cb0c 8c3b 846a bd3c 053a 463d
00000350: d2a8 ac3c fdb3 783d d7e6 e7bd 9767 0bbd
00000360: 45bb d33d 9a92 583d 989b e0bb b3c5 203d
00000370: 0664 083e 5f92 8f3d c305 1bbd 62cc 21bd
00000380: 25c8 13be 7806 debc 68e1 033e fe0d 5bbd
00000390: 84f1 933d a91f 723d 4beb 08be 700d 1dbd
000003a0: 440c 0dbc 43e2 ef3d fdf0 e03d ab5d f7bd
000003b0: a28c f3bd ae6c a1bd 14f9 8c3d 6c3a 983d
000003c0: 4047 9f3d ebf3 86bb aa9b b53d db22 b2bd
000003d0: 66a6 39bd 10d3 32bd 5aa0 93ba ca60 2a3d
000003e0: 0291 073e e287 043d ecd0 bd3d 806d bfbd
000003f0: 4549 08be bdec df3d 3fa6 10be 67d0 cabd

bias f4 [16]
-0.017986253 0.10346791 0.058688313 0.004738947 -0.029651508 -0.013875519 0.05858466 0.030120477
-0.06882894 0.06934318 -0.014630056 0.12559089 0.049310356 -0.0445963 0.107955515 -0.012182891
00000000: e857 93bc fce6 d33d 2863 703d 2b49 9b3b
00000010: b8e7 f2bc 2556 63bc 78f6 6f3d 38bf f63c
00000020: 30f6 8cbd cc03 8e3d e7b2 6fbc e69a 003e
00000030: a8f9 493d 9caa 36bd c817 dd3d c09a 47bc

weight f4 [16]
0.99963146 0.99990785 1.000176 1.0002749 0.99984694 1.0002118 1.0000641 1.0000355
0.99962187 1.0001104 0.9997619 0.99978447 1.0000491 1.0002503 1.0000468 1.0000782
00000000: d9e7 7f3f f6f9 7f3f c405 803f 0209 803f
00000010: f8f5 7f3f f106 803f 1a02 803f 2a01 803f
00000020: 38e7 7f3f 9e03 803f 65f0 7f3f e0f1 7f3f
00000030: 9c01 803f 3408 803f 8901 803f 9002 803f

bias f4 [16]
-0.00019161322 -0.00013070235 -1.3786986e-05 0.00019570281 -0.00021067598 0.0003419531 8.178875e-05 7.7414325e-06
-0.0001463819 5.1001727e-05 -0.00029562588 -0.00021883802 5.9800273e-05 0.00031983035 -0.00017722585 -2.7168982e-05
00000000: c8eb 48b9 250d 09b9 a74e 67b7 9335 4d39
00000010: e7e8 5cb9 2b48 b339 0086 ab38 33e1 0137
00000020: 187e 19b9 b0ea 5538 3cfe 9ab9 e277 65b9
00000030: 0ed2 7a38 e7ae a739 b4d5 39b9 f2e8 e3b7

running_mean f4 [16]
0.097735696 0.18883444 -0.039369907 0.17795894 -0.12954448 0.013035399 -0.10718717 0.13630636
-0.020634595 -0.124947906 -0.16805175 -0.015545776 -0.13867062 0.04158948 -0.032079514 0.016839312
00000000: a729 c83d d15d 413e 5742 21bd de3a 363e
00000010: 4fa7 04be 6d92 553c f284 dbbd e593 0b3e
00000020: e209 a9bc b0e4 ffbd c215 2cbe b6b3 7ebc
00000030: acff 0dbe bb59 2a3d cf65 03bd 99f2 893c

running_var f4 [16]
0.04478461 0.07346873 0.06862452 0.043386932 0.044008914 0.06704309 0.052734867 0.07686311
0.09324794 0.033074263 0.021255828 0.29019353 0.09592275 0.09820184 0.1655492 0.038044352
00000000: 1170 373d c676 963d 038b 8c3d 7fb6 313d
00000010: b142 343d e34d 893d 8400 583d 686a 9d3d
00000020: c7f8 be3d e178 073d b420 ae3c 3f94 943e
00000030: 2673 c43d 0c1e c93d bb85 293e 65d4 1b3d

weight f4 [16, 8, 1]
-0.07230262 0.03963414 -0.30721593 -0.24952874 -0.2932285 0.16901529 -0.020539986 -0.2950774
-0.2025897 0.085450724 -0.19548644 -0.00501643 0.15327881 -0.10591375 0.05692139 -0.33852696
-0.3098452 0.33358034 0.06851271 0.31459102 0.083915986 0.08684739 -0.034848437 0.09036141
0.22501613 0.24045156 0.1190421 -0.013700991 -0.24070804 -0.14405793 -0.28877482 -0.01630425
-0.21225305 -0.27820444 -0.15953287 -0.1394911 0.21315818 -0.2078148 -0.14447351 -0.27761406
0.23292069 -0.33342633 -0.13990459 0.008610383 -0.18950307 -0.3027128 0.15602678 0.2924655
-0.12137523 -0.039581563 0.21662357 -0.3336599 -0.038423814 0.14291583 -0.11973762 -0.18869975
-0.01789987 0.15036389 0.012985223 0.23582524 -0.21135539 -0.012533964 -0.07247297 -0.06949478
0.047099497 -0.14953794 -0.06767572 -0.015477288 -0.20614702 -0.31246698 0.040046245 -0.23291053
0.07791262 -0.06930121 0.13068281 0.21515015 0.2348217 -0.35261542 0.050051842 0.21832384
0.11722629 -0.24377123 -0.17134894 -0.09402825 0.1494868 0.12991711 -0.20304573 -0.0063753044
-0.10714144 -0.06598252 -0.07017416 0.010345112 -0.1881203 0.033762634 0.030582877 0.16131184
0.10932218 0.2773151 0.34199443 -0.2874677 -0.31305996 0.2804074 -0.2628943 0.10351864
0.1396685 0.16249587 -0.3255726 -0.2675131 -0.09046463 -0.15357345 -0.33586314 -0.33835334
-0.04026823 0.25089675 -0.0939795 0.20639186 0.20221293 0.19830002 -0.27077353 0.1483376
-0.090343356 0.025404952 -0.16281334 0.13096558 -0.14591026 0.31784558 0.27659327 -0.32760364
00000000: 6513 94bd 6857 223d 684b 9dbe 7684 7fbe
00000010: 0c22 96be 5812 2d3e 7943 a8bc 6314 97be
00000020: ad73 4fbe ca00 af3d 992d 48be dd60 a4bb
00000030: 1ff5 1c3e 4fe9 d8bd 6726 693d 6853 adbe
00000040: 08a4 9ebe 0bcb aa3e 6450 8c3d 1312 a13e
00000050: 25dc ab3d 0bdd b13d 3cbd 0ebd 670f b93d
00000060: a16a 663e ef38 763e 58cc f33d 1f7a 60bc
00000070: 2b7c 76be ec83 13be 4bda 93be 7e90 85bc
00000080: dd58 59be d070 8ebe 965c 23be c1d6 0ebe
00000090: 2346 5a3e 67cd 54be ddf0 13be 6e23 8ebe
000000a0: c382 6e3e dbb6 aabe 2643 0fbe 9012 0d3c
000000b0: 180d 42be 2cfd 9abe 7cc5 1f3e 0abe 953e
000000c0: 9493 f8bd 4720 22bd 92d2 5d3e 78d5 aabe
000000d0: 4a62 1dbd 8758 123e ff38 f5bd 823a 41be
000000e0: c0a2 92bc fef8 193e f9bf 543c 2c7c 713e
000000f0: 8c6d 58be 415b 4dbc b56c 94bd 4753 8ebd
00000100: 67eb 403d 7920 19be 9199 8abd 7394 7dbc
00000110: 3418 53be acfb 9fbe 8807 243d 1980 6ebe
00000120: a790 9f3d cbed 8dbd b7d1 053e 5250 5c3e
00000130: 1a75 703e 028a b4be 2903 4d3d 4990 5f3e
00000140: 5614 f03d 2a9f 79be 1976 2fbe e291 c0bd
00000150: 1113 193e fe08 053e 38eb 4fbe eee7 d0bb
00000160: f96c dbbd d821 87bd 78b7 8fbd 8b7e 293c
00000170: 9ca2 40be b04a 0a3d f188 fa3c ee2e 253e
00000180: 4fe4 df3d 3ffc 8d3e e519 af3e f72e 93be
00000190: 6549 a0be 8f91 8f3e 159a 86be 9501 d43d
000001a0: 4205 0f3e 5165 263e 74b1 a6be 7af7 88be
000001b0: 8545 b9bd 5c42 1dbe 41f6 abbe a63c adbe
000001c0: 4df0 24bd 8a75 803e 5378 c0bd 6358 533e
000001d0: e810 4f3e 290f 4b3e d4a2 8abe d0e5 173e
000001e0: f005 b9bd 0c1e d03c 8ab8 26be d71b 063e
000001f0: 8069 15be a8bc a23e a29d 8d3e aabb a7be

bias f4 [16]
0.02719459 -0.075850844 0.23600319 -0.23353514 -0.27784252 0.07204759 0.26886597 0.33250985
-0.122420624 -0.05662918 -0.2894622 0.062427193 -0.33874464 -0.3384973 0.13696069 0.15802673
00000000: 30c7 de3c b057 9bbd d2aa 713e d623 6fbe
00000010: 6041 8ebe b08d 933d cda8 893e bb3e aa3e
00000020: aab7 fabd 00f4 67bd 6434 94be a8b3 7f3d
00000030: f06f adbe 854f adbe 6c3f 0c3e c2d1 213e

weight f4 [16]
1.0001979 0.99982697 0.99988973 1.0000958 1.000308 0.9998488 0.9997649 0.9997918
1.0002707 0.9997156 1.0001622 1.0002557 0.99972486 0.99985874 1.0002986 1.0000132
00000000: 7c06 803f a9f4 7f3f c6f8 7f3f 2403 803f
00000010: 180a 803f 17f6 7f3f 98f0 7f3f 5bf2 7f3f
00000020: df08 803f 5ded 7f3f 5105 803f 6108 803f
00000030: f8ed 7f3f bef6 7f3f c909 803f 6f00 803f

bias f4 [16]
2.1877513e-05 -6.403727e-05 -0.00021545241 9.876539e-05 -4.349359e-05 0.00018381134 -0.00026394307 -0.00023808176
-0.0001033006 -0.00023157889 -0.0001828995 -2.4155683e-05 -0.00018584747 6.754805e-05 -3.7350994e-05 -0.00019297362
00000000: 9a85 b737 bf4b 86b8 11eb 61b9 4420 cf38
00000010: e36c 36b8 7bbd 4039 d761 8ab9 96a5 79b9
00000020: 16a3 d8b8 fcd3 72b9 b6c8 3fb9 efa1 cab7
00000030: 0de0 42b9 95a8 8d38 53a9 1cb8 f658 4ab9

running_mean f4 [16]
-0.58523476 -0.46758956 0.51084757 -0.41397628 -1.0250955 0.031550005 -0.047782965 0.23420648
-0.7147282 0.24318016 -0.4117559 -0.018815743 -0.23117541 -1.1278714 0.4618662 0.15811421
00000000: f2d1 15bf e667 efbe e8c6 023f b3f4 d3be
00000010: 5436 83bf 943a 013d 12b8 43bd d3d3 6f3e
00000020: 6df8 36bf 3804 793e abd1 d2be 7923 9abc
00000030: 3fb9 6cbe 175e 90bf ba79 ec3e b1e8 213e

running_var f4 [16]
0.10798087 0.41205794 0.082638144 0.04135749 0.3540159 0.036407895 0.24004753 0.016089318
0.29501012 0.12534419 0.0660713 0.13960323 0.6520298 0.3867675 0.102311164 0.09369692
00000000: 1325 dd3d 42f9 d23e 303e a93d 7966 293d
00000010: 9241 b53e 7220 153d 05cf 753e bfcd 833c
00000020: 910b 973e 3a5a 003e 6450 873d 26f4 0e3e
00000030: 6deb 263f 6406 c63e 8488 d13d 2ce4 bf3d

weight f4 [16, 16, 3]
0.12903976 -0.06493105 -0.008128749 -0.04312782 -0.0336342 0.06385277 0.07363817 -0.00599019
0.05880251 0.10128628 0.089715235 0.1444406 0.06989911 -0.03818104 -0.052162316 -0.13493332
0.034944043 -0.13495515 0.10456678 0.020721383 0.060205445 -0.12800558 -0.03129087 -0.08900908
-0.08256644 -0.026180053 0.06257751 -0.14133148 -0.053243533 0.01568548 -0.047423236 0.050887298
-0.122237265 0.05683969 0.039291717 -0.10607346 -0.12736781 -0.063328676 0.123867184 -0.079833895
0.12063307 -0.064207956 0.04390815 0.10243246 -0.09360303 -0.04726468 -0.13631803 0.061242767
0.124818295 -0.11114007 -0.12503214 -0.08424966 0.058822893 0.06286939 -0.079580806 0.079306066
-0.03343818 0.08034289 0.09677588 -0.02571876 0.06631461 -0.10627214 0.13519944 -0.029727705
-0.001986838 -0.11228676 0.10428296 0.061844837 -0.08567117 0.081401035 -0.015527589 -0.0788801
0.007982522 0.055938546 -0.11274959 0.054936796 -0.07480081 -0.031458817 -0.044939294 -0.1138327
0.031341065 0.08373994 0.09623193 0.011612424 -0.090945154 0.12740399 0.06811361 0.12644243
0.01702613 0.05962386 -0.09331085 -0.103995636 0.025057111 -0.0044998676 -0.049752362 -0.07542226
0.12408367 -0.109215476 -0.12844253 -0.06520818 -0.07920756 -0.024077622 0.11830458 -0.05719662
0.030137332 0.10708803 0.048942942 0.0483544 -0.0007432848 0.09512361 0.0910192 -0.07737891
0.054792743 -0.030958248 -0.024691671 -0.010623086 -0.05935852 -0.08081495 -0.032891486 -0.009965042
0.026847348 -0.022297543 0.02211534 0.060400277 -0.12710182 -0.08580198 -0.02001334 -0.10771579
-0.11318605 0.11099145 0.10693725 0.14247084 0.036291912 -0.010318649 0.061830834 -0.062810265
-0.013467289 -0.075208776 0.12687314 0.015053858 0.004515396 0.0021025985 0.14151946 0.0027834948
0.096101895 0.121132955 0.12545511 -0.11914209 -0.05080818 0.08023332 0.066385075 -0.043335583
-0.069798544 -0.027317882 0.0420764 -0.038466666 0.086525336 0.08028765 -0.06540635 0.11520806
0.0993715 0.00869089 -0.04871685 0.11610511 0.06703704 0.08536713 -0.004797347 -0.14008527
-0.040400594 -0.0060277395 0.12197848 -0.016342863 0.1029432 0.041669052 -0.108948484 0.074855864
-0.10916047 0.0444441 0.08931486 0.09225685 0.029968724 -0.060371958 -0.011018033 0.08154839
-0.0053766537 0.098402955 0.037265375 0.08846429 -0.048593212 0.059085533 -0.024125753 -0.09704458
0.11010119 -0.108096585 -0.09350836 -0.051023602 0.047023725 -0.10601923 -0.0780401 -0.036147904
0.057873227 0.03881964 0.10636877 -0.10868103 -0.0029078126 0.05650455 -0.031233951 -0.023555376
-0.13321188 0.111133434 0.09873584 -0.001883778 0.066382274 -0.010265857 -0.075455606 -0.053485405
-0.12752077 -0.07337364 -0.066122286 -0.019492038 0.09425731 0.08099525 0.049071193 -0.08264425
0.08889557 -0.121979445 -0.12059695 0.09624519 -0.030439302 0.14104864 0.12387467 -0.13444097
0.015268471 -0.11829773 -0.06990888 0.06785691 -0.034081765 0.10920712 0.03500153 0.010526996
0.03861372 -0.038624916 -0.061557498 0.084841326 0.044862855 -0.13529964 -0.021275051 0.076354876
0.06473415 0.023780748 -0.12614703 0.059049625 0.072533816 0.112391666 -0.0068579954 -0.038148403
00000000: 0023 043e 92fa 84bd 722e 05bc cca6 30bd
00000010: 04c4 09bd 3ec5 823d 9ccf 963d 5b49 c4bb
00000020: e7da 703d 2e6f cf3d 9fbc b73d 3de8 133e
00000030: 4427 8f3d b963 1cbd 27a8 55bd f62b 0abe
00000040: 7c21 0f3d af31 0abe 1c27 d63d e4bf a93c
00000050: fc99 763d e513 03be db2a 00bd 644a b6bd
00000060: 9818 a9bd 8d77 d6bc a328 803d 33b9 10be
00000070: e415 5abd d67e 803c de3e 42bd 336f 503d
00000080: 8857 fabd bcd0 683d 5af0 203d 0b3d d9bd
00000090: b56c 02be 77b2 81bd 14ae fd3d f47f a3bd
000000a0: 790e f73d 767f 83bd 08d9 333d 1cc8 d13d
000000b0: f2b2 bfbd 9c98 41bd f496 0bbe b2d9 7a3d
000000c0: bca0 ff3d 689d e3bd 6d08 00be 168b acbd
000000d0: 46f0 703d abc1 803d 43fb a2bd 386b a23d
000000e0: 79f6 08bd d08a a43d 6f32 c63d 26b0 d2bc
000000f0: f4cf 873d 35a5 d9bd b971 0a3e 8487 f3bc
00000100: 9c35 02bb 9af6 e5bd 4e92 d53d 0351 7d3d
00000110: 5e74 afbd 96b5 a63d 6e67 7ebc e48b a1bd
00000120: 20c9 023c d11f 653d 42e9 e6bd 6805 613d
00000130: 2b31 99bd f6da 00bd 4412 38bd 1e21 e9bd
00000140: 7d5f 003d d87f ab3d 3f15 c53d 0942 3e3c
00000150: 7441 babd 3176 023e 267f 8b3d 207a 013e
00000160: 627a 8b3c 2638 743d c219 bfbd aafb d4bd
00000170: 9244 cd3c a073 93bb 22c9 4bbd fc76 9abd
00000180: 941f fe3d 5dac dfbd 7086 03be de8b 85bd
00000190: 9337 a2bd 6f3e c5bc ac49 f23d 0147 6abd
000001a0: 91e2 f63c f850 db3d 6578 483d 430f 463d
000001b0: 00d9 42ba 2bd0 c23d 4668 ba3d d578 9ebd
000001c0: 5b6e 603d 279c fdbc 3046 cabc 740c 2ebc
000001d0: eb21 73bd 4f82 a5bd 39b9 06bd 6a44 23bc
000001e0: f8ee db3c 56a9 b6bc 3b2b b53c 4866 773d
000001f0: fb26 02be f3b8 afbd 04f3 a3bc 199a dcbd
00000200: 16ce e7bd 7c4f e33d eb01 db3d e0e3 113e
00000210: d4a6 143d 8d0f 29bc 5442 7d3d aba2 80bd
00000220: e7a5 5cbc 0f07 9abd 08eb 013e 75a4 763c
00000230: e3f5 933b c0cb 093b 7aea 103e 4b6b 363b
00000240: 12d1 c43d 8e14 f83d 4e77 003e c500 f4bd
00000250: 3d1c 50bd 5e51 a43d e6f4 873d a780 31bd
00000260: 8af2 8ebd c0c9 dfbc 4e58 2c3d 398f 1dbd
00000270: 3234 b13d da6d a43d c4f3 85bd 34f2 eb3d
00000280: 4983 cb3d 3c64 0e3c 528b 47bd 84c8 ed3d
00000290: b74a 893d f6d4 ae3d 1033 9dbb 8372 0fbe
000002a0: 187b 25bd 5884 c5bb dacf f93d 78e1 85bc
000002b0: e2d3 d23d 2bad 2a3d 6220 dfbd 084e 993d
000002c0: 868f dfbd 040b 363d b6ea b63d 29f1 bc3d
000002d0: f880 f53c 9648 77bd fb84 34bc d802 a73d
000002e0: a42e b0bb 7d87 c93d 94a3 183d c42c b53d
000002f0: ad09 47bd ac03 723d 5fa3 c5bc 4fbf c6bd
00000300: bc7c e13d be61 ddbd 5081 bfbd 20fe 50bd
00000310: f39b 403d 9c20 d9bd 7dd3 9fbd d30f 14bd
00000320: 7a0c 6d3d 5801 1f3d dfd7 d93d 2994 debd
00000330: 0091 3ebb 5171 673d 58de ffbc 34f7 c0bc
00000340: b268 08be ed99 e33d 0436 ca3d 1ae9 f6ba
00000350: 6ef3 873d 2032 28bc 7888 9abd 8313 5bbd
00000360: ce94 02be eb44 96bd 1f6b 87bd c4ad 9fbc
00000370: fa09 c13d d6e0 a53d e0fe 483d 6341 a9bd
00000380: e10e b63d 5cd0 f9bd 89fb f6bd 331c c53d
00000390: d85b f9bc 0e6f 103e 01b2 fd3d e5aa 09be
000003a0: 9c28 7a3c 1546 f2bd 632c 8fbd 90f8 8a3d
000003b0: 5299 0bbd fca7 df3d c45d 0f3d 6c79 2c3c
000003c0: 6c29 1e3d 2935 1ebd b723 7cbd 4ac1 ad3d
000003d0: 1dc2 373d fd8b 0abe 0449 aebc f25f 9c3d
000003e0: 5793 843d d8cf c23c b02c 01be 05de 713d
000003f0: 9c8c 943d 9a2d e63d 09b9 e0bb 8041 1cbd

bias f4 [16]
-0.031038828 0.021355927 0.025005922 -0.002062296 -0.07808253 0.0076158354 -0.08963737 0.13199276
-0.008114979 0.07059823 -0.06492476 0.059100613 -0.08810963 0.101168305 0.08849481 -0.071429215
00000000: 2445 febc a0f2 ae3c 38d9 cc3c 9627 07bb
00000010: bce9 9fbd 428e f93b cc93 b7bd 1c29 073e
00000020: b0f4 04bc ce95 903d 46f7 84bd 7c13 723d
00000030: d272 b4bd 5431 cf3d c43c b53d 7b49 92bd

weight f4 [16]
0.9995449 0.99973917 1.0003318 0.999632 1.00041 0.9997097 1.0002915 1.0003599
1.0002217 1.0000336 0.99985397 0.99959874 0.99969214 1.0001832 0.99975616 1.0001099
00000000: 2de2 7f3f e8ee 7f3f df0a 803f e2e7 7f3f
00000010: 6f0d 803f faec 7f3f 8d09 803f cb0b 803f
00000020: 4407 803f 1a01 803f 6ef6 7f3f b4e5 7f3f
00000030: d3eb 7f3f 0106 803f 05f0 7f3f 9a03 803f

bias f4 [16]
-0.00015436344 -0.00027435584 0.00028989484 -0.00047839736 0.00039177027 -0.00030813005 0.00035182547 0.00047882443
0.00017299806 0.00013955521 -5.4677206e-05 -0.00028668795 -0.0002251691 0.0001685682 -0.00021675292 -3.024115e-05
00000000: 9fdc 21b9 6bd7 8fb9 07fd 9739 68d1 fab9
00000010: 8466 cd39 848c a1b9 3775 b839 ba0a fb39
00000020: d066 3539 9155 1239 3455 65b8 9b4e 96b9
00000030: 5f1b 6cb9 aec1 3039 2b48 63b9 60ae fdb7

running_mean f4 [16]
-0.2973661 -0.10858221 -0.20496507 0.28916135 0.020576388 0.1385324 0.12979224 -0.013629542
-0.16649525 -0.021913212 -0.041178312 0.7001608 -0.63899225 0.3999109 -0.4510069 0.73988754
00000000: 5f40 98be 5a60 debd 5de2 51be f50c 943e
00000010: d08f a83c 70db 0d3e 42e8 043e 714e 5fbc
00000020: bb7d 2abe 5683 b3bc 97aa 28bd bd3d 333f
00000030: ff94 23bf 1fc1 cc3e 60ea e6be 4569 3d3f

running_var f4 [16]
0.05105602 0.067941405 0.043718092 0.07379148 0.22437486 0.110311404 0.07788357 0.09029913
0.10538267 0.016716046 0.08368113 0.061480567 0.23842756 0.105946094 0.09203809 0.06354729
00000000: 1e20 513d dd24 8b3d be11 333d fd1f 973d
00000010: 86c2 653e f2ea e13d 6c81 9f3d c0ee b83d
00000020: dfd2 d73d 17f0 883c 0361 ab3d 0cd3 7b3d
00000030: 5b26 743e 44fa d83d 777e bc3d 1525 823d

weight f4 [16, 16, 3]
0.11197162 -0.11434955 0.0074862093 -0.033024184 0.07600451 0.10799512 -0.088965684 0.019418743
0.032157943 -0.076375656 0.037988085 -0.13051748 0.12899673 0.031958 -0.018702641 0.018622622
0.12149601 -0.105287805 -0.06552667 -0.0065405187 -0.040703826 -0.012180626 -0.114482075 -0.08776623
0.06908497 0.060040973 -0.10779509 -0.0803839 -0.11670173 0.12172097 0.12651971 0.1153968
-0.009420395 0.12161371 -0.07482589 -0.0010862201 0.076072514 0.048839003 -0.12870961 0.08708045
0.13982241 -0.06920643 -0.05300291 -0.12242913 -0.0028058887 -0.092764765 0.11335504 -0.09709872
0.14021447 -0.016654419 -0.04569424 0.034440324 0.07662317 0.029996157 0.11806241 -0.10996525
0.11019677 0.01698342 -0.07988586 0.1430214 -0.0243802 0.059797086 -0.059184663 0.107905924
-0.03331511 0.07221393 0.07441722 -0.041910984 0.12889406 -0.14214809 0.037295274 -0.12841167
-0.08069248 0.14110483 0.12119332 0.06680602 -0.088040926 -0.12503298 0.07925622 0.11006987
0.002556637 0.12970701 -0.09266271 -0.13002954 0.12678862 0.056790106 -0.07969676 0.08181518
-0.07086311 -0.013243839 -0.075474985 -0.039697938 -0.11447226 -0.00992462 0.018332584 0.10791212
0.0179431 -0.09761997 -0.04951001 -0.0421701 -0.070525534 -0.032165207 -0.01695174 0.0633372
0.12345865 0.12838337 -0.072993964 -0.038897634 -0.14032705 0.13045952 -0.13540183 -0.021055758
-0.142243 -0.097707346 -0.11075531 -0.11971533 0.032093838 -0.09395918 0.0054392614 0.0983582
-0.08994393 -0.11151683 -0.07839271 -0.07136585 0.08296726 -0.03291505 -0.05861991 0.022864366
-0.115008414 -0.122625954 0.0025049418 0.138984 -0.1333378 -0.14015569 0.10582268 -0.050448343
0.13332242 0.11960465 0.06098333 0.065454334 0.13515222 -0.104072765 0.05084969 -0.1197661
0.09753716 -0.0648215 -0.098019406 -0.0587546 0.052511033 0.014385536 0.03921461 -0.09291946
0.06866938 -0.10739525 -0.07241231 -0.05825323 -0.10585703 -0.06985088 0.071866274 0.12818834
-0.04809439 0.025586337 0.13296789 0.013517597 -0.11650153 -0.13502665 -0.058283802 0.01808402
0.024101377 -0.035020594 -0.13209379 -0.08639723 0.021826304 -0.08222677 0.05814369 -0.0135113
-0.0543067 -0.022184461 0.062348865 0.04916823 -0.0008274019 -0.06444938 0.13882211 -0.045329966
0.1278304 -0.060678087 0.05419649 -0.020830877 0.0193796 0.063502744 0.13743763 0.021645248
-0.11533651 -0.015589111 -0.03679966 -0.12296008 -0.0052055493 -0.10787083 0.06679052 -0.0077048494
0.11716613 -0.10324588 -0.05356028 0.06282517 -0.052995265 -0.12343032 -0.12973368 -0.13872999
0.10785701 0.117984 0.051049203 -0.09841224 0.114093095 0.01347895 -0.074741274 0.039745554
-0.035015583 0.03302799 -0.10377805 0.021355793 0.060042277 -0.0017547458 -0.04614938 -0.0030287318
0.033630177 -0.09379636 -0.08694911 0.0023301095 -0.099905275 -0.046366908 0.06857276 -0.107878454
0.097290374 -0.031270996 -0.07692039 0.06186617 0.14112392 0.06953637 -0.052822653 0.04374832
-0.13401657 0.12730925 0.1060538 0.056670725 0.061317883 -0.023224153 -0.1335925 0.12248631
0.01740238 0.07409504 0.08799855 -0.012972787 -0.03293454 -0.03993204 -0.10998775 -0.13427201
00000000: 6051 e53d 1930 eabd e04e f53b 5e44 07bd
00000010: 41a8 9b3d 8c2c dd3d a433 b6bd 0e14 9f3c
00000020: 0cb8 033d d76a 9cbd 6599 1b3d 60a6 05be
00000030: b817 043e 64e6 023d 4836 99bc 788e 983c
00000040: e6d2 f83d 22a1 d7bd d932 86bd d951 d6bb
00000050: 0eb9 26bd 4091 47bc 9475 eabd c8be b3bd
00000060: 6c7c 8d3d 86ed 753d acc3 dcbd 50a0 a4bd
00000070: 5101 efbd d848 f93d 628e 013e 2855 ec3d
00000080: 0058 1abc 9c10 f93d 513e 99bd 805f 8eba
00000090: e8cb 9b3d 680b 483d 74cc 03be 3c57 b23d
000000a0: 9b2d 0f3e 1abc 8dbd 9419 59bd 20bc fabd
000000b0: 00e3 37bb 74fb bdbd b026 e83d b2db c6bd
000000c0: 6294 0f3e d96e 88bc e229 3bbd 4c11 0d3d
000000d0: 9cec 9c3d 80ba f53c b4ca f13d 7635 e1bd
000000e0: d8ae e13d d020 8b3c 339b a3bd 3474 123e
000000f0: fcb8 c7bc caed 743d 9e6b 72bd c8fd dc3d
00000100: 6d75 08bd e6e4 933d 0e68 983d daaa 2bbd
00000110: cefc 033e 458f 11be eec2 183d 597e 03be
00000120: 1942 a5bd c97d 103e 3434 f83d 98d1 883d
00000130: cd4e b4bd a508 00be 1651 a23d 506c e13d
00000140: 408d 273b ead1 043e f2c5 bdbd 7726 05be
00000150: e0d4 013e be9c 683d 0e38 a3bd b88e a73d
00000160: ae20 91bd b0fc 58bc a192 9abd 4e9a 22bd
00000170: 6f70 eabd e09a 22bc 372e 963c 0801 dd3d
00000180: 68fd 923c fbec c7bd 02cb 4abd 8eba 2cbd
00000190: b16f 90bd aabf 03bd 60de 8abc efb6 813d
000001a0: e4d7 fc3d ee76 033e dc7d 95bd 2053 1fbd
000001b0: e5b1 0fbe 2e97 053e c7a6 0abe 207d acbc
000001c0: 26a8 11be ca1a c8bd aed3 e2bd 502d f5bd
000001d0: d474 033d ac6d c0bd d53b b23b 0670 c93d
000001e0: 8634 b8bd f062 e4bd 5b8c a0bd 4228 92bd
000001f0: bdea a93d eed1 06bd 6e1b 70bd 0d4e bb3c
00000200: 8889 ebbd 5123 fbbd f329 243b d251 0e3e
00000210: b489 08be f984 0fbe 90b9 d83d eca2 4ebd
00000220: ac85 083e 48f3 f43d a8c9 793d ec0c 863d
00000230: 5865 0a3e 1a24 d5bd c447 503d ee47 f5bd
00000240: 90c1 c73d 22c1 84bd 66be c8bd aaa8 70bd
00000250: cf15 573d 50b1 6b3c 809f 203d 8f4c bebd
00000260: 88a2 8c3d 0af2 dbbd e84c 94bd f09a 6ebd
00000270: 92cb d8bd fa0d 8fbd a02e 933d ce43 033e
00000280: a0fe 44bd 709a d13c bc28 083e e978 5d3c
00000290: 5b98 eebd 6d44 0abe ffba 6ebd f024 943c
000002a0: 4070 c53c c171 0fbd 9843 07be 08f1 b0bd
000002b0: 14cd b23c 8266 a8bd 1428 6e3d 805e 5dbc
000002c0: b470 5ebd 30bc b5bc 8661 7f3d a064 493d
000002d0: 00e6 58ba 09fe 83bd 6227 0e3e eaab 39bd
000002e0: f9e5 023e 9689 78bd 24fd 5d3d 84a5 aabc
000002f0: f8c1 9e3c ba0d 823d 73bc 0c3e 6051 b13c
00000300: 8c35 ecbd 7869 7fbc 3ebb 16bd 7fd2 fbbd
00000310: 5093 aabb 62eb dcbd 78c9 883d f678 fcbb
00000320: ccf4 ef3d 9372 d3bd 0662 5bbd 7caa 803d
00000330: 9011 59bd 09c9 fcbd e8d8 04be 3c0f 0ebe
00000340: 23e4 dc3d 98a1 f13d f818 513d 5b8c c9bd
00000350: a4a9 e93d d0d6 5c3c f411 99bd 3ccc 223d
00000360: 806c 0fbd 5c48 073d 9689 d4bd 58f2 ae3c
00000370: e4ee 753d 80ff e5ba 2207 3dbd b07d 46bb
00000380: ccbf 093d 4e18 c0bd 6012 b2bd c0b4 183b
00000390: 239b ccbd 3aeb 3dbd e06f 8c3d 61ef dcbd
000003a0: 2d40 c73d 0416 00bd 7088 9dbd 6267 7d3d
000003b0: ca82 103e 1669 8e3d 915c 58bd 7031 333d
000003c0: a43b 09be 5b5d 023e bc32 d93d 901f 683d
000003d0: 7628 7b3d 9440 bebc 79cc 08be 1ada fa3d
000003e0: 708f 8e3c 24bf 973d 9538 b43d d08b 54bc
000003f0: 5ee6 06bd c78f 23bd 4241 e1bd 9a7e 09be

bias f4 [16]
0.056212395 -0.05549272 0.11951703 0.0857628 -0.1393511 -0.03527139 -0.09626219 0.09784648
0.13291281 -0.04386217 0.13135004 -0.046035856 -0.10351877 -0.0050839894 -0.06570683 -0.08430566
00000000: f83e 663d 564c 63bd 58c5 f43d 68a4 af3d
00000010: 0eb2 0ebe bc78 10bd 1c25 c5bd bc63 c83d
00000020: 4c1a 083e d2a8 33bd a080 063e 1890 3cbd
00000030: a601 d4bd 9897 a6bb 4d91 86bd 72a8 acbd

weight f4 [16]
1.0002398 1.0000982 0.99995786 1.000148 1.0000892 0.99964386 0.999917 1.0001411
0.99987924 1.0001284 1.0000136 0.9999796 0.9998765 0.99985486 0.99978095 1.0002882
00000000: dc07 803f 3803 803f 3dfd 7f3f da04 803f
00000010: ec02 803f a9e8 7f3f 8ffa 7f3f a004 803f
00000020: 16f8 7f3f 3504 803f 7200 803f aafe 7f3f
00000030: e8f7 7f3f 7df6 7f3f a5f1 7f3f 7209 803f

bias f4 [16]
0.0002745503 6.110786e-05 1.391467e-05 7.011874e-06 2.7647387e-05 -0.00031361496 -3.9873456e-05 2.1439344e-05
-8.357707e-05 8.7072876e-05 6.884936e-05 4.120484e-05 0.00012147493 -0.00015835119 -0.00020939115 0.00051730213
00000000: 84f1 8f39 0827 8038 0d73 6937 8a47 eb36
00000010: 50ec e737 b06c a4b9 cc3d 27b8 a4d8 b337
00000020: 1946 afb8 e59a b638 3863 9038 5cd3 2c38
00000030: 5bc0 fe38 130b 26b9 0290 5bb9 8f9b 073a

running_mean f4 [16]
0.14619422 -0.08204078 0.042974617 0.033662014 -0.21942788 0.15262266 0.14435954 0.13564822
0.2585655 -0.22164634 0.17987461 -0.15927386 -0.09369513 -0.31584668 -0.09407512 -0.03225347
00000000: f0b3 153e ff04 a8bd 2706 303d 2ee1 093d
00000010: b4b1 60be 1d49 1c3e fdd2 133e 5ee7 0a3e
00000020: b262 843e 42f7 62be 0d31 383e b018 23be
00000030: 3be3 bfbd a8b6 a1be 75aa c0bd 371c 04bd

running_var f4 [16]
0.11042026 0.018911049 0.023986937 0.027384667 0.023150515 0.08113254 0.0334169 0.024804978
0.025477048 0.10702968 0.028287848 0.049777977 0.008676014 0.045968767 0.026080178 0.01864805
00000000: 0424 e23d 58eb 9a3c 4180 c43c cf55 e03c
00000010: 26a6 bd3c d128 a63d 29e0 083d cf33 cb3c
00000020: 3eb5 d03c 6032 db3d ebbb e73c fee3 4b3d
00000030: d725 0e3c bf49 3c3d 19a6 d53c ccc3 983c
