DFA-PS/DFA-PS/Experiments/Full-GOP/DJIA/backup/factor/DecisionModel_CalibrationModule.pt (torch, 303584 bytes, 104 tensors)

weight f4 [7]
0	0x3f802dc7	1.001397
1	0x3f80489e	1.0022161
2	0x3f807b0a	1.0037549
3	0x3f7f2282	0.9966203
4	0x3f809328	1.0044909
5	0x3f80a987	1.0051736
6	0x3f7db357	0.99101776

bias f4 [7]
0	0xb884788a	-6.316703e-05
1	0x37cb9e12	2.4273093e-05
2	0x387cc364	6.0263454e-05
3	0xb74f4a78	-1.23555e-05
4	0xb8db2afd	-0.00010450741
5	0x388c311b	6.684867e-05
6	0x38226b68	3.872384e-05

running_mean f4 [7]
0	0x427d8093	63.37556
1	0x428057d0	64.17151
2	0x427a3e1a	62.560646
3	0x4a207710	2.62906e+06
4	0x4c4bd568	5.343376e+07
5	0x419188fd	18.191889
6	0x3ea69a56	0.32539624

running_var f4 [7]
0	0x44997af5	1227.8424
1	0x449cf08e	1255.5173
2	0x4495cf94	1198.4868
3	0x558a977b	1.90479e+13
4	0x594964ad	3.5429478e+15
5	0x4431e92b	711.64325
6	0x3e22697f	0.15860556

weight f4 [16, 7, 5, 1]
0	0x3e271a8c	0.1631872
1	0xbe28c31c	-0.16480678
2	0xbdd64d8c	-0.1046401
3	0x3dd4f9f0	0.10399234
4	0x3dbb164a	0.09135111
5	0x3df3efbf	0.11910962
6	0xbdd4d983	-0.103930496
7	0xbd789737	-0.060691085
8	0xbce787b8	-0.028262958
9	0xbdb17085	-0.086640395
10	0xbda385ef	-0.0798453
11	0x3db1a3ef	0.08673846
12	0xbbfa40ff	-0.0076371427
13	0x3e184497	0.14869915
14	0xbda99863	-0.082810186
15	0x3c1ace01	0.009448529
16	0x3cd4d6e7	0.02598138
17	0xbd116319	-0.035494898
18	0xbde26745	-0.11054853
19	0xbe000cf3	-0.1250494
20	0x3b334f3c	0.002736046
21	0xbca49879	-0.020092236
22	0xbda98c14	-0.08278671
23	0xbd942e3a	-0.072353795
24	0x3dd0a3ab	0.10187467
25	0x3e2ee701	0.17080308
26	0xbddbf752	-0.10740532
27	0x3e1505f9	0.1455306
28	0xbccd08c0	-0.025028586
29	0x3dc7d46c	0.09757313
30	0x3e148a36	0.14505848
31	0x3d9332f6	0.071874544
32	0x3dec2cda	0.11531992
33	0x3ccbdd9a	0.024885941
34	0xbe28287f	-0.16421698
35	0x3d10e509	0.035374675
36	0x3d03eff9	0.032211278
37	0xbcc10b91	-0.023565086
38	0x3d393037	0.045211997
39	0xbe004269	-0.12525333
40	0xbdd186e0	-0.102308035
41	0xbc4add35	-0.012381841
42	0x3e13ada1	0.14421703
43	0xbdf6cc09	-0.12050635
44	0xbcce2313	-0.025163209
45	0xbd42c49e	-0.04755079
46	0x3d23bc46	0.039974473
47	0x3d8b954a	0.06815584
48	0x3d28cdd2	0.04121191
49	0xbd338b8c	-0.043834254
50	0x3d82eb32	0.06392516
51	0xbd576699	-0.05258808
52	0x3e100891	0.14065768
53	0x3e1aa85b	0.15103285
54	0xbce3ed50	-0.02782312
55	0xbda0225d	-0.07819054
56	0xbe29decb	-0.16588895
57	0x3ca6c691	0.020358356
58	0xbdf69381	-0.12039853
59	0x3dda359c	0.106547564
60	0x3d9802c2	0.07422401
61	0xbd96a803	-0.073562644
62	0x3db39eda	0.08770533
63	0xbc65e08a	-0.014030585
64	0xbbb07ea3	-0.00538619
65	0xbd0abecf	-0.033873376
66	0xbe100390	-0.14063859
67	0x3dbb8842	0.091568485
68	0x3e25fb48	0.16209137
69	0x3e006fff	0.12542723
70	0x3d9ac8b2	0.07557811
71	0x3deaf9ca	0.11473425
72	0xbd9545a6	-0.07288675
73	0xbe167e39	-0.14696588
74	0xbe07ec07	-0.13273631
75	0x3e00a19f	0.12561654
76	0xbda2b4ec	-0.07944664
77	0xbe0427bb	-0.12905781
78	0x3e08d790	0.1336348
79	0x3dd22fc7	0.10263019
80	0x3e1fbfcc	0.15600508
81	0x3e0b6bb2	0.13615301
82	0x3dbf135d	0.09329865
83	0x3dca34cb	0.09873351
84	0xbdc0dd3d	-0.09417198
85	0xbe1d80c7	-0.15381156
86	0x3bff9777	0.0078000384
87	0xbc52c97c	-0.01286542
88	0x3e1947e0	0.14968824
89	0xbe01c7aa	-0.12673822
90	0xbd0b78b1	-0.034050647
91	0xbdb54fd0	-0.08853114
92	0xbdd6269d	-0.10456584
93	0x3d8fbfe8	0.07019025
94	0x3ce6649e	0.02812415
95	0x3d7a5ee0	0.061125636
96	0x3df5849d	0.119881846
97	0xbd9f9b6e	-0.07793318
98	0x3c57e6fa	0.013177628
99	0x3dfe7275	0.12424175
100	0x3e01f792	0.12692097
101	0xbe08bdf3	-0.1335371
102	0xbc19c20e	-0.009384645
103	0xbd8daa5e	-0.069172606
104	0xbb8e0f2c	-0.0043353047
105	0x3df7421e	0.12073158
106	0x3de83032	0.113373175
107	0xbc7cdb5d	-0.01543316
108	0x3d9321ef	0.07184207
109	0xbd94ef8c	-0.072722524
110	0xbd7bb66f	-0.06145328
111	0x3e093686	0.13399705
112	0xbe123f51	-0.14281966
113	0xbddb9370	-0.10721481
114	0xbd0cde1a	-0.0343915
115	0x3d6a2af2	0.057169862
116	0x3e25c368	0.16187823
117	0x3dbf145c	0.09330055
118	0xbdaa2ed3	-0.08309712
119	0xbddce583	-0.107859634
120	0x3e031c60	0.12803793
121	0xbd48f658	-0.049063057
122	0xbdf4c468	-0.11951524
123	0xbdc7488f	-0.09730636
124	0xbd8314ec	-0.06400475
125	0xbc6cbe54	-0.014449675
126	0x3e183b30	0.14866328
127	0xbd93eb59	-0.072226234
128	0xbd9f46d1	-0.07777179
129	0xbe087c5d	-0.13328691
130	0xbd708db0	-0.058728874
131	0xbda4a54e	-0.08039342
132	0xbdec0618	-0.115246
133	0xbe0ea7a4	-0.13931137
134	0xbe1b2ce9	-0.1515385
135	0x3d2d790d	0.04235177
136	0xbdc3c534	-0.09559098
137	0xbdee152d	-0.11625133
138	0xbd9d8239	-0.076908536
139	0xbd9a0229	-0.07519943
140	0x3ceef8d5	0.029171387
141	0x3b26790e	0.0025401744
142	0xbd752ad3	-0.059855293
143	0x3e14617e	0.14490315
144	0xbd5f78e3	-0.054558646
145	0xbdcb6002	-0.099304214
146	0x3c00d682	0.007863643
147	0x3d0dd211	0.034624163
148	0x3d0cc91a	0.034371473
149	0xbd96d8fe	-0.07365607
150	0x3d50b796	0.05095633
151	0x3db8fdae	0.090327606
152	0x3da78504	0.081796676
153	0x3d26cef1	0.0407247
154	0xbbe5d06a	-0.0070133703
155	0x3e1ee1de	0.15515849
156	0x3e0ade44	0.1356135
157	0x3b81c3cc	0.0039601084
158	0x3dcef439	0.101051755
159	0xbe2efb57	-0.17088066
160	0xbdb90ccf	-0.09035646
161	0x3e193d03	0.1496468
162	0x3e040b6a	0.12894979
163	0xbd0ce47d	-0.03439759
164	0xbe0370b7	-0.12835966
165	0x3de5a7ea	0.11213668
166	0xbe0cc444	-0.13746744
167	0xbe28ead7	-0.16495834
168	0x3d9613f5	0.07328025
169	0x3d8ef2d7	0.06979912
170	0xbd293c00	-0.041316986
171	0xbe1dad2a	-0.15398088
172	0xbca93ea5	-0.020659754
173	0x3d6189c6	0.05506303
174	0x3dd982fc	0.106206864
175	0xbd392006	-0.045196556
176	0xbdba884a	-0.09108026
177	0x3d6f0482	0.05835391
178	0xbe1dd803	-0.15414433
179	0xbdeecbea	-0.11659987
180	0xbd8cf1d9	-0.06882066
181	0xbbf0bd01	-0.00734675
182	0xbdec1db6	-0.115291044
183	0xbe14a31f	-0.14515351
184	0xbdc828d2	-0.09773411
185	0xbdc94366	-0.09827308
186	0x3d997268	0.074925244
187	0xbc338cc6	-0.010958856
188	0x3e133bb4	0.14378244
189	0x3d24b6c9	0.04021338
190	0x3df12977	0.11775487
191	0xbe26d3be	-0.1629171
192	0x3dda4268	0.10657197
193	0xbe0583f5	-0.13038619
194	0xbe1d656a	-0.15370718
195	0x3d63e7b2	0.055640884
196	0x3d470be0	0.04859531
197	0x3d674343	0.05646063
198	0xbe126864	-0.14297634
199	0x3d17e7af	0.037086185
200	0x3e0efe07	0.13964091
201	0xbe257bbb	-0.1616048
202	0xbdec7c11	-0.11547101
203	0xbdd0b055	-0.10189883
204	0x3e27a4a1	0.16371395
205	0xbe0179c3	-0.12644105
206	0x3def73b2	0.11691989
207	0xbc1136fe	-0.008863209
208	0xbcf6d2dc	-0.030129842
209	0x3dbe3072	0.09286584
210	0xbd52f2e4	-0.05150117
211	0xbdf5ff61	-0.120116
212	0xbe206da0	-0.15666819
213	0x3e0ada3d	0.13559814
214	0x3c879b2f	0.01655349
215	0x3ca54568	0.020174697
216	0x3e0dda65	0.13852842
217	0x3e17cfd5	0.14825375
218	0x3e037dfc	0.12841028
219	0x3c9ebc2d	0.019376839
220	0x3d9394eb	0.07206138
221	0xbb1e6143	-0.002416686
222	0x3ced1dc6	0.028944861
223	0x3d476a60	0.04868543
224	0xbd1a4836	-0.037666522
225	0xbe294385	-0.16529663
226	0xbd84dce5	-0.06487445
227	0xbdb297ab	-0.087203346
228	0xbe268fc3	-0.16265778
229	0xbce38338	-0.02777253
230	0x3e094ff1	0.13409401
231	0x3da94b99	0.08266372
232	0x3d9c5357	0.07633083
233	0xbd3fe775	-0.046851594
234	0x3c8f0a1e	0.017460879
235	0xbd8b1f12	-0.067930356
236	0x3d0618d1	0.03273851
237	0xbd991b52	-0.07475914
238	0xbdeada48	-0.11467415
239	0xbcf3a10c	-0.02973988
240	0x3e2530e9	0.16131939
241	0xbd4a4511	-0.049382273
242	0xbd89724b	-0.06711253
243	0xbd36663f	-0.044531103
244	0x3d31b60f	0.043386515
245	0x3e07da89	0.13266958
246	0xbdeb8c61	-0.115013845
247	0xbe1b9aad	-0.15195723
248	0xbd6e5f15	-0.058196146
249	0xbcaee979	-0.021351563
250	0xbd846de2	-0.06466271
251	0x3e015af7	0.12632357
252	0xbd82caf1	-0.06386364
253	0xbe11501b	-0.14190714
254	0x3db3e705	0.08784298
255	0x3e12dde2	0.14342454

bias f4 [16]
0	0x3dfa1c59	0.12212438
1	0xbd5b3348	-0.053515702
2	0x3e29be71	0.16576554
3	0x3e0b844b	0.13624685
4	0x3d67b373	0.05656762
5	0x3dc310f3	0.09524717
6	0xbdbf1d59	-0.093317695
7	0x3d20c93b	0.03925441
8	0x3dbedaa1	0.09319044
9	0x3e0afd26	0.13573131
10	0xbd12f320	-0.035876393
11	0x3dcd0d1a	0.100122645
12	0xbe2af3df	-0.16694592
13	0x3de2b7f4	0.110702425
14	0xbe0ddae2	-0.13853028
15	0xbd04fbef	-0.032466825

weight f4 [16]
0	0x3f7f750e	0.99787986
1	0x3f7f61f9	0.9975887
2	0x3f8054cc	1.0025878
3	0x3f80161e	1.000675
4	0x3f7f2581	0.996666
5	0x3f7fbcba	0.9989735
6	0x3f802012	1.0009787
7	0x3f801935	1.0007693
8	0x3f7fe3cb	0.9995696
9	0x3f7f0179	0.9961162
10	0x3f7fecbb	0.999706
11	0x3f7f6874	0.9976876
12	0x3f8038fb	1.0017389
13	0x3f80648c	1.0030684
14	0x3f80468e	1.0021532
15	0x3f80204b	1.0009855

bias f4 [16]
0	0xbab47503	-0.0013767782
1	0x39cf1301	0.00039496276
2	0x3aadc9eb	0.0013259029
3	0xbb012f97	-0.0019712204
4	0x39f58f99	0.0004683703
5	0x3abaea19	0.001426044
6	0x3b1f6f6d	0.002432789
7	0xb98fbc0f	-0.000274152
8	0xba9552e6	-0.0011392504
9	0xb9360c5c	-0.00017361477
10	0x3b3cda0a	0.0028816485
11	0x3ab1a53c	0.0013553272
12	0x3a6f63dc	0.00091320067
13	0x3b4df630	0.0031427257
14	0x3b72a000	0.0037021637
15	0x3b7cbbf3	0.0038564175

running_mean f4 [16]
0	0x3e2f50bb	0.1712064
1	0xbd08e11b	-0.033417802
2	0x3e6c2947	0.23062621
3	0x3e6d11a3	0.23151259
4	0x3db5d30a	0.08878143
5	0x3de0bb3e	0.109732136
6	0xbd824dd4	-0.06362501
7	0x3dae673e	0.08515786
8	0x3df25b8b	0.11833867
9	0x3e304f15	0.17217667
10	0xbdcc11ff	-0.0996437
11	0x3dc71484	0.0972071
12	0xbe50ce8f	-0.20391296
13	0x3e71da26	0.23618373
14	0xbd8e6497	-0.0695278
15	0xbe18a0dd	-0.14905114

running_var f4 [16]
0	0x3e859f74	0.26098216
1	0x3e854603	0.26029977
2	0x3e83ada4	0.25718415
3	0x3ee4f6e9	0.44719627
4	0x3ea31ee3	0.31859502
5	0x3ea70e6f	0.326282
6	0x3e534f58	0.20635736
7	0x3f20387a	0.62586176
8	0x3e5f2384	0.21790892
9	0x3e8e3a5d	0.27778903
10	0x3e6ca71d	0.23110624
11	0x3e59f7bb	0.21285908
12	0x3e71008c	0.23535365
13	0x3e7f831d	0.2495236
14	0x3e88c798	0.26714778
15	0x3ee3abd0	0.4446702

weight f4 [16, 16, 2]
0	0x3e255b14	0.16148025
1	0x3d6441c8	0.055726796
2	0x3c39febf	0.01135224
3	0x3dff28b8	0.12458938
4	0x3d154658	0.03644404
5	0x3e1b31bc	0.15155691
6	0xbd1b4fde	-0.037917964
7	0xbdb5ce5f	-0.08877253
8	0xbd09c8a3	-0.033638608
9	0xbe1d1417	-0.15339695
10	0xba72a551	-0.00092562014
11	0x3dcceef0	0.10006511
12	0xbc97d8d8	-0.018536016
13	0x3c435222	0.011921437
14	0x3df08321	0.11743761
15	0x3c925dda	0.017867018
16	0x3db70664	0.08936766
17	0xbd9f15e1	-0.07767845
18	0x3de46b9a	0.11153336
19	0xbd194a3f	-0.037424322
20	0xbe05c06a	-0.13061681
21	0x3dfc12d3	0.12308278
22	0x3d99660b	0.07490166
23	0xbd103355	-0.035205204
24	0x3dde06a2	0.10841109
25	0x3d4a3f8e	0.049377017
26	0x3e11b8b0	0.14230609
27	0xbc88de97	-0.016707702
28	0xbb832b2c	-0.004002949
29	0x3da2f2a3	0.079564355
30	0xbd83c73d	-0.06434486
31	0xbde1af5b	-0.110197745
32	0xbd7c49e6	-0.061593913
33	0x3d03879a	0.03211174
34	0x3e012f5e	0.12615725
35	0x3d247725	0.040152688
36	0xbe0e1b8a	-0.13877693
37	0x3e06d992	0.13168934
38	0x3ad25419	0.0016046792
39	0xbe0b195b	-0.13583891
40	0x3e0cd017	0.13751255
41	0x3d890a78	0.0669145
42	0x3dbcd7b8	0.092208326
43	0xbd4dbe4a	-0.050230302
44	0xbd91bbe1	-0.07115913
45	0x3d23b3a1	0.03996623
46	0xbda718e3	-0.08159044
47	0x3bd8a453	0.006611386
48	0xbbeeffbc	-0.0072936695
49	0xbe1dd103	-0.15411763
50	0xbe2399ed	-0.15976687
51	0xba405058	-0.0007336191
52	0xbe1af3cb	-0.15132062
53	0xbdd00a9a	-0.10158272
54	0xbcdbc303	-0.026826387
55	0x3d20c5ff	0.039251324
56	0xbe36b24c	-0.17841452
57	0xbd227955	-0.039666492
58	0xbd63e8f8	-0.0556421
59	0xbe2ff0ce	-0.17181703
60	0x3d88e45b	0.0668418
61	0x3e177b18	0.1479305
62	0x3d44e7e8	0.048072726
63	0x3e29cf28	0.1658293
64	0x3ddc2ad0	0.10750353
65	0xbdfd64d2	-0.123727456
66	0x3d8e7878	0.06956571
67	0x3df40334	0.119146734
68	0xbbdf9b03	-0.0068238988
69	0x3e097aae	0.13425705
70	0xbcfb1fa7	-0.030654741
71	0x3e1d76e1	0.1537738
72	0xbd94584a	-0.07243402
73	0xba872179	-0.0010309658
74	0xbe15612a	-0.14587846
75	0x3dc02c33	0.0938343
76	0x3d0edf0e	0.03488069
77	0x3d92bd33	0.07164993
78	0xbe2e64d5	-0.17030652
79	0x3ab584e1	0.0013848805
80	0x3dab90cd	0.08377228
81	0xbd648c5b	-0.055797916
82	0x3e14dcab	0.14537303
83	0xbe1d4f30	-0.15362239
84	0x3de3accf	0.11116945
85	0x3dbcf9e0	0.092273474
86	0xbe1cd498	-0.15315473
87	0x3d7519eb	0.05983917
88	0x3d1d4ece	0.038405232
89	0xbe22c86b	-0.15896766
90	0xbd50d0a4	-0.050980225
91	0x3d06b5fb	0.032888394
92	0x3dc6a5ed	0.096996166
93	0x3e1e1bf4	0.15440351
94	0xbd5e2367	-0.05423298
95	0xbdfe96f6	-0.12431137
96	0x3e1c843f	0.15284823
97	0x3e263573	0.16231327
98	0xbe10c110	-0.14136147
99	0x3dd85fe6	0.10565166
100	0xbda2473f	-0.07923745
101	0x3d9eeabe	0.07759617
102	0x3e000067	0.12500153
103	0x3dd4f6aa	0.1039861
104	0xbdd3f4d3	-0.10349431
105	0x3e083f68	0.13305438
106	0xbdba80c4	-0.09106591
107	0xbd0fb458	-0.0350841
108	0xbe2bdcd2	-0.16783455
109	0x3ccb86ff	0.024844645
110	0xbc8fff7b	-0.017577877
111	0xbdc5670c	-0.09638795
112	0x3e29966f	0.16561292
113	0x3dd46732	0.103712454
114	0x3e25f6c1	0.1620741
115	0x3d9accc3	0.075585864
116	0x3d5315ba	0.051534392
117	0x3e2a8046	0.16650495
118	0xbd9fc45a	-0.07801123
119	0xbe203997	-0.15646969
120	0xbe292aae	-0.16520187
121	0xbe15e52d	-0.14638205
122	0x3ccb1ec6	0.024794947
123	0xbc3f96e2	-0.011693688
124	0xbdfb513c	-0.122713536
125	0x3e19b563	0.150106
126	0x3da8125b	0.08206626
127	0xbd326be5	-0.043559927
128	0x3e1af925	0.15134104
129	0x3d47dc00	0.048793793
130	0x3da307cd	0.07960472
131	0x3e2bbd33	0.16771393
132	0x3e0f466b	0.13991706
133	0x3e0df7d7	0.13864075
134	0xbddc4f4d	-0.10757313
135	0x3d7611c2	0.06007553
136	0x3e1ba516	0.15199694
137	0x3e2e6284	0.17029768
138	0x3b00454c	0.0019572554
139	0xbe037c36	-0.12840351
140	0x3de17b1d	0.1100981
141	0xbe1cee58	-0.15325296
142	0xbe05d320	-0.13068819
143	0xbe1b220b	-0.15149705
144	0x3b9a002b	0.004699727
145	0xbd75b41a	-0.05998621
146	0xbc8802da	-0.016602922
147	0xbd2ea6b4	-0.04263945
148	0xbd881b02	-0.06645776
149	0xbd2862f6	-0.04111
150	0x3deea15e	0.11651872
151	0xbcd97e2e	-0.026549425
152	0xbe0e9f3f	-0.13927935
153	0x3dca92a6	0.09891252
154	0xbcf4ccd8	-0.029882833
155	0xbdefc708	-0.11707884
156	0x3cc7758f	0.024348048
157	0xbdff3553	-0.12461343
158	0xbe0e402f	-0.13891672
159	0xbe31c8f0	-0.17361808
160	0x3e0f2df4	0.13982373
161	0xbd80ee2b	-0.06295427
162	0xbd85902d	-0.0652164
163	0x3e07559f	0.13216256
164	0x3e0a951f	0.13533448
165	0xbd7d9e53	-0.061918568
166	0xbd00cef0	-0.03144735
167	0x3dfbbbc4	0.12291673
168	0xbdf951b4	-0.12173787
169	0xbd654086	-0.055969737
170	0xbdea8cf2	-0.114526644
171	0x3d909808	0.07060248
172	0x3e14f35a	0.14545956
173	0xbdcedecb	-0.10101088
174	0x3e2451c7	0.1604682
175	0xbb5a9b9b	-0.0033356908
176	0x3cecb991	0.028897079
177	0x3b9cfdc9	0.0047909957
178	0xbd857fda	-0.065185264
179	0xbcbf9306	-0.023385536
180	0xbe16c21e	-0.14722487
181	0xbd9b7c55	-0.07592074
182	0xbc874eb5	-0.016517023
183	0x3d481bcb	0.04885463
184	0xbd5ad0d8	-0.053421825
185	0xbe0b718b	-0.13617532
186	0x3d55d671	0.05220646
187	0x3bcc8db4	0.0062424783
188	0x3e0385dd	0.12844034
189	0x3d8f9f49	0.07012803
190	0x3e2ae623	0.16689353
191	0x3e2f1ed4	0.17101604
192	0xbda5cc53	-0.080956124
193	0xbda6c2e2	-0.0814264
194	0x3d777932	0.060418315
195	0xbdf74e3e	-0.120754704
196	0x3d005251	0.031328503
197	0x3dcc7e8b	0.09985074
198	0xbd7fa861	-0.062416438
199	0x3d6fabb2	0.05851335
200	0xbd6a1706	-0.057150863
201	0xbe11d452	-0.1424115
202	0x3d734c56	0.05939897
203	0xbe26f03b	-0.16302578
204	0xbdd43463	-0.103615545
205	0x3de427b9	0.11140389
206	0x3cc9292f	0.02455577
207	0x3d261c1a	0.040554143
208	0xbd845d3c	-0.064630955
209	0xbe20a2a9	-0.1568705
210	0xbcab67a0	-0.020923436
211	0x3d8c700c	0.06857309
212	0xbcf4de9f	-0.02989131
213	0xbbde901e	-0.0067920825
214	0xbe26ceb7	-0.16289793
215	0x3ce682a8	0.028138474
216	0x3c3217b6	0.010869911
217	0x3dec1c97	0.115288906
218	0x3ce643c7	0.02810849
219	0xbd6e8a27	-0.05823722
220	0xbd9cb82c	-0.076523155
221	0xbdfe893c	-0.12428519
222	0xbd5fdf48	-0.054656297
223	0xbd319c9a	-0.043362238
224	0x39fecd4c	0.00048599613
225	0xbd592e2c	-0.05302255
226	0xbe1f68a8	-0.15567267
227	0xbdd807d3	-0.10548367
228	0xbd94e228	-0.072696984
229	0x3e214b8f	0.1575148
230	0xbdcadd9a	-0.099055484
231	0xbdac5f6e	-0.08416639
232	0xbd4fc125	-0.050721306
233	0x3d7fad3c	0.06242107
234	0xbd237d92	-0.039914675
235	0xbe2be54c	-0.16786689
236	0x3be42765	0.006962704
237	0x3d8ca004	0.06866458
238	0x3d3db43e	0.04631447
239	0x3de47923	0.111559175
240	0x3d854714	0.06507698
241	0xbdcb4634	-0.099254996
242	0xbd31f5a9	-0.04344717
243	0x3e276321	0.16346408
244	0xbda515ee	-0.080608234
245	0x3d19b60d	0.037527133
246	0x3c96b49b	0.018396666
247	0xbe109e69	-0.14122929
248	0x3e350213	0.17676573
249	0xbd934594	-0.07191005
250	0x3c5e243f	0.013558446
251	0xbdc7c6b6	-0.09754698
252	0xbd492dfa	-0.049116112
253	0xbd15c895	-0.036568243
254	0x3db63630	0.08897054
255	0xbdc17051	-0.09445251

bias f4 [16]
0	0xbc74b98c	-0.014936816
1	0x3da7f383	0.08200743
2	0xbcb8657f	-0.022509335
3	0x3d9561ae	0.072940215
4	0xbe3022e1	-0.17200805
5	0xbe130df8	-0.14360797
6	0x3dfb6be5	0.122764386
7	0x3e0fd2a8	0.14045203
8	0xbd57fe98	-0.052733034
9	0xbd36c03f	-0.044616934
10	0x3dea9b10	0.11455357
11	0xbe19a2aa	-0.15003458
12	0xbe08f4b2	-0.13374594
13	0xbd4b9a04	-0.049707428
14	0xbdb464f4	-0.08808318
15	0x3da81875	0.0820779

weight f4 [8, 16]
0	0xbd9b7acc	-0.07591781
1	0x3dd34201	0.103153236
2	0xbe3ccbef	-0.1843717
3	0xbd81a734	-0.063307196
4	0xbe261f13	-0.16222791
5	0xbde10b91	-0.10988534
6	0xbe222b38	-0.15836799
7	0xbe3a7bd4	-0.18211299
8	0x3e7cdb3a	0.24693003
9	0xbe16ecd1	-0.14738776
10	0xbe78a76e	-0.2428262
11	0xbdd3e3b1	-0.10346163
12	0xbe37f006	-0.17962655
13	0x3e111e62	0.14171746
14	0x3e6d1932	0.23154142
15	0xbd9a4836	-0.075333044
16	0x3debb711	0.115095265
17	0x3d66de01	0.056364063
18	0xbe63d5a6	-0.22249469
19	0x3de5966a	0.1121033
20	0xbe2b6eb6	-0.16741452
21	0xbdd01896	-0.101609394
22	0xbdf2e6ce	-0.11860429
23	0x3e47be62	0.19506219
24	0xbe564749	-0.2092563
25	0xbe111805	-0.14169319
26	0xbda44fca	-0.08023031
27	0xbe70b5e7	-0.2350689
28	0xbe7d5f06	-0.2474328
29	0xbe283acb	-0.16428678
30	0x3dddac29	0.108238526
31	0x3e3326b9	0.1749524
32	0xbe0a9b81	-0.13535883
33	0xbe362793	-0.17788534
34	0x3e41d9b1	0.18930699
35	0xbe07d762	-0.13265756
36	0x3e243ce4	0.16038853
37	0xbe3e4197	-0.18579708
38	0x3e281554	0.16414386
39	0x3d6572ba	0.056017615
40	0xbe0c93f7	-0.13728319
41	0xbd438de9	-0.047742758
42	0x3d778a41	0.060434584
43	0xbdf2b219	-0.11850376
44	0xbde2d159	-0.11075086
45	0x3db0896a	0.0861996
46	0x3ddb3c6c	0.10704884
47	0x3e59e521	0.21278812
48	0xbe3ee406	-0.18641672
49	0x3e0d0ff4	0.13775617
50	0xbd624372	-0.055240102
51	0xbe13796a	-0.14401785
52	0x3dba4cb3	0.090966605
53	0xbe346663	-0.17617182
54	0xbde28493	-0.11060443
55	0x3d492af1	0.049113218
56	0x3e02a2f2	0.12757471
57	0x3df8de91	0.12151826
58	0xbdf04c0e	-0.11733256
59	0xbe2560cd	-0.16150208
60	0xbe273821	-0.16330005
61	0xbe098f44	-0.13433558
62	0xbe08c52a	-0.13356462
63	0x3e581016	0.21099886
64	0xbe142e85	-0.14470871
65	0x3d8d4bee	0.06899248
66	0xbe32eaac	-0.17472333
67	0x3d617cc8	0.05505064
68	0xbd6b2aae	-0.05741375
69	0xbd906aa3	-0.07051589
70	0x3e0de3e9	0.13856472
71	0x3e3c205a	0.18371716
72	0xbd66274c	-0.05618982
73	0x3e31d339	0.17365731
74	0xbe67fb7b	-0.22654526
75	0xbd68a96c	-0.0568022
76	0xbc15a17f	-0.009132742
77	0x3e134cb5	0.1438473
78	0xbd8a87f0	-0.06764209
79	0xbe6ba541	-0.23012258
80	0xbd40b829	-0.04705063
81	0x3e5b9a9d	0.21445699
82	0xbe58964e	-0.21151087
83	0x3dd543e4	0.1041334
84	0x3e57b5ba	0.21065417
85	0x3c49f40c	0.012326252
86	0x3e17c950	0.14822888
87	0xbe73d302	-0.23810962
88	0xbe61f328	-0.22065413
89	0xbe5b8420	-0.2143712
90	0xbd975f4b	-0.073912226
91	0xbdce30af	-0.100678794
92	0xbbda454e	-0.006661094
93	0xbe11d3ff	-0.14241026
94	0x3d422113	0.047394823
95	0x3d07126d	0.032976557
96	0xbe31f7dc	-0.17379707
97	0x3e372eca	0.17888942
98	0xbd62c49a	-0.055363275
99	0x3e4472ec	0.19184464
100	0xbdb332dd	-0.08749936
101	0xbe6dd6c1	-0.23226453
102	0x3d5d8bdc	0.05408846
103	0xbde822d2	-0.113347664
104	0xbe35164d	-0.17684288
105	0xbe6b3a71	-0.22971512
106	0xbe503df0	-0.20336127
107	0x3e09da7e	0.13462254
108	0x3d768701	0.060187344
109	0x3de14a92	0.11000551
110	0xbe1e2eae	-0.15447494
111	0x3e761e7b	0.24035065
112	0x3dbcfe5d	0.092282034
113	0xbe58e763	-0.21182017
114	0x3d11f9b3	0.035638522
115	0x3d9f7a73	0.07787027
116	0xbca44b6e	-0.020055499
117	0xbd325519	-0.043538187
118	0xbd95e7ed	-0.07319627
119	0x3da1a1a7	0.07892161
120	0x3e0fbccb	0.14036863
121	0xbdf3c9d7	-0.11903732
122	0x3e72ab68	0.23698199
123	0x3d19754c	0.03746538
124	0x3e1113fa	0.14167777
125	0xbd7c3734	-0.061576083
126	0x3e164a8a	0.14676872
127	0xbde8bae6	-0.11363773

bias f4 [8]
0	0x3e2d4aa4	0.16923004
1	0xbb7a86a3	-0.0038227222
2	0x3e5c5f9b	0.21520846
3	0xbe07b025	-0.13250788
4	0xbe697315	-0.22797807
5	0x3e19f623	0.150353
6	0x3e4085b5	0.18801005
7	0x3e5b0aa0	0.21390772

weight f4 [16, 8]
0	0xbea34efa	-0.31896192
1	0x3ea23311	0.31679586
2	0x3e0c7b66	0.13718948
3	0x3c5df47e	0.013547061
4	0x3e021ed5	0.12707074
5	0xbe08a1ed	-0.1334302
6	0x3b26d4f4	0.002545652
7	0xbe856688	-0.26054788
8	0x3e7172d1	0.23578955
9	0xbe858595	-0.26078478
10	0xbe8bddee	-0.27317756
11	0x3eb341f3	0.35011253
12	0xbe8b5fad	-0.27221432
13	0x3ea0a40d	0.3137516
14	0xbd10fb88	-0.03539613
15	0xbe0b20eb	-0.13586776
16	0xbda55bf2	-0.08074178
17	0x3e8d7bb4	0.2763344
18	0xbeaa5bc1	-0.33273128
19	0x3e27fa24	0.16404015
20	0xbe8d4458	-0.27591205
21	0x3dccaabf	0.09993505
22	0xbe805224	-0.25062668
23	0xbeb0622a	-0.34449893
24	0xbe0bb8e5	-0.1364475
25	0xbeb3d498	-0.35123134
26	0xbc94b2ae	-0.018151607
27	0xbeb07bf3	-0.34469566
28	0xbe85d5e9	-0.26139763
29	0xbe8bd54d	-0.27311173
30	0xbea5c168	-0.3237412
31	0xbe7c9372	-0.24665621
32	0xbe38ae5b	-0.18035261
33	0xbe9fb067	-0.31189272
34	0x3e3563ef	0.17713903
35	0x3e8fb141	0.28064921
36	0x3d925cdf	0.0714662
37	0xbe82cb8d	-0.25545922
38	0xbe46f4ad	-0.19429274
39	0xbea9ec4d	-0.33188096
40	0xbe30cfb8	-0.17266738
41	0x3cf77fcc	0.030212305
42	0x3e5c4002	0.21508792
43	0xbd516eb5	-0.05113097
44	0x3e930190	0.2871213
45	0xbeac55bb	-0.33659157
46	0xbd96e009	-0.0736695
47	0x3ca82318	0.020524547
48	0xbdea1a7c	-0.11430833
49	0x3e7b26b0	0.24526477
50	0xbe9fdf53	-0.3122507
51	0xbea8fe50	-0.33006525
52	0xbdbbbb33	-0.09166565
53	0x3dfeabca	0.1243511
54	0x3e2221dc	0.15833229
55	0xbeaa17a1	-0.33221152
56	0xbe27818a	-0.16358009
57	0x3e75b72d	0.23995657
58	0x3e704217	0.23462711
59	0x3e67257f	0.22572897
60	0x3e1a5b00	0.15073776
61	0xbe806223	-0.25074872
62	0xbe6291e3	-0.22125964
63	0x3e2459a4	0.1604982
64	0xbd515afc	-0.05111216
65	0x3ea9d367	0.331691
66	0xbe9493a2	-0.29018885
67	0x3c29d7e0	0.01036641
68	0xbe5861a5	-0.21130998
69	0x3c047af4	0.008085955
70	0xbdf56ed1	-0.11984027
71	0xbdc22e97	-0.094815426
72	0xbe84805b	-0.25879177
73	0xbe8c6c2c	-0.2742628
74	0xbe753c0e	-0.2394869
75	0xbe176ad4	-0.14786845
76	0xbe297c76	-0.16551384
77	0x3d8099f4	0.06279364
78	0x3dc3ffc2	0.09570266
79	0xbea986c0	-0.3311062
80	0x3e8035c8	0.25041032
81	0xbc7745cb	-0.0150923235
82	0x3e91b931	0.28461602
83	0x3dcf34c3	0.101174854
84	0x3e87a524	0.2649318
85	0x3e805f8f	0.25072905
86	0x3e6cad77	0.23113047
87	0xbeaab961	-0.33344558
88	0x3e0984a8	0.1342951
89	0xbe1153f1	-0.14192177
90	0xbe08cd1d	-0.13359495
91	0xbe1c8785	-0.15286072
92	0xbe9db403	-0.308014
93	0x3db1f66c	0.08689579
94	0xbde82346	-0.11334853
95	0x3e0ccef7	0.13750826
96	0x3e59977c	0.21249193
97	0xbdd0e974	-0.10200778
98	0xbe107b28	-0.1410948
99	0xbe3209ec	-0.17386597
100	0x3e642b15	0.2228206
101	0x3c212bcb	0.009837101
102	0xbea18950	-0.31550074
103	0xbeb1f045	-0.34753624
104	0xbe5b06e4	-0.21389347
105	0xbc66837f	-0.014069437
106	0xbea75f05	-0.32689682
107	0x3da91ae4	0.08257082
108	0xbe121a88	-0.14267933
109	0xbead079c	-0.33794868
110	0xbe8196ba	-0.25310308
111	0x3eaa618a	0.3327754
112	0xbd02f55b	-0.03197227
113	0xbe9ea903	-0.3098832
114	0x3e12089f	0.14261101
115	0x3e2e536b	0.17024009
116	0xbe6938ef	-0.22775625
117	0x3e29ae3a	0.16570368
118	0x3ea39313	0.31948146
119	0xbe84aaad	-0.25911465
120	0x3eb1c548	0.34720826
121	0x3e212990	0.15738511
122	0xbd96f9e0	-0.073718786
123	0xbea77fbc	-0.3271464
124	0xbe083222	-0.13300374
125	0xbd92e3c1	-0.07172347
126	0xbdae9510	-0.08524525
127	0x3e8dda23	0.27705488

bias f4 [16]
0	0x3e315969	0.17319264
1	0x3d102c44	0.035198465
2	0xbe866b55	-0.26253763
3	0x3cf1a0a7	0.02949555
4	0x3e88781d	0.2665414
5	0x3de294e4	0.11063555
6	0xbe070ea6	-0.13189182
7	0x3e94537b	0.2896994
8	0xbe7f69f1	-0.24942757
9	0xbe6eb952	-0.23312882
10	0x3d99ecd3	0.07515874
11	0xbe04d851	-0.12973143
12	0xbe80ed04	-0.2518083
13	0x3e153560	0.14571142
14	0x3e8a576b	0.2701982
15	0xbdf98a42	-0.12184574

weight f4 [1, 2, 7, 3]
0	0x3aab6e18	0.0013079075
1	0xbd6c725a	-0.05772624
2	0xbcf3ed98	-0.02977638
3	0xbdfdba2b	-0.12389024
4	0x3d5ec67f	0.05438852
5	0xbc687e07	-0.0141902035
6	0xbd885479	-0.06656737
7	0xbd8e70e3	-0.06955125
8	0x3e09cd0f	0.1345713
9	0x3d384586	0.044988178
10	0x3d693fab	0.056945484
11	0xbdcace8b	-0.09902676
12	0x3989cd41	0.00026283602
13	0x3dd8dd4a	0.105890825
14	0xbdf9ea7d	-0.12202928
15	0xbcfc36b6	-0.030787807
16	0xbd223274	-0.039598897
17	0x3c339ef1	0.010963188
18	0x3e03e493	0.12880163
19	0xbcfaf69d	-0.030635173
20	0xbd200e48	-0.03907612
21	0xbe0becad	-0.13664503
22	0xbd0f30a9	-0.034958515
23	0x3be8e71b	0.007107628
24	0xbdda4930	-0.10658491
25	0xbd35261e	-0.044225805
26	0xbcd86545	-0.026415477
27	0x3c0e57f9	0.0086879665
28	0xbde8630d	-0.113470174
29	0x3d4c12e0	0.049822688
30	0xbdfb15fd	-0.12260053
31	0xbd8fa9b0	-0.07014787
32	0xbe058548	-0.13039124
33	0xbc32954a	-0.010899851
34	0x3d8a6637	0.06757777
35	0xbd5607d2	-0.05225355
36	0xbe035581	-0.12825586
37	0xbdb846f7	-0.089979105
38	0xbdec1077	-0.11526578
39	0xbdbb89d6	-0.091571495
40	0xbe1d7bf2	-0.15379313
41	0xbd75f15d	-0.060044635

weight f4 [16]
0	0x3f804347	1.0020531
1	0x3f7f98af	0.9984235
2	0x3f8018d6	1.0007579
3	0x3f8041ec	1.0020118
4	0x3f7fba74	0.9989388
5	0x3f803adb	1.0017961
6	0x3f7fdffd	0.99951154
7	0x3f801bb8	1.0008459
8	0x3f801ba7	1.0008439
9	0x3f7fa147	0.99855465
10	0x3f7f8c05	0.9982303
11	0x3f800e67	1.0004395
12	0x3f801aa9	1.0008136
13	0x3f7f419f	0.99709505
14	0x3f7fec40	0.99969864
15	0x3f7f996b	0.9984347

bias f4 [16]
0	0x3b0ffdac	0.0021971269
1	0x3ac0cf1b	0.001471016
2	0x3ac0686f	0.0014679561
3	0x3a296e92	0.00064633146
4	0x39ca3f25	0.0003857549
5	0x3b01b782	0.0019793217
6	0x3aa3b4f7	0.0012489845
7	0x3b48a5ec	0.0030616475
8	0xba3adbf0	-0.000712811
9	0x39df857e	0.00042633334
10	0x3a2702f3	0.0006370984
11	0x399094da	0.00027576723
12	0x3acfe95d	0.0015862394
13	0xb997abd4	-0.00028928986
14	0x39a04491	0.00030568664
15	0x3a596307	0.0008292649

running_mean f4 [16]
0	0x3cd30764	0.02576036
1	0x3ccdaf5a	0.025108028
2	0x3c9ed1e9	0.019387202
3	0x3cd7a571	0.026324006
4	0x3cbe62dd	0.023240501
5	0x3cfebde1	0.0310964
6	0x3cac4277	0.021027787
7	0x3d114356	0.035464607
8	0x3ca0b358	0.019616768
9	0x3c92cdb0	0.017920345
10	0x3ce0302d	0.027366722
11	0x3ce9a770	0.028522223
12	0x3caf616d	0.02140876
13	0x3cf7556b	0.030192098
14	0x3cf763f7	0.030199034
15	0x3cdf642f	0.027269451

running_var f4 [16]
0	0x3ad62e85	0.0016340768
1	0x3ab30009	0.0013656627
2	0x3a70c84a	0.0009185119
3	0x3b0b5adb	0.002126387
4	0x3ac2b02b	0.0014853528
5	0x3b2b7de4	0.0026167566
6	0x3a9dbfd2	0.0012035316
7	0x3b637721	0.0034708458
8	0x3ab764e0	0.0013991855
9	0x3a7c7173	0.00096299424
10	0x3afcd065	0.0019288181
11	0x3b11d3f3	0.0022251576
12	0x3a929851	0.001118431
13	0x3b00b271	0.001963761
14	0x3b1e3230	0.00241388
15	0x3adf00da	0.0017013804

weight f4 [32, 16, 3, 3]
0	0xbd5cb10e	-0.05387979
1	0xbc371fcf	-0.011177017
2	0xbb1feada	-0.0024401457
3	0x3d14a5e9	0.036291037
4	0x3cd1c582	0.025606874
5	0x3d7dfb3b	0.06200717
6	0xbb164cd1	-0.002293397
7	0xbd12f4ca	-0.03587798
8	0x3bdebceb	0.006797423
9	0xbbbf1094	-0.0058308337
10	0x3da1cdeb	0.07900604
11	0x3d92eeb0	0.07174432
12	0xbd4755c3	-0.048665773
13	0x3d8c901d	0.06863425
14	0x3d09a648	0.033605844
15	0xbd802b29	-0.06258232
16	0x3d807397	0.06272047
17	0xbd2fd245	-0.042925138
18	0x3c9d0f74	0.019172408
19	0x3d9cc0a6	0.07653932
20	0x3d10a32f	0.035311874
21	0x3d2ff1d6	0.042955242
22	0x3d29796f	0.041375574
23	0x3d04dc08	0.0324364
24	0x3d096409	0.033542667
25	0x3d2d5417	0.042316522
26	0xbd38cd2e	-0.04511755
27	0x3d7442b8	0.05963394
28	0xbb1eada3	-0.0024212382
29	0x3988d6cb	0.00026099975
30	0x3d88ffcf	0.066894166
31	0xbd9c21eb	-0.07623657
32	0x3d42b297	0.047533598
33	0x3d3ee07c	0.046600804
34	0xbb1cdec7	-0.0023936497
35	0x3d63d49e	0.05562269
36	0x3d513591	0.051076476
37	0x3c9e01cf	0.019287972
38	0xbd11a00b	-0.03555302
39	0xbc6ad2ae	-0.0143324565
40	0x3b3dce24	0.002896198
41	0x3d310b05	0.0432234
42	0x3c4b4cef	0.012408479
43	0xbd31fd65	-0.043454546
44	0x3d863a44	0.06554082
45	0x3d968dcc	0.07351264
46	0x3da17894	0.078843266
47	0x3c740b5c	0.014895286
48	0xbd87da41	-0.066334255
49	0xbd71ef8c	-0.05906634
50	0x3d0c89c3	0.034311067
51	0xbd550fa1	-0.052016858
52	0x3b28a901	0.00257355
53	0x3cbf74b1	0.023371072
54	0x3cefa666	0.02925415
55	0xbc27897f	-0.010225653
56	0xbd2029bd	-0.039102305
57	0xbd840465	-0.06446151
58	0x3d2ea82a	0.042640842
59	0xbd44bc04	-0.04803087
60	0xbd2403a7	-0.040042546
61	0xbd058ceb	-0.032605093
62	0x3cde249e	0.02711707
63	0xbd51e4cc	-0.05124359
64	0xbda778da	-0.081773475
65	0x3d2a8fe2	0.041641124
66	0xbd28daff	-0.041224476
67	0x3d91d994	0.07121578
68	0xbd87de8a	-0.06634243
69	0xbd9b454a	-0.07581575
70	0x3d314d23	0.043286454
71	0xbd1f07bb	-0.03882573
72	0xbd106da4	-0.03526081
73	0x3d233120	0.03984177
74	0xbcf7fe4b	-0.030272624
75	0xbd922c4c	-0.07137355
76	0xbb8e80cf	-0.0043488513
77	0x3d22e231	0.039766494
78	0x3c84c4db	0.01620715
79	0xbcb1d143	-0.02170623
80	0x3d0aa7dd	0.033851493
81	0x3cacba56	0.021084946
82	0xbd0a6628	-0.03378883
83	0x3d982d16	0.074304745
84	0x3d7b7d76	0.061398946
85	0xbd0483e9	-0.03235236
86	0xbda847dd	-0.08216832
87	0xba9e97d4	-0.0012099692
88	0xbda949b8	-0.08266014
89	0x3d469a9e	0.0484873
90	0x3d29ff82	0.041503437
91	0x3d901ec9	0.07037122
92	0xbd8d98b0	-0.069138885
93	0x3cce9df8	0.02522181
94	0xbd0a5c40	-0.033779383
95	0x3d89aa0c	0.06721887
96	0x3da106fc	0.0786266
97	0xbd52c207	-0.05145457
98	0xbd9b51f8	-0.07583994
99	0xbbb7efd7	-0.005613308
100	0xbc9ab635	-0.018885711
101	0x3cab2767	0.020892812
102	0xbd13121a	-0.035905935
103	0x3c941e70	0.01808092
104	0x3d0b3ea5	0.03399529
105	0x3d2d6f79	0.042342637
106	0xbcf0af64	-0.029380508
107	0x3d8bcebb	0.0682654
108	0xbb934341	-0.0044941013
109	0xbb614098	-0.0034370776
110	0xbd603658	-0.054739326
111	0x3bfdb53c	0.007742552
112	0x3d398ee3	0.045302283
113	0xbda99ae3	-0.082814954
114	0xbd4b1164	-0.049577132
115	0xbd0f4192	-0.034974642
116	0x3d83ae8b	0.06429776
117	0xbd812244	-0.06305364
118	0xbbcbe31c	-0.006222142
119	0x3ceef663	0.02917022
120	0xbd6199d1	-0.05507833
121	0xbd35c71f	-0.04437935
122	0x3d1e9d45	0.038724203
123	0x3d286b56	0.04111799
124	0x3ce7cb99	0.028295325
125	0x3d0b2fff	0.03398132
126	0xbd9c816c	-0.07641873
127	0x3d998776	0.0749654
128	0xbcb18717	-0.021670861
129	0xbd390f0a	-0.045180358
130	0xbd0cb28c	-0.034349963
131	0xbc6e4b6f	-0.014544352
132	0x3d228d94	0.0396858
133	0x3c936d4a	0.017996449
134	0x3cd89d70	0.02644226
135	0x3d53dae2	0.051722415
136	0x3d8fe72a	0.07026513
137	0x3ce630d3	0.028099453
138	0xba8ed546	-0.0010897301
139	0xbb2602f3	-0.0025331348
140	0xbd95b360	-0.07309604
141	0x3d06fca8	0.032955796
142	0x3da2c085	0.079468764
143	0xbd527bec	-0.051387712
144	0x3d1995d3	0.0374964
145	0x3b96d86f	0.0046034376
146	0x3c0ff9bc	0.008787569
147	0x3cdd13e2	0.02698702
148	0xbd8f95c1	-0.07010985
149	0xbd06d5cb	-0.032918733
150	0xbd880e6e	-0.06643377
151	0xbda990d6	-0.082795784
152	0xbd23fb9c	-0.040034875
153	0xbd7382e7	-0.05945101
154	0xbcbb8824	-0.022892065
155	0xbd47ebf1	-0.048808996
156	0xbbbd1b56	-0.005771081
157	0x3d3d57ef	0.046226438
158	0xbd5dae7f	-0.05412149
159	0xbd949627	-0.07255202
160	0x3c759a38	0.014990382
161	0xbd81bb5a	-0.063345626
162	0xbd84a152	-0.06476082
163	0x3bc31fb5	0.0059547075
164	0x3d3d8009	0.046264682
165	0x3d065156	0.03279241
166	0xbbc429ea	-0.005986442
167	0xbc1abd56	-0.009444555
168	0x3d32e656	0.043676697
169	0x3cfcbb84	0.030851133
170	0x3d335675	0.043783624
171	0x3cc01ce4	0.023451276
172	0xbc186193	-0.009300607
173	0xbd2d61c9	-0.042329583
174	0xbd7b4b91	-0.061351363
175	0x3d778e2e	0.060438327
176	0x37e9f2ce	2.788883e-05
177	0xbd06da00	-0.032922745
178	0x3da8a77c	0.0823507
179	0x3c17216f	0.00922428
180	0x3d8c3802	0.0684662
181	0x3bb12256	0.0054057045
182	0x3d2fb991	0.04290158
183	0xbcc280e0	-0.023743093
184	0xbcddf8bb	-0.027096143
185	0xbd00a793	-0.03140981
186	0xbda22a09	-0.07918174
187	0x3d79d889	0.06099752
188	0x3d883276	0.0665025
189	0x3d190e55	0.037367184
190	0xbd696034	-0.056976512
191	0xbac6d888	-0.0015170733
192	0xbd229f39	-0.039702628
193	0x3b8e4d6e	0.0043427264
194	0xbc6ef533	-0.014584827
195	0x3c02273b	0.007943924
196	0x3da836d3	0.08213582
197	0xbc9f7a71	-0.019467564
198	0x3d3b6d5b	0.045758586
199	0xbbce92c5	-0.0063041174
200	0x3cf3d5f8	0.029765114
201	0x3bb3a670	0.0054824874
202	0xbd46e115	-0.0485545
203	0x3d56ae2b	0.052412193
204	0x3d875417	0.06607836
205	0x3bbc1be6	0.0057406304
206	0xbd1f6d7e	-0.03892278
207	0xbd4b53ca	-0.049640454
208	0x3d17635c	0.03695999
209	0x39bb19fb	0.00035686776
210	0xbd87e018	-0.06634539
211	0xbd335c18	-0.043789
212	0xbd7f7a07	-0.062372234
213	0xbb8fb73a	-0.004385856
214	0x3d598dee	0.05311387
215	0xbc2f8507	-0.0107128685
216	0xbb67f96f	-0.0035396477
217	0x3d8d71c7	0.06906467
218	0x3d3fb265	0.04680099
219	0xbcb4ead5	-0.022084633
220	0xbd843e78	-0.064572275
221	0xbd9892e2	-0.07449891
222	0xbd98223b	-0.07428404
223	0x3d2dd250	0.042436898
224	0x3d94cf4e	0.07266103
225	0x3d996447	0.074898295
226	0x3c1d7146	0.009609526
227	0xbb4afa8e	-0.0030972096
228	0x3ce34267	0.027741624
229	0x3cd6f6b0	0.026240677
230	0xbcdc9796	-0.02692775
231	0x3d05fb42	0.03271032
232	0xbcb10c84	-0.021612413
233	0x3d8d8da4	0.069117814
234	0x3d9a7cd3	0.075433396
235	0x3cb28eb9	0.021796571
236	0x3c5c42ad	0.013443631
237	0xbd9e0001	-0.077148445
238	0x3d840ac0	0.06447363
239	0xbd15a654	-0.036535576
240	0xbc2d9cde	-0.010596482
241	0x3b2de378	0.0026533287
242	0x3da5fbc3	0.0810466
243	0x3d955cec	0.07293114
244	0x3d634c2f	0.055492576
245	0xbc152484	-0.009102944
246	0x3d07bfd2	0.03314192
247	0x3c9911c9	0.018685238
248	0x3d12627f	0.035738464
249	0xbd3e9404	-0.046527877
250	0x3c879710	0.016551524
251	0x3d2d5efd	0.042326916
252	0x3be64ebf	0.0070284302
253	0x3d3fcff0	0.046829164
254	0xbcffda25	-0.03123195
255	0x3bc1a322	0.0059093395

bias f4 [32]
0	0x3d91eb6d	0.07124982
1	0x3d4e6c97	0.050396528
2	0x3d6eb896	0.058281504
3	0x3c44ffb3	0.012023854
4	0x3d902b13	0.07039466
5	0x3d879a14	0.06621185
6	0x3d8e2451	0.069405206
7	0xbca1f5a8	-0.019770458
8	0xbd78d671	-0.060751382
9	0x3bdd5983	0.0067550554
10	0x3d2993fc	0.041400895
11	0x3d1b3774	0.03789468
12	0xbd9ee450	-0.07758391
13	0xbceb9df0	-0.028761834
14	0x3c468c50	0.012118414
15	0xbd83ff6f	-0.064452045
16	0xbc002ac7	-0.007822699
17	0x3d9dbf1c	0.07702467
18	0xbce9325c	-0.028466396
19	0xbda693f6	-0.0813369
20	0x3d1ff254	0.03904946
21	0xbd3f279c	-0.046668634
22	0xbda8148f	-0.08207046
23	0x3c5df3c4	0.013546888
24	0xbda3ef42	-0.08004619
25	0x3c49c6d9	0.012315475
26	0x3d9c2766	0.07624702
27	0x3c6afe96	0.014342925
28	0x3d2af4d2	0.041737385
29	0xbda69d9d	-0.08135531
30	0xbc757f3a	-0.014983946
31	0xbc8bb7d5	-0.017055431

weight f4 [32]
0	0x3f7fa3d4	0.99859357
1	0x3f7fa1cf	0.99856275
2	0x3f7fcf5e	0.9992579
3	0x3f803d41	1.0018693
4	0x3f7fa722	0.998644
5	0x3f805b1d	1.0027806
6	0x3f805776	1.0026691
7	0x3f803070	1.0014782
8	0x3f7ff5d1	0.9998446
9	0x3f7fadc7	0.9987454
10	0x3f7f49fd	0.9972227
11	0x3f8028c7	1.0012444
12	0x3f7fd1ba	0.9992939
13	0x3f800488	1.0001383
14	0x3f7f6f41	0.99779135
15	0x3f801353	1.0005897
16	0x3f7fd6f7	0.99937385
17	0x3f7ff1aa	0.99978125
18	0x3f7facdd	0.99873143
19	0x3f7f9a4f	0.9984483
20	0x3f7ff85a	0.9998833
21	0x3f7f3b2b	0.9969966
22	0x3f802954	1.0012612
23	0x3f8001b3	1.0000519
24	0x3f804ccb	1.0023435
25	0x3f7f96d9	0.9983955
26	0x3f804793	1.0021843
27	0x3f80399e	1.0017583
28	0x3f7f8026	0.99804914
29	0x3f7fc2c1	0.99906546
30	0x3f7feb9f	0.99968904
31	0x3f8035e3	1.0016445

bias f4 [32]
0	0xbaa1ff96	-0.0012359496
1	0xba294f1d	-0.0006458627
2	0x385bc1b6	5.2394076e-05
3	0x3b2c6405	0.0026304733
4	0x3a23a94f	0.00062431855
5	0x3b21d33d	0.0024692558
6	0x3b52333f	0.0032074002
7	0x3a3d0f4b	0.00072120567
8	0x38fdefe1	0.00012108661
9	0xb9935777	-0.0002810319
10	0xbabdf52a	-0.001449262
11	0x3a65a3c7	0.00087600615
12	0x39c4bc47	0.0003752431
13	0xb9cab971	-0.00038666607
14	0xbb1d9333	-0.0024044036
15	0x3b3009f7	0.0026861408
16	0xba913d48	-0.0011080885
17	0x3a48add2	0.0007655296
18	0xba7ca52e	-0.0009637651
19	0xbb0d129c	-0.0021525985
20	0x3a80cfdf	0.0009827575
21	0xba8e84d1	-0.0010873323
22	0x3aafd738	0.0013415581
23	0x3a5d4b0c	0.0008441664
24	0x3b45dd9d	0.0030191906
25	0xbae2499e	-0.0017264371
26	0x3b432ca5	0.002978125
27	0x3ae306a2	0.0017320702
28	0xbafb42e3	-0.0019169714
29	0xb8cfbacb	-9.905322e-05
30	0x39b64d47	0.0003477132
31	0x3aca4987	0.001543329

running_mean f4 [32]
0	0x3e75eaa0	0.24015284
1	0x3da4b064	0.08041456
2	0xbe7bd947	-0.24594603
3	0x3ca7b89d	0.020473773
4	0x3bc13b6b	0.0058969758
5	0x3dc35b01	0.09538842
6	0x3e570c1a	0.2100071
7	0x3e1c3bdd	0.15257211
8	0x3dfe1e6d	0.12408147
9	0x3ca86b38	0.020558938
10	0xbdbdca48	-0.09267098
11	0x3e30d265	0.17267759
12	0x3e0eb428	0.13935912
13	0x3d9da4f0	0.07697475
14	0xbde1f560	-0.1103313
15	0x3b6a1177	0.0035715976
16	0xbd7bca99	-0.06147251
17	0xbd1cdc19	-0.03829584
18	0xbe43bf08	-0.19115841
19	0xbe3703d9	-0.17872562
20	0x3d62b1ac	0.055345222
21	0xbe35807a	-0.17724791
22	0x3d08e497	0.033421125
23	0x3d7f655f	0.062352534
24	0xbe455789	-0.19271673
25	0xbe8f1ecb	-0.2795318
26	0x3d80b782	0.06285001
27	0x3e19f058	0.1503309
28	0x3e88a1fc	0.26686084
29	0xba3e4ae0	-0.0007259082
30	0xbe9eb186	-0.30994815
31	0xbe026a70	-0.12735915

running_var f4 [32]
0	0x3da74831	0.08168066
1	0x3e340d80	0.17583275
2	0x3e2e9ccd	0.17052002
3	0x3e056ed2	0.13030556
4	0x3dd5056a	0.10401423
5	0x3e336fd2	0.17523125
6	0x3e205f20	0.15661287
7	0x3e23760b	0.15962999
8	0x3e0ff7f6	0.14059433
9	0x3dfebae6	0.12437992
10	0x3e60f015	0.21966584
11	0x3e084399	0.13307036
12	0x3e3790a7	0.17926274
13	0x3e308c13	0.17240934
14	0x3e1f6ffc	0.15570062
15	0x3dd5bd75	0.10436527
16	0x3e304caa	0.17216745
17	0x3e5aab3e	0.21354386
18	0x3df3fd7a	0.11913581
19	0x3e28c6ad	0.16482039
20	0x3e3aeb5b	0.18253843
21	0x3e13d3e7	0.14436303
22	0x3e3025be	0.17201898
23	0x3e0fb29b	0.14032976
24	0x3ddacb2a	0.10683282
25	0x3dec6679	0.115429826
26	0x3e0ec945	0.13943966
27	0x3e12974b	0.14315526
28	0x3e06259d	0.13100286
29	0x3e24d500	0.16096878
30	0x3deaf407	0.11472326
31	0x3e197f6f	0.14990018

weight f4 [32, 32, 3, 3]
0	0xbcbfc07b	-0.023407212
1	0x3c810518	0.0157495
2	0x3d5b4cb0	0.05353993
3	0x3d362ae6	0.044474505
4	0x3cc0ff2f	0.023559181
5	0xbd637811	-0.055534426
6	0xbcf7ea24	-0.030263014
7	0x3cbbe1eb	0.022934875
8	0xbd2895ee	-0.04115861
9	0x3d497227	0.04918113
10	0xbc3eaf4f	-0.0116384765
11	0x3c8c7501	0.017145636
12	0xbd0f0c44	-0.034923807
13	0x3d6f53fc	0.058429703
14	0xbd35fc1d	-0.044429887
15	0xbc4e2c49	-0.012583801
16	0x3c3da138	0.011574082
17	0x3d15bebf	0.036558863
18	0x3d52f115	0.051499445
19	0x3c15ca7f	0.009142517
20	0xbd46bc54	-0.048519447
21	0xbd3e2003	-0.046417248
22	0xbca9f01d	-0.020744378
23	0x398e2def	0.00027118574
24	0x3d234c67	0.039867785
25	0xbd158248	-0.0365012
26	0xbd450915	-0.048104364
27	0xbd322a65	-0.04349746
28	0x3c717ade	0.0147387665
29	0x3d42257a	0.04739902
30	0x3cad1f6c	0.021133147
31	0x3baf3be7	0.005347717
32	0x3b75f22c	0.003752838
33	0xbc36b1b6	-0.011150768
34	0x3d5f2d28	0.054486424
35	0xbd24af5c	-0.0402063
36	0x3d11f83b	0.03563712
37	0xbd385d4a	-0.045010842
38	0x3a391481	0.0007060245
39	0x3c8735e2	0.016505186
40	0x3d0a4d6e	0.03376525
41	0xbd161594	-0.036641672
42	0xbd3d8552	-0.046269722
43	0xbcce871e	-0.025210913
44	0xbb2dabfc	-0.0026500216
45	0x3ca30b15	0.019902745
46	0xbcad47a3	-0.021152323
47	0x3d577172	0.052598424
48	0xbd40646d	-0.046970773
49	0xbc9063f6	-0.01762579
50	0x3d4d7baf	0.050166782
51	0xbb89915d	-0.004198237
52	0x3cf68a43	0.030095225
53	0x3d0f10d6	0.034928165
54	0xbce8fd19	-0.028440999
55	0xbcdde611	-0.027087243
56	0x3d21bc27	0.039486077
57	0xbb5f4295	-0.0034066786
58	0x3b80caa0	0.003930405
59	0x3d5bd325	0.05366816
60	0xbc970e07	-0.018439306
61	0x3d043b49	0.0322831
62	0xbcf009ee	-0.02930161
63	0x3ac0afb2	0.0014700799
64	0xbb8c0f92	-0.004274317
65	0xbce3ec23	-0.02782256
66	0xbd360dd0	-0.044446766
67	0x3d09e60a	0.033666648
68	0x3d2af54e	0.041737847
69	0xbd01b697	-0.031668272
70	0xbd369db8	-0.044584006
71	0x3c0d7c13	0.008635539
72	0xbd5f8e2e	-0.054578952
73	0xbd66fd96	-0.056394182
74	0x3d2e2a33	0.042520713
75	0xbc5e31bd	-0.013561663
76	0x3d602016	0.0547181
77	0x3d6c2d95	0.057660658
78	0xbd22969d	-0.039694417
79	0x3ca50f93	0.020149028
80	0x3d42ccaf	0.047558483
81	0xbcf1d898	-0.029522225
82	0x3d3ec4c4	0.04657437
83	0xbccc950f	-0.02497342
84	0xbcd14f3e	-0.025550481
85	0x3d1b674a	0.0379403
86	0xbd13d5cb	-0.03609256
87	0x3d54440f	0.05182272
88	0x3c727418	0.014798187
89	0x3d171d8b	0.03689341
90	0xbd499f93	-0.049224447
91	0xbcbbb53b	-0.022913566
92	0x3c803b3b	0.015653243
93	0xbc601c62	-0.013678642
94	0x3d14c8d2	0.03632433
95	0x3d6b667c	0.057470784
96	0x3d4b93ed	0.04970162
97	0xbd1aac87	-0.03776219
98	0xbd5fe9ca	-0.054666318
99	0xbca4af26	-0.020103049
100	0x3cd4ead8	0.025990888
101	0xbd0b6988	-0.03403619
102	0x3d28dbc9	0.04122523
103	0x3c96947a	0.018381346
104	0x3c0c271d	0.008554247
105	0x3d6d8abe	0.057993643
106	0x3cf381e7	0.029725028
107	0x3d6bbc18	0.057552427
108	0x3b87a0b3	0.00413903
109	0x3d0a5504	0.033772483
110	0xbc818d78	-0.015814528
111	0x3a688ef1	0.00088713976
112	0x3cfa5d48	0.030562058
113	0xbd180435	-0.037113387
114	0xbd35dc3b	-0.04439948
115	0x3d5f19c2	0.054467924
116	0xbcd8bc26	-0.026456904
117	0xbcded422	-0.027200762
118	0xbd3e79b0	-0.04650277
119	0xbca879e9	-0.020565944
120	0x3d5026f9	0.050818417
121	0xbd2df032	-0.042465396
122	0xbd545287	-0.051836517
123	0xbbb5fb18	-0.0055536143
124	0xbc009427	-0.007847822
125	0xbbe823d2	-0.0070843482
126	0x3c4ff91b	0.012693669
127	0x3cb2be8f	0.021819381
128	0x3cc011fb	0.023446074
129	0xbb60654e	-0.003424007
130	0x3d48baaa	0.04900614
131	0x3d1e76c1	0.03868747
132	0x3c145e76	0.009055724
133	0xbc5f34c3	-0.013623419
134	0x3d004944	0.03131987
135	0xbd3cd763	-0.046103846
136	0xbcfb4a06	-0.030674946
137	0xbc072938	-0.008249573
138	0x3cc71c2f	0.024305431
139	0x3a0ce5bd	0.000537481
140	0x3c9e652f	0.019335357
141	0xbba0d32b	-0.0049079857
142	0xbc453d8c	-0.0120386
143	0xbc0b2243	-0.008492055
144	0xbd0c04eb	-0.034184378
145	0x3cdd913f	0.027046798
146	0x3d126a4b	0.0357459
147	0xbd017461	-0.03160513
148	0x3d089b11	0.033351008
149	0x3d288192	0.041139193
150	0xbc5c9bd7	-0.0134648895
151	0xbca74e3f	-0.020423053
152	0xbc04db3d	-0.008108911
153	0xbd199de3	-0.037504088
154	0x3ccb7edb	0.024840763
155	0xbd356a7a	-0.044290997
156	0x3c03f41f	0.0080538085
157	0xbd697b8b	-0.057002585
158	0xbc4a941f	-0.012364416
159	0xbbed7da4	-0.0072476435
160	0x3d152d1c	0.036419973
161	0xbceb4bb7	-0.028722627
162	0x3ac6b6f8	0.001516073
163	0xbd243214	-0.04008682
164	0x3d3b16d8	0.045676082
165	0xba8516d0	-0.0010153893
166	0xbcd91a4e	-0.0265018
167	0xbd5a5061	-0.05329931
168	0xbd149165	-0.03627147
169	0x3d2694de	0.040669315
170	0x3d2b07bf	0.041755434
171	0xbd00dadb	-0.031458717
172	0x3d0b0bfb	0.033946972
173	0x3c3cebe5	0.011530851
174	0x3c70c968	0.0146964565
175	0xbceebc3d	-0.029142493
176	0xbccf4d7a	-0.025305498
177	0x398ad1b2	0.00026477646
178	0x3c3a73f4	0.011380184
179	0x3d23d8fb	0.04000185
180	0x3c6d6bc0	0.014491022
181	0x3ceec1a0	0.029145062
182	0xbd6597b2	-0.05605287
183	0x3c3be2ea	0.011467675
184	0xbca2cd8e	-0.019873407
185	0x3afb6ae5	0.0019181637
186	0xbceec32f	-0.029145805
187	0x3cf626da	0.030047823
188	0xbcc04a8a	-0.023473043
189	0x3c9e8bc0	0.019353747
190	0x3bf6c88a	0.0075312303
191	0x3bda70f6	0.006666298
192	0x3d2a6e47	0.041609075
193	0xbd22c5eb	-0.03973953
194	0xbc6a797c	-0.014311191
195	0x3d563bb2	0.052303024
196	0xbd0281fb	-0.03186224
197	0xbd2cb409	-0.042163882
198	0xbd1d7c83	-0.03844882
199	0xbcccd5c9	-0.025004284
200	0xbce125c6	-0.027483832
201	0xbd07785d	-0.03307377
202	0x3d0149c8	0.031564504
203	0xbd1c81fc	-0.0382099
204	0x3ca66df8	0.020316109
205	0x3b7e219f	0.0038777364
206	0x3c245b97	0.010031602
207	0x3c4794e4	0.012181494
208	0xbca6ec25	-0.020376274
209	0x3d4d2eb4	0.050093368
210	0x3c7d0d60	0.015445083
211	0x3d68965c	0.05678402
212	0xbcdeaa52	-0.027180824
213	0xbd234303	-0.03985883
214	0xbd2817fb	-0.041038495
215	0xbb8faa70	-0.0043843314
216	0xbd69452f	-0.056950744
217	0xbd22ecbd	-0.039776552
218	0x3d46c8c2	0.0485313
219	0x3d0798ec	0.033104822
220	0xbd05f6ff	-0.032706257
221	0x3ce73674	0.028224207
222	0x3d599499	0.05312023
223	0x3c9900ad	0.01867708
224	0x3d06e313	0.0329314
225	0xbd0bc0b7	-0.034119334
226	0xbc82de0f	-0.015975026
227	0x3d2f763d	0.04283737
228	0x3c695215	0.014240761
229	0xbd26b970	-0.04070419
230	0x3d1c0de6	0.038099192
231	0x3c44953d	0.011998472
232	0xbd491fc2	-0.049102552
233	0x3cf9adb1	0.03047833
234	0xbd1e2cf3	-0.038617086
235	0xbd15cb5c	-0.03657089
236	0x3b990f76	0.0046710325
237	0xbd49a334	-0.04922791
238	0x3c2d8cc0	0.010592639
239	0xbcb6b786	-0.022304308
240	0x3c2cd832	0.010549592
241	0x3bf917b5	0.007601703
242	0xbccd8abd	-0.02509057
243	0x3d3809ce	0.044931225
244	0x39a4efa0	0.00031459052
245	0x3bf941ae	0.0076067066
246	0xbc272b45	-0.010203187
247	0x3d2d0ac7	0.042246606
248	0xbbec9fab	-0.0072211823
249	0xbc95ec6e	-0.018301215
250	0x3cff7887	0.031185402
251	0xbc71be09	-0.014754781
252	0xba256e99	-0.0006310731
253	0xbbf17327	-0.0073684636
254	0xbc14d58f	-0.009084119
255	0xbd4e6ad1	-0.050394837

bias f4 [32]
0	0xbd0e5a87	-0.034754302
1	0x3cf7860e	0.03021529
2	0x3d53947c	0.051655278
3	0x3d1afd29	0.03783909
4	0xbd2dc15f	-0.04242074
5	0x3ce6cc8a	0.028173704
6	0x3cd886b2	0.026431415
7	0x3b64e579	0.0034926815
8	0x3d5ce537	0.053929534
9	0xbd1cf5cd	-0.03832035
10	0x3c579ad2	0.013159471
11	0x3d443bf0	0.047908723
12	0xbc30b18a	-0.010784516
13	0xbc9550bc	-0.018226974
14	0xbca04b07	-0.019567026
15	0xbd2659f8	-0.040613145
16	0xbd410340	-0.04712224
17	0xbd452cf2	-0.048138566
18	0xbc8dcab2	-0.017308567
19	0xbd6ecbe7	-0.058299925
20	0xbd6ce521	-0.0578357
21	0xbcd24991	-0.025669845
22	0xbd4babe7	-0.049724486
23	0xbd4b2c6f	-0.049602922
24	0x3d4463ba	0.04794667
25	0x3d037981	0.032098297
26	0xbb9f4c04	-0.0048613567
27	0x3d2a3574	0.041554883
28	0x3d2a09e4	0.04151334
29	0x3cbeaaa9	0.023274736
30	0x3cfaf652	0.030635033
31	0x3d4d46d4	0.050116375

weight f4 [32]
0	0x3f803961	1.0017511
1	0x3f8040bf	1.0019759
2	0x3f800710	1.0002155
3	0x3f7fe9c8	0.99966097
4	0x3f801c47	1.000863
5	0x3f801661	1.000683
6	0x3f7f1bd4	0.9965184
7	0x3f804c42	1.0023272
8	0x3f8041b8	1.0020056
9	0x3f801cc9	1.0008785
10	0x3f801a15	1.000796
11	0x3f7f3651	0.99692255
12	0x3f80469f	1.0021552
13	0x3f7f809f	0.99805635
14	0x3f800443	1.00013
15	0x3f80563a	1.0026314
16	0x3f7f6ea9	0.9977823
17	0x3f7f91c2	0.99831784
18	0x3f8009ed	1.0003029
19	0x3f80261a	1.0011628
20	0x3f7f89d1	0.99819666
21	0x3f8059c7	1.0027398
22	0x3f8052d1	1.0025274
23	0x3f80252c	1.0011344
24	0x3f80089d	1.0002629
25	0x3f7f7320	0.9978504
26	0x3f7f95ca	0.99837935
27	0x3f7f6108	0.9975743
28	0x3f7ff4ff	0.9998321
29	0x3f7fc91d	0.9991625
30	0x3f7f2686	0.9966816
31	0x3f7fd65e	0.99936473

bias f4 [32]
0	0x3b38cc36	0.002819789
1	0x3aac08da	0.0013125197
2	0x3ae8b005	0.0017752653
3	0x3abdaaba	0.0014470436
4	0xb918e0a8	-0.0001457954
5	0x39ec9673	0.0004512552
6	0xbb05abf7	-0.0020396688
7	0x3b21b5e6	0.002467507
8	0x3af388e6	0.0018580228
9	0x3998e83f	0.00029164736
10	0x38028fce	3.1128344e-05
11	0xbadf012a	-0.0017013897
12	0x3b05b9a5	0.0020404842
13	0xbb1242b0	-0.002231758
14	0xba063692	-0.0005119826
15	0x3b8af252	0.0042403126
16	0xbb00fdb4	-0.001968247
17	0xba8f5702	-0.0010935965
18	0x39dfbae6	0.00042673125
19	0xba930dde	-0.0011219343
20	0x3a909d26	0.0011033162
21	0x3b4a8c32	0.0030906317
22	0x3ae19f85	0.0017213678
23	0x381ccc25	3.7383423e-05
24	0xb67d9a56	-3.7789773e-06
25	0x3abc6b3f	0.0014375224
26	0x3a0aa0fd	0.00052882713
27	0xba91d5a1	-0.0011126288
28	0xba1643a3	-0.00057321246
29	0x3a08a434	0.00052124565
30	0x3a048431	0.00050550984
31	0x3b0fba49	0.0021931103

running_mean f4 [32]
0	0x3cdcdcbb	0.026960721
1	0xbba16030	-0.0049247965
2	0xbde4635a	-0.11151762
3	0x3e40f6a9	0.18844093
4	0xbdef3ded	-0.11681733
5	0xbd9bf931	-0.07615889
6	0x3dd24443	0.10266926
7	0xbdcbc437	-0.099495344
8	0x3e30245b	0.17201369
9	0xbad22db6	-0.0016035351
10	0x3e8d2b4d	0.27572098
11	0x3c8d4049	0.017242568
12	0x3db6b2c7	0.08920818
13	0x3cbdfd62	0.023192111
14	0x3bf5fabb	0.007506696
15	0xbbb33aaf	-0.005469642
16	0xbd064879	-0.03278396
17	0x3e21f085	0.15814407
18	0xbc38189e	-0.011236338
19	0x3bbec1a3	0.005821423
20	0xbe4f76e8	-0.20260203
21	0xbd85510c	-0.06509599
22	0x3da6bb56	0.081412
23	0x3d2da9b4	0.04239817
24	0x3dd578ff	0.10423469
25	0xbda40be8	-0.080100834
26	0x3e8f15d5	0.27946344
27	0x3d168c91	0.03675515
28	0x3e8798f4	0.2648388
29	0xbe88a668	-0.26689458
30	0xbdaa93eb	-0.08328994
31	0x3e1c13ac	0.15241879

running_var f4 [32]
0	0x3dee91f6	0.116489336
1	0x3ddacf36	0.106840536
2	0x3db1e968	0.08687097
3	0x3dde9baa	0.10869534
4	0x3e078b7f	0.13236807
5	0x3de284e7	0.11060505
6	0x3d902bcf	0.07039606
7	0x3dc3be0c	0.09557733
8	0x3dc63859	0.09678716
9	0x3db91898	0.09037894
10	0x3dbd8e12	0.092556134
11	0x3df367ae	0.1188501
12	0x3dbcebe2	0.092246786
13	0x3da37867	0.07981949
14	0x3d84be06	0.064815566
15	0x3dc5a319	0.09650249
16	0x3dcaa0a6	0.098939225
17	0x3dbf70a4	0.09347656
18	0x3e16edf5	0.14739211
19	0x3deb6aba	0.11494966
20	0x3dd7d97e	0.1053953
21	0x3db1aabb	0.086751424
22	0x3dc3df14	0.09564033
23	0x3dcd71ee	0.10031496
24	0x3dd30404	0.103035
25	0x3e0592ec	0.13044327
26	0x3e04f439	0.12983789
27	0x3ded5240	0.115879536
28	0x3db985e3	0.0905874
29	0x3de5fefc	0.11230275
30	0x3dfe7887	0.124253325
31	0x3d90efeb	0.07077011
