DFA-PS/DFA-PS/Experiments/Full-GOP/DJIA/backup/factor/DecisionModel_RatioModule.pt (torch, 71689 bytes, 83 tensors)

weight f4 [8, 4, 3]
-0.2242066 0.18235132 -0.13708533 -0.009308611 0.10190527 0.14659633 -0.13701023 -0.26394075
-0.1685696 -0.2205269 -0.21841505 0.13602349 0.122262314 0.16603443 -0.04716606 0.23175658
0.28687793 0.14809799 -0.1594107 -0.11411484 -0.18566543 0.18697087 0.03218367 0.27541023
-0.032318134 0.25856316 0.1411529 -0.0062335394 -0.14863287 0.115667224 0.015986735 -0.14596286
0.16794302 -0.04417527 -0.27891898 -0.16114187 0.2618493 0.1191661 -0.19463739 0.22528175
0.0093948925 -0.26795766 0.0852365 -0.09062851 -0.104939476 0.015062292 -0.26289213 0.007129246
0.2338703 0.057075553 -0.031751662 0.13153724 -0.025254983 -0.09302931 0.06994362 0.030607762
0.10946859 -0.075785145 0.2339837 0.1937446 -0.11321576 0.099664435 0.042702273 0.24438821
0.24122088 0.14954937 0.16022801 0.068055645 -0.093605116 -0.16337168 0.2571288 0.122143485
-0.22185348 0.09085136 -0.08940272 -0.2624962 0.27699158 0.03163375 0.107839294 -0.0045958986
-0.24548972 0.26586163 -0.09983058 -0.2827542 0.2607319 -0.12382661 -0.15448967 0.23907539
0.1540404 -0.19288017 -0.03502929 -0.15918373 0.22717792 -0.25995627 -0.18591906 -0.114837095
00000000: 6a96 65be 4eba 3a3e 1960 0cbe 2583 18bc
00000010: b6b3 d03d 591d 163e 694c 0cbe 3e23 87be
00000020: 829d 2cbe ced1 61be 32a8 5fbe be49 0b3e
00000030: aa64 fa3d ee04 2a3e 3331 41bd 9951 6d3e
00000040: aae1 923e 00a7 173e 8f3c 23be 0bb5 e9bd
00000050: 141f 3ebe 4b75 3f3e 06d3 033d 9202 8d3e
00000060: 0560 04bd 6462 843e 638a 103e b842 ccbb
00000070: 3733 18be f0e2 ec3d 9df6 823c 4a77 15be
00000080: 41f9 2b3e 21f1 34bd 78ce 8ebe 6002 25be
00000090: 1d11 863e 5b0d f43d 064f 47be 42b0 663e
000000a0: 09ed 193c bf31 89be 7990 ae3d 719b b9bd
000000b0: 82ea d6bd d5c7 763c cc99 86be 739c e93b
000000c0: b27b 6f3e 0ec8 693d 080e 02bd b3b1 063e
000000d0: 8ae3 cebc 2786 bebd 9a3e 8f3d 21bd fa3c
000000e0: 1131 e03d 3e35 9bbd 6c99 6f3e fc64 463e
000000f0: aadd e7bd de1c cc3d 94e8 2e3d e740 7a3e
00000100: 9b02 773e 7823 193e d012 243e c260 8b3d
00000110: 0ab4 bfbd e84a 27be 63a6 833e 5d26 fa3d
00000120: 8f2d 63be 4710 ba3d c618 b7bd e765 86be
00000130: d7d1 8d3e 6492 013d d9da dc3d 3199 96bb
00000140: a861 7bbe 041f 883e fa73 ccbd 29c5 90be
00000150: a77e 853e ce98 fdbd 8a32 1ebe 2ed0 743e
00000160: c4bc 1d3e 6182 45be df7a 0fbd 0f01 23be
00000170: 54a1 683e fd18 85be 9161 3ebe b62f ebbd

bias f4 [8]
-0.1793842 0.24167919 -0.16561721 -0.060238093 0.05869451 -0.04421723 0.0129573345 -0.047629118
00000000: 7eb0 37be c07a 773e 8f97 29be 38bc 76bd
00000010: a869 703d 201d 35bd 004b 543c c016 43bd

weight f4 [8]
1.0000002 0.9999999 1.0 0.99999934 1.0000001 0.9999999 0.99999994 1.0000002
00000000: 0200 803f feff 7f3f 0000 803f f5ff 7f3f
00000010: 0100 803f feff 7f3f ffff 7f3f 0200 803f

bias f4 [8]
4.8235455e-07 -3.5695643e-07 -6.792608e-07 2.3151568e-08 -9.0720255e-07 8.027475e-09 -1.1443229e-08 2.9362283e-07
00000000: 277b 0135 b8a3 bfb4 7256 36b5 d6de c632
00000010: 7c86 73b5 35e9 0932 da97 44b2 37a3 9d34

running_mean f4 [8]
-722.8798 1365.3262 271.22684 52.483498 1231.1453 617.7739 -594.8039 -1018.43787
00000000: 4fb8 34c4 70aa aa44 099d 8743 1aef 5142
00000010: a6e4 9944 8871 1a44 73b3 14c4 069c 7ec4

running_var f4 [8]
415706.16 209017.95 91821.9 630149.1 150605.31 310416.4 216581.6 339331.28
00000000: 45fb ca48 7d1e 4c48 f356 b347 52d8 1949
00000010: 5413 1348 0d92 9748 6681 5348 69b0 a548

weight f4 [8, 8, 3]
-0.19024071 0.16972576 -0.07842824 0.051825777 0.13377215 0.06505657 -0.1679152 -0.00450506
0.036225125 0.09553378 0.14277051 0.16786388 -0.0062293787 0.18108007 -0.044723995 -0.10209476
-0.07322783 0.19402838 0.105403334 0.06891238 -0.09589004 -0.10874924 0.0023191264 0.028100701
-0.17825206 0.16301319 -0.0925706 -0.06542438 -0.12739731 0.021795968 -0.094645225 0.18598883
0.19437803 0.038117923 -0.07659257 0.18091153 0.14364344 0.19658472 -0.15791754 -0.008860746
-0.023005296 -0.04705648 -0.019562185 0.023209345 0.202175 -0.20351696 -0.17094922 -0.003780978
-0.11716971 -0.016200483 -0.14753354 -0.19282097 0.027040862 -0.06111466 0.06348076 0.108883284
-0.11148503 0.104312144 0.0595249 -0.05415569 -0.13185716 -0.08305171 0.2010459 -0.11825098
-0.1513787 -0.13395649 0.16847903 0.07420662 -0.12437691 0.20374496 -0.1578518 -0.1986038
-0.14492452 0.11510505 -0.076182604 -0.08232786 -0.063862234 -0.121343195 0.19563246 -0.002173986
-0.05645995 0.19133548 -0.189461 -0.079968154 0.19867733 -0.15145168 0.07701931 -0.13730453
-0.16741244 -0.07597679 -0.15434921 -0.060585596 -0.109556496 -0.08788232 -0.06044033 -0.088687815
-0.10531155 -0.0029477347 0.031512603 -0.050159425 -0.10450803 0.16305149 -0.1616299 0.17116944
0.049046334 -0.054767508 -0.17869687 0.039490934 -0.17028703 0.13003697 -0.001467778 -0.18009806
0.1976046 0.034112394 0.070911765 -0.010682096 0.177018 -0.099715374 -0.14263919 0.11660106
-0.034624837 0.033010755 -0.15972228 0.084288605 -0.19984758 -0.016259335 -0.08390984 -0.1847236
0.057182036 -0.04965776 0.03621062 -0.17471853 0.16902122 -0.20064273 -0.11538695 -0.12696849
-0.16692872 0.05487013 -0.07586315 0.08376651 0.059081107 0.18440619 -0.057910435 -0.06485862
-0.186458 -0.025580112 0.20197839 -0.13274482 -0.1480451 0.12266574 0.0817988 0.15526587
-0.13992074 -0.06766695 0.18992385 -0.1281252 -0.1425632 -0.07417952 -0.19101617 -0.06982197
0.012303911 0.057180762 0.1206083 -0.07893692 -0.10628095 -0.15693218 -0.0065602516 -0.043107074
-0.1714201 0.11359164 0.068813205 -0.10972015 -0.15659863 -0.12568694 -0.106941156 -0.13704562
-0.13375318 0.14132634 -0.16034049 0.086269245 -0.14671282 -0.08371009 -0.070880726 -0.011921909
-0.041712668 0.083890796 0.16990596 0.12493025 0.092533834 0.12467944 -0.1348795 -0.12154481
00000000: 76ce 42be 97cc 2d3e fc9e a0bd 4447 543d
00000010: 91fb 083e 613c 853d f6f1 2bbe 2f9f 93bb
00000020: cc60 143d 37a7 c33d 6f32 123e 82e4 2b3e
00000030: d11f ccbb 0e6d 393e 8230 37bd 0f17 d1bd
00000040: 79f8 95bd 60af 463e b4dd d73d ef21 8d3d
00000050: ff61 c4bd ecb7 debd 7cfc 173b 7133 e63c
00000060: b587 36be eeec 263e a895 bdbd 38fd 85bd
00000070: 7174 02be 758d b23c 5bd5 c1bd db73 3e3e
00000080: 090b 473e 8a21 1c3d 91dc 9cbd df40 393e
00000090: 4417 133e 814d 493e 23b5 21be aa2c 11bc
000000a0: 9a75 bcbc 4cbe 40bd e040 a0bc 8621 be3c
000000b0: f706 4f3e c066 50be 500d 2fbe 49ca 77bb
000000c0: acf6 efbd e0b6 84bc 0813 17be dc72 45be
000000d0: cc84 dd3c 5e53 7abd 3302 823d 33fe de3d
000000e0: 4352 e4bd 9ba1 d53d 62d0 733d 5bd2 5dbd
000000f0: 9005 07be 0417 aabd fade 4d3e 922d f2bd
00000100: 0503 1bbe e42b 09be c485 2c3e a4f9 973d
00000110: 52b9 febd 85a2 503e e7a3 21be cb5e 4bbe
00000120: 1867 14be 32bc eb3d a005 9cbd 829b a8bd
00000130: 34ca 82bd c882 f8bd e053 483e 6f79 0ebb
00000140: 8c42 67bd 73ed 433e 1002 42be 58c6 a3bd
00000150: 1272 4b3e 2616 1bbe 4dbc 9d3d 8f99 0cbe
00000160: 2b6e 2bbe b899 9bbd b80d 1ebe 9a28 78bd
00000170: 285f e0bd a5fb b3bd 4890 77bd f5a1 b5bd
00000180: 95ad d7bd c82e 41bb 5c13 013d f873 4dbd
00000190: 4e08 d6bd f8f6 263e 4f82 25be 0b47 2f3e
000001a0: cfe4 483d e553 60bd 50fc 36be 3fc1 213d
000001b0: b95f 2ebe 6928 053e 7562 c0ba a06b 38be
000001c0: dc58 4a3e 70b9 0b3d 303a 913d f503 2fbc
000001d0: 3544 353e 9337 ccbd 0210 12be 89cc ee3d
000001e0: c6d2 0dbd 4936 073d 3d8e 23be 819f ac3d
000001f0: d8a4 4cbe 4c32 85bc ecd8 abbd 2f28 3dbe
00000200: b637 6a3d ef65 4bbd 9651 143d 6ae9 32be
00000210: e613 2d3e 4a75 4dbe fe4f ecbd 0704 02be
00000220: 5def 2abe 80bf 603d 245e 9bbd c78d ab3d
00000230: 08ff 713d fad4 3c3e 7e33 6dbd 99d4 84bd
00000240: d9ee 3ebe 628d d1bc 6cd3 4e3e 42ee 07be
00000250: 2299 17be 2d38 fb3d 2186 a73d 04fe 1e3e
00000260: 6247 0fbe f894 8abd 667b 423e 4133 03be
00000270: 16fc 11be 6feb 97bd be99 43be d2fe 8ebd
00000280: 5896 493c 6036 6a3d 7c01 f73d aea9 a1bd
00000290: d4a9 d9bd d4b2 20be 61f7 d6bb 0b91 30bd
000002a0: c088 2fbe bca2 e83d f0ed 8c3d f5b4 e0bd
000002b0: 645b 20be 14b4 00be f703 dbbd b055 0cbe
000002c0: 98f6 08be dab7 103e 4c30 24be eead b03d
000002d0: e33b 16be 3270 abbd ea29 91bd 1c54 43bc
000002e0: e7da 2abd f0ce ab3d d4fb 2d3e 6edb ff3d
000002f0: 6182 bd3d ef57 ff3d da1d 0abe 7cec f8bd

bias f4 [8]
0.17122924 -0.19796325 -0.19088522 0.1852827 0.02303508 0.10481584 -0.13991006 -0.042078137
00000000: b856 2f3e e1b6 4abe 6a77 43be c0ba 3d3e
00000010: 10b4 bc3c b0a9 d63d 9544 0fbe 205a 2cbd

weight f4 [8]
0.9999992 0.9999992 1.0000004 1.0000002 1.0 0.9999993 1.0000001 1.0000001
00000000: f3ff 7f3f f3ff 7f3f 0300 803f 0200 803f
00000010: 0000 803f f4ff 7f3f 0100 803f 0100 803f

bias f4 [8]
7.9366686e-08 -4.3784644e-07 -1.8876203e-07 3.725584e-07 -4.1737417e-07 -6.151385e-07 -2.371053e-07 -4.727163e-07
00000000: 4c70 aa33 2811 ebb4 83ae 4ab4 0904 c834
00000010: 7813 e0b4 ff1f 25b5 0297 7eb4 a2c9 fdb4

running_mean f4 [8]
0.20935856 -0.059507933 -0.36069617 -0.13769953 0.0017852453 -0.20929763 -0.3150227 -0.33803526
00000000: 1762 563e 97be 73bd 2bad b8be 1b01 0dbe
00000010: e4fe e93a 1e52 56be a84a a1be f512 adbe

running_var f4 [8]
0.3792296 0.38891983 0.4066158 0.411666 0.5617114 0.59311 0.42610174 0.46429828
00000000: 622a c23e 8020 c73e f22f d03e e3c5 d23e
00000010: 51cc 0f3f 0fd6 173f 022a da3e 81b8 ed3e

weight f4 [8, 4, 1]
-0.26190364 -0.37318563 -0.053959087 -0.46295646 0.14421938 0.31077132 -0.24500738 0.36076975
0.32499188 -0.27641988 -0.42279914 -0.018241873 -0.422406 -0.44691247 -0.23902602 -0.3931985
-0.19894785 -0.041326355 0.022208782 -0.43169844 0.41178343 0.328595 -0.3364629 -0.32247403
0.21627815 0.43546036 -0.3570178 -0.10672718 -0.3875547 -0.19130269 0.49732083 -0.074275255
00000000: 3c18 86be 3012 bfbe 3404 5dbd a108 edbe
00000010: 3fae 133e 6b1d 9f3e 37e3 7abe d0b6 b83e
00000020: 5665 a63e e886 8dbe 2179 d8be fb6f 95bc
00000030: 9945 d8be b6d1 e4be 3dc3 74be 5051 c9be
00000040: fcb8 4bbe d345 29bd 31ef b53c 9407 ddbe
00000050: 47d5 d23e 9b3d a83e dd44 acbe 511b a5be
00000060: 0578 5d3e a9f4 de3e 09cb b6be c893 dabd
00000070: 926d c6be dae4 43be d6a0 fe3e a01d 98bd

bias f4 [8]
0.18901426 0.4657038 -0.47427452 -0.07954192 -0.43437988 -0.049161315 -0.4446556 -0.18601704
00000000: f48c 413e ba70 ee3e 1cd4 f2be e0e6 a2bd
00000010: 0a67 debe 605d 49bd e6a9 e3be 407b 3ebe

weight f4 [8]
1.0000011 1.0000001 1.0 0.99999994 1.0000001 1.0000004 1.0 0.9999997
00000000: 0900 803f 0100 803f 0000 803f ffff 7f3f
00000010: 0100 803f 0300 803f 0000 803f fbff 7f3f

bias f4 [8]
4.4552593e-07 2.476294e-07 -8.946947e-07 1.6633722e-07 7.8402263e-07 -3.6453397e-07 -1.854177e-07 -3.419526e-07
00000000: 9e30 ef34 edf1 8434 f42a 70b5 6d9a 3234
00000010: a075 5235 2bb5 c3b4 3b17 47b4 9c95 b7b4

running_mean f4 [8]
-1751.9729 1170.6722 1022.7364 -2139.664 -1486.2852 715.90344 497.6173 -1407.0367
00000000: 22ff dac4 8355 9244 21af 7f44 a0ba 05c5
00000010: 20c9 b9c4 d2f9 3244 04cf f843 2de1 afc4

running_var f4 [8]
84117.68 29826.96 81392.31 179436.8 53060.52 105810.62 31747.74 123916.79
00000000: d74a a447 ec05 e946 28f8 9e47 333b 2f48
00000010: 8544 4f47 4fa9 ce47 7b07 f846 6506 f247

weight f4 [8, 8, 3]
0.10042821 0.17787366 0.1602271 -0.14817812 -0.13050632 -0.039900646 -0.028728327 -0.053388193
-0.13834159 0.18051702 0.15419506 0.0130861495 0.015999513 -0.13961618 0.057975527 0.07883464
-0.20284554 0.07148255 -0.14135969 0.011459798 -0.15668927 -0.023240816 -0.11695965 -0.11766015
0.06374105 -0.052175857 -0.055010602 0.08387618 -0.16987182 -0.13200475 0.12203555 0.19342855
-0.09531575 -0.14659424 0.107372254 0.1915205 -0.052745417 -0.17865784 0.03540067 0.08873841
-0.15605147 0.07309837 -0.13308364 -0.1385253 0.02766212 -0.0070007853 0.13928142 -0.10807852
0.05990047 0.073642574 -0.19725141 -0.042061944 0.014375094 -0.12153066 0.16559327 -0.20115495
0.11236189 -0.05255981 -0.17501464 -0.10461421 0.106509656 -0.014426589 0.07235875 0.19838306
0.12848206 0.098443106 0.19227438 0.027752977 -0.102625705 -0.11108455 0.115804605 -0.08420729
-0.15492634 -0.040859718 -0.18268321 -0.12318301 0.12593497 -0.087917395 0.002810134 -0.18818693
-0.061810758 0.074014194 0.055432145 0.009098556 -0.048365712 -0.16539387 0.062772565 0.023707574
0.12269457 -0.18958157 0.13448747 0.15672852 -0.13315955 0.09534976 0.09521808 0.06654766
-0.03198979 0.08423172 0.13220541 -0.15167889 -0.17974357 -0.092907414 0.09103949 0.0804383
0.15502752 -0.07910821 -0.034554284 -0.16197094 -0.096423015 0.09968092 -0.20287906 -0.07944663
-0.095504776 -0.1967498 -0.0108644115 -0.029158004 -0.16123332 -0.19163239 -0.048205286 -0.01442964
-0.05944525 0.18452539 -0.09249554 -0.1157651 0.01616157 0.12030219 -0.022894444 -0.042647608
-0.1446336 -0.038527314 0.13183562 0.06894339 0.03529252 0.04084915 0.008171339 -0.002524186
-0.06824305 0.08737758 0.076622516 0.13861676 -0.11078524 -0.13762826 0.08628952 0.11383255
-0.04621488 -0.15303959 0.0626635 -0.10120812 -0.10356702 -0.13165548 0.09124438 0.12662847
-0.15582557 -0.13481568 -0.06873985 0.1571231 0.16684258 0.09493995 -0.1389574 0.18518442
-0.09760621 0.17625213 -0.017401947 0.18872306 -0.0002138318 0.046844628 -0.14556882 -0.20377956
0.062959656 -0.056416396 -0.043548245 0.035511963 0.102286644 0.022982415 0.055536885 0.04232867
0.1445315 -0.09909411 0.09838693 -0.04299261 0.041642316 0.16474612 0.17924365 -0.09419118
0.19195247 -0.0429071 -0.018690506 0.14120196 0.16462345 -0.10399991 -0.09574087 -0.06982051
00000000: 4ead cd3d 8324 363e 9312 243e 01bc 17be
00000010: 73a3 05be dc6e 23bd ab57 ebbc 94ad 5abd
00000020: 6ba9 0dbe 74d9 383e 4fe5 1d3e 4a67 563c
00000030: 6911 833c 8bf7 0ebe bf77 6d3d 0e74 a13d
00000040: beb6 4fbe 7165 923d 98c0 10be e0c1 3b3c
00000050: 2773 20be 8663 bebc 8a88 efbd cef7 f0bd
00000060: ab8a 823d 5ab6 55bd cc52 61bd 46c7 ab3d
00000070: e1f2 2dbe 412c 07be c6ed f93d 2212 463e
00000080: e734 c3bd cd1c 16be fce5 db3d f31d 443e
00000090: 940b 58bd 15f2 36be 4b00 113d 7cbc b53d
000000a0: f5cb 1fbe 99b4 953d 1447 08be 94d9 0dbe
000000b0: ac9b e23c d866 e5bb ca9f 0e3e 4558 ddbd
000000c0: 325a 753d ebd1 963d 46fc 49be 2549 2cbd
000000d0: 8485 6b3c 11e5 f8bd 4891 293e 90fb 4dbe
000000e0: fe1d e63d f548 57bd 0a37 33be fa3f d6bd
000000f0: bc21 da3d 805d 6cbc d330 943d ee24 4b3e
00000100: cd90 033e 8a9c c93d 93e3 443e 365a e33c
00000110: 6d2d d2bd 4c80 e3bd f72a ed3d df74 acbd
00000120: 03a5 1ebe 855c 27bd 4f11 3bbe 6047 fcbd
00000130: 19f5 003e 090e b4bd 3a2a 383b 13b4 40be
00000140: 472d 7dbd c194 973d d10c 633d 1c12 153c
00000150: 201b 46bd 035d 29be e78e 803d 6336 c23c
00000160: 4a47 fb3d ac21 42be 15b7 093e 717d 203e
00000170: fa5a 08be bc46 c33d b201 c33d 244a 883d
00000180: ba07 03bd ae81 ac3d db60 073e b651 1bbe
00000190: b30e 38be 3e46 bebd ea72 ba3d d6bc a43d
000001a0: 89bf 1e3e 7c03 a2bd cb88 0dbd b6db 25be
000001b0: 6e79 c5bd 8325 cc3d 87bf 4fbe eab4 a2bd
000001c0: 0298 c3bd c878 49be a500 32bc c4dc eebc
000001d0: 591a 25be 483b 44be e872 45bd 4c6a 6cbc
000001e0: dd7c 73bd 39f4 3c3e 4d6e bdbd 4116 edbd
000001f0: 4565 843c ff60 f63d 218d bbbc 42af 2ebd
00000200: d51a 14be d1ce 1dbd ebff 063e 3132 8d3d
00000210: e48e 103d 7051 273d 14e1 053c d06c 25bb
00000220: 03c3 8bbd 04f3 b23d 44ec 9c3d 8df1 0d3e
00000230: 5fe3 e2bd 6cee 0cbe 8fb8 b03d 0a21 e93d
00000240: d04b 3dbd 69b6 1cbe b955 803d 3446 cfbd
00000250: f21a d4bd b2d0 06be 55de ba3d e5aa 013e
00000260: bd90 1fbe 1f0d 0abe 7ac7 8cbd e1e4 203e
00000270: c8d8 2a3e e06f c23d d94a 0ebe fca0 3d3e
00000280: c4e5 c7bd 707b 343e 878e 8ebc 9e40 413e
00000290: 0938 60b9 27e0 3f3d fe0f 15be 97ab 50be
000002a0: fef0 803d e114 67bd a55f 32bd fe74 113d
000002b0: a97b d13d 9e45 bc3c a57a 633d d460 2d3d
000002c0: 1100 143e daf1 cabd 167f c93d 0519 30bd
000002d0: 2291 2a3d 35b3 283e a68b 373e 4ee7 c0bd
000002e0: 308f 443e 5bbf 2fbd d51c 99bc 3f97 103e
000002f0: 0d93 283e e8fd d4bd ca13 c4bd 0efe 8ebd

bias f4 [8]
-0.120005935 0.06306496 0.170331 0.10300383 -0.10148725 0.14730099 0.0521442 0.16647947
00000000: acc5 f5bd 3428 813d 406b 2e3e acf3 d23d
00000010: 8cd8 cfbd 12d6 163e 2895 553d 9879 2a3e

weight f4 [8]
1.0000001 1.0 1.0 1.0000004 1.0000008 0.9999994 1.0000007 0.9999993
00000000: 0100 803f 0000 803f 0000 803f 0300 803f
00000010: 0700 803f f6ff 7f3f 0600 803f f4ff 7f3f

bias f4 [8]
5.2484535e-07 -1.4266776e-07 -8.039119e-07 6.2348214e-08 2.1063673e-07 2.0901571e-07 7.9346853e-07 -7.1041313e-07
00000000: 19e3 0c35 3730 19b4 68cc 57b5 4be4 8533
00000010: 622b 6234 cd6d 6034 befe 5435 38b3 3eb5

running_mean f4 [8]
-0.2666643 -0.067464985 0.08863014 0.0827527 -0.32802927 0.3236166 -0.09280826 0.42292687
00000000: 3988 88be 152b 8abd b883 b53d 3f7a a93d
00000010: 74f3 a7be 13b1 a53e 4212 bebd df89 d83e

running_var f4 [8]
0.5876729 0.42906243 0.45453215 0.3786385 0.41261724 0.42070732 0.43621713 0.5253103
00000000: bb71 163f 12ae db3e 70b8 e83e e8dc c13e
00000010: 9142 d33e f366 d73e da57 df3e bc7a 063f

weight f4 [8, 8, 3]
-0.09398696 -0.16486241 -0.19650413 -0.06969812 0.15408929 -0.08961311 -0.08068337 -0.12434954
-0.1247417 -0.043589655 0.18757954 0.15099703 -0.123838976 0.012716192 0.07381941 -0.038421072
-0.2037904 0.16714357 -0.1418626 -0.04092353 0.11988845 -0.07553312 0.1677715 -0.19898334
-0.15138201 -0.17606741 0.1247245 -0.018833514 0.18304259 -0.08668961 -0.17422271 0.13770612
0.047063056 -0.09132126 0.00405323 0.1322869 0.0256112 -0.18943602 0.06469736 -0.20143694
0.040489785 0.15950078 0.17572153 0.10300361 0.1738116 -0.10574153 -0.19771498 -0.11997952
0.006835396 0.06761687 0.1799661 0.049070667 0.1772142 0.105511546 -0.20100124 0.08929227
0.017565211 0.025651462 -0.13063395 -0.19964449 -0.008090534 -0.18589517 0.09856861 -0.058717508
0.14987467 -0.05603744 0.07919399 -0.009831269 -0.08754831 0.051342454 -0.066667356 0.07627268
-0.15367906 -0.016695153 -0.10932357 0.106866136 0.029038796 -0.12485374 0.16170639 -0.09181927
0.13208352 -0.11880181 -0.17816336 0.035082877 0.12312883 -0.16841593 -0.1550857 0.019109618
-0.1909196 0.0061993613 -0.0955839 -0.00082050293 -0.094039254 0.19155589 0.09646275 0.005185109
-0.011386776 0.07416319 -0.08838612 -0.08724955 0.11139177 -0.19554079 -0.09456751 0.11612989
-0.101005614 0.10147763 0.18703024 -0.09260989 0.08149928 0.07762935 -0.013265338 0.12502314
-0.17988303 0.024347901 -0.09051855 -0.16091889 0.060733642 -0.19453593 0.058379512 0.021927807
0.09707926 0.04009362 0.14653215 -0.051742718 0.049119417 -0.15759645 0.18868765 -0.15906334
-0.1388038 0.19176309 -0.08930713 0.16546616 0.013080601 0.15406299 -0.15144847 -0.034578674
0.05949778 0.042511556 -0.06586573 -0.117924504 -0.030369882 0.08784582 -0.15529585 -0.1399814
0.024863524 0.098580725 0.035258662 0.01329123 0.11483945 0.13629927 -0.015919939 0.04526793
-0.07208813 0.010378086 -0.00865987 0.07279261 0.033707086 -0.065497436 0.15191248 0.06700885
-0.15961829 -0.05862265 -0.08706553 -0.20203659 -0.020810641 0.0042839847 -0.05127483 -0.15417151
-0.110299155 -0.09015169 -0.16905299 0.19411863 0.18469292 0.14135109 -0.12474114 -0.16492745
-0.023301298 -0.08384329 -0.13171719 0.17808758 0.14735365 -0.0014872452 -0.035611782 0.16852546
-0.067131154 -0.18673828 0.05821926 0.12441993 0.17034772 0.1482325 0.008006545 0.10263965
00000000: 3c7c c0bd b1d1 28be 6138 49be e3bd 8ebd
00000010: 95c9 1d3e 1487 b7bd 533d a5bd f9aa febd
00000020: 9478 ffbd 118b 32bd da14 403e f79e 1a3e
00000030: 4a9f fdbd 9357 503c a12e 973d 6a5f 1dbd
00000040: 6eae 50be af27 2b3e 6e44 11be 6e9f 27bd
00000050: 1388 f53d 1cb1 9abd 4bcc 2b3e 4ac2 4bbe
00000060: e303 1bbe 044b 34be 8f6f ff3d be48 9abc
00000070: 846f 3b3e 528a b1bd 7067 32be d502 0d3e
00000080: 31c5 403d a406 bbbd f5d0 843b 3876 073e
00000090: 94ce d13c 84fb 41be 0d80 843d 7c45 4ebe
000000a0: 9ed8 253d 2c54 233e 58f0 333e 8ff3 d23d
000000b0: abfb 313e 048f d8bd cc75 4abe d3b7 f5bd
000000c0: 75fb df3b b77a 8a3d 0949 383e 53fe 483d
000000d0: a477 353e 7016 d83d 45d3 4dbe dede b63d
000000e0: ebe4 8f3c 0423 d23c e8c4 05be 9b6f 4cbe
000000f0: 298e 04bc 4e5b 3ebe 57de c93d c581 70bd
00000100: bf78 193e 8487 65bd 7530 a23d 5513 21bc
00000110: 874c b3bd 774c 523d e588 88bd da34 9c3d
00000120: 0b5e 1dbe 46c4 88bc 09e5 dfbd a2dc da3d
00000130: c5e2 ed3c 51b3 ffbd 5c96 253e be0b bcbd
00000140: e740 073e 5d4e f3bd 7570 36be 10b3 0f3d
00000150: f82a fc3d 3a75 2cbe c9ce 1ebe c68b 9c3c
00000160: 6d80 43be 0324 cb3b 7ec1 c3bd 0517 57ba
00000170: a797 c0bd 3a27 443e 438e c53d d9e7 a93b
00000180: 9a8f 3abc dfe2 973d c803 b5bd e4af b2bd
00000190: 5e21 e43d d83b 48be 9cac c1bd 82d5 ed3d
000001a0: 08dc cebd 81d3 cf3d db84 3f3e 41aa bdbd
000001b0: 18e9 a63d 23fc 9e3d dc56 59bc 1106 003e
000001c0: 4233 38be 4075 c73c ca61 b9bd ecc7 24be
000001d0: d7c3 783d 6d34 47be 5b1f 6f3d f2a1 b33c
000001e0: 7ed1 c63d 3539 243d 860c 163e 2cf0 53bd
000001f0: 7131 493d f760 21be 5637 413e 80e1 22be
00000200: 9522 0ebe 8b5d 443e a8e6 b6bd f66f 293e
00000210: 0450 563c b0c2 1d3e 4f15 1bbe 5ea2 0dbd
00000220: f2b3 733d 9920 2e3d 9de4 86bd 6782 f1bd
00000230: 42ca f8bc 82e8 b33d e005 1fbe 4957 0fbe
00000240: 97ae cb3c b1e4 c93d 636b 103d 76c3 593c
00000250: f230 eb3d 0992 0b3e 886a 82bc dd6a 393d
00000260: f1a2 93bd d908 2a3c 21e2 0dbc 4b14 953d
00000270: 7110 0a3d 8523 86bd f28e 1b3e f03b 893d
00000280: fa72 23be 4e1e 70bd 6a4f b2bd aee2 4ebe
00000290: 147b aabc ab60 8c3b 8e05 52bd 23df 1dbe
000002a0: 86e4 e1bd 73a1 b8bd 3a1c 2dbe 09c7 463e
000002b0: 2420 3d3e 57be 103e 4878 ffbd bee2 28be
000002c0: 5de2 bebc 08b6 abbd dfe0 06be 975c 363e
000002d0: e0e3 163e abef c2ba a9dd 11bd f091 2c3e
000002e0: 0f7c 89bd 5238 3fbe 5277 6e3d e0cf fe3d
000002f0: a26f 2e3e 43ca 173e e22d 033c bd34 d23d

bias f4 [8]
0.004776149 0.06653252 0.12082586 -0.11586041 0.12478021 0.09489736 0.02707997 0.002947448
00000000: 3e81 9c3b 3442 883d 8c73 f73d 3948 edbd
00000010: c48c ff3d 8c59 c23d d0d6 dd3c f929 413b

weight f4 [8]
1.0 1.0000012 1.0000007 1.0000004 1.0000004 1.0 0.99999917 1.0000001
00000000: 0000 803f 0a00 803f 0600 803f 0300 803f
00000010: 0300 803f 0000 803f f2ff 7f3f 0100 803f

bias f4 [8]
2.4615628e-07 6.780434e-07 4.656173e-07 6.8067044e-07 6.7452663e-07 2.0111996e-08 -5.323613e-07 3.715884e-07
00000000: 7627 8434 ca02 3635 f4f9 f934 51b7 3635
00000010: 1e11 3535 bfc2 ac32 97e7 0eb5 b97e c734

running_mean f4 [8]
-0.13072066 0.037121672 0.11781966 -0.16201878 0.055151083 0.0030029495 -0.018053776 0.124420166
00000000: a3db 05be e50c 183d 6f4b f13d 40e8 25be
00000010: 1ae6 613d 22cd 443b 83e5 93bc 00d0 fe3d

running_var f4 [8]
0.40392664 0.41379598 0.42927158 0.41217297 0.39042827 0.42269596 0.38526523 0.39598894
00000000: 79cf ce3e 11dd d33e 7cc9 db3e 5608 d33e
00000010: 37e6 c73e 9b6b d83e 7c41 c53e 10bf ca3e

weight f4 [8, 8, 1]
-0.30701455 0.1120124 -0.14583047 -0.017612625 0.31541395 -0.017390609 0.12362772 0.3114354
-0.0131630795 -0.25684023 0.08939325 0.2520343 -0.35334364 0.16909929 0.18234026 -0.29486567
-0.03575872 -0.24712484 0.19025145 0.26713252 -0.31923026 -0.11723803 0.24869575 -0.014433577
-0.124208584 -0.22205682 -0.107152514 0.19966878 0.06341211 -0.1351756 -0.11375292 -0.16002771
-0.20210558 -0.21339542 0.14203134 0.0357961 -0.1007145 0.33635974 -0.10383575 0.027798753
-0.31364673 -0.15677172 0.23754139 0.030199168 0.117829956 0.34760758 0.2818734 -0.17470853
-0.10976122 0.21883775 -0.26544106 -0.1993499 -0.025258414 0.028785218 -0.041092232 0.15216917
0.02223259 0.0028620681 -0.24165013 -0.034923777 0.22395177 -0.12661037 -0.33043972 0.13568646
00000000: 0331 9dbe c266 e53d 9554 15be 5a48 90bc
00000010: f07d a13e c076 8ebc 8830 fd3d 7674 9f3e
00000020: f5a9 57bc 9080 83be cf13 b73d a40a 813e
00000030: 75e9 b4be 5d28 2d3e 68b7 3a3e a2f8 96be
00000040: bc77 12bd 4b0e 7dbe 47d1 423e 98c5 883e
00000050: 2672 a3be 7e1a f0bd 19aa 7e3e cf7a 6cbc
00000060: 1261 febd dd62 63be c772 dbbd f975 4c3e
00000070: 35de 813d 796b 0abe 4af7 e8bd 4ede 23be
00000080: c4f4 4ebe 5484 5abe aa70 113e ee9e 123d
00000090: 6743 cebd 5837 ac3e d6a7 d4bd 36ba e33c
000000a0: 4e96 a0be c488 20be 0d3e 733e 3f64 f73c
000000b0: d550 f13d 9ff9 b13e b651 903e cbe6 32be
000000c0: 7eca e0bd 0117 603e e4e7 87be 6122 4cbe
000000d0: bcea cebc face eb3c 5450 28bd 3cd2 1b3e
000000e0: 1f21 b63c 8991 3b3b 2273 77be 3c0c 0fbd
000000f0: 9d53 653e 26a6 01be 652f a9be 64f1 0a3e

bias f4 [8]
-0.021198511 0.19991568 -0.1457258 0.27932635 -0.10381098 0.0064841215 0.19872388 0.2959191
00000000: 80a8 adbc b2b6 4c3e 2539 15be dd03 8f3e
00000010: da9a d4bd c178 d43b 467e 4b3e b582 973e

weight f4 [8]
0.9999996 1.0000012 0.99999976 0.99999934 0.9999988 1.0000001 1.0000006 0.99999934
00000000: f9ff 7f3f 0a00 803f fcff 7f3f f5ff 7f3f
00000010: ecff 7f3f 0100 803f 0500 803f f5ff 7f3f

bias f4 [8]
5.5209034e-07 7.065736e-07 5.1134646e-07 -8.139705e-07 -6.7364033e-07 -8.168467e-08 3.0340937e-07 -2.5271042e-08
00000000: 5c33 1435 5eab 3d35 7643 0935 a07f 5ab5
00000010: 36d4 34b5 9f6a afb3 44e4 a234 9c13 d9b2

running_mean f4 [8]
0.20932831 0.00597628 -0.07921796 -0.11239622 -0.09995501 0.17362216 0.0075883134 0.02811798
00000000: 295a 563e acd4 c33b 073d a2bd fd2f e6bd
00000010: 36b5 ccbd 02ca 313e 63a7 f83b ae57 e63c

running_var f4 [8]
0.4242584 0.45134652 0.35620317 0.5301366 0.38794342 0.70347434 0.3543893 0.71710193
00000000: 6638 d93e e416 e73e 4360 b63e 08b7 073f
00000010: 85a0 c63e e516 343f 8472 b53e fe93 373f

weight f4 [16, 8, 3]
-0.026195033 0.149714 -0.09822179 -0.08583484 0.18481487 -0.08042172 0.13858503 0.06284526
0.028932793 -0.12062095 -0.18632858 0.004618724 0.1765616 0.122281134 -0.04631966 -0.11938771
0.021292299 0.060592152 0.06894789 -0.13561846 0.13779254 -0.03828292 0.030622944 0.20155895
0.064976595 -0.1428799 -0.04417725 0.036034487 -0.03062676 0.006329352 -0.045788754 -0.19286256
-0.03454958 -0.038819354 0.16385786 0.08474523 -0.055313736 -0.11748713 0.018268619 -0.11037744
-0.080236465 0.047961846 -0.19464052 -0.10499192 -0.004857128 0.052312057 0.14567742 0.19082628
-0.023345012 -0.17182936 0.06284051 -0.06340142 0.11369219 0.055930864 -0.11740367 0.19683133
-0.02683579 -0.10686015 0.08008128 -0.0041448073 -0.17773741 0.0196101 0.15821113 0.03513589
0.015456575 -0.05547147 0.15025091 -0.1800406 0.07967094 -0.012213531 -0.19326219 0.04252192
0.017059224 0.03609856 -0.14305785 -0.13605748 -0.037076093 -0.026815694 0.1731458 -0.06135254
0.12709288 -0.072785646 -0.071804 -0.10349725 -0.06183341 -0.12137812 0.17507643 0.18235515
0.042098396 -0.1315756 0.14446847 -0.06869245 -0.10897297 -0.08209125 -0.19971792 -0.0851179
-0.07730435 -0.021404725 0.101579554 0.0603907 -0.11398716 -0.04559584 -0.13539 0.048469752
-0.155436 -0.08841068 -0.13830882 0.19709025 0.121549726 -0.03460877 0.00998053 0.041614275
-0.030767139 0.093189105 -0.039415214 0.13791989 -0.0656939 -0.090890415 0.106900506 0.104469195
0.055355754 0.08216762 0.09254 0.03191593 -0.16813156 -0.14649191 -0.1409144 0.18602371
-0.14782697 -0.024511395 0.08625143 0.15427978 0.09499326 0.0054830173 -0.13315898 0.14727716
0.11755337 -0.1876141 -0.14856529 0.07031279 0.08113864 0.18413728 0.14456989 0.04333969
-0.2000437 -0.012141926 -0.17393786 -0.04170442 0.19947278 0.054847144 0.0571398 -0.19704676
-0.12684748 0.06314878 0.0090924185 0.12111918 0.042942017 0.06588066 -0.014303936 -0.01283038
0.09097944 -0.10217351 0.13639763 0.18848166 0.13575192 0.06121587 0.06529189 -0.10434171
-0.10748813 0.20002675 -0.16137896 -0.16259167 0.18392509 -0.09307888 0.16058937 -0.103395045
0.05955028 0.07563717 -0.043149948 0.15411615 0.053646833 0.033942576 0.056765106 0.09335332
-0.021420203 0.13277827 -0.10266034 0.11448785 0.019814089 0.07409418 -0.06461521 0.1651997
0.05919738 0.17817989 -0.12851872 -0.010424726 -0.071200885 -0.08361712 0.024976585 -0.1767325
0.1537979 -0.062146924 -0.004551854 -0.037682205 0.20030805 -0.16049698 0.0563163 0.075873815
0.09295526 -0.1070948 0.011563737 -0.04874214 0.04973195 0.083528906 0.12556624 0.12294191
-0.1393799 -0.14101845 -0.08146681 0.021366788 -0.07847251 -0.109362215 0.20047794 0.034497753
-0.07605389 0.010029302 -0.09315977 0.11174587 0.08663386 0.13316183 0.04393917 -0.11924869
0.096655205 0.034201574 -0.16547811 -0.07012785 0.102335505 -0.17401625 0.13768494 0.09973656
0.006824894 0.015836546 -0.19365959 -0.2031335 -0.15438761 -0.17797138 -0.12620403 -0.09490252
-0.14518626 -0.17318937 -0.031399574 0.014588567 0.04576491 0.012841236 -0.15965311 0.15511237
00000000: f796 d6bc a04e 193e 8128 c9bd 2dca afbd
00000010: 1c40 3d3e 25b4 a4bd 3ce9 0d3e 04b5 803d
00000020: 7704 ed3c 1e08 f7bd ebcc 3ebe aa58 973b
00000030: 90cc 343e 886e fa3d afb9 3dbd 8b81 f4bd
00000040: 306d ae3c 7a2f 783d 8d34 8d3d 91df 0abe
00000050: 7d19 0d3e 8dce 1cbd f8dc fa3c 7865 4e3e
00000060: 7312 853d 1c4f 12be 34f3 34bd e698 133d
00000070: f9e4 fabc 7466 cf3b fd8c 3bbd c37d 45be
00000080: dc83 0dbd 0b01 1fbd 5bca 273e e88e ad3d
00000090: a890 62bd 189d f0bd 12a8 953c 910d e2bd
000000a0: 0453 a4bd a473 443d d84f 47be 0106 d7bd
000000b0: 8b28 9fbb 2b45 563d 762c 153e f767 433e
000000c0: 0a3e bfbc 09f4 2fbe 86b2 803d 9bd8 81bd
000000d0: 73d7 e83d c317 653d 5671 f0bd 278e 493e
000000e0: bbd6 dbbc 7fd9 dabd a701 a43d 2ad1 87bb
000000f0: cc00 36be 5ca5 a03c 1902 223e a7ea 0f3d
00000100: 933d 7d3c 0d36 63bd 60db 193e 905c 38be
00000110: 852a a33d 431b 48bc 86e6 45be 772b 2e3d
00000120: c9bf 8b3c 15dc 133d c27d 12be a752 0bbe
00000130: 1add 17bd 96ac dbbc 224d 313e cd4c 7bbd
00000140: a324 023e a410 95bd fa0d 93bd 5ef6 d3bd
00000150: 0845 7dbd 1795 f8bd 3c47 333e 4fbb 3a3e
00000160: 5e6f 2c3d c1bb 06be 8bef 133e a1ae 8cbd
00000170: 382d dfbd 751f a8bd db82 4cbe 4b52 aebd
00000180: be51 9ebd f658 afbc f108 d03d 3d5c 773d
00000190: 1a72 e9bd b4c2 3abd ada3 0abe 3888 463d
000001a0: 9d2a 1fbe a910 b5bd d4a0 0dbe 07d2 493e
000001b0: 10ef f83d edc1 0dbd 6085 233c bb73 2a3d
000001c0: 5e0b fcbc eed9 be3d d971 21bd df3a 0d3e
000001d0: 868a 86bd c124 babd a7ee da3d f2f3 d53d
000001e0: b7bc 623d 7f47 a83d 9d85 bd3d 47ba 023d
000001f0: ae2a 2cbe fa01 16be dd4b 10be 007d 3e3e
00000200: f45f 17be 1fcc c8bc 97a4 b03d 85fb 1d3e
00000210: d48b c23d e2aa b33b d45a 08be d3cf 163e
00000220: d2bf f03d e91d 40be 8021 18be 2700 903d
00000230: 042c a63d 7c8e 3c3e 210a 143e f584 313d
00000240: 41d8 4cbe eeee 46bc c41c 32be 41d2 2abd
00000250: 9842 4c3e 66a7 603d 6c0b 6a3d a0c6 49be
00000260: 4ee4 01be 2654 813d 5ef8 143c 550d f83d
00000270: f8e3 2f3d 71ec 863d 0e5b 6abc 8436 52bc
00000280: 6e53 ba3d 5840 d1bd d2ab 0b3e 5601 413e
00000290: 8d02 0b3e 7ebd 7a3d c1b7 853d 1bb1 d5bd
000002a0: bd22 dcbd d0d3 4c3e 8740 25be 6e7e 26be
000002b0: dc56 3c3e 24a0 bebd 8a71 243e c8c0 d3bd
000002c0: ffea 733d a9e7 9a3d 00be 30bd a0d0 1d3e
000002d0: c8bc 5b3d 5f07 0b3d 8782 683d 0730 bf3d
000002e0: 6c79 afbc 07f7 073e 963f d2bd 9b78 ea3d
000002f0: 2851 a23c b0be 973d fb54 84bd 1c2a 293e
00000300: f478 723d ca74 363e 699a 03be 78cc 2abc
00000310: c5d1 91bd 743f abbd b29b cc3c 5df9 34be
00000320: 327d 1d3e c68d 7ebd b827 95bb a858 1abd
00000330: 8e1d 4d3e 5259 24be ecab 663d bb63 9b3d
00000340: 545f be3d 8554 dbbd d475 3d3c d7a5 47bd
00000350: bbb3 4b3d 3411 ab3d 7094 003e f8c8 fb3d
00000360: 9bb9 0ebe 2467 10be 12d8 a6bd 6709 af3c
00000370: 32b6 a0bd 4cf9 dfbd 174a 4d3e 844d 0d3d
00000380: 24c2 9bbd f151 243c 8dca bebd 05db e43d
00000390: 186d b13d 935b 083e 8ff9 333d a838 f4bd
000003a0: 2af3 c53d f316 0c3d 1873 29be 319f 8fbd
000003b0: 4795 d13d 5131 32be 48fd 0c3e ae42 cc3d
000003c0: 5ca3 df3b a5bb 813c b34e 46be 3a02 50be
000003d0: c917 1ebe 213e 36be a13b 01be 415c c2bd
000003e0: b5ab 14be 8e58 31be d79c 00bd e304 6f3c
000003f0: fc73 3b3d 0c64 523c 1b7c 23be c7d5 1e3e

bias f4 [16]
0.17174861 0.036951706 -0.20314822 0.1757057 0.09871608 -0.06791137 0.17916396 0.17132413
0.008701295 -0.16328834 -0.15642418 0.0353027 0.035557777 0.09453589 0.13453436 0.019626126
00000000: dede 2f3e ac5a 173d 1606 50be 32ec 333e
00000010: a82b ca3d 1e15 8bbd c276 373e 986f 2f3e
00000020: e08f 0e3c 0f35 27be a92d 20be 9099 103d
00000030: 08a5 113d 089c c13d 60c3 093e f8c6 a03c

weight f4 [16]
1.0000002 1.0 0.9999997 1.0000004 0.99999976 1.0000005 1.0000005 0.9999989
1.0 1.0000004 0.99999934 1.0000004 1.0000001 0.9999994 1.0000005 1.0000002
00000000: 0200 803f 0000 803f fbff 7f3f 0300 803f
00000010: fcff 7f3f 0400 803f 0400 803f eeff 7f3f
00000020: 0000 803f 0300 803f f5ff 7f3f 0300 803f
00000030: 0100 803f f6ff 7f3f 0400 803f 0200 803f

bias f4 [16]
9.0741275e-07 -2.3579807e-07 -6.076197e-07 4.8450835e-07 -8.409892e-07 5.177659e-07 -6.598171e-08 -6.514272e-07
3.876085e-07 1.5440638e-07 -4.9085435e-07 1.7251907e-08 9.186989e-07 -5.7010046e-09 6.343075e-07 -2.6854661e-07
00000000: ee94 7335 ae2f 7db4 4f1b 23b5 290f 0235
00000010: 56c0 61b5 9afc 0a35 d4b1 8db3 bcdd 2eb5
00000020: 8218 d034 e7ca 2534 41c3 03b5 5831 9432
00000030: 829c 7635 91e2 c3b1 4845 2a35 c42c 90b4

running_mean f4 [16]
0.2893789 -0.12921079 -0.13582312 -0.0034463503 -0.01675277 0.122254886 0.27910453 0.38722843
0.05901421 -0.10741063 -0.6443105 -0.07214709 0.16690566 -0.09213217 0.28782457 -0.014876882
00000000: 7929 943e d54f 04be 3715 0bbe 2adc 61bb
00000010: 1b3d 89bc c560 fa3d cae6 8e3e ce42 c63e
00000020: e2b8 713d 1bfa dbbd 88f1 24bf dbc1 93bd
00000030: 51e9 2a3e cbaf bcbd be5d 933e 2abe 73bc

running_var f4 [16]
0.4142472 0.43514556 0.5519474 0.4198205 0.4140067 0.5180305 0.41238576 0.37291956
0.39961496 0.41992843 0.40308005 0.3780785 0.4122276 0.42127502 0.40865672 0.39148995
00000000: 3618 d43e 66cb de3e 6d4c 0d3f b6f2 d63e
00000010: b0f8 d33e a69d 043f 3a24 d33e 50ef be3e
00000020: 559a cc3e dc00 d73e 8260 ce3e 8193 c13e
00000030: 7f0f d33e 5cb1 d73e 743b d13e 5f71 c83e

weight f4 [16, 16, 3]
-0.06666059 -0.07453237 0.021774726 0.06540007 -0.12370734 0.06295875 0.09321763 -0.02200668
-0.12061896 0.030644402 -0.024013693 0.020050626 0.12583162 0.13120474 -0.000929147 -0.032881983
0.08076272 -0.069039054 -0.0835992 0.1344044 -0.10868787 0.1276588 -0.1003187 -0.00074480503
0.11562181 0.05324292 0.084685005 0.075172655 -0.0699435 0.045567427 -0.057860833 0.0845025
-0.03723633 0.036141187 -0.09287072 0.031088654 -0.060060177 -0.11245937 0.06668581 0.015505395
-0.064861506 -0.09455036 0.103874534 0.049420968 0.10846955 0.06857409 -0.06640337 0.12280116
-0.0878203 -0.1287505 0.005439531 0.024149565 -0.096144624 -0.10157297 -0.10554611 -0.09699581
0.04629384 -0.08316176 0.106647976 -0.07935949 -0.00825164 -0.06568709 0.013454884 0.07259185
0.012389279 0.082900405 0.04996321 0.08608275 0.10448465 0.10943259 -0.008093962 0.03444279
0.028161254 0.010783569 -0.13256429 -0.09707485 0.073826134 -0.0022180818 0.07535444 0.028094793
-0.035751425 -0.10106663 -0.073789224 -0.12728986 0.07781664 0.02512172 -0.060278036 -0.11106516
0.044026222 0.035531953 -0.12873305 -0.085959 0.032854453 -0.048626263 -0.017870646 0.0009629
0.074150205 -0.014918348 0.02017112 -0.08271858 0.04487358 -0.009990222 0.026799878 0.1328224
-0.0919336 -0.022766104 -0.07860265 0.14363088 0.10946325 0.030701855 0.090500146 -0.08072976
-0.007193882 0.07364078 -0.13309264 0.04062984 -0.11799757 -0.019041456 0.031607404 0.14281884
-0.015684852 0.13183536 -0.096089624 0.060939983 0.13368088 -0.12694064 -0.11574204 -0.13643323
0.05593125 0.0059610675 0.1309368 -0.0003288333 -0.07929403 -0.08609731 -0.09818937 -0.058589257
-0.10706551 -0.048067242 0.07562876 -0.11241043 -0.0081118755 -0.028428277 0.025621941 -0.115289204
-0.096429795 0.11049755 -0.01036269 -0.08735518 -0.13468064 -0.13175803 0.07160981 0.0028526925
-0.026929125 -0.019850498 0.04917599 0.008870447 0.06750238 -0.14373626 -0.0051437914 -0.056579493
0.10819181 -0.12429259 0.070726976 -0.040111523 0.010356374 0.09204611 -0.06255154 0.058062244
0.008877458 -0.106442116 -0.032540284 -0.07484312 -0.07159 0.08785518 -0.08565787 -0.03827034
-0.104990944 -0.0036148308 0.12341799 -0.07190162 0.05918005 -0.028333794 0.08958913 0.13222337
0.05430083 -0.028952815 0.06122737 -0.11830573 0.053752564 0.09136258 -0.01883366 0.034250706
0.085339956 -0.107342206 -0.021064527 -0.07091456 0.034695096 -0.09644311 0.06159765 -0.14394937
-0.005654699 -0.04539875 -0.05667197 0.13462223 0.14010552 0.13760391 0.13047421 -0.07079245
0.14267959 -0.016323237 -0.08168535 0.12733494 -0.09532989 0.025064977 -0.0513055 -0.016675334
-0.057691388 0.11057513 0.14098059 0.052794218 -0.072334126 -0.13939227 0.059163164 -0.006271929
-0.06023402 0.031565774 0.04160285 -0.0043353825 0.009692227 0.06463586 -0.055461884 0.118501104
0.07706043 0.13922803 0.07941043 0.054884065 -0.037115462 -0.097440116 0.011691998 -0.05621111
-0.08515873 0.035165112 0.14083259 0.0772498 -0.11245063 0.1386274 0.049341198 -0.028191768
0.04013512 -0.04993819 0.08931016 -0.071648024 0.14027168 -0.07690864 0.043569446 -0.0020842685
00000000: 5985 88bd 6da4 98bd e960 b23c 79f0 853d
00000010: 465a fdbd 84f0 803d e3e8 be3d 5a47 b4bc
00000020: 1307 f7bd f809 fb3c 5db8 c4bc 3641 a43c
00000030: 01da 003e 895a 063e 0092 73ba 42af 06bd
00000040: ed66 a53d 5964 8dbd 0f36 abbd 4fa1 093e
00000050: bf97 debd fdb8 023e e473 cdbd 053f 43ba
00000060: 21cb ec3d 4015 5a3d 556f ad3d 1ff4 993d
00000070: 8a3e 8fbd e9a4 3a3d 7bff 6cbd a60f ad3d
00000080: 1f85 18bd c808 143d 0133 bebd a2ad fe3c
00000090: a901 76bd 1951 e6bd 9292 883d 570a 7e3c
000000a0: 1cd6 84bd 9fa3 c1bd 2cbc d43d a46d 4a3d
000000b0: 4925 de3d 9370 8c3d 7dfe 87bd 2d7f fb3d
000000c0: 21db b3bd 2cd7 03be 183e b23b 4fd5 c53c
000000d0: 79e7 c4bd 7d05 d0bd 8f28 d8bd bda5 c6bd
000000e0: 9c9e 3d3d b650 aabd 416a da3d 3a87 a2bd
000000f0: e331 07bc f486 86bd e071 5c3c 09ab 943d
00000100: 67fc 4a3c b0c7 a93d 39a6 4c3d 274c b03d
00000110: 0cfc d53d 321e e03d 8a9c 04bc e213 0d3d
00000120: 6eb2 e63c 91ad 303c efbe 07be 2ecf c6bd
00000130: 2832 973d 3d5d 11bb 6e53 9a3d 0d27 e63c
00000140: 1670 12bd 05fc cebd ce1e 97bd 4658 02be
00000150: 555e 9f3d 11cc cd3c 1ae6 76bd 2176 e3bd
00000160: d754 343d f489 113d 99d2 03be 460b b0bd
00000170: 6492 063d 552c 47bd 7665 92bc 206b 7c3a
00000180: 10dc 973d 166c 74bc e83d a53c 5c68 a9bd
00000190: 5ccd 373d 07ae 23bc 6b8b db3c 9802 083e
000001a0: af47 bcbd fb7f babc 6dfa a0bd f913 133e
000001b0: 452e e03d 7582 fb3c 2458 b93d a555 a5bd
000001c0: a8ba ebbb fad0 963d 7049 08be 7a6b 263d
000001d0: b6a8 f1bd d4fc 9bbc c476 013d 1a3f 123e
000001e0: 857d 80bc d9ff 063e a3ca c4bd 349c 793d
000001f0: a4e3 083e bafc 01be 2a0a edbd 27b5 0bbe
00000200: 2b18 653d 0f55 c33b 4c14 063e 4267 acb9
00000210: e964 a2bd c953 b0bd 8217 c9bd 4afb 6fbd
00000220: 2945 dbbd 28e2 44bd 40e3 9a3d 7137 e6bd
00000230: ace7 04bc 6be2 e8bc 1be5 d13c bf1c ecbd
00000240: fc7c c5bd 8a4c e23d 46c8 29bc 46e7 b2bd
00000250: b9e9 09be 94eb 06be 2aa8 923d 3df4 3a3b
00000260: 789a dcbc 839d a2bc c36c 493d 5a55 113c
00000270: b03e 8a3d 992f 13be 408d a8bb e6bf 67bd
00000280: ab93 dd3d 1d8d febd 4ed9 903d fb4b 24bd
00000290: c8ad 293c ac82 bc3d 061b 80bd add2 6d3d
000002a0: c272 113c 53fe d9bd f648 05bd 5a47 99bd
000002b0: c79d 92bd 6bed b33d 656d afbd 5cc1 1cbd
000002c0: 7e05 d7bd cce6 6cbb 92c2 fc3d 2841 93bd
000002d0: c866 723d 461c e8bc 817a b73d 9065 073e
000002e0: 8c6a 5e3d 742e edbc 8dc9 7a3d 464a f2bd
000002f0: a62b 5c3d 4e1c bb3d 0c49 9abc 784a 0c3d
00000300: b7c6 ae3d 3bd6 dbbd 848f acbc a73b 91bd
00000310: 721c 0e3d f783 c5bd d14d 7c3d 7767 13be
00000320: 0e4b b9bb 0af4 39bd de20 68bd 69da 093e
00000330: d277 0f3e 0ae8 0c3e 089b 053e a2fb 90bd
00000340: 991a 123e 4fb8 85bc a64a a7bd 1764 023e
00000350: 513c c3bd 1155 cd3c b725 52bd b69a 88bc
00000360: ce4d 6cbd 3775 e23d 375d 103e c03e 583d
00000370: ea23 94bd d9bc 0ebe 1355 723d c184 cdbb
00000380: f3b7 76bd 1d4b 013d c067 2a3d d30f 8ebb
00000390: 25cc 1e3c ce5f 843d 002c 63bd b5b0 f23d
000003a0: dcd1 9d3d cb91 0e3e efa1 a23d 1dce 603d
000003b0: 6206 18bd af8e c7bd cb8f 3f3c 9f3d 66bd
000003c0: b367 aebd 4b09 103d 6b36 103e 2535 9e3d
000003d0: 844c e6bd 57f4 0d3e ff19 4a3d 6cf2 e6bc
000003e0: b964 243d fd8b 4cbd 3fe8 b63d 33bc 92bd
000003f0: 61a3 0f3e 4782 9dbd e075 323d 3998 08bb

bias f4 [16]
-0.12790446 -0.068101294 -0.12584192 0.12650752 -0.019920252 0.096663475 -0.1330241 -0.069121175
0.032527983 0.07449137 0.035368845 -0.055512473 -0.0131035745 -0.14034066 -0.121613875 -0.0758738
00000000: 63f9 02be b178 8bbd b4dc 00be 308b 013e
00000010: cc2f a3bc 80f7 c53d 7837 08be 678f 8dbd
00000020: 103c 053d ee8e 983d ecde 103d 0c61 63bd
00000030: 60b0 56bc 76b5 0fbe b210 f9bd b963 9bbd

weight f4 [16]
0.99999994 0.9999993 1.0 1.0000002 0.9999997 1.0000005 0.9999996 1.0000001
0.99999934 0.9999999 0.99999976 0.99999934 1.0000001 1.0000002 0.99999934 0.9999994
00000000: ffff 7f3f f4ff 7f3f 0000 803f 0200 803f
00000010: fbff 7f3f 0400 803f f9ff 7f3f 0100 803f
00000020: f5ff 7f3f feff 7f3f fcff 7f3f f5ff 7f3f
00000030: 0100 803f 0200 803f f5ff 7f3f f6ff 7f3f

bias f4 [16]
1.749681e-07 -1.9509844e-07 5.224155e-07 -1.11033515e-07 -3.0405633e-07 6.2888574e-07 -1.4141678e-07 3.9407553e-07
-3.1413234e-07 -4.5152615e-07 -5.1232166e-07 -4.5564883e-07 -1.3119725e-07 -3.765721e-07 -3.747419e-07 -3.9787355e-07
00000000: ddde 3b34 407c 51b4 1f3c 0c35 5271 eeb3
00000010: 2f3d a3b4 b3d0 2835 59d8 17b4 5491 d334
00000020: 05a6 a8b4 4869 f2b4 7a86 09b5 e69f f4b4
00000030: 3adf 0cb4 ad2b cab4 2230 c9b4 539b d5b4

running_mean f4 [16]
-0.00926853 -0.20285815 -0.06486508 0.006577154 0.115045495 0.15173367 -0.21927471 -0.18893342
0.10759234 -0.078448094 -0.07055473 0.053663194 0.14687535 -0.30634287 -0.15912049 0.11912939
00000000: 08db 17bc 0cba 4fbe fcd7 84bd 2b85 d73b
00000010: f99c eb3d 1260 1b3e 8d89 60be c377 41be
00000020: 5f59 dc3d 65a9 a0bd 007f 90bd f0cd 5b3d
00000030: 7e66 163e f9d8 9cbe 7bf0 22be 1cfa f33d

running_var f4 [16]
0.41692117 0.3869808 0.39081547 0.5051321 0.3979164 0.38071963 0.40104032 0.37158954
0.39904574 0.3717691 0.40593264 0.36357003 0.38126394 0.43012124 0.38858515 0.39599073
00000000: b176 d53e 5922 c63e f718 c83e 5650 013f
00000010: b3bb cb3e afed c23e 2855 cd3e fc40 be3e
00000020: b94f cc3e 8558 be3e 67d6 cf3e da25 ba3e
00000030: 0735 c33e da38 dc3e a2f4 c63e 4cbf ca3e

weight f4 [16, 8, 1]
-0.28322312 -0.25866273 0.24942502 -0.11599271 -0.3307605 0.11515966 0.27069682 -0.1417788
-0.2741551 -0.054214753 0.17385721 0.08679659 -0.29113564 -0.08613681 -0.3040576 0.34990472
-0.1249672 0.33919448 0.28817362 0.03553469 -0.2668222 -0.34673542 -0.20066068 -0.15287474
-0.24069414 -0.047797363 0.170364 0.23197526 -0.27353418 -0.07584506 0.15941998 0.21608412
-0.067296 0.12899731 -0.08278454 0.3177258 -0.009099715 -0.29254335 0.24443166 -0.2145115
0.09031945 0.06939041 0.18862419 0.18650036 -0.052372854 0.15703355 -0.3150702 0.0005345497
0.21820055 -0.21784967 -0.21675962 0.24381411 -0.065942146 0.35062674 -0.10891103 -0.17609607
-0.21803086 0.046545368 -0.00062427146 0.30156225 -0.056007985 0.061295632 0.3399274 0.27298507
0.33155087 0.3074931 -0.09394466 -0.253856 -0.042278066 -0.24799147 0.13960768 -0.058228433
-0.18710768 -0.20253797 0.34721172 0.0360502 -0.3188763 -0.14690956 -0.08567322 0.047654018
0.33430335 -0.20393452 -0.14836264 0.041151162 -0.10050238 -0.27421534 0.08145251 -0.056104247
-0.17960438 -0.049421523 0.05780157 -0.33562097 0.122133486 0.32331115 -0.3272392 -0.1919728
0.23014477 -0.104186095 -0.26432607 0.2834588 0.3410961 0.21778251 0.13698074 0.039354645
0.22250256 -0.2817257 -0.33096743 -0.26611713 0.07262464 0.26011384 -0.09633772 -0.18577512
0.02021834 0.13949521 -0.18945742 0.080937125 -0.027338395 -0.31206828 0.28079754 0.14392872
-0.05167165 0.13062581 -0.24893129 0.3158349 -0.16293919 0.27491978 -0.06881317 0.22972299
00000000: 9f02 91be 716f 84be 4669 7f3e 968d edbd
00000010: 7159 a9be d4d8 eb3d c698 8a3e 762e 11be
00000020: 0f5e 8cbe 4a10 5ebd a007 323e 69c2 b13d
00000030: bb0f 95be 7f68 b0bd 70ad 9bbe b626 b33e
00000040: ceee ffbd e6aa ad3e 7e8b 933e d38c 113d
00000050: eb9c 88be 4e87 b1be fe79 4dbe 328b 1cbe
00000060: 8678 76be 2bc7 43bd e773 2e3e ec8a 6d3e
00000070: ac0c 8cbe a854 9bbd fe3e 233e 2845 5d3e
00000080: 7cd2 89bd df17 043e f18a a9bd f5ac a23e
00000090: f916 15bc 3ec8 95be 4b4c 7a3e e7a8 5bbe
000000a0: 67f9 b83d 8f1c 8e3d b326 413e f3f9 3e3e
000000b0: eb84 56bd 67cd 203e e250 a1be 0621 0c3a
000000c0: f76f 5f3e fc13 5fbe 3cf6 5dbe 68aa 793e
000000d0: ad0c 87bd 5985 b33e bf0c dfbd 8752 34be
000000e0: 7b43 5fbe 5ba6 3e3d 26a6 23ba 5e66 9a3e
000000f0: a168 65bd 2111 7b3d f70a ae3e b3c4 8b3e
00000100: 09c1 a93e bc6f 9d3e 0f66 c0bd 6af9 81be
00000110: c42b 2dbd 7af1 7dbe 51f5 0e3e f080 6ebd
00000120: 2899 3fbe 1d66 4fbe bcc5 b13e 60a9 133d
00000130: c143 a3be 766f 16be 7175 afbd dc30 433d
00000140: cf29 ab3e 36d4 50be 60ec 17be 1f8e 283d
00000150: 31d4 cdbd f465 8cbe 93d0 a63d 91cd 65bd
00000160: 36ea 37be 396e 4abd 57c1 6c3d 83d6 abbe
00000170: 1f21 fa3d 0a89 a53e e58b a7be 8594 44be
00000180: 12ab 6b3e 855f d5bd bf55 87be 8321 913e
00000190: 26a4 ae3e 6102 5f3e ae44 0c3e 5632 213d
000001a0: b6d7 633e 5a3e 90be 9074 a9be 8140 88be
000001b0: 3abc 943d a42d 853e b64c c5bd d53b 3ebe
000001c0: efa0 a53c d5d7 0e3e 2001 42be 5dc2 a53d
000001d0: c5f4 dfbc 6ac7 9fbe b2c4 8f3e 0d62 133e
000001e0: a7a5 53bd c6c2 053e d8e7 7ebe 1db5 a13e
000001f0: 88d9 26be 49c2 8c3e ebed 8cbd 813c 6b3e

bias f4 [16]
0.06567091 0.3273988 -0.34961864 0.15334037 0.08695859 -0.03498614 0.20501426 0.32043996
0.22726151 -0.0745154 0.13188246 -0.3385239 -0.24660976 -0.17856406 0.32012275 0.037461013
00000000: 787e 863d d1a0 a73e 3701 b3be 4205 1d3e
00000010: 5817 b23d a04d 0fbd 42ef 513e b510 a43e
00000020: 3eb7 683e 889b 98bd 320c 073e 0153 adbe
00000030: 4587 7cbe 7fd9 36be 21e7 a33e b870 193d

weight f4 [16]
1.0000012 1.0000004 1.0000004 0.9999998 0.99999976 1.0000004 1.0000007 1.0
0.9999992 0.99999934 0.9999996 1.0000001 0.99999934 0.9999999 1.0000012 0.9999994
00000000: 0a00 803f 0300 803f 0300 803f fdff 7f3f
00000010: fcff 7f3f 0300 803f 0600 803f 0000 803f
00000020: f3ff 7f3f f5ff 7f3f f9ff 7f3f 0100 803f
00000030: f5ff 7f3f feff 7f3f 0a00 803f f6ff 7f3f

bias f4 [16]
1.490818e-08 -8.6093046e-08 8.7127245e-07 1.9229368e-07 5.478531e-07 7.843659e-07 6.173113e-07 6.6332524e-07
-2.3037576e-07 -5.9219695e-07 2.121662e-07 -6.22055e-07 -2.3516175e-07 3.0236285e-07 -7.9787355e-07 -5.327677e-07
00000000: 6f0f 8032 27e2 b8b3 63e1 6935 4979 4e34
00000010: 2e10 1335 378d 5235 4fb5 2535 5d0f 3235
00000020: 355d 77b4 77f7 1eb5 cdcf 6334 4bfb 26b5
00000030: c580 7cb4 6f54 a234 742d 56b5 8403 0fb5

running_mean f4 [16]
-0.18041326 -0.010628692 -0.4088849 0.12293352 0.06860182 0.092843115 0.119009905 0.4886589
0.2505153 -0.28260022 -0.012739218 -0.48329154 0.2112348 -0.35777712 0.28248993 0.13866788
00000000: 41be 38be f723 2ebc 5d59 d1be 92c4 fb3d
00000010: 1c7f 8c3d 8824 be3d 77bb f33d 8031 fa3e
00000020: 8b43 803e fab0 90be 27b8 50bc fd71 f7be
00000030: ef4d 583e 902e b7be 85a2 903e f4fe 0d3e

running_var f4 [16]
0.42653766 0.5764248 0.47395396 0.48936754 0.40884635 0.4547477 0.4408075 0.47041395
0.40631533 0.6058965 0.46266395 0.5038488 0.43872714 0.4648371 0.4608302 0.39311406
00000000: 2563 da3e 9390 133f 18aa f23e 628e fa3e
00000010: 4f54 d13e b1d4 e83e 85b1 e13e 19da f03e
00000020: 9008 d03e 081c 1b3f 4ae2 ec3e 3cfc 003f
00000030: d8a0 e03e 21ff ed3e f0f1 eb3e 3f46 c93e
