DFA-PS/DFA-PS/Experiments/Full-GOP/CSI/backup/factor/DecisionModel_CalibrationModule.pt (torch, 433804 bytes, 150 tensors)

weight f4 [7]
0	0x3f805af4	1.0027757
1	0x3f802a7c	1.0012965
2	0x3f803985	1.0017554
3	0x3f7ed5a1	0.9954472
4	0x3f802510	1.001131
5	0x3f806c6e	1.003309
6	0x3f7e5bc2	0.9935876

bias f4 [7]
0	0xb8cfc47a	-9.907126e-05
1	0xb92c357a	-0.0001642312
2	0xb673ca1f	-3.6327472e-06
3	0xb8a85b65	-8.027888e-05
4	0x38dbf4c8	0.00010488328
5	0xb85be17a	-5.242366e-05
6	0x39093678	0.0001308563

running_mean f4 [7]
0	0x40d1675d	6.5438676
1	0x40d5ca93	6.6809783
2	0x40ccfea0	6.406082
3	0x4d9c7d27	3.2818096e+08
4	0x51f69ae9	1.32395114e+11
5	0x41983344	19.025032
6	0x3e6709a6	0.22562274

running_var f4 [7]
0	0x431d6ddc	157.42914
1	0x43235647	163.33702
2	0x43177a6f	151.47826
3	0x5ca71c28	3.7629823e+17
4	0x65e08118	1.3252393e+23
5	0x484573dc	202191.44
6	0x3e6f8993	0.23392324

weight f4 [16, 7, 5, 1]
0	0x3ddc9e3e	0.1077237
1	0xbe2421dd	-0.16028543
2	0x3d5d5b56	0.054042183
3	0x3da38a40	0.079853535
4	0xbddb5a7d	-0.10710619
5	0xbd6f401c	-0.05841075
6	0x3be991c5	0.007127973
7	0xbdf4435a	-0.11926909
8	0xbd9bd942	-0.07609798
9	0xbdc51e88	-0.09624964
10	0xbd243556	-0.040089928
11	0xbe29f4c4	-0.16597277
12	0xbd23a707	-0.03995421
13	0xbd27b37b	-0.04094265
14	0x3e0821be	0.13294122
15	0xbdd3ed26	-0.10347967
16	0xbdb1afae	-0.08676086
17	0xbe2b7066	-0.16742095
18	0x3df705f1	0.1206168
19	0xbe05e658	-0.1307615
20	0xbd72d89d	-0.05928861
21	0xbe2c9b3d	-0.16856094
22	0x3dd84104	0.10559276
23	0xbd3f1a89	-0.046656165
24	0xbd4f319d	-0.050584424
25	0x3df3643b	0.11884352
26	0xbe221e40	-0.15831852
27	0x3dd71c1d	0.10503409
28	0xbcf3bd0b	-0.029753229
29	0xbd7e10f3	-0.062027883
30	0xbe15703f	-0.145936
31	0x3e1a3b86	0.15061769
32	0x3d66b0d1	0.05632097
33	0x3d818457	0.0632407
34	0xbdb00cde	-0.08596204
35	0xbdeacd5d	-0.11464951
36	0x3d415942	0.047204264
37	0x3dfc9d37	0.12334674
38	0xbe271311	-0.16315867
39	0xbe15b82f	-0.14621042
40	0xbd4d7a60	-0.050165534
41	0x3db81dc0	0.08990049
42	0x3e1b5690	0.1516974
43	0x3e095f4b	0.13415258
44	0xba3f0766	-0.0007287174
45	0xbcde56da	-0.027141023
46	0x3dfff1bf	0.12497281
47	0xbdb73d2e	-0.08947216
48	0x3e117746	0.14205655
49	0xbdd23ff1	-0.10266102
50	0xbc35578d	-0.011068237
51	0xbe24986e	-0.16073772
52	0xbdf79f48	-0.12090927
53	0xbcf0b111	-0.029381307
54	0xbd2fe3d8	-0.042941898
55	0xbe22b877	-0.1589068
56	0xbd928315	-0.07153908
57	0xbde33f99	-0.11096115
58	0xbe03644f	-0.12831233
59	0xbdb94cc5	-0.09047846
60	0xbcddb489	-0.027063625
61	0xbd14005d	-0.03613316
62	0xbe094fb3	-0.13409309
63	0xbdf88d19	-0.12136287
64	0xbd7d2883	-0.061806213
65	0xbd8e6641	-0.06953097
66	0x3d4f23d6	0.050571285
67	0x3e08ee25	0.13372095
68	0x3e0d7eac	0.13817853
69	0x3e25fde7	0.16210137
70	0x3d522e98	0.051313967
71	0x3df75eaa	0.120786026
72	0x3e0a7007	0.13519298
73	0xbd47179a	-0.048606493
74	0xbd65474a	-0.05597619
75	0xbd1d9246	-0.038469575
76	0xbc3b323d	-0.011425552
77	0xbc815358	-0.015786812
78	0xbc91af69	-0.017783837
79	0xbdafffb2	-0.08593692
80	0x3e20e483	0.1571217
81	0xbc8697a5	-0.016429732
82	0x3d22534d	0.039630223
83	0xbd9fc7d4	-0.07801786
84	0x3d5d60a1	0.05404723
85	0xbdd73019	-0.10507221
86	0x3c8c8088	0.017151132
87	0x3e06d1cc	0.13165969
88	0xbdc947ed	-0.09828172
89	0xbe2c49d1	-0.16825034
90	0xbe10552a	-0.14094988
91	0x3e14cb24	0.14530617
92	0x3de67c3a	0.11254163
93	0x3d13c55c	0.03607689
94	0xbd1ad38c	-0.037799403
95	0xbe2f2b26	-0.17106304
96	0x3dda9356	0.10672633
97	0x3d4c0275	0.04980703
98	0x3d8437ef	0.06455981
99	0xbe142074	-0.14465505
100	0x3c6fa9e5	0.014627908
101	0xbe1135f2	-0.14180735
102	0x3dac7d76	0.08422367
103	0x3dcf85c8	0.101329386
104	0x3d3ce4a2	0.04611648
105	0xbcd05c63	-0.025434678
106	0x3e0c6bbb	0.13712971
107	0x3e2b15cf	0.16707538
108	0xbe0ecd76	-0.13945565
109	0xbdf1193d	-0.11772392
110	0x3e1a30bc	0.15057653
111	0x3d24efb3	0.040267657
112	0xbdf47fe2	-0.11938454
113	0x3ded3d4e	0.115839586
114	0xbdc88f1d	-0.09792922
115	0xbe2543bd	-0.16139121
116	0xbdbc4d34	-0.09194413
117	0x3e1d57e4	0.15365559
118	0x3df5d620	0.12003732
119	0x3de0aaea	0.10970099
120	0xbcfed23e	-0.03110611
121	0x3e04e2bb	0.12977116
122	0xbd5a9998	-0.053369135
123	0x3d4ed9f9	0.050500844
124	0xbdbd4fb8	-0.09243721
125	0xbc30515a	-0.010761583
126	0x3daa1585	0.08304886
127	0xbdc732bd	-0.097264744
128	0xbe0693f8	-0.13142383
129	0x3e2afbc3	0.16697602
130	0xbc59e7b7	-0.013299874
131	0x3bf39a6e	0.007434181
132	0xbe09e9b4	-0.13468057
133	0x3d85a2d9	0.06525201
134	0xbd5fea2f	-0.054666694
135	0xbd33614e	-0.04379397
136	0x3d3b8b5b	0.045787197
137	0xbc1a7eae	-0.009429617
138	0xbe02c677	-0.12771021
139	0x3e22469c	0.15847248
140	0xbe2548d5	-0.16141064
141	0xbd334def	-0.043775495
142	0x3e27f5d5	0.16402371
143	0x3df0cb42	0.11757518
144	0xbe03d63f	-0.12874697
145	0xbe2d182d	-0.16903754
146	0xbd44b838	-0.048027247
147	0xbdd51820	-0.10404992
148	0xbe1faad7	-0.15592514
149	0x3d933f2d	0.07189784
150	0x3df061e9	0.11737425
151	0xbd13db8a	-0.03609804
152	0x3e0c22e7	0.13685189
153	0xbda6ad6d	-0.08138547
154	0xbdfe7abb	-0.12425753
155	0x3d5d68cc	0.05405502
156	0xbdb4706b	-0.088105045
157	0x3d3cfccf	0.046139535
158	0x3d601f47	0.05471733
159	0x3e0e6e2c	0.13909215
160	0x3cc0e226	0.023545336
161	0x3e156859	0.14590587
162	0x3e2bc7ed	0.16775484
163	0x3e18fc1b	0.1493992
164	0xbe1f2645	-0.15541942
165	0xbe087339	-0.13325204
166	0xbbc2b7af	-0.005942307
167	0x3cf49d17	0.029860063
168	0xbce0d691	-0.027446063
169	0xbdb52621	-0.08845163
170	0x3d7b5300	0.06135845
171	0x3c31a29a	0.01084199
172	0xbd4f416a	-0.050599493
173	0x3e249158	0.16071069
174	0xbe1041eb	-0.14087646
175	0x3ab280f3	0.0013618752
176	0x3d7de89d	0.061989415
177	0xbcd88998	-0.026432797
178	0x3e1cf077	0.15326105
179	0xbc5cb9d5	-0.01347204
180	0xbcbc632a	-0.022996504
181	0xbe0c5581	-0.13704492
182	0x3e273f3f	0.1633272
183	0x3d6b3b03	0.057429325
184	0x3e2784c6	0.16359243
185	0xbcf4cb0f	-0.029881982
186	0xbca3b683	-0.01998449
187	0xbe1bffe5	-0.15234335
188	0x3e102d46	0.1407977
189	0xbdb0c777	-0.08631795
190	0x3c484176	0.012222638
191	0x3e2569d6	0.16153654
192	0xbe241a4f	-0.16025661
193	0x3e132d8d	0.14372845
194	0xbd0b6b63	-0.03403796
195	0xbdd9fb67	-0.10643654
196	0xbe21b21e	-0.15790603
197	0x3dcc17fb	0.099655114
198	0xbd6dea70	-0.058084905
199	0xbd900064	-0.070313245
200	0x3e156a42	0.14591315
201	0x3e112932	0.14175871
202	0x3dcac3e8	0.099006474
203	0xbdcfa681	-0.1013918
204	0xbc7600d9	-0.015014851
205	0xbd682b1f	-0.05668175
206	0x3d5c2350	0.053744614
207	0xbd192145	-0.037385244
208	0xbd930669	-0.07178957
209	0xbdd52f7b	-0.10409447
210	0x3e179d48	0.14806092
211	0x3c84fd98	0.016234204
212	0x3e2afc07	0.16697703
213	0xbd9b48f9	-0.07582278
214	0xbd86494f	-0.06556951
215	0x3c79c174	0.015243877
216	0x3deb993e	0.11503838
217	0x3db787f7	0.0896148
218	0x3dee8911	0.11647237
219	0x390f1577	0.00013645539
220	0xbd50dc09	-0.050991092
221	0xbd88a0ee	-0.0667132
222	0x3d3b9638	0.045797557
223	0xbd9a86fd	-0.07545278
224	0xbd8e94fd	-0.06962011
225	0xbe0d8689	-0.13820852
226	0x3d921eca	0.07134779
227	0x3c8f5d75	0.017500618
228	0xbe018b26	-0.12650737
229	0xbd005821	-0.031334046
230	0x3db21320	0.08695054
231	0xbc0abf4f	-0.008468463
232	0xbdf5540c	-0.11978921
233	0xbe089ec3	-0.13341813
234	0x3d535112	0.051590987
235	0xbcd046ca	-0.02542438
236	0x3cd809be	0.026371833
237	0x3df1bd46	0.11803679
238	0xbd6b7625	-0.05748572
239	0xbd433c92	-0.047665186
240	0x3d1d33fd	0.038379658
241	0x3e0ab3f2	0.13545206
242	0xbe20b39a	-0.15693513
243	0xbd73af86	-0.059493564
244	0xbdfa2433	-0.12213936
245	0x3e25071c	0.16115993
246	0x3da72f1b	0.081632815
247	0x3dc0e5f3	0.09418859
248	0x3e07cfb7	0.1326283
249	0x3d326f1c	0.043562993
250	0x3d35765a	0.044302322
251	0xbd2196ee	-0.03945058
252	0xbd8e2644	-0.06940892
253	0xbdeec324	-0.11658314
254	0x3e29db75	0.16587622
255	0x3d543cf6	0.05181595

bias f4 [16]
0	0xbbfdda23	-0.007746951
1	0x3ca0173d	0.01954233
2	0x3d30cf89	0.04316667
3	0x3dbb71f6	0.09152596
4	0xbc03b3bd	-0.008038458
5	0x3b573195	0.003283595
6	0x3e04c0ba	0.12964144
7	0xbdfee369	-0.12445719
8	0xbd2e57d5	-0.042564232
9	0x3d80a6e2	0.0628183
10	0xbd873395	-0.06601635
11	0x3cf4cedf	0.0298838
12	0xbe130838	-0.14358604
13	0xbd82235c	-0.063544005
14	0x3d1343d0	0.035953343
15	0x3dcbfd65	0.099604405

weight f4 [16]
0	0x3f7fe1b0	0.99953747
1	0x3f7f3921	0.99696547
2	0x3f801a01	1.0007936
3	0x3f7fd6ec	0.9993732
4	0x3f800a3a	1.0003121
5	0x3f7ffca0	0.9999485
6	0x3f801c37	1.000861
7	0x3f7f7dff	0.9980163
8	0x3f7f5afd	0.9974821
9	0x3f8028fe	1.001251
10	0x3f800980	1.0002899
11	0x3f8009a2	1.000294
12	0x3f8018ba	1.0007546
13	0x3f802afc	1.0013118
14	0x3f7fc01d	0.99902517
15	0x3f7fce32	0.99924004

bias f4 [16]
0	0x3a2cce9b	0.0006592066
1	0xba9557d6	-0.0011393975
2	0xba051130	-0.00050761085
3	0xbab545a0	-0.0013829954
4	0x3938534b	0.00017578636
5	0xb9e17982	-0.00043005875
6	0x3a347993	0.0006884571
7	0xba283c25	-0.00064176536
8	0xbacbe42b	-0.001555567
9	0xba2410ec	-0.0006258625
10	0x3a78e5f9	0.0009494718
11	0x3a18a339	0.0005822662
12	0x39b6d45e	0.0003487197
13	0x3a7ea03b	0.0009713207
14	0x3adccac4	0.0016845097
15	0xb95091ba	-0.00019890713

running_mean f4 [16]
0	0xbb194024	-0.0023384178
1	0x3ccacfd2	0.0247573
2	0x3d469a18	0.0484868
3	0x3db72458	0.08942479
4	0xbc30c525	-0.01078919
5	0x3c2de1e6	0.01061294
6	0x3e155330	0.14582515
7	0xbdea2ff6	-0.11434929
8	0xbd20e375	-0.03927942
9	0x3db6b011	0.08920301
10	0xbd8b82db	-0.06812068
11	0x3cd22852	0.025653992
12	0xbe203291	-0.1564429
13	0xbda17cac	-0.078851074
14	0x3ce8b4c3	0.028406506
15	0x3dfa07cd	0.12208519

running_var f4 [16]
0	0x3eeed64f	0.4664788
1	0x3f08d5d6	0.5345129
2	0x3e910452	0.2832361
3	0x3e66187e	0.2247028
4	0x3ec0a075	0.3762242
5	0x3eaa68b7	0.33283016
6	0x3ebaaade	0.36458486
7	0x3ed8b57e	0.42325968
8	0x3ebee46f	0.37283656
9	0x3ea1884e	0.31549305
10	0x3e344cd8	0.17607439
11	0x3e8f3887	0.27972814
12	0x3e862164	0.2619735
13	0x3f335b80	0.7006149
14	0x3eaf967f	0.34294507
15	0x3ea540b6	0.32275933

weight f4 [16, 16, 2]
0	0xbd66f69b	-0.056387525
1	0x3d69bf8f	0.05706745
2	0xbd9d24f9	-0.076730676
3	0xbe12a1ee	-0.14319584
4	0x3d2a7bca	0.04162196
5	0xbde5b56c	-0.11216244
6	0x3e29dce0	0.16588163
7	0x3dc68c57	0.096947365
8	0xbe202914	-0.1564067
9	0x3d85f04a	0.06539972
10	0x3de7ca2f	0.1131786
11	0x3d5bfa53	0.053705525
12	0xbe1a7b5b	-0.15086119
13	0xbd1d9516	-0.038472258
14	0x3d4e8ad2	0.050425358
15	0x3d5ca5db	0.05386911
16	0x3c803de6	0.015654515
17	0xbe174cf6	-0.14775452
18	0xbdad17d6	-0.08451812
19	0x3d0ac722	0.033881314
20	0x3c1d3cc1	0.009597004
21	0xbdab24fb	-0.08356663
22	0xbcaa5109	-0.020790594
23	0xbdda5a7b	-0.10661789
24	0x3e2c012f	0.16797327
25	0xbe2835a7	-0.16426717
26	0xbe2c879c	-0.16848606
27	0x3da99cfe	0.08281897
28	0x3db8d2a5	0.09024552
29	0xbd7f8ac3	-0.062388193
30	0x3ced382d	0.02895745
31	0xbd4834c6	-0.048878454
32	0xbe161aba	-0.14658633
33	0xbe229007	-0.15875255
34	0xbd871a6a	-0.06596835
35	0x3cbfdc1e	0.02342039
36	0x3dcfd2e3	0.10147645
37	0xbca815d2	-0.020518217
38	0x3c8bbed9	0.017058777
39	0xbd3e06fb	-0.046393376
40	0x3ce776b0	0.028254837
41	0x3d9e0d91	0.07717431
42	0x3d0d23a9	0.034457836
43	0x3d9d50c3	0.0768142
44	0x3d345410	0.04402548
45	0x3bb52bab	0.0055288873
46	0xbb105877	-0.0022025385
47	0xbe2930a0	-0.16522455
48	0xbde25a29	-0.11052353
49	0xbe071680	-0.13192177
50	0x3de0d20f	0.109775655
51	0xbd02886b	-0.03186838
52	0xbaa0c32f	-0.00122652
53	0x3d74d158	0.05976996
54	0xbe02b94b	-0.12765996
55	0xbe294f88	-0.16534245
56	0xbe03605d	-0.12829728
57	0xbdbb2451	-0.09137786
58	0xbb95064e	-0.0045478707
59	0x3dfcf425	0.123512544
60	0xbd0e41e2	-0.0347308
61	0x3e1549df	0.14578961
62	0xbc847908	-0.016170993
63	0xbe2e723b	-0.17035763
64	0xbd121785	-0.03566696
65	0x3e0e6a02	0.13907626
66	0x3b5be1c3	0.0033551313
67	0x3e16f4d7	0.14741836
68	0xbdadad8b	-0.08480366
69	0x3d9a249d	0.07526515
70	0xbdcfa7c2	-0.10139419
71	0xbe2b78d7	-0.16745315
72	0xbd4fface	-0.050776295
73	0xbe1789c7	-0.14798652
74	0x3d9dee28	0.0771144
75	0x3d86269b	0.06550332
76	0x3c1357cb	0.008993099
77	0x3e1edae9	0.15513195
78	0xbdde7ee2	-0.10864045
79	0xbccae7c6	-0.024768721
80	0x3da5f0dc	0.08102581
81	0xbe0a1337	-0.13483892
82	0x3d6502ea	0.055910982
83	0xbd3eef0d	-0.046614695
84	0xbe1e7b64	-0.15476757
85	0x3e2de144	0.16980463
86	0x3d347bdc	0.044063434
87	0xbe0652ad	-0.13117476
88	0xbda639b6	-0.08116476
89	0xbd04f3ad	-0.03245895
90	0x3e1a0f1a	0.15044823
91	0x3d997b44	0.07494214
92	0xbdeb0ed4	-0.114774376
93	0xbe257fca	-0.16162029
94	0x3d443846	0.04790523
95	0x3e0c180d	0.1368105
96	0xbe2aee8d	-0.16692562
97	0x3dbd8552	0.092539445
98	0x3e150834	0.1455391
99	0xbdfe47a7	-0.1241601
100	0xbe1ee238	-0.15515983
101	0x3d1204ba	0.03564904
102	0xbc9a3a33	-0.01882658
103	0x3d9bd5fd	0.076091744
104	0x3d9aef36	0.07565157
105	0x3e25b934	0.1618393
106	0x3a184957	0.00058092683
107	0x3ce75e47	0.028243197
108	0xbd827899	-0.063706584
109	0xbde448b5	-0.1114668
110	0x3dc820cf	0.09771883
111	0xbd58a270	-0.052889287
112	0xbe12e76b	-0.14346091
113	0xbc2828c6	-0.010263627
114	0x3dba9bce	0.09111749
115	0x3df1d65e	0.118084654
116	0x3c932c48	0.01796545
117	0x3d399fb2	0.045318313
118	0xbcb72336	-0.022355657
119	0xbdbcd2cd	-0.092198946
120	0xbc8b93e4	-0.017038293
121	0xbda2c16f	-0.07947051
122	0x3dc84645	0.09779028
123	0x3d208f2b	0.039199036
124	0x3e055550	0.13020825
125	0x3d040cf7	0.032238927
126	0x3d03035b	0.031985622
127	0xbdc0a486	-0.0940638
128	0x3e144ff4	0.14483625
129	0xbd4cbea0	-0.04998648
130	0x3e23d4cf	0.15999149
131	0x3e086bd8	0.13322389
132	0xbdf87671	-0.12131966
133	0xbdd179ab	-0.102282844
134	0xbe040256	-0.12891516
135	0xbbd40014	-0.006469736
136	0xbde67d8d	-0.11254416
137	0x3e1b8f00	0.15191269
138	0x3da877e0	0.08225989
139	0xbd727133	-0.059189986
140	0xbe0e68b9	-0.13907136
141	0xbdfd4c45	-0.12368063
142	0x3e1d38d0	0.15353703
143	0xbe148271	-0.14502884
144	0x3e2ecd5f	0.1707053
145	0xbe09bdc8	-0.13451302
146	0x3d0bcd82	0.034131534
147	0xbdc20e3c	-0.09475371
148	0xbe05b339	-0.1305665
149	0x3e2062d7	0.15662704
150	0xbe167f77	-0.14697061
151	0x3c59b09c	0.013286736
152	0xbe0b8d9b	-0.13628237
153	0xbc20537f	-0.009785532
154	0x3d35296f	0.044228967
155	0x3c89fd9f	0.016844569
156	0xbc07c29c	-0.008286145
157	0xbd8960b8	-0.06707901
158	0xbe204e45	-0.15654857
159	0x3dbf5ab8	0.09343475
160	0xbe026f8e	-0.12737867
161	0xbc7ab202	-0.015301229
162	0xbd15d03b	-0.036575537
163	0xbe0e5195	-0.13898309
164	0xbd827cb1	-0.06371439
165	0xbe0576af	-0.13033555
166	0x3c97a605	0.018511781
167	0x3db8cca0	0.09023404
168	0xbdf34e65	-0.11880187
169	0xbc18982a	-0.0093136225
170	0xbdda64eb	-0.1066378
171	0xbdf1ca8a	-0.118062094
172	0x3ce2e025	0.027694771
173	0xbc349648	-0.011022158
174	0x3dacf348	0.0844484
175	0x3d952adc	0.072835654
176	0x3e0aff90	0.13574052
177	0x3e1fd957	0.15610252
178	0x3b8e322c	0.004339477
179	0xbdccec60	-0.100060225
180	0x3d8779e1	0.066150434
181	0x3d2c1ba0	0.042018533
182	0x3e2b59ab	0.16733424
183	0x3e037ed2	0.12841347
184	0xbc12d7e4	-0.008962605
185	0x3d3f5e48	0.046720773
186	0xbe26a4f5	-0.16273864
187	0xbdd995bc	-0.10624263
188	0x3dd8ad7b	0.10579964
189	0x3d230b68	0.0398058
190	0x3d8d9331	0.0691284
191	0xbe16284a	-0.14663807
192	0xbdc1ac40	-0.09456682
193	0xbdb1f9d4	-0.08690229
194	0x3e1bbf57	0.15209709
195	0xbde33d07	-0.110956244
196	0x3e135aba	0.14390078
197	0x3e0f6c2f	0.14006113
198	0x3d10e5c1	0.03537536
199	0x3dd916a1	0.10600019
200	0x3e030928	0.12796462
201	0x3e1894dd	0.14900537
202	0xbcab1cf3	-0.020887828
203	0x3ca117cc	0.019664668
204	0x3e019626	0.12654933
205	0xbdc771f2	-0.0973853
206	0xbe02d7c5	-0.12777622
207	0xbe1fd20b	-0.15607469
208	0x3d9d32d9	0.07675714
209	0xbdca88c9	-0.09889371
210	0xbe265035	-0.16241534
211	0xbd16ed4c	-0.036847398
212	0xbde343f3	-0.11096945
213	0xbe01349f	-0.1261773
214	0xbdcd04fa	-0.10010715
215	0x3e116186	0.14197358
216	0xbd90e4a4	-0.0707486
217	0xbd1225e0	-0.03568065
218	0xbe31b371	-0.17353608
219	0x3c92dcd0	0.017927557
220	0x3d49b89d	0.049248327
221	0xbe1757fe	-0.1477966
222	0x3dd56f85	0.10421661
223	0xbd240d20	-0.04005158
224	0xbdb01e15	-0.08599488
225	0x3e313718	0.17306173
226	0x3e14884d	0.1450512
227	0xbcb1ddff	-0.021712301
228	0xbe34298a	-0.17593971
229	0x3b98111d	0.004640712
230	0x3e022e31	0.12712933
231	0xbd728c8f	-0.05921608
232	0xbddebd42	-0.10875942
233	0xbd6dc7b0	-0.058051765
234	0xbd34bb6b	-0.04412405
235	0x3d720060	0.05908239
236	0xbd69f850	-0.057121575
237	0xbe070433	-0.13185196
238	0x3e2c1e59	0.16808452
239	0xbdf04cab	-0.11733373
240	0x3cada1ca	0.021195311
241	0x3e10f758	0.14156854
242	0x3db24e5e	0.087063536
243	0x3cfd3335	0.030908206
244	0xbdeddbc4	-0.116141826
245	0xbe04bbf7	-0.12962328
246	0xbd5cfec4	-0.0539539
247	0x3e1c85ce	0.15285417
248	0xbdc98f51	-0.098417886
249	0xbbe6313e	-0.007024913
250	0xbda663f3	-0.081245326
251	0x3e2a2320	0.16614962
252	0x3e1bddf3	0.15221386
253	0x3c29e756	0.010370096
254	0x3e27afe2	0.16375688
255	0x3e335b5e	0.17515323

bias f4 [16]
0	0x3d4be403	0.049777996
1	0x3de50c77	0.11184018
2	0x3d45a3d5	0.048251946
3	0x3d587914	0.052849844
4	0x3e0803cb	0.13282697
5	0xbd29cc67	-0.0414547
6	0x3db0086f	0.085953586
7	0x3e2280ed	0.15869494
8	0x3b6e9ac4	0.0036408165
9	0x3d205036	0.039138995
10	0x3d738dc4	0.05946137
11	0x3d47e276	0.048799954
12	0x3cbe1bb7	0.023206575
13	0x3da8ad0d	0.08236132
14	0x3e213a12	0.15744808
15	0x3e0a346c	0.1349656

weight f4 [8, 16]
0	0xbe4c18f7	-0.19931398
1	0x3ceda4db	0.029009273
2	0x3dae3531	0.08506239
3	0xbdae017c	-0.08496377
4	0x3db81ede	0.089902624
5	0x3d068d79	0.032849763
6	0xbe591f20	-0.2120328
7	0x3dee0421	0.11621881
8	0x3e26e757	0.16299187
9	0x3c9202a7	0.01782353
10	0xbe473e6a	-0.19457403
11	0xbb9e0978	-0.004822906
12	0xbd398ad3	-0.04529841
13	0xbddf82ee	-0.10913645
14	0x3e480897	0.19534527
15	0x3dfdf23e	0.1239972
16	0x3d536384	0.051608577
17	0xbe27eb1d	-0.16398282
18	0xbe4fcd2b	-0.20293109
19	0x3e4ed90d	0.20199986
20	0xbe34ba32	-0.17649153
21	0x3e67802e	0.2260749
22	0x3e728f12	0.2368739
23	0xbd6c4ad9	-0.057688568
24	0xbd859f53	-0.06524529
25	0xbe6b247f	-0.22963141
26	0xbdafe32c	-0.085882515
27	0x3de99073	0.114045046
28	0x3e1fa23a	0.15589228
29	0x3d8ad93f	0.06779718
30	0xbe7b7592	-0.24556568
31	0xbd9ada8c	-0.07561216
32	0x3e4603bd	0.19337364
33	0x3da3bd30	0.07995069
34	0x3d282d12	0.041058607
35	0x3db3eccb	0.08785399
36	0xbd97471f	-0.07386612
37	0x3e4a9b06	0.19785699
38	0x3d581896	0.052757822
39	0x3af4da4b	0.0018680779
40	0xbd31e5a9	-0.04343191
41	0x3e0223c2	0.12708953
42	0x3e46bf87	0.19409
43	0x3df3473d	0.11878822
44	0xbdee4ee6	-0.116361424
45	0x3e3907b0	0.18069339
46	0x3e761372	0.24030855
47	0xbe3c915e	-0.18414828
48	0x3e7c8566	0.24660262
49	0xbe75051a	-0.23927727
50	0xbc8d2277	-0.017228348
51	0x3d1e0cda	0.038586475
52	0xbc919408	-0.017770782
53	0x3e67440d	0.22584553
54	0xbe64bb97	-0.22337185
55	0xbe4d61d6	-0.20056853
56	0x3e28e55f	0.16493748
57	0xbe458c71	-0.19291855
58	0xbdb597e9	-0.08866865
59	0xbdfdf169	-0.12399561
60	0xbc87376c	-0.01650592
61	0x3e681d7b	0.22667496
62	0xbc3294b9	-0.010899716
63	0x3d8faaf5	0.07015029
64	0x3c9acf27	0.018897606
65	0xbe7348af	-0.23758195
66	0xbe19da80	-0.15024757
67	0x3d46c72b	0.048529785
68	0x3bcf9715	0.006335149
69	0x3d6d9620	0.0580045
70	0xbcb56506	-0.022142898
71	0xbe32ca81	-0.17460062
72	0xbd6c1d29	-0.057644997
73	0xbe13a7f9	-0.14419545
74	0xbd6c7372	-0.057727285
75	0xbe4cfc57	-0.20018135
76	0x3e3c2e00	0.18376923
77	0x3e59bf61	0.21264412
78	0x3e1bf47a	0.15229979
79	0x3e4638f3	0.19357662
80	0x3e2516d5	0.16121991
81	0x3e31fbd4	0.17381221
82	0x3e6db6d7	0.23214279
83	0xbe574bcb	-0.21025006
84	0xbd067d35	-0.03283425
85	0x3e221722	0.15829137
86	0x3d16166d	0.03664248
87	0xbc91c72a	-0.017795164
88	0x3d17586c	0.03694956
89	0x3d021942	0.03176237
90	0xbe380f1f	-0.17974518
91	0x3d5a4e43	0.053297292
92	0x3e2230d8	0.15838945
93	0x3e804b77	0.25057575
94	0x3e481e63	0.19542842
95	0xbe648a9c	-0.223185
96	0xbe49604e	-0.19665644
97	0x3e282d06	0.16423425
98	0x3e7516cc	0.23934478
99	0xbdfcf321	-0.12351061
100	0x3d7337fe	0.05937957
101	0xbde55267	-0.111973576
102	0x3e72d294	0.23713142
103	0x3ddd9989	0.108203
104	0xbe1ce55e	-0.15321872
105	0xbe464437	-0.1936196
106	0xbd57c757	-0.05268034
107	0x3bfb2c8c	0.0076652225
108	0x3e271d63	0.16319804
109	0xbe5faa81	-0.21842386
110	0x3d9dbf92	0.07702555
111	0xbd953448	-0.072853625
112	0x3e5e165f	0.21688221
113	0x3e7ac341	0.24488546
114	0x3e325312	0.17414501
115	0xbe372fdf	-0.17889355
116	0x3e5f1528	0.21785414
117	0x3de7d27b	0.11319443
118	0xbe2fe879	-0.17178525
119	0x3e5bcb39	0.21464242
120	0xbda472b9	-0.08029694
121	0xbd9b6afb	-0.07588764
122	0xbe40930f	-0.18806098
123	0xbde7e513	-0.11322989
124	0xbe1cf8d1	-0.15329291
125	0xbb575a04	-0.003286005
126	0xbe0b5c22	-0.13609365
127	0xbdcc877e	-0.099867806

bias f4 [8]
0	0xbe3e214c	-0.18567389
1	0x3e6e814b	0.23291509
2	0x3d21ecc0	0.039532423
3	0xbe3b8e64	-0.18316036
4	0x3e1d8e17	0.15386234
5	0x3d056426	0.032566212
6	0x3d519a02	0.051172264
7	0xbe538238	-0.20655143

weight f4 [16, 8]
0	0xbea2600e	-0.3171391
1	0xbe20007c	-0.15625185
2	0xbe045f20	-0.12926912
3	0x3e4500c0	0.19238567
4	0x3e04e73d	0.12978835
5	0x3e8dfc31	0.2773147
6	0xbea2dbbd	-0.31808272
7	0xbea4da9b	-0.32198033
8	0x3e49a3d5	0.19691403
9	0x3e8542cb	0.26027521
10	0xbe8b5485	-0.2721292
11	0xbe080db4	-0.13286477
12	0xbe7356ea	-0.23763624
13	0x3c016669	0.007897952
14	0x3e1aaad6	0.15104231
15	0x3db3a9c2	0.08772613
16	0xbe25ec07	-0.16203319
17	0xbe9a1046	-0.3009054
18	0xbb2e6e46	-0.002661602
19	0x3d8391bf	0.06424283
20	0xbe523746	-0.20528898
21	0xbd928e23	-0.07156017
22	0xbe99cd3a	-0.30039388
23	0x3e6d6f87	0.23187076
24	0xbe37e1b4	-0.17957193
25	0xbe7176a6	-0.23580417
26	0xbde772a7	-0.11301165
27	0x3eb2c2aa	0.34914142
28	0xbe879fb2	-0.26489025
29	0xbeab2402	-0.3342591
30	0x3e8ca132	0.27466732
31	0xbe4c75e8	-0.19966853
32	0xbe3292ca	-0.17438808
33	0xbeaaff53	-0.33397922
34	0x3e333389	0.17500128
35	0xbe574a34	-0.210244
36	0x3e3cc99f	0.18436287
37	0xbe1d7482	-0.15376475
38	0xbe600fc3	-0.21881013
39	0x3e624f71	0.22100617
40	0x3e97c081	0.29639056
41	0x3bd29b2c	0.0064271893
42	0xbe2a4fcd	-0.16632004
43	0xbdec0adc	-0.11525509
44	0x3dc332cc	0.09531173
45	0x3d414f11	0.047194544
46	0x3e37997e	0.17929646
47	0xbe8b87dd	-0.27252093
48	0x3cb97377	0.022638066
49	0x3eb04d6e	0.34434074
50	0x3da13802	0.07872011
51	0xbd55af29	-0.052169
52	0x3e5d2fae	0.2160022
53	0x3ceb4a88	0.028722063
54	0xbe7f9972	-0.24960878
55	0x3e312708	0.17300045
56	0xbe3325e7	-0.17494927
57	0xbe8a7fd1	-0.2705064
58	0x3c6b6aa9	0.0143686915
59	0xbd94105c	-0.07229683
60	0xbd5163c0	-0.05112052
61	0x3e73b512	0.23799542
62	0x3dde8603	0.108654045
63	0x3e2520d6	0.16125807
64	0xbe1486b6	-0.14504513
65	0x3e185567	0.14876328
66	0xbe3d6ea7	-0.18499242
67	0x3e4e0448	0.2011882
68	0x3e1bc727	0.1521269
69	0x3e898e42	0.26866347
70	0x3e9451b4	0.28968585
71	0xbd614b7b	-0.055003624
72	0x3e8175ee	0.25285286
73	0x3eb2560e	0.3483128
74	0x3d01ec63	0.031719577
75	0x3d2f09eb	0.042734068
76	0xbd536a4b	-0.05161504
77	0x3e0c399c	0.13693851
78	0xbe0a6678	-0.13515651
79	0xbe9822c3	-0.2971402
80	0xbeb0b702	-0.34514624
81	0x3c7f0840	0.015565932
82	0xbd4c2bd1	-0.049846474
83	0xbe048d3a	-0.12944499
84	0xbe4b9ef0	-0.19884849
85	0xbdf2f499	-0.118630596
86	0x3dd82bed	0.10555253
87	0x3e7cfdc3	0.24706177
88	0xbe847ad0	-0.25874949
89	0xbe50f027	-0.20404111
90	0xbdf9d285	-0.121983565
91	0x3deb4f81	0.114897735
92	0xbdbfa85b	-0.09358283
93	0x3d4071e4	0.046983615
94	0x3e88aefe	0.26696008
95	0xbe900f73	-0.28136787
96	0x3e402530	0.18764186
97	0xbe3ac146	-0.1823779
98	0x3dd96e71	0.10616768
99	0x3e952579	0.29130152
100	0x3e249e02	0.160759
101	0xbd43d98a	-0.047814883
102	0x3e9bcb60	0.304286
103	0xbe8ac4bc	-0.2710322
104	0xbd59e430	-0.053196132
105	0x3db173da	0.08664675
106	0x3da43cde	0.08019422
107	0xbd845b76	-0.06462757
108	0x3e4acc61	0.19804527
109	0x3e8b5881	0.2721596
110	0xbe8c7970	-0.274364
111	0xbdd0f2ad	-0.10202537
112	0x3e7cdb30	0.24692988
113	0x3e474454	0.19459659
114	0x3e4533df	0.19258069
115	0xbe989971	-0.29804567
116	0xbda92211	-0.08258451
117	0xbe957dfd	-0.29197684
118	0xbe97608e	-0.29565853
119	0xbe9b5cd5	-0.30344263
120	0x3e6ff631	0.23433758
121	0x3d9d50da	0.07681437
122	0xbe244ecb	-0.16045682
123	0x3d754a42	0.05988527
124	0x3e069a16	0.13144717
125	0xbb8aa80f	-0.00423146
126	0xbdc5d222	-0.0965922
127	0xbe8a18bf	-0.26972005

bias f4 [16]
0	0xbe94791c	-0.2899865
1	0x3dc4b146	0.09604125
2	0xbe9c5327	-0.3053219
3	0x3e6776d2	0.2260392
4	0xbe8bd0da	-0.2730778
5	0xbe8cbf4f	-0.27489707
6	0xbda81de3	-0.082088254
7	0x3d5755f4	0.052572206
8	0x3eb3f8f5	0.35150877
9	0xbd999fc5	-0.07501177
10	0xbb94f295	-0.0045455196
11	0x3da478e8	0.080308735
12	0x3e5744e2	0.2102237
13	0xbcf3d985	-0.029766807
14	0xbe07c3df	-0.13258313
15	0x3e7ad9b3	0.24497108

weight f4 [1, 2, 7, 3]
0	0x3dad666a	0.084667996
1	0xbe0a35df	-0.13497113
2	0x3d78cc27	0.06074157
3	0xbddb148a	-0.10697277
4	0x3cb3641b	0.02189832
5	0xbdbc7f3e	-0.09203957
6	0xbe052da3	-0.1300569
7	0xbdbbceb1	-0.09170283
8	0x3cb0a970	0.02156517
9	0xbd9c3430	-0.076271415
10	0xbe135c3a	-0.1439065
11	0xbe11deb1	-0.14245106
12	0xbbe7aab3	-0.0070699095
13	0x3e0ec027	0.13940488
14	0xbcd81cad	-0.026380861
15	0x3e01d088	0.12677205
16	0x3cc139d2	0.023587141
17	0xbe1a11da	-0.15045872
18	0x3d852b04	0.06502345
19	0xbd99990d	-0.07499895
20	0x3dd7cd81	0.10537244
21	0xbdea03f8	-0.11426538
22	0xbd64cfd5	-0.055862267
23	0xbdec8233	-0.11548271
24	0x3db94beb	0.09047683
25	0x3d5bf110	0.053696692
26	0x3deb6020	0.11492944
27	0x3c9dfdcd	0.01928606
28	0x3db5559f	0.088542216
29	0x3cca0d8c	0.024664663
30	0x3b96249d	0.0045820014
31	0x3e1b3a07	0.15158854
32	0x3cd6a9d6	0.026204031
33	0xbdba732a	-0.09103997
34	0xbe0f8b83	-0.14018063
35	0x3cd152d3	0.025552189
36	0xbd4f5048	-0.05061367
37	0xbdbf39dd	-0.093372084
38	0x3daaf214	0.08346954
39	0xbdb69d04	-0.08916667
40	0x3dff51de	0.12466787
41	0xbda85050	-0.082184434

weight f4 [16]
0	0x3f7fc59d	0.9991091
1	0x3f7f8850	0.9981737
2	0x3f800872	1.0002577
3	0x3f80088a	1.0002606
4	0x3f8002b4	1.0000825
5	0x3f80309b	1.0014833
6	0x3f7fe4f6	0.9995874
7	0x3f7ffff4	0.9999993
8	0x3f80204d	1.0009857
9	0x3f80179b	1.0007204
10	0x3f801e69	1.000928
11	0x3f7fbb6c	0.9989536
12	0x3f7fd135	0.999286
13	0x3f7f978f	0.99840635
14	0x3f7f88e4	0.99818254
15	0x3f802448	1.0011072

bias f4 [16]
0	0x39cfe018	0.0003964908
1	0xba97f2e1	-0.0011592769
2	0xb911f132	-0.0001391813
3	0xba7db8bd	-0.0009678712
4	0x39f0fea2	0.00045966083
5	0x3ad05c82	0.001589671
6	0xba137964	-0.00056256936
7	0xb6531784	-3.1455138e-06
8	0x396bb482	0.00022478591
9	0xb9249fe5	-0.00015699824
10	0x3ac496ad	0.0014998518
11	0xb90ca7b1	-0.0001341391
12	0xba9c8f4b	-0.001194456
13	0xb9c114b2	-0.00036827248
14	0x38ec5b65	0.000112703805
15	0x3a9fe132	0.0012197851

running_mean f4 [16]
0	0x3d4bc48e	0.049747996
1	0x3de5fb48	0.11229569
2	0x3d037797	0.03209647
3	0x3d88ce24	0.06679943
4	0x3d12154f	0.035664853
5	0x3d8102c1	0.062993534
6	0x3de40a3f	0.11134767
7	0x3d5d888c	0.0540853
8	0x3dcf4817	0.10121172
9	0x3dd32791	0.10310281
10	0x3d9b3db7	0.075801305
11	0x3d84b688	0.064801276
12	0x3d92cfa4	0.071685106
13	0x3da8f3ce	0.08249627
14	0x3dbbe401	0.09174348
15	0x3db9c23d	0.09070251

running_var f4 [16]
0	0x3b86210a	0.004093294
1	0x3d18b058	0.03727755
2	0x3b5ec6ed	0.003399308
3	0x3c72b2dd	0.014813152
4	0x3b73cb6c	0.0037200106
5	0x3cdd2920	0.026997149
6	0x3d60b581	0.054860596
7	0x3c2abbb1	0.010420726
8	0x3d6193c5	0.055072565
9	0x3d325fa1	0.04354823
10	0x3d2ae549	0.04172257
11	0x3c8aa11d	0.016922528
12	0x3c4d6a4a	0.012537548
13	0x3c202456	0.009774288
14	0x3d1ddd48	0.03854111
15	0x3cfe3f43	0.031036025

weight f4 [32, 16, 3, 3]
0	0x3cb42b75	0.021993378
1	0xbd0cc86d	-0.03437083
2	0xbce4a59b	-0.027910998
3	0x3d959c45	0.07305197
4	0x3c413b42	0.011793913
5	0xbd8bb40d	-0.06821451
6	0xbd754de8	-0.05988875
7	0x3bfec1a1	0.007774547
8	0xbcd53612	-0.02602676
9	0xbd5bc2e6	-0.053652667
10	0xbd5647f9	-0.052314732
11	0xbda519ea	-0.08061583
12	0xbd9afef6	-0.07568161
13	0xbd67cf8b	-0.056594413
14	0x3c67160a	0.014104376
15	0x3d979b07	0.07402616
16	0xbc0b1500	-0.0084888935
17	0xbd6c0b5e	-0.057628028
18	0x3c16fe56	0.009215912
19	0xbd9757fa	-0.07389827
20	0x3c8c1691	0.017100604
21	0x3d4a10f6	0.04933258
22	0xbccce12a	-0.02500971
23	0xbd1340d0	-0.035950482
24	0x3d97a2b3	0.07404079
25	0x3da113aa	0.07865079
26	0xbc9a25a1	-0.018816771
27	0xbd1708ad	-0.03687351
28	0xbcb110ce	-0.021614458
29	0x3d41666d	0.04721682
30	0xbd416045	-0.04721095
31	0xbd318807	-0.043342616
32	0x3c0cfd98	0.008605383
33	0xbd9688e5	-0.07350329
34	0xbd0b524f	-0.034014042
35	0x3be64210	0.007026918
36	0xbc7f84a1	-0.015595586
37	0x3d83070c	0.063978285
38	0xbd49dc58	-0.0492824
39	0xbc6acd77	-0.014331213
40	0x3cadddb1	0.021223875
41	0x3a7e160c	0.00096926163
42	0xbcc3cd96	-0.023901742
43	0x3cda356a	0.026636798
44	0xbc996b86	-0.018728029
45	0x3d7caf31	0.061690513
46	0x3c3cc3a1	0.011521251
47	0x3cad1986	0.021130335
48	0x3c2085d6	0.009797534
49	0x3c026705	0.007959132
50	0x3d8f35e8	0.06992704
51	0x3b88950b	0.004168158
52	0xbd1917a1	-0.03737605
53	0xbd4f93c8	-0.050678045
54	0xbd2525f4	-0.040319398
55	0xbb5f4476	-0.0034067906
56	0xbd902719	-0.07038707
57	0xbda5c748	-0.080946505
58	0x3d8b1d9d	0.06792758
59	0xbd3b3332	-0.04570312
60	0xbda78e61	-0.081814535
61	0xbd9aba47	-0.07555061
62	0xbda1669a	-0.07880898
63	0x3d5baa4a	0.053629197
64	0x3d52c0b7	0.05145332
65	0x3d5b4a10	0.05353743
66	0xbc16ac1b	-0.009196307
67	0x3ca007ee	0.019535031
68	0xbd4ee51c	-0.050511464
69	0x3d32e2a4	0.043673173
70	0xbda2cb03	-0.07948878
71	0x3d62e7c5	0.055396814
72	0x3d7bc2fb	0.061465245
73	0x3d36fc11	0.044673983
74	0xbd6733dc	-0.05644594
75	0x3ced514b	0.028969428
76	0x3d8ffe12	0.07030882
77	0x3c3b483d	0.011430797
78	0xbd39709e	-0.045273416
79	0xbc9dcc99	-0.019262599
80	0x3cdaa80d	0.026691461
81	0xbc0fa8fa	-0.0087683145
82	0x3d736538	0.0594227
83	0x3d7e90c3	0.062149774
84	0x3cdc4b1b	0.026891282
85	0xbd4d0ac2	-0.050059088
86	0x3d5514fe	0.052021973
87	0xbbf89692	-0.0075863088
88	0x3d8af01a	0.06784077
89	0xbcf9cf84	-0.030494459
90	0x3cdfea49	0.027333396
91	0x3da6d776	0.08146565
92	0xbba1f5bc	-0.004942624
93	0x3d71e798	0.059058756
94	0xbd0ae9b8	-0.033914298
95	0x3d8a58ff	0.06755256
96	0xbd3b544c	-0.04573469
97	0x3c14f92b	0.009092609
98	0x3d9d1e4e	0.07671796
99	0xbd0797e9	-0.033103857
100	0x3d382cb4	0.044964507
101	0x3d9c418c	0.076296896
102	0xbd9acadf	-0.07558226
103	0xbd4f7609	-0.050649676
104	0x3d557f72	0.052123494
105	0xbc7cc649	-0.015428134
106	0xbc67cf4d	-0.014148545
107	0x3d9388b9	0.07203812
108	0xbd001515	-0.031270105
109	0x3d4919b0	0.049096763
110	0xbcd3afb8	-0.025840625
111	0xbca34d4b	-0.019934317
112	0xbd1c61b7	-0.038179126
113	0xbd84a0cc	-0.06475982
114	0xbdaa5932	-0.08317794
115	0xbd06c9e0	-0.032907367
116	0xbc4e13f7	-0.012578002
117	0xbd8c432c	-0.068487495
118	0x3c8b5fcf	0.017013459
119	0x3d85c05b	0.065308295
120	0xbd6ab9dd	-0.05730616
121	0xbc9fd071	-0.019508572
122	0x3d4c28cf	0.049843606
123	0x3d8634fa	0.06553073
124	0x3c76200f	0.015022292
125	0xbd296d2a	-0.041363873
126	0xbd21d740	-0.03951192
127	0xbcb38ed6	-0.021918695
128	0xbd49e638	-0.04929182
129	0x3d31fe85	0.04345562
130	0xbcdbe728	-0.026843622
131	0xbd376360	-0.044772506
132	0x3d86b426	0.06577329
133	0xbc5fbcaa	-0.013655821
134	0xbbef3540	-0.007300049
135	0x3d0cdaf4	0.034388497
136	0x3cba05fd	0.022707934
137	0x3c73739b	0.014859105
138	0x3d073523	0.03300966
139	0x3cd2c45d	0.025728399
140	0x3d959c8a	0.07305248
141	0x3d3569a2	0.044290192
142	0xbd2ab432	-0.041675754
143	0x3c0ace43	0.008472028
144	0x3c96f117	0.018425507
145	0x3d4abfdf	0.04949939
146	0x3d5fdbb7	0.054652896
147	0xbd721b10	-0.05910784
148	0xbd42cc90	-0.047558367
149	0x3c3c2cbd	0.011485276
150	0xbd3de907	-0.04636481
151	0x3c903839	0.017604934
152	0xbd2cd17b	-0.042191964
153	0x3cd07c22	0.025449816
154	0xbaffa7de	-0.0019504984
155	0x3d43bf7f	0.047790047
156	0x3d4b96a7	0.04970422
157	0x3cb8e0ad	0.022568071
158	0xbc829d08	-0.015944019
159	0xbd740b76	-0.059581243
160	0x3d68bd8d	0.056821395
161	0xbce42d73	-0.027853703
162	0x3cbd8920	0.023136675
163	0xbc891a59	-0.016736196
164	0x3d46a9bc	0.048501715
165	0x3d58ca1e	0.05292713
166	0x3c3bb927	0.011457718
167	0x3ca55c16	0.020185512
168	0x3d8ecea3	0.069730066
169	0xbc235e3f	-0.0099712005
170	0x3da887b8	0.08229011
171	0xbd280b91	-0.041026656
172	0xbc68a8c6	-0.014200395
173	0x3c7e62dc	0.0155265
174	0x3d35d6cf	0.04439431
175	0x3d63a993	0.05558164
176	0x3d248409	0.04016498
177	0xbb4388e7	-0.0029836239
178	0x3d9514dd	0.0727937
179	0xbadf2833	-0.001702553
180	0xbda23d5d	-0.0792186
181	0xbd271efb	-0.04080103
182	0x3c9444b3	0.018099165
183	0xbcc43512	-0.023951087
184	0x3cdd106c	0.02698537
185	0xbd082211	-0.033235613
186	0xbb4a6668	-0.0030883793
187	0xbd9110fc	-0.07083318
188	0xbb820ca0	-0.00396879
189	0xbd1f5618	-0.038900465
190	0x3d63d8a0	0.05562651
191	0xbd0d4eb4	-0.034498885
192	0xbda239b6	-0.07921164
193	0xbc3dd72d	-0.011586946
194	0x3d1707f4	0.03687282
195	0x3d6e8f1c	0.05824195
196	0xbcd0da11	-0.025494607
197	0xbd233393	-0.039844107
198	0x3ca10de5	0.019659946
199	0x3ca1e1e5	0.019761035
200	0xbd97beee	-0.07409464
201	0x3d764bc1	0.06013084
202	0x3d9b1d3c	0.075739354
203	0x3c193a47	0.009352273
204	0x3d519683	0.05116893
205	0xbd5cb388	-0.05388215
206	0xbc609726	-0.013707912
207	0x3c8a4753	0.016879713
208	0xbd6eb930	-0.058282077
209	0x3d851130	0.06497419
210	0x3d3217ca	0.04347972
211	0x3d915e25	0.07098035
212	0x3d1b771f	0.0379554
213	0x3cc4fc9c	0.024046235
214	0x3c322a14	0.01087429
215	0xbc5535c5	-0.013013308
216	0x3be9dbfb	0.0071368194
217	0xbd4c5f48	-0.049895555
218	0x3d523d50	0.051328003
219	0x3cc4e4be	0.024034854
220	0x3cb8b914	0.02254919
221	0xbda5ef2b	-0.08102258
222	0xbda3f1d4	-0.080051094
223	0xbcebdf00	-0.028792858
224	0xbcf9fd94	-0.030516423
225	0xbd116d78	-0.03550479
226	0x3c9797dc	0.01850503
227	0x3ae67054	0.0017581084
228	0x3cd87c60	0.026426494
229	0xbd8d7c77	-0.069085054
230	0x3b4955b3	0.0030721247
231	0xbd21db2f	-0.03951567
232	0xbda61bea	-0.08110793
233	0xbd8857f3	-0.066574
234	0xbcdf8450	-0.027284771
235	0x3d8cf9b6	0.06883566
236	0x3d557349	0.052111898
237	0xbd4357f1	-0.04769129
238	0x3daade80	0.0834322
239	0xbd79ac70	-0.060955465
240	0xbd5330d7	-0.05156025
241	0x3d26c851	0.04071838
242	0xbd17789d	-0.03698026
243	0x3cd66cd6	0.026174944
244	0x3d2d7fea	0.042358316
245	0xbcd6c1cd	-0.026215458
246	0x3c8aa7ac	0.016925655
247	0xbd4371d5	-0.04771598
248	0xbccdba66	-0.025113296
249	0x3d326e9a	0.04356251
250	0xbd6dfceb	-0.05810253
251	0xbd629c54	-0.055324867
252	0xbd6cdd4a	-0.057828225
253	0xbd51961b	-0.051168542
254	0xbd9cd6c5	-0.076581515
255	0x3d258bbf	0.040416475

bias f4 [32]
0	0x3d618e57	0.055067386
1	0xbc8c6b3b	-0.017140975
2	0x3d930d20	0.07180238
3	0xbc336794	-0.010949988
4	0xbc837fee	-0.016052213
5	0x3d31db84	0.043422237
6	0xbd90f4a5	-0.07077912
7	0xbd5405cb	-0.051763337
8	0x3d83aa88	0.06429011
9	0x3d3cde52	0.04611046
10	0xbcecdde4	-0.0289144
11	0x3d4d2184	0.05008079
12	0x3d19d940	0.0375607
13	0x3d81f113	0.063448094
14	0xbc7d0770	-0.015443668
15	0xbcf1f19c	-0.029534154
16	0xbda64349	-0.081183024
17	0xbda0c3ad	-0.07849822
18	0x3d40a973	0.0470366
19	0x3d0030f4	0.031296685
20	0x3cc0c691	0.023532184
21	0x3cbcda25	0.023053238
22	0x3ce1dcc9	0.027571099
23	0xbc9192e8	-0.017770246
24	0x3d8cc63a	0.06873746
25	0x3c8d9969	0.017285066
26	0xbd9905e0	-0.07471824
27	0xbd135de9	-0.03597823
28	0x3d450181	0.048097137
29	0xbcf78faa	-0.030219872
30	0x3be40bdf	0.006959423
31	0x3d9f5efe	0.0778179

weight f4 [32]
0	0x3f800aa0	1.0003242
1	0x3f8026c2	1.0011828
2	0x3f7f71b4	0.9978287
3	0x3f801540	1.0006485
4	0x3f800eb8	1.0004492
5	0x3f8006c3	1.0002064
6	0x3f800858	1.0002546
7	0x3f7faa04	0.998688
8	0x3f801b17	1.0008267
9	0x3f7fef6d	0.9997471
10	0x3f801998	1.000781
11	0x3f7f900c	0.99829173
12	0x3f7fc217	0.9990553
13	0x3f7fd23f	0.99930185
14	0x3f80215b	1.0010179
15	0x3f7fa599	0.99862057
16	0x3f7ff2fd	0.99980146
17	0x3f7f8ab1	0.99821
18	0x3f7fadc9	0.9987455
19	0x3f80303d	1.0014721
20	0x3f800e75	1.0004412
21	0x3f801c47	1.000863
22	0x3f7fa48c	0.99860454
23	0x3f7ffdbe	0.99996555
24	0x3f80075d	1.0002247
25	0x3f800b39	1.0003425
26	0x3f7fa01a	0.9985367
27	0x3f800ce3	1.0003933
28	0x3f7fc022	0.99902546
29	0x3f7ff924	0.99989533
30	0x3f7ff3ee	0.9998158
31	0x3f803797	1.0016965

bias f4 [32]
0	0x39cff6c9	0.00039665986
1	0x3a79eb4e	0.00095336593
2	0x3a2d1ac1	0.0006603413
3	0xb9a28329	-0.0003099677
4	0xba8f13e0	-0.0010915957
5	0x3aa4b35f	0.0012565664
6	0xb7a36daf	-1.948219e-05
7	0xbaff1480	-0.0019461066
8	0x3a16eabd	0.00057570246
9	0xb832d0f5	-4.2633113e-05
10	0x3a5053cf	0.0007947059
11	0xbabf768d	-0.0014607474
12	0xb7992109	-1.8254404e-05
13	0xba62303b	-0.0008628403
14	0xb7950baf	-1.7767625e-05
15	0xba79b42d	-0.00095254445
16	0xba6d9cac	-0.00090641784
17	0xbad4a408	-0.0016223202
18	0xb9f30e1a	-0.00046359078
19	0x3ac48b1c	0.0014995071
20	0x395085d0	0.00019886275
21	0x3a811687	0.0009848633
22	0xbaabfb26	-0.0013121113
23	0x3a21560e	0.0006154486
24	0x3a02402a	0.00049686676
25	0xba44b9c5	-0.00075044885
26	0xba204a8d	-0.00061146246
27	0xb9c61e1f	-0.00037787945
28	0x3880af72	6.136195e-05
29	0x39b10925	0.00033766884
30	0x3a95f653	0.0011441208
31	0xb9dfa5a5	-0.0004265729

running_mean f4 [32]
0	0xbd11cd50	-0.035596192
1	0xbd6f1ce9	-0.05837718
2	0x3e8729c9	0.26399067
3	0x3e21c252	0.15796784
4	0xbd4ee5da	-0.050512172
5	0x3f252e40	0.64523697
6	0xbd34f595	-0.044179518
7	0xbc6aac66	-0.01432333
8	0x3dbf35ef	0.09336459
9	0x3ea144e0	0.3149786
10	0xbe87f45d	-0.26553622
11	0x3b97d282	0.004633249
12	0xbdec9a42	-0.1155286
13	0xbdf0859a	-0.117442325
14	0x3e20fcf7	0.15721498
15	0x3e837899	0.25677946
16	0x3e42ee7f	0.19036292
17	0x3e051b78	0.1299876
18	0x3e475464	0.19465786
19	0x3e990b5a	0.29891473
20	0xbd9c56a2	-0.076337114
21	0x3dd69c6d	0.104790546
22	0x3eb4370d	0.3519825
23	0xbddb29ca	-0.1070133
24	0xbed8c9f0	-0.42341566
25	0x3e5cd23a	0.2156457
26	0xbe4ae096	-0.19812235
27	0x3db70afa	0.089376405
28	0xbd41c2b2	-0.047304817
29	0x3e959708	0.2921679
30	0xbe0533a7	-0.13007985
31	0x3ea4f1de	0.3221578

running_var f4 [32]
0	0x3e16159b	0.1465668
1	0x3dd22c85	0.10262398
2	0x3e65b791	0.22433306
3	0x3e532335	0.20618899
4	0x3e50274e	0.20327494
5	0x3efcbee9	0.49364403
6	0x3e54ad30	0.20769191
7	0x3e26f94e	0.1630604
8	0x3e600c12	0.21879604
9	0x3e94cbfc	0.29061878
10	0x3e1a6aa1	0.15079738
11	0x3e67fbdd	0.22654672
12	0x3e1b148d	0.15144558
13	0x3e14244d	0.14466973
14	0x3e814286	0.25246066
15	0x3e4f861e	0.20266005
16	0x3e22a14b	0.15881841
17	0x3ea20438	0.31643844
18	0x3e53f604	0.20699316
19	0x3e8f9f41	0.2805119
20	0x3deb67da	0.114944175
21	0x3e2bad05	0.1676522
22	0x3e661e5a	0.22472516
23	0x3dce9fe1	0.10089088
24	0x3ec8707d	0.39148322
25	0x3e9ace32	0.3023544
26	0x3e53f6b9	0.20699586
27	0x3dd38e2b	0.10329851
28	0x3e3f0ca7	0.1865717
29	0x3e53c1a3	0.20679335
30	0x3e116b80	0.14201164
31	0x3e43f512	0.19136456

weight f4 [32, 32, 3, 3]
0	0x3d481247	0.048845556
1	0xbb9e8bd7	-0.0048384476
2	0x3d2004b4	0.039066985
3	0x3bee6dfe	0.0072762957
4	0x3cd92153	0.026505148
5	0xbcf692cc	-0.030099295
6	0x3d300819	0.042976473
7	0x3d41137a	0.047137715
8	0x3c5621ba	0.0130695645
9	0x3b0abb7e	0.0021168883
10	0x3b8e2f4c	0.0043391343
11	0xbc8c12b0	-0.017098755
12	0xbca92681	-0.020648243
13	0xbc8e5af9	-0.017377364
14	0x3b9c3115	0.004766593
15	0xbc00934c	-0.007847618
16	0x3c0ec17f	0.008713125
17	0xbcfaf048	-0.030632153
18	0xbd5cf555	-0.053944904
19	0xbc7c299a	-0.015390778
20	0xbbb2484a	-0.0054407464
21	0xbc3ce728	-0.011529721
22	0xbce89344	-0.028390534
23	0x3c88ca24	0.01669795
24	0xbd41e765	-0.047339816
25	0x3cc80faf	0.024421541
26	0x3d5ec123	0.05438341
27	0x3ca4e58d	0.02012899
28	0xbcaa715c	-0.020806007
29	0x3bf50f04	0.0074785966
30	0x3c3db871	0.011579619
31	0xbc34d657	-0.011037431
32	0x3cb5a4d1	0.022173317
33	0x3c54e505	0.012994056
34	0xbce05418	-0.027383849
35	0x3cfb0dc2	0.030646209
36	0xbd142cdd	-0.036175597
37	0x3d250bef	0.040294584
38	0x3d1269d1	0.035745446
39	0xbc9ed5dd	-0.019389087
40	0x3c8ca062	0.01716632
41	0xbd5a5a63	-0.053308856
42	0x3abbfea8	0.0014342861
43	0x3d67208d	0.056427527
44	0x3d193557	0.037404384
45	0x3cc5d57c	0.024149649
46	0xbcbf4346	-0.023347508
47	0xbce4b6d5	-0.027919212
48	0x3bb8372b	0.005621811
49	0xbd30184a	-0.042991914
50	0x3cfdb512	0.03097013
51	0xbd42d593	-0.04756696
52	0xbc0c4a8c	-0.008562695
53	0x3d577854	0.05260499
54	0xbd417c43	-0.047237646
55	0xbcae3c43	-0.02126897
56	0xbd0b918c	-0.03407435
57	0xbd3f94d4	-0.046772793
58	0xbcb69360	-0.02228707
59	0x3d182a8e	0.03714996
60	0xbcb27144	-0.021782525
61	0xbd4f45c8	-0.050603658
62	0x3cb81046	0.022468697
63	0xbd57773a	-0.052603938
64	0x3d551b57	0.052028026
65	0x3ca61fd5	0.02027885
66	0x3ccb08f8	0.02478455
67	0x3d596a2e	0.053079776
68	0xba1e5168	-0.0006039352
69	0xbd05962d	-0.032613922
70	0xbd0ce5e6	-0.034398936
71	0xbcb4286b	-0.021991929
72	0x3d6513f5	0.055927236
73	0xbd14f5c7	-0.036367204
74	0xbd1f91a0	-0.03895724
75	0x3c88d3b6	0.016702514
76	0xbd61a9c8	-0.055093557
77	0xbd23ef47	-0.040023115
78	0x3ca2495d	0.019810373
79	0xba80ab58	-0.0009816689
80	0xbd653cf1	-0.05596632
81	0x3d0da8dc	0.034584865
82	0x3d32ecc2	0.04368282
83	0xbd44f52b	-0.048085373
84	0xbb7b035a	-0.0038301558
85	0xbd0524c7	-0.032505777
86	0x3c9f0cd1	0.019415291
87	0x3d01ea55	0.031717617
88	0x3d66c0ba	0.056336142
89	0x3b159b38	0.0022828113
90	0x3d0d3b7c	0.034480557
91	0xbd0bcceb	-0.034130972
92	0xbd2aa040	-0.041656733
93	0xbd240c2e	-0.040050678
94	0x3d5f3705	0.05449583
95	0x3b4d81ea	0.0031357952
96	0x3d604e75	0.054762322
97	0xbcf7e685	-0.030261287
98	0x3c41766d	0.01180802
99	0xbd35a97e	-0.044351093
100	0xbc243de7	-0.010024524
101	0x3c9daa33	0.019246196
102	0x3cab59f5	0.020916918
103	0x3c48e1f9	0.012260907
104	0x3cd5e918	0.026112124
105	0xbc0f4f92	-0.008746998
106	0x3d013d4e	0.031552605
107	0x3c48a1a2	0.0122455675
108	0xbb97f884	-0.0046377797
109	0xbd2cc585	-0.042180557
110	0xbceecc53	-0.029150164
111	0xbbbd3875	-0.0057745525
112	0xbcb406b2	-0.021975849
113	0x3cd3c669	0.025851445
114	0xbcf1f5ef	-0.029536216
115	0xbc039983	-0.0080322055
116	0x3d20feb4	0.039305404
117	0x3d4a86a5	0.049444813
118	0x3d36d7b1	0.044639293
119	0xbd0bc2eb	-0.034121435
120	0x3ca462b0	0.02006659
121	0xbd2d9139	-0.042374823
122	0xbc42acd3	-0.011882025
123	0x3ce1d7fa	0.027568806
124	0xbd5979ff	-0.05309486
125	0x3c450afe	0.0120265465
126	0xbd5b1461	-0.05348623
127	0x3d02f789	0.03197435
128	0xbd0e7ca9	-0.034786854
129	0x3d30aa2e	0.043131046
130	0xbcba2214	-0.022721328
131	0xbd5e13f3	-0.054218244
132	0x3d49d517	0.049275484
133	0x3ce1a0dc	0.027542524
134	0x3b34543b	0.0027516026
135	0x3b3542be	0.002765819
136	0xbd015467	-0.031574633
137	0xbd285cdc	-0.041104183
138	0x3c88865b	0.016665628
139	0xba971ffd	-0.0011529919
140	0xbc0b04c4	-0.008485023
141	0xbd0cae1c	-0.03434573
142	0xbc3bf2cd	-0.011471462
143	0x3c82d439	0.015970336
144	0x3d0db690	0.034597933
145	0x3d10b96f	0.035333093
146	0xbd1d4708	-0.03839782
147	0x3d218ead	0.039442707
148	0x3c11c511	0.008897082
149	0x3d396cad	0.045269657
150	0x3c5fa7ed	0.0136508765
151	0xbc5f3d99	-0.013625526
152	0x3c3df03a	0.011592919
153	0xbd01aabd	-0.03165697
154	0x3cd07f8b	0.025451442
155	0xbb8bb920	-0.004264012
156	0x3cf1fdf7	0.029540045
157	0x3d3425bc	0.0439813
158	0x3b3f9f60	0.0029239282
159	0x3c6e2b0b	0.014536629
160	0x3d052fe6	0.032516383
161	0x3d38a1e1	0.045076255
162	0xbd203311	-0.0391112
163	0xbd3ab1ee	-0.045579843
164	0xbd49ce80	-0.0492692
165	0x3bd0c74e	0.006371415
166	0xbc876930	-0.01652965
167	0x3d1b76a7	0.037954953
168	0x3cedb1e9	0.029015498
169	0x3d52fdeb	0.051511686
170	0xbd09122d	-0.0334646
171	0xbd36cab4	-0.044626907
172	0xbbe66ac3	-0.00703177
173	0x3bc121f1	0.0058939387
174	0x3d3fe9b7	0.046853747
175	0xbc81c7f6	-0.01584242
176	0x3d0b95f9	0.034078572
177	0x3c3e2041	0.01160437
178	0x3c7583c9	0.014985033
179	0xbc3118fc	-0.010809179
180	0x3cfca9f6	0.030842762
181	0x3cd62778	0.026141867
182	0x3d5ee133	0.054413985
183	0x3b8d7ea7	0.0043180767
184	0x3c096cc3	0.008387747
185	0x3d1ebd51	0.038754765
186	0x3d19bd44	0.037534013
187	0x3c115307	0.008869893
188	0x3d4c19f0	0.049829423
189	0x3d0b0b40	0.033946276
190	0x3c0b1ca2	0.008490713
191	0xbca1fec8	-0.01977481
192	0x3d27d54d	0.040974904
193	0xbd6480d7	-0.055786934
194	0xbce21f31	-0.027602764
195	0x3cf4f53f	0.029902099
196	0x3b8bcfe1	0.0042667245
197	0x3d4763a5	0.048679013
198	0x3d20e1d9	0.039277885
199	0x3c9e56e3	0.01932854
200	0xbc941e35	-0.01808081
201	0x3cfe6326	0.031053137
202	0xbd0e2d38	-0.034711093
203	0x3c81f0d9	0.015861915
204	0x3be280cf	0.006912328
205	0xbd3350a6	-0.043778084
206	0x3b85bd08	0.004081372
207	0x3ba5bb48	0.005057726
208	0xbca4443a	-0.020052064
209	0xbc83ef83	-0.016105419
210	0x3d36aa6a	0.044596113
211	0xbcc0ddba	-0.023543227
212	0x3d00d887	0.031456497
213	0xbc9933c5	-0.018701443
214	0xbd061727	-0.032736924
215	0x3d2f74fa	0.042836167
216	0xbd55ac81	-0.052166466
217	0xbd28c98e	-0.041207843
218	0x3d447caa	0.04797045
219	0xbd634252	-0.05548317
220	0xbd103180	-0.035203457
221	0xbd12a9a8	-0.035806328
222	0xbc6c916e	-0.01443897
223	0xbcc2cbba	-0.023778785
224	0xbd3cc7a2	-0.046088822
225	0x3c875617	0.016520543
226	0x3d0a369c	0.033743486
227	0xbc70bd8b	-0.014693628
228	0xbd4120a0	-0.047150254
229	0xbc04bae1	-0.008101196
230	0xbd2c7f0e	-0.042113356
231	0xbcb99f1d	-0.022658879
232	0xbcb8921e	-0.022530612
233	0xbd3b43ee	-0.04571908
234	0xbd37bee6	-0.04485979
235	0x3cf61fb2	0.03004441
236	0xbd496211	-0.04916579
237	0xbcc1e04b	-0.023666522
238	0xbd52d02c	-0.05146806
239	0xbd208514	-0.039189413
240	0x3c6b453b	0.014359768
241	0x3ce6b97d	0.02816462
242	0x3cdb20cb	0.026749035
243	0x3cf91009	0.030403154
244	0xbc86bf8c	-0.016448759
245	0x3d4df515	0.050282557
246	0xbcb111fc	-0.02161502
247	0xbd51633e	-0.051120035
248	0xbd292e07	-0.04130366
249	0x3d41f179	0.047349427
250	0x3d030c83	0.031994354
251	0xbd648ca3	-0.055798184
252	0x3cdb9623	0.02680499
253	0xbcee1299	-0.029061602
254	0xbd6fefaf	-0.05857819
255	0xbd71bf89	-0.059020553

bias f4 [32]
0	0x3ce31989	0.027722137
1	0xbd532ebe	-0.05155825
2	0x3d3585d2	0.044317074
3	0xbd6d3151	-0.05790836
4	0xbd182f01	-0.0371542
5	0xbd3ca789	-0.04605821
6	0xbd1df2d7	-0.03856167
7	0x3a0ba0cf	0.00053263915
8	0x3d5f1930	0.05446738
9	0xbcfbf495	-0.030756274
10	0xbd57d081	-0.05268908
11	0x3d1caf68	0.038253218
12	0xbc6d4253	-0.014481145
13	0x3ce50e92	0.02796105
14	0xbcfd41dd	-0.030915195
15	0xbcc632e7	-0.024194194
16	0x3c4a6add	0.01235458
17	0xbd2c3ccc	-0.042050168
18	0xbd16138c	-0.036639735
19	0xbbae097a	-0.0053111883
20	0xbd1b2623	-0.037878167
21	0x38a3dd8c	7.813712e-05
22	0x3c6d665b	0.0144897355
23	0xbc98493c	-0.018589608
24	0x3d3627be	0.044471495
25	0xbd38d5bb	-0.045125704
26	0xbcf08950	-0.02936235
27	0x3d0b7d13	0.034054827
28	0x3cc6b14a	0.02425446
29	0x3d1472f5	0.036242444
30	0x3d05198c	0.032495067
31	0xbd221e9f	-0.039579984

weight f4 [32]
0	0x3f80051a	1.0001557
1	0x3f7fefa9	0.9997507
2	0x3f8019d8	1.0007887
3	0x3f7fd091	0.9992762
4	0x3f802bad	1.0013329
5	0x3f800e24	1.0004315
6	0x3f7fe6a4	0.99961305
7	0x3f802108	1.001008
8	0x3f7fbd54	0.99898267
9	0x3f7fce48	0.99924135
10	0x3f7ff0e4	0.99976945
11	0x3f800445	1.0001303
12	0x3f7fa172	0.9985572
13	0x3f7ff378	0.9998088
14	0x3f803165	1.0015074
15	0x3f80059a	1.000171
16	0x3f8017d5	1.0007273
17	0x3f7fb1c6	0.99880636
18	0x3f800f12	1.0004599
19	0x3f7ff80b	0.9998786
20	0x3f7ff1eb	0.9997851
21	0x3f7f979e	0.99840724
22	0x3f8026cf	1.0011843
23	0x3f800182	1.000046
24	0x3f802abb	1.001304
25	0x3f7fd91d	0.99940664
26	0x3f801ca4	1.000874
27	0x3f80000c	1.0000014
28	0x3f801acc	1.0008178
29	0x3f7f95fe	0.99838245
30	0x3f8027b1	1.0012113
31	0x3f8005d5	1.000178

bias f4 [32]
0	0xb983a61c	-0.00025110028
1	0x3a1f8440	0.00060850754
2	0x3a6681e1	0.0008793157
3	0xbaa07ecc	-0.001224482
4	0x390b3a91	0.0001327789
5	0x395bb5ac	0.00020953146
6	0xbaea3879	-0.0017869613
7	0xba24cb45	-0.0006286393
8	0xba421d88	-0.0007404913
9	0x3a8de452	0.0010825491
10	0xb9169c79	-0.00014363405
11	0xb8e1cb13	-0.000107666616
12	0xbab3cbab	-0.0013717314
13	0x3b0de696	0.0021652333
14	0x3ab22538	0.0013591414
15	0xb9f0bfbe	-0.00045919226
16	0x3981eabe	0.00024779694
17	0x3a58517d	0.0008251889
18	0x3a1b2590	0.0005918378
19	0x39962738	0.0002863945
20	0x3aa791b6	0.0012784514
21	0xb9340e28	-0.00017171411
22	0x39a96341	0.00032308142
23	0xb9d24294	-0.00040103926
24	0x3ae87828	0.0017736005
25	0xba7500c5	-0.0009346123
26	0x3aa3f2d8	0.0012508286
27	0x3ab5242d	0.0013819985
28	0x3aa9d2a7	0.0012956456
29	0xba4eb45e	-0.0007885153
30	0x3ab7afe1	0.0014014208
31	0xb98f61ec	-0.00027348043

running_mean f4 [32]
0	0x3d518cc6	0.051159643
1	0x3e050352	0.12989548
2	0xbd28d027	-0.041214135
3	0x3c90f870	0.01769659
4	0x3e890d14	0.2676779
5	0xbc721573	-0.014775622
6	0x3d9ad5be	0.07560299
7	0x3d646000	0.055755615
8	0x3dcf8e16	0.101345226
9	0xbd97dac5	-0.07414774
10	0xbd2e9b16	-0.04262837
11	0x3dfc77e1	0.123275526
12	0x3ec74ee1	0.38927367
13	0x3e1e2443	0.1544352
14	0x3c442718	0.011972211
15	0x3df50827	0.119644456
16	0x3d275252	0.04084999
17	0xbc399276	-0.011326423
18	0xbe613c93	-0.21995763
19	0xbb7c63e2	-0.0038511683
20	0x3ba51ed6	0.0050390763
21	0xbd071adf	-0.03298461
22	0x3e1043f7	0.14088427
23	0x3d0ccc3c	0.03437446
24	0x3d079f55	0.033110935
25	0x3dc59fa6	0.09649591
26	0xbeab217e	-0.3342399
27	0xbd8b75bf	-0.06809568
28	0x3e476ecd	0.19475861
29	0x3e83d87f	0.2575111
30	0x3ea445b8	0.3208444
31	0xbd1fa106	-0.038971923

running_var f4 [32]
0	0x3da821a8	0.082095444
1	0x3dc10f43	0.09426739
2	0x3e076cea	0.13225141
3	0x3e036d19	0.12834586
4	0x3e8c0997	0.27351066
5	0x3dc1312f	0.09433209
6	0x3ded7ace	0.11595689
7	0x3db3f604	0.08787158
8	0x3e09886b	0.13430946
9	0x3d997cf5	0.07494537
10	0x3dc9e5ad	0.0985826
11	0x3e13251f	0.1436963
12	0x3e3e0855	0.18557866
13	0x3ea266d3	0.31719074
14	0x3dd4f7bb	0.10398813
15	0x3e2fe922	0.17178777
16	0x3e1c0c85	0.15239151
17	0x3dd1ad61	0.102381475
18	0x3e5b4286	0.21412095
19	0x3d9c3e61	0.07629085
20	0x3dbc94e7	0.09208088
21	0x3da33f98	0.07971114
22	0x3e43edfb	0.19133751
23	0x3d9b5463	0.07584455
24	0x3e1fe2b0	0.15613818
25	0x3e1dbb22	0.15403417
26	0x3e96f56f	0.29484126
27	0x3e92f592	0.2870298
28	0x3e88b4ea	0.26700526
29	0x3e28067b	0.16408722
30	0x3e842302	0.2580796
31	0x3de408ae	0.11134468
